runs/perovskite_multiscale_dataset_3/ae1_bg_predictor_enc_l_12_l1_1em2_tanh_pred_p_0_1_100_relu_dec_15_linear_seed_0_lr_1em3_bs_10_1500_epochs_mae_mtl_k_fold_4_xavier_normal/checkpoints/epoch=1214-total_val_loss=0.19.ckpt (torch, 36546 bytes, 21 tensors)

submodules.encoder.0.weight f4 [12, 15]
0.00071587483 -0.00027288534 -0.0005643642 0.00047443397 0.0004839045 0.07961142 0.15516627 -0.0007649381
-0.0004042618 -0.00016386923 8.235299e-05 0.000105925676 -9.626373e-05 -9.907124e-05 -0.00010331694 0.0028659021
-0.00078441575 -0.00038462447 0.0005065787 7.004998e-05 -0.20290314 0.13972285 -0.16520135 -0.30082223
-0.0017119097 -0.0015481738 0.0036124326 0.00091880676 0.00068630883 0.0014316555 -0.0006714293 -0.0005545699
0.0003523101 -0.00010305812 -0.00022867683 0.07224317 -0.03760541 0.019779854 -0.038256187 -0.12480998
-0.0002288594 -3.8953647e-05 0.00011653929 0.000110568246 0.00020853907 -4.450427e-06 0.0010531871 0.00028016913
-0.00010948352 -0.00029743425 -0.0020194587 0.00013841694 -8.640971e-06 0.0013062271 0.0010447898 0.00024112736
-0.0009036467 0.0004105306 0.0005958496 2.932323e-05 0.0007430477 -0.026816407 0.0011465142 -0.086220555
-0.0011665769 0.0007488574 -0.000573943 -0.0011174356 0.00038138524 0.0003643951 0.0006811565 0.0006091368
-0.0006292052 -0.00072773354 -0.00084844977 0.0005381113 -0.0012553489 -0.002328295 0.27150112 0.051566225
0.0005709787 -0.00042850146 -0.00044036412 -0.00034927353 -0.00018526136 -0.0010600925 -0.00069862953 0.0008959593
0.00091999565 0.0011591814 -4.588062e-05 0.0010754336 0.00056744926 -0.00072806573 -0.0006013359 -8.7382425e-05
0.00012775179 0.20420825 -0.00093547825 -0.00096908107 0.00078254583 0.00038083334 -0.0006323884 -0.00063654495
-0.00075603207 0.27640393 0.0005316693 0.00057412294 -0.0009390568 -0.00050957274 0.0025527044 0.002970561
-0.0013145586 -0.00069993734 0.0003835041 -0.0006327712 -0.0007002315 0.00084355136 0.0008605373 0.0007034453
-4.30784e-05 -0.0009088827 -7.0936454e-05 3.514232e-05 9.567234e-05 -0.0014245382 -0.00057940744 0.0018918486
0.001331929 0.0009791311 -0.00046013552 -0.15383165 0.106341414 0.002927451 0.0007636613 0.00068169093
0.00013146701 6.888627e-05 -0.00027885372 -2.3727955e-05 -0.00062539673 -0.0010520415 -0.00012370967 0.000762892
0.0004024052 0.29167238 0.00020609392 -0.00048616252 -0.00038857147 -0.0012460803 -0.0016719175 0.19486713
0.00025985285 0.0002357701 -0.00026410935 -0.0016966887 -0.00023557144 0.0006372387 -0.0007505644 -0.0008888277
-0.00015482599 -0.00010560266 0.00016765305 0.00022052893 0.0001274282 -6.790027e-05 -0.00087660004 -0.0005409921
0.00077008683 0.00060433586 0.0010640791 0.0011268404 -0.0005626473 -0.0005067405 7.441339e-05 5.1972675e-06
0.08375727 -0.00037675892 -0.00027565903 -4.775321e-05
00000000: 8ca9 3b3a 0d12 8fb9 d7f1 13ba 73bd f839
00000010: 90b4 fd39 500b a33d e8e3 1e3e 2086 48ba
00000020: 1af3 d3b9 50d4 2bb9 edb4 ac38 6a24 de38
00000030: 32e1 c9b8 78c4 cfb8 dcab d8b8 dcd1 3b3b
00000040: 40a1 4dba 6ca7 c9b9 eccb 043a cce7 9238
00000050: d7c5 4fbe 8213 0f3e 8b2a 29be 5f05 9abe
00000060: 2862 e0ba 18ec caba 90be 6c3b 14dc 703a
00000070: 68e9 333a 63a6 bb3a dc02 30ba 8e60 11ba
00000080: 43b6 b839 e820 d8b8 f8c8 6fb9 3af4 933d
00000090: 2108 1abd 5c09 a23c 85b2 1cbd 609c ffbd
000000a0: faf9 6fb9 2962 23b8 8e66 f438 e0e0 e738
000000b0: 48ab 5a39 e054 95b6 180b 8a3a aae3 9239
000000c0: 849a e5b8 f3f0 9bb9 e558 04bb 0424 1139
000000d0: b0f8 10b7 b535 ab3a 54f1 883a 22d7 7c39
000000e0: b4e2 6cba 7c3c d739 ca32 1c3a 28fb f537
000000f0: 16c9 423a 15ae dbbc a246 963a 6794 b0bd
00000100: d3e7 98ba f84e 443a aa74 16ba eb76 92ba
00000110: a9f4 c739 480c bf39 a48f 323a 7bae 1f3a
00000120: 3ff1 24ba 5fc5 3eba 806a 5eba 0a10 0d3a
00000130: 858a a4ba 4f96 18bb 3202 8b3e 1b37 533d
00000140: bbad 153a 7ea8 e0b9 ace0 e6b9 b31e b7b9
00000150: b842 42b9 cdf2 8aba 3c24 37ba d0de 6a3a
00000160: dd2b 713a acef 973a f16f 40b8 90f5 8c3a
00000170: e0c0 143a aadb 3eba f8a2 1dba 1541 b7b8
00000180: 1cf5 0539 f81b 513e e23a 75ba ee09 7eba
00000190: c323 4d3a 96aa c739 dec6 25ba cfdd 26ba
000001a0: 7430 46ba d184 8d3e b95f 0b3a bd80 163a
000001b0: 092b 76ba d994 05ba 464b 273b bead 423b
000001c0: 444d acba 007c 37ba 0d11 c939 8ee0 25ba
000001d0: be8f 37ba c621 5d3a ae95 613a 6a67 383a
000001e0: 14af 34b8 1642 6eba b8c3 94b8 c765 1338
000001f0: b2a3 c838 92b7 baba 60e3 17ba e8f7 f73a
00000200: 1f94 ae3a 3056 803a 583e f1b9 0b86 1dbe
00000210: 87c9 d93d 7ada 3f3b 7130 483a 81b3 323a
00000220: 68da 0939 0977 9038 1d33 92b9 650b c7b7
00000230: aaf1 23ba a8e4 89ba 10b8 01b9 d1fc 473a
00000240: e9f9 d239 1556 953e ea1a 5839 a1e3 feb9
00000250: 2eb9 cbb9 8453 a3ba 3e24 dbba 408b 473e
00000260: dc3c 8839 0e39 7739 2878 8ab9 6d63 deba
00000270: ba03 77b9 5e0c 273a 86c1 44ba 3800 69ba
00000280: c958 22b9 ff76 ddb8 06cc 2f39 c93d 6739
00000290: 3f9e 0539 ae65 8eb8 a2cb 65ba 5ed1 0dba
000002a0: a7df 493a 4b6c 1e3a 9278 8b3a 7db2 933a
000002b0: 9f7e 13ba c8d6 04ba 620e 9c38 3064 ae36
000002c0: ee88 ab3d ba87 c5b9 5486 90b9 9e4a 48b8

submodules.encoder.0.bias f4 [12]
0.037168942 0.114332795 0.0049841306 0.006404684 -0.03641692 -0.07048974 0.017470425 -0.010078383
-0.16011173 -0.064439744 -0.09291923 0.055986587
00000000: 763e 183d 5027 ea3d eb51 a33b 62de d13b
00000010: e929 15bd ed5c 90bd 231e 8f3c cd1f 25bc
00000020: 54f4 23be fcf8 83bd 704c bebd 3152 653d

submodules.bg_pred.0.weight f4 [100, 12]
0.05982196 0.39220145 0.07633252 -0.27657598 -0.08832822 -0.003214495 -0.34859186 0.13514854
-0.114863135 -0.32203323 0.11074507 -0.22416472 -0.14576907 -0.31245717 0.08930333 0.18132412
0.30049714 -0.3165744 0.27243796 -0.33119184 0.029758688 -0.05918213 0.2946877 -0.32078496
-0.07736424 0.094943546 0.4910532 -0.013942547 0.057482753 -0.24673383 0.1055655 0.48523474
-0.18510564 0.042850647 0.29993713 0.13209383 -0.22710462 -0.5531019 0.5816103 -0.017693257
-0.3499277 -0.107570365 0.13257708 -0.41746885 0.11227239 0.0054511162 0.19989207 -0.03654581
0.8019676 0.14071348 0.14447905 -0.025377538 -0.09345888 0.091608636 -0.13756663 -0.10138009
-0.0394684 -0.076125786 -0.35808858 0.1036998 0.21224698 0.13189442 -0.026976991 -0.071459204
0.65841603 0.11357884 0.27103925 0.13080736 0.035483498 -0.3325861 -0.55652803 -0.08465279
0.11501741 0.08345376 0.3897188 0.4179457 0.48576838 -0.05439971 -0.0373168 0.24375978
0.3027279 -0.54732436 0.008171104 -0.01641704 -0.065962 0.37200928 0.42964754 -0.19406046
-0.0002864278 0.26706055 -0.009617089 -0.24610256 -0.06843077 -0.09465782 0.17314717 0.0053666285
0.0797856 0.42506734 -0.04929246 0.054473642 -0.1910267 0.12810774 0.086859494 -0.18051268
-0.031775396 -0.071186595 0.07144783 0.09052554 -0.1657679 0.3056056 -0.36068022 -0.574515
0.2931255 -0.05972219 -0.30948022 0.0072232545 0.3145221 -0.29368982 0.14005767 -0.2337258
-0.14082062 0.3686668 -0.0044854623 -0.14023145 0.22643541 -0.07592579 -0.06411353 0.027567247
0.15409848 -0.36061117 -0.30289003 -0.15884446 -0.17075807 0.29337937 0.31425297 0.0066502155
-0.3161788 0.17527649 -0.07862501 -0.18589583 -0.16698271 -0.22038865 0.23439366 0.10086322
-0.53100306 0.32171533 0.23448054 -0.23786752 -0.049583793 -0.00062585797 -0.05208332 -0.29740515
0.01972985 0.20391311 0.25465617 0.099554576 -0.45266294 0.21997687 0.22237825 -0.09730672
-0.10330511 -0.008744211 0.018070802 0.32568282 -0.13559207 -0.07646195 0.062385768 -0.10768115
0.19188623 0.5553497 -0.119288824 -0.12074387 -0.06754136 0.1527195 -0.14988442 -0.2244666
-0.02981268 -0.04171391 0.09873674 0.07515465 -0.13738792 -0.33579826 -0.38429245 0.05937357
0.23818766 -0.16399151 -0.0057682856 -0.4101024 -0.048711494 0.025612475 0.009168629 0.18877675
0.21736117 0.6305805 -0.28757232 0.20241919 -0.1509325 0.11806307 -0.021148684 -0.46068352
0.1451129 -0.044906158 0.29098636 -0.35557356 0.12783761 0.53329647 -0.057412818 0.036075808
-0.21538007 0.047647372 -0.011912112 -0.18876427 0.10789003 0.031353004 0.09848625 0.18179
0.03057577 0.29567778 -0.5359157 0.38582304 0.25344607 -0.08137566 -0.21841435 0.39204985
0.083650514 -0.56301767 0.30418432 -0.16884662 -0.27700248 0.3427599 0.22410826 0.054359067
0.02005511 0.09956505 0.15284954 -0.020262746 -0.1412285 -0.23848149 0.13850218 0.1546388
0.35368946 -0.040107895 -0.116904296 -0.06514178 -0.115708485 0.17651568 0.31412372 0.40781832
0.3681824 -0.32641706 -0.1331627 -0.12574239 -0.35858715 0.33863413 0.40061247 -0.16803731
00000000: df07 753d a1ce c83e 3954 9c3d 5e9b 8dbe
00000010: 6de5 b4bd 47aa 52bb a27a b2be 6164 0a3e
00000020: 5d3d ebbd 8ae1 a4be 50ce e23d 708b 65be
00000030: 7d44 15be 63fa 9fbe aae4 b63d 08ad 393e
00000040: c3da 993e 0a16 a2be fd7c 8b3e fa91 a9be
00000050: 7ec8 f33c f668 72bd 4ee1 963e ed3d a4be
00000060: 2571 9ebd c371 c23d 536b fb3e 486f 64bc
00000070: 0973 6b3d cba7 7cbe ba32 d83d b070 f83e
00000080: 558c 3dbe 2984 2f3d 5c91 993e 9b43 073e
00000090: 1d8e 68be 1698 0dbf 6ae4 143f 73f1 90bc
000000a0: b929 b3be da4d dcbd 49c2 073e 7abe d5be
000000b0: 11ef e53d 479f b23b 82b0 4c3e 0fb1 15bd
000000c0: c04d 4d3f 3217 103e 51f2 133e 8ee4 cfbc
000000d0: 5f67 bfbd 4f9d bb3d 44de 0cbe 5da0 cfbd
000000e0: 9ea9 21bd d6e7 9bbd 6357 b7be 9060 d43d
000000f0: 4657 593e 550f 073e dafe dcbc 3459 92bd
00000100: f48d 283f 069c e83d a8c5 8a3e 5df2 053e
00000110: 2557 113d ba48 aabe 9f78 0ebf 715e adbd
00000120: 3f8e eb3d cee9 aa3d 3989 c73e fbfc d53e
00000130: a2b6 f83e 3bd2 5ebd 80d9 18bd 2a9c 793e
00000140: 27ff 9a3e 731d 0cbf 18e0 053c 077d 86bc
00000150: 1617 87bd 0078 be3e c3fa db3e c9b7 46be
00000160: b02b 96b9 29bc 883e ff90 1dbc 4f02 7cbe
00000170: 6e25 8cbd f6db c1bd 7e4d 313e 8bda af3b
00000180: a266 a33d 6da2 d93e e4e6 49bd c11f 5f3d
00000190: 819c 43be ad2e 033e 64e3 b13d 51d8 38be
000001a0: eb26 02bd 47ca 91bd 3d53 923d 7465 b93d
000001b0: 0fbf 29be 5678 9c3e 14ab b8be 6a13 13bf
000001c0: 8c14 963e 419f 74bd 3174 9ebe 0db1 ec3b
000001d0: 0a09 a13e 835e 96be 476b 0f3e d155 6fbe
000001e0: 4833 10be e5c1 bc3e c9fa 92bb d598 0fbe
000001f0: afde 673e fb7e 9bbd f44d 83bd b5d4 e13c
00000200: fecb 1d3e 07a2 b8be 6714 9bbe 1fa8 22be
00000210: 34db 2ebe d235 963e c4e5 a03e 0dea d93b
00000220: 30e2 a1be ae7b 333e 2606 a1bd 7a5b 3ebe
00000230: 84fd 2abe 90ad 61be e404 703e 6091 ce3d
00000240: d1ef 07bf dfb7 a43e ab1b 703e 8b93 73be
00000250: 6018 4bbd 9e10 24ba 5255 55bd 7d45 98be
00000260: 7fa0 a13c 99ce 503e 4b62 823e 45e3 cb3d
00000270: 70c3 e7be 9e41 613e 20b7 633e bf48 c7bd
00000280: a191 d3bd e143 0fbc 3809 943c e6bf a63e
00000290: a6d8 0abe 1598 9cbd 3888 7f3d ef87 dcbd
000002a0: d37d 443e 662b 0e3f b34d f4bd 9048 f7bd
000002b0: 2053 8abd 8062 1c3e 4d7b 19be 93da 65be
000002c0: b939 f4bc 34dc 2abd 7d36 ca3d aeea 993d
000002d0: 6baf 0cbe c0ed abbe fbc1 c4be b331 733d
000002e0: 77e7 733e 64ed 27be e303 bdbb f1f8 d1be
000002f0: b485 47bd 41d1 d13c 0438 163c b14e 413e
00000300: ed93 5e3e b96d 213f ae3c 93be fa46 4f3e
00000310: 0d8e 1abe 0dcb f13d 0140 adbc b6de ebbe
00000320: 7a98 143e 85ef 37bd 2afc 943e bd0d b6be
00000330: dde7 023e 1e86 083f b429 6bbd 3ac4 133d
00000340: 988c 5cbe e429 433d 052b 43bc 6c4b 41be
00000350: 73f5 dc3d 026c 003d 29b3 c93d 2827 3a3e
00000360: 0a7a fa3c 1463 973e c531 09bf 998a c53e
00000370: afc3 813e 48a8 a6bd 03a8 5fbe c2ba c83e
00000380: f650 ab3d ed21 10bf 0cbe 9b3e 21e6 2cbe
00000390: 45d3 8dbe 3a7e af3e a37c 653e 9da7 5e3d
000003a0: 9d4a a43c c3e8 cb3d 9784 1c3e 0ffe a5bc
000003b0: 349e 10be 7e34 74be 84d3 0d3e a259 1e3e
000003c0: c916 b53e 2d48 24bd 856b efbd 0e69 85bd
000003d0: 92f8 ecbd 87c0 343e d3d4 a03e 90cd d03e
000003e0: 6782 bc3e 2320 a7be ce5b 08be 9dc2 00be
000003f0: bc98 b7be 7461 ad3e 141d cd3e f911 2cbe

submodules.bg_pred.0.bias f4 [100]
0.165198 -0.12468215 -0.002252953 -0.041718993 -0.11328321 -0.032485615 0.076253004 0.09285829
0.007964768 -0.05969426 0.074361295 0.058958013 0.02550205 0.09349715 0.075615816 -0.12704785
0.056165416 0.07352722 -0.116760366 0.052507028 -0.09631247 -0.3259696 -0.057958916 -0.1208161
0.025430033 0.1821333 -0.18523072 0.10428868 0.18204547 -0.18680646 -0.038539544 -0.11181241
-0.32734126 0.069175236 -0.21501736 0.076167315 -0.21928656 0.03412325 0.12997377 0.082887985
-0.03329909 -0.23582219 0.17213385 -0.38799658 0.13267708 0.044206735 -0.02939497 0.13687901
-0.073893555 0.11721892 -0.18053922 0.15340866 0.15719192 -0.076983504 -0.11165313 -0.12119909
0.13004096 -0.367337 -0.11244685 0.18875445 0.04495883 -0.040176634 -0.10625515 0.14107846
0.088765465 -0.025939506 -0.02233733 0.026452761 0.061891574 0.09255184 0.19867544 -0.19145958
-0.011293906 -0.11574506 0.12329853 -0.1341347 -0.2385461 -0.11801964 0.1538866 -0.16216327
0.09927364 -0.18071222 0.030648548 -0.28291312 -0.3789235 -0.109353274 -0.010770448 0.06453948
-0.33355987 -0.075300016 -0.18649489 0.08513619 -0.11437348 0.046627678 -0.17424564 0.051646106
0.04864551 0.07782197 0.045344457 -0.11852882
00000000: aa29 293e 5b59 ffbd 47a6 13bb 89e1 2abd
00000010: 0701 e8bd a30f 05bd 892a 9c3d 7d2c be3d
00000020: a97e 023c f881 74bd bc4a 983d f57d 713d
00000030: ade9 d03c 6f7b bf3d 77dc 9a3d d518 02be
00000040: b50d 663d 7095 963d 0f20 efbd 9c11 573d
00000050: 793f c5bd 7de5 a6be 5466 6dbd 6e6e f7bd
00000060: a552 d03c 2781 3a3e 1fad 3dbe 4e95 d53d
00000070: 216a 3a3e 314a 3fbe a4db 1dbd e8fd e4bd
00000080: 4699 a7be bfab 8d3d 832d 5cbe 9cfd 9b3d
00000090: a88c 60be d2c4 0b3d d817 053e 2dc1 a93d
000000a0: a064 08bd 5f7b 71be db43 303e 7da7 c6be
000000b0: 80dc 073e 1f12 353d b8cd f0bc 032a 0c3e
000000c0: 8155 97bd 7910 f03d 46df 38be 2917 1d3e
000000d0: ebf6 203e 87a9 9dbd 65aa e4bd 3a37 f8bd
000000e0: 7529 053e 9813 bcbe 894a e6bd d948 413e
000000f0: c026 383d 4190 24bd 4d9c d9bd df76 103e
00000100: abca b53d 167f d4bc c7fc b6bc 76b3 d83c
00000110: 0582 7d3d d28b bd3d 9371 4b3e fb0d 44be
00000120: 130a 39bc bf0b edbd f183 fc3d 9b5a 09be
00000130: 6e45 74be 48b4 f1bd 7394 1d3e 210e 26be
00000140: fa4f cb3d a00c 39be aa12 fb3c fdd9 90be
00000150: 4302 c2be 9cf4 dfbd 8876 30bc 462d 843d
00000160: 5cc8 aabe e536 9abd 84f8 3ebe e25b ae3d
00000170: a53c eabd aafc 3e3d 736d 32be de8a 533d
00000180: 8440 473d 2061 9f3d 1cbb 393d 3dbf f2bd

submodules.bg_pred.3.weight f4 [1, 100]
0.12584779 -0.25738552 0.20087294 -0.4565143 0.20509948 0.17110807 0.15951757 0.14336264
0.16209528 0.369898 0.13104862 0.15815023 0.13514712 0.17519297 0.1371245 -0.31749514
0.20045449 0.13335927 0.4665045 0.24932167 0.17101197 -0.8119994 0.4091611 0.2466874
0.21002913 0.117776915 -0.63993704 0.101344414 0.114673205 -0.3445122 0.24601911 -0.29660037
-0.80133176 0.12531121 -0.6039288 0.22329213 0.7170117 0.22105879 0.10322765 0.10202633
0.21046512 -0.48545364 0.10056664 -1.2746644 0.11618291 0.17462352 -0.37702796 0.119066656
0.34009615 0.123697855 -0.6250365 0.10202665 0.11351724 -0.26345584 0.08262233 -0.08819711
0.10690979 -1.4632057 -0.7205465 0.09888415 0.17015745 0.23250052 -0.2944802 0.10237539
0.1146305 -0.25377256 0.22610801 0.17438781 0.1338773 0.13664147 0.09620531 -0.31022918
0.21625303 -0.4083269 0.12589839 0.31530893 -0.76909447 -0.29991347 0.14348131 -0.4101931
0.15945427 -0.5597381 0.12606184 -2.1144445 -0.92550355 -0.32098496 0.20429677 0.16748069
-0.5719776 -0.14052626 -0.4438802 0.10621207 -0.22456932 0.16103075 -0.26058424 0.15419996
0.25178537 0.11219136 0.172472 -0.3886404
00000000: 3ede 003e 09c8 83be a3b1 4d3e 3ebc e9be
00000010: 9905 523e f436 2f3e 9358 233e a8cd 123e
00000020: 4efc 253e 4563 bd3e 9c31 063e 22f2 213e
00000030: 0264 0a3e c965 333e 5d6a 0c3e b98e a2be
00000040: f143 4d3e 558f 083e aed9 ee3e 2e4e 7f3e
00000050: c31d 2f3e 31df 4fbf 907d d13e 9f9b 7c3e
00000060: e011 573e 0635 f13d ead2 23bf a98d cf3d
00000070: c9d9 ea3d e763 b0be 6fec 7b3e 01dc 97be
00000080: 1424 4dbf 9551 003e 149b 1abf b1a6 643e
00000090: 148e 373f 3c5d 623e 0569 d33d 2ef3 d03d
000000a0: 2b84 573e 618d f8be e2f5 cd3d 3428 a3bf
000000b0: 4ef1 ed3d 82d0 323e cf09 c1be 38d9 f33d
000000c0: 1521 ae3e 4d55 fd3d 6402 20bf 59f3 d03d
000000d0: ba7b e83d afe3 86be e535 a93d b0a0 b4bd
000000e0: 85f3 da3d 534a bbbf bc75 38bf c683 ca3d
000000f0: c13d 2e3e 9e14 6e3e 1cc6 96be 30aa d13d
00000100: 65c3 ea3d 7aee 81be dc88 673e b892 323e
00000110: 2217 093e beeb 0b3e 4a07 c53d 5cd6 9ebe
00000120: 6f71 5d3e 3910 d1be 82eb 003e 2c70 a13e
00000130: 60e3 44bf 428e 99be c4ec 123e d404 d2be
00000140: fb47 233e ff4a 0fbf 5b16 013e 0f53 07c0
00000150: cded 6cbf 2458 a4be 2c33 513e 0f80 2b3e
00000160: 206d 12bf 1ee6 0fbe 4444 e3be b785 d93d
00000170: 80f5 65be 3fe5 243e 4c6b 85be 98e6 1d3e
00000180: 03ea 803e 95c4 e53d 809c 303e e0fb c6be

submodules.decoder.0.weight f4 [15, 12]
-0.044268876 -0.008020565 0.016762206 -0.094442256 0.74350697 0.03847766 0.0036411642 3.9463003
-0.030195003 -0.0043099783 0.016804446 -0.058383122 0.029117817 -0.08852571 -0.027037466 0.871245
-3.3312566 -1.0735558 -0.17723648 0.14990132 0.2779474 0.038414616 4.672464 0.6687123
0.003535709 -0.0031603528 0.0041804328 -0.10128108 1.467599 -2.263024 -0.0016287006 -0.8237702
0.04110663 0.011740878 -0.06314041 0.014709499 0.0034727699 0.012187483 -0.009864512 0.23997699
-2.0042999 2.8018067 0.007413555 -0.19472739 0.016479502 -0.012103531 -0.29256377 0.16319993
-0.00891358 0.0035803253 -0.002546206 0.046844386 -0.7490116 2.213948 0.006823442 0.9143922
-0.018140838 -0.0066895164 -0.28265515 0.039617185 3.9997835 -1.981406 4.0228953 -0.12151267
-0.044564173 0.0137053905 -1.9063538 0.028725881 -0.09537867 -0.005533935 -0.0054356754 -0.051134635
4.516496 1.0805258 -2.1372015 0.7192834 -0.36369497 -0.12700312 1.0073972 -0.014447731
-0.0655493 0.003921204 -0.039659183 -0.3057555 0.04225364 -0.025257684 0.025783135 0.620349
-0.37386718 -0.10447471 4.940267 0.024408426 0.042890426 0.018384669 -0.06491045 0.0609588
-0.66863656 -1.5204244 -3.698747 0.2186157 -0.33220932 -0.09738068 -0.77055186 0.0440213
-0.04451873 -0.06809052 -0.06793269 0.16327636 1.1757787 -1.0477365 -3.9966831 0.4305973
-0.3932 -0.08222553 -0.526684 0.010703422 0.14411144 0.0027728886 -0.030646669 0.46790892
0.016189877 0.008644604 0.004040716 0.06741611 -0.2795226 -0.085317664 0.009051752 0.011791188
-0.3645604 3.131931 -0.030293 0.34186634 0.010086635 -0.021388752 -0.0033085356 -0.039256427
-0.0779939 -0.0128614595 -0.03262582 0.0035062125 -2.8984811 0.25541934 -0.016525675 2.4172785
-0.009494424 0.005335922 -0.00071348035 -0.01946669 0.14401802 0.039966278 0.016363796 -0.009219171
2.0382135 -1.3992664 0.020749614 -1.1798187 -0.014122271 0.020981316 0.010554261 -0.0078605525
0.08165199 0.020292122 0.038293596 -0.015142886 2.3947878 -0.9744629 0.0011946724 -1.5050619
-0.017297123 0.0040058517 0.0028323275 -0.031510253 0.19701152 0.058913086 0.016054904 -0.012686466
0.96334654 -2.661553 0.014821605 -0.16215518
00000000: 4853 35bd b068 03bc e550 893c f16a c1bd
00000010: 7956 3e3f c09a 1d3d 99a0 6e3b 2f90 7c40
00000020: 835b f7bc b83a 8dbb 7aa9 893c 2423 6fbd
00000030: 7d88 ee3c f84c b5bd ad7d ddbc ea09 5f3f
00000040: 4f33 55c0 476a 89bf 7b7d 35be bb7f 193e
00000050: 1f4f 8e3e a558 1d3d d384 9540 bb30 2b3f
00000060: 5bb7 673b ec1d 4fbb 03fc 883b 746c cfbd
00000070: 49da bb3f 63d5 10c0 207a d5ba 9be2 52bf
00000080: 6d5f 283d d05c 403c c24f 81bd 1c00 713c
00000090: 6997 633b 02ae 473c c39e 21bc 87bc 753e
000000a0: 7346 00c0 cd50 3340 68ed f23b 9e66 47be
000000b0: 0500 873c e34d 46bc ebca 95be e21d 273e
000000c0: 440a 12bc e4a3 6a3b 3fde 26bb e6df 3f3d
000000d0: 39bf 3fbf 53b1 0d40 2e97 df3b 9b15 6a3f
000000e0: 189c 94bc bb33 dbbb 2db8 90be a145 223d
000000f0: 74fc 7f40 b69e fdbf 8fbb 8040 a2db f8bd
00000100: ec88 36bd 938c 603c 6703 f4bf 8a52 eb3c
00000110: e455 c3bd 0356 b5bb c01d b2bb 8d72 51bd
00000120: 2387 9040 ab4e 8a3f e9c7 08c0 f522 383f
00000130: 3a36 babe 1b0d 02be 64f2 803f 2db6 6cbc
00000140: b63e 86bd 717d 803b ab71 22bd fc8b 9cbe
00000150: 2712 2d3d 34e9 cebc 2737 d33c 31cf 1e3f
00000160: 856b bfbe d6f6 d5bd ab16 9e40 2ef4 c73c
00000170: dfad 2f3d 729b 963c c5ef 84bd efaf 793d
00000180: c42b 2bbf 449d c2bf 45b8 6cc0 cbdc 5f3e
00000190: 5717 aabe 866f c7bd e342 45bf ae4f 343d
000001a0: 4659 36bd 0b73 8bbd 4b20 8bbd eb31 273e
000001b0: eb7f 963f 3b1c 86bf a8c9 7fc0 4077 dc3e
000001c0: 8351 c9be dc65 a8bd c3d4 06bf 685d 2f3c
000001d0: f391 133e 5ab9 353b b90e fbbc c291 ef3e
000001e0: a2a0 843c 19a2 0d3c fc67 843b 7511 8a3d
000001f0: 961d 8fbe 07bb aebd cd4d 143c d42f 413c
00000200: a9a7 babe 8f71 4840 0729 f8bc 1b09 af3e
00000210: 6a42 253c 7737 afbc 04d4 58bb 59cb 20bd
00000220: 44bb 9fbd dfb8 52bc a7a2 05bd 7cc8 653b
00000230: b780 39c0 53c6 823e da60 87bc b1b4 1a40
00000240: 808e 1bbc f5d8 ae3b db08 3bba 9c78 9fbc
00000250: 7679 133e aeb3 233d 5e0d 863c 010c 17bc
00000260: 1772 0240 291b b3bf 18fb a93c 4d04 97bf
00000270: 1961 67bc 02e1 ab3c c7eb 2c3c 8cc9 00bc
00000280: 2939 a73d aa3b a63c bfd9 1c3d de19 78bc
00000290: 3444 1940 6776 79bf 8e96 9c3a dea5 c0bf
000002a0: b2b2 8dbc 8543 833b 929e 393b e510 01bd
000002b0: 63bd 493e d94e 713d 9385 833c e5da 4fbc
000002c0: e19d 763f e256 2ac0 51d6 723c 020c 26be

submodules.decoder.0.bias f4 [15]
0.08770883 0.23667678 -0.10922644 0.07793934 0.10257524 0.06110227 -0.31018028 -0.11125701
0.16652367 0.06395681 0.09908549 -0.5514654 0.2901556 0.38121626 0.0017144587
00000000: b0a0 b33d 665b 723e 1db2 dfbd a99e 9f3d
00000010: f812 d23d 6046 7a3d f3cf 9ebe b7da e3bd
00000020: 2e85 2a3e cafb 823d 55ed ca3d d62c 0dbf
00000030: 468f 943e c72e c33e b0b7 e03a

exp_avg f4 [12, 15]
-0.0049732868 -0.03447269 -0.0054255845 0.010815346 0.0070431666 -0.017436534 0.01976115 0.011412272
0.031758558 0.03931384 -0.01684961 -0.00627554 0.014465252 0.012108955 0.016820408 0.13375993
0.07447329 -0.18304725 0.17993626 0.16546498 -0.3234767 -0.08740012 0.056410644 0.2053286
0.14483456 0.2318336 0.23972273 -0.23615262 -0.238664 -0.23578289 -0.08175744 0.11536003
0.08856479 -0.09332805 -0.09273212 -0.05567886 -0.07685868 -0.037335526 -0.020030346 -0.045849998
0.0021650905 0.014252477 -0.0056649363 -0.0066228844 -0.0020463036 0.010249612 -9.786551e-05 -0.0077266423
0.01915228 0.007354539 0.013927512 0.013467775 -0.01684344 -0.016486466 -0.009585493 0.019499322
0.013626729 -0.015364668 -0.016317194 -0.020077493 -0.047410164 -0.05431572 0.03105687 -0.01848186
-0.027852492 -0.040904623 0.056096032 0.09722234 0.1043934 0.10994727 -0.017687479 -0.02399765
0.021712473 0.023548707 0.018343076 0.050165333 0.056658532 -0.03677508 0.026748233 0.031427085
0.074530885 0.014399233 -0.059496827 -0.08373041 -0.06503544 0.08402655 0.09165665 -0.08985019
-0.091677904 -0.08641052 -0.0011640525 -0.059372507 -0.0014338542 0.0054217586 0.0056913155 0.028658394
-0.04822012 -0.001139967 -0.03604806 -0.052687436 -0.033911787 -0.0412942 0.039698415 0.040457994
0.036783542 -0.010427645 0.14314911 0.048028756 -0.06673462 -0.056327112 0.11773356 0.13919275
0.03229962 -0.037537128 0.027122963 0.16540907 0.16061215 -0.16227373 -0.16144237 -0.16615917
-0.042687982 0.031892963 0.015599561 -0.0131049 -0.018720077 -0.06360667 -0.037195183 -0.01347286
0.015911829 0.0016318088 -0.009572156 -0.007120159 0.008026914 0.00624472 0.008396051 0.021442983
-0.08071052 0.018006824 -0.021513376 -0.004200991 0.07504922 0.039244045 0.04241302 0.0041426783
0.019113908 -0.020743212 -0.021079687 0.018382296 0.022814868 0.021325815 -0.0059394413 0.039407644
0.015145198 -0.018869022 -0.017321125 -0.02420577 -0.07725474 -0.07863921 -0.055825334 -0.074130125
-0.019466722 -0.020179888 0.020720772 0.019974828 0.01924073 0.00057340227 -0.006094126 0.0178237
-0.022758707 -0.015539997 0.07442614 0.017862884 -0.027204368 -0.053512 -0.035392094 0.017643368
0.013525651 -0.015250173 -0.01365347 -0.015738389
00000000: f4f6 a2bb 3c33 0dbd 1ac9 b1bb d932 313c
00000010: 5dca e63b 10d7 8ebc 23e2 a13c 8afa 3a3c
00000020: 4315 023d 8d07 213d 3108 8abc 0ca3 cdbb
00000030: aaff 6c3c a364 463c f4ca 893c 5df8 083e
00000040: 7485 983d bd70 3bbe 3641 383e a76f 293e
00000050: bd9e a5be d6fe b2bd d90e 673d a941 523e
00000060: 834f 143e ca65 6d3e e079 753e fed1 71be
00000070: 5664 74be 1271 71be 7270 a7bd e141 ec3d
00000080: 7561 b53d c722 bfbd 56ea bdbd 840f 64bd
00000090: 1568 9dbd 23ed 18bd ae16 a4bc 35cd 3bbd
000000a0: 31e4 0d3b 3983 693c eea0 b9bb c804 d9bb
000000b0: 471b 06bb fded 273c 253d cdb8 c62f fdbb
000000c0: 3ee5 9c3c 58fe f03b 3830 643c f1a7 5c3c
000000d0: 41fb 89bc a00e 87bc 790c 1dbc 0bbd 9f3c
000000e0: a542 5f3c 17bc 7bbc a3ab 85bc 8e79 a4bc
000000f0: 2931 42bd 297a 5ebd fa6a fe3c 4567 97bc
00000100: e92a e4bc 9b8b 27bd f4c4 653d 821c c73d
00000110: 35cc d53d 092c e13d 55e5 90bc b896 c4bc
00000120: 5bde b13c 38e9 c03c 3844 963c 2a7a 4d3d
00000130: c712 683d 77a1 16bd 1c1f db3c b0b9 003d
00000140: a6a3 983d c3ea 6b3c f2b2 73bd d97a abbd
00000150: 4d31 85bd 1d16 ac3d 7bb6 bb3d 6003 b8bd
00000160: a0c1 bbbd 00f8 b0bd 1f93 98ba 9630 73bd
00000170: 2af0 bbba 02a9 b13b 377e ba3b 02c5 ea3c
00000180: 7682 45bd f26a 95ba 21a7 13bd c8ce 57bd
00000190: 16e7 0abd 1b24 29bd ce9a 223d 48b7 253d
000001a0: 57aa 163d b7d8 2abc ae95 123e cdb9 443d
000001b0: 29ac 88bd 42b7 66bd 4b1e f13d 8b88 0e3e
000001c0: 9b4c 043d 88c0 19bd fa30 de3c ff60 293e
000001d0: 8377 243e 162b 26be 2651 25be a125 2abe
000001e0: 98d9 2ebd 32a2 023d 4d95 7f3c efb5 56bc
000001f0: d95a 99bc 3744 82bd fa59 18bd 45bd 5cbc
00000200: 8659 823c 6be2 d53a 88d4 1cbc 3950 e9bb
00000210: 5183 033c 82a0 cc3b 978f 093c 32a9 af3c
00000220: 8f4b a5bd 0c83 933c d23c b0bc 77a8 89bb
00000230: 68b3 993d 5dbe 203d 46b9 2d3d 4ebf 873b
00000240: c594 9c3c abed a9bc 4faf acbc 7896 963c
00000250: 3fe6 ba3c 7ab3 ae3c a59f c2bb e969 213d
00000260: 9123 783c 3593 9abc 08e5 8dbc 2e4b c6bc
00000270: bc37 9ebd 980d a1bd 1ba9 64bd 89d1 97bd
00000280: ad78 9fbc 4b50 a5bc 9cbe a93c 40a2 a33c
00000290: bc9e 9d3c 6050 163a 3cb1 c7bb 0203 923c
000002a0: 7870 babc 799b 7ebc bb6c 983d 2f55 923c
000002b0: b2db debc 662f 5bbd 4df7 10bd d388 903c
000002c0: b19a 5d3c dddb 79bc ceb2 5fbc cbed 80bc

exp_avg_sq f4 [12, 15]
0.07617717 0.068965964 0.078234285 0.077339396 0.078668274 0.048119783 0.07909091 0.073018074
0.06652065 0.07968569 0.082211435 0.08305717 0.082925394 0.08293358 0.0824192 0.89349085
1.2379886 0.99075043 1.0210326 0.99784136 1.0041678 0.87997925 0.95443296 1.0787611
1.015259 1.0558865 1.0838723 1.0754082 1.0781664 1.0613587 0.11265392 0.108070396
0.12169257 0.1238096 0.123738125 0.08177529 0.07382647 0.100587785 0.09922625 0.09740426
0.123664096 0.12259234 0.12357087 0.12331462 0.123559155 0.008865198 0.010726597 0.009578527
0.009816617 0.009641121 0.010558977 0.0073900903 0.009395606 0.010806214 0.009840387 0.0109720165
0.011344713 0.011209992 0.011247094 0.011040802 0.0710983 0.07357038 0.082041465 0.08386336
0.0823251 0.07015358 0.05836729 0.08088932 0.08006121 0.076618984 0.08630122 0.08675309
0.086721554 0.086824045 0.08625018 0.13492021 0.14133896 0.14828667 0.14914374 0.14677264
0.15181856 0.103011414 0.14409907 0.16194023 0.1349383 0.15695907 0.16242532 0.1606198
0.1613153 0.15765658 0.058410723 0.09501054 0.08023001 0.08847094 0.082342274 0.061700404
0.06363599 0.05755654 0.070273004 0.0697451 0.082760185 0.08767961 0.08591147 0.08647164
0.08363554 0.20385687 0.28677908 0.2369912 0.24360906 0.23771273 0.33496624 0.15027247
0.303314 0.34182322 0.23541795 0.2752913 0.28528702 0.28165552 0.28354698 0.2768046
0.091398954 0.058825836 0.08896607 0.08528088 0.088474184 0.071526974 0.06536056 0.084894694
0.0786394 0.076024674 0.0895939 0.09055398 0.089616396 0.08992895 0.08986461 0.19629331
0.16828841 0.19647518 0.1944503 0.19685349 0.16825052 0.1621104 0.19766429 0.17838597
0.18461479 0.17414826 0.18494861 0.18160693 0.18269263 0.17620473 0.04351027 0.052607175
0.050261017 0.051630784 0.050794475 0.043374807 0.035731334 0.05718986 0.053187534 0.05015669
0.054814793 0.05509281 0.055114236 0.055186413 0.05482216 0.05084906 0.03300789 0.048839867
0.04663723 0.048574325 0.04333961 0.03506975 0.04827738 0.04774051 0.043729268 0.05640046
0.05608004 0.05653931 0.056458272 0.05650698
00000000: c702 9c3d 073e 8d3d 4c39 a03d 1e64 9e3d
00000010: d51c a13d 4019 453d 6afa a13d 808a 953d
00000020: fb3b 883d 4032 a33d 785e a83d e119 aa3d
00000030: cad4 a93d 15d9 a93d 66cb a83d d1bb 643f
00000040: 6976 9e3f d2a1 7d3f 32b1 823f 8872 7f3f
00000050: 9288 803f 5246 613f b855 743f d814 8a3f
00000060: 02f4 813f 4a27 873f 54bc 8a3f faa6 893f
00000070: 5b01 8a3f 9ada 873f 19b7 e63d 0354 dd3d
00000080: f439 f93d e38f fd3d 6a6a fd3d ce79 a73d
00000090: 5532 973d f800 ce3d 2237 cb3d e27b c73d
000000a0: 9a43 fd3d b111 fb3d b912 fd3d 608c fc3d
000000b0: 950c fd3d 563f 113c 9cbe 2f3c 41ef 1c3c
000000c0: e0d5 203c cbf5 1d3c 8fff 2c3c 9228 f23b
000000d0: 07f0 193c 8c0c 313c 9339 213c f9c3 333c
000000e0: 2ddf 393c 1daa 373c bb45 383c 7be4 343c
000000f0: fc9b 913d 11ac 963d 5b05 a83d 8ec0 ab3d
00000100: 109a a83d aeac 8f3d 8a12 6f3d 4da9 a53d
00000110: 22f7 a33d 6aea 9c3d b2be b03d 9bab b13d
00000120: 129b b13d ced0 b13d efa3 b03d 8628 0a3e
00000130: 29bb 103e 76d8 173e 23b9 183e 914b 163e
00000140: 5376 1b3e a6f7 d23d b58e 133e a9d3 253e
00000150: 442d 0a3e e1b9 203e d352 263e 8479 243e
00000160: d72f 253e ba70 213e 1540 6f3d e394 c23d
00000170: a24f a43d 4130 b53d 11a3 a83d 90b9 7c3d
00000180: 9653 823d 68c0 6b3d 4beb 8f3d 85d6 8e3d
00000190: 2c7e a93d 5e91 b33d 5af2 af3d 0b18 b13d
000001a0: 1c49 ab3d dbbf 503e b5d4 923e d2ad 723e
000001b0: a774 793e f76a 733e b280 ab3e 07e1 193e
000001c0: f94b 9b3e 7403 af3e 6711 713e fbf2 8c3e
000001d0: 2411 923e 2735 903e 122d 913e 55b9 8d3e
000001e0: 602f bb3d 5cf3 703d d833 b63d bea7 ae3d
000001f0: f431 b53d bc7c 923d c2db 853d 45dd ad3d
00000200: b20d a13d d3b2 9b3d 027d b73d 5d74 b93d
00000210: cd88 b73d ab2c b83d f00a b83d 1d01 493e
00000220: cc53 2c3e ca30 493e fb1d 473e f693 493e
00000230: dd49 2c3e 4500 263e 8268 4a3e d0aa 363e
00000240: a90b 3d3e ec53 323e 2b63 3d3e 2bf7 393e
00000250: c713 3b3e 036f 343e d337 323d 9f7a 573d
00000260: 7fde 4d3d cd7a 533d de0d 503d c8a9 313d
00000270: 055b 123d ea3f 6a3d 2cdb 593d 1a71 4d3d
00000280: 7a85 603d 00a9 613d 77bf 613d 260b 623d
00000290: 348d 603d 1b47 503d 4833 073d 500c 483d
000002a0: ae06 3f3d dff5 463d e084 313d 4ca5 0f3d
000002b0: 81be 453d 8e8b 433d 761d 333d 2b04 673d
000002c0: 2fb4 653d c395 673d ca40 673d dd73 673d

exp_avg f4 [12]
-0.004754318 0.1522726 0.03445554 -0.020901846 -0.04825724 0.03789286 -0.036772303 -0.011352107
0.004122093 -0.005198261 0.04211629 0.016659247
00000000: 1cca 9bbb 59ed 1b3e 4121 0d3d 593a abbc
00000010: 62a9 45bd 8b35 1b3d 8e9e 16bd 30fe 39bc
00000020: 9f12 873b 2c56 aabb 2282 2c3d f978 883c

exp_avg_sq f4 [12]
0.061527308 1.0975165 0.08782266 0.008896639 0.06875668 0.12947004 0.062213156 0.26974338
0.062967226 0.16876532 0.043935873 0.036363687
00000000: 0f04 7c3d 6c7b 8c3f 5edc b33d 35c3 113c
00000010: 4dd0 8c3d cb93 043e 39d3 7e3d ce1b 8a3e
00000020: f6f4 803d d1d0 2c3e 1af6 333d 17f2 143d

exp_avg f4 [100, 12]
-0.0020889586 0.0016129772 -0.00093130826 4.515135e-05 -0.001072353 0.00316396 -0.0007065187 0.0024120866
-0.0015662062 0.0015495857 7.3439696e-05 0.0005264566 0.0009421516 0.00088446925 0.0017675067 -7.5977834e-05
-6.8852446e-06 0.0023846137 -0.0012103211 0.0013971478 0.0039134175 -0.002366613 -0.00064508984 -0.0013445725
-0.0014319964 -0.00015630318 -0.0007418309 5.8925594e-05 -0.00025125997 -0.0008275555 0.00015368214 0.00032133632
-0.00092149974 0.000826627 0.0022882211 0.00028747515 0.0010453312 0.0018208968 0.0025259191 -6.820749e-05
0.00011969219 1.4229362e-05 -0.0010509841 5.0843482e-06 0.006799755 -0.007280043 -0.00013322095 -0.002249119
-0.00078141806 -0.0035123092 -0.002737706 5.5412107e-05 -0.00042878615 0.0022202362 0.0017828041 0.00015001914
-0.0021117583 0.0028116852 -0.00050923735 0.0006916973 -0.0022328533 0.0008347185 -0.0010495614 2.2458067e-05
-0.00038234767 0.0020869498 -0.00105621 -0.0005382735 0.00069149985 0.00016762971 -0.0006326408 -0.00024925164
-0.0016055033 0.0040437505 7.1690236e-05 5.8908245e-05 -0.0008177797 0.0019768768 -0.002188318 0.00019184279
-0.0008755182 -0.00015020953 -0.00113808 0.00029769953 -0.002291895 -0.001960766 -0.002549305 5.896933e-05
-0.0006527127 0.0016215852 0.0013406231 0.0016191491 -0.0007977871 0.0011647466 0.0008933746 0.00025232916
-0.0003814869 -0.0005616068 -0.0024310793 0.00012620256 -0.0010514593 0.0011688346 0.0014858796 0.0014526453
-0.003511871 0.0015876401 0.00038970273 0.0012197915 -0.0062827417 0.00019234457 -0.0034121966 9.7049255e-05
-0.0008998059 0.0017244039 -0.0005726188 0.002053043 -0.0018067103 0.00042532527 -0.00049072114 0.0005503985
-0.0027797662 0.000395811 -0.0017583952 4.2243522e-05 -0.0008492247 0.0036990126 -0.00069955306 0.0024644497
0.00040005764 0.00043790296 3.0762232e-05 -0.00016409974 -0.0022285534 -0.0007461148 -0.0016387218 7.3039584e-05
-0.0009491111 0.0021839933 0.0006268703 0.0025238965 -0.0017186007 0.0016636425 0.0012672633 0.00057493756
-0.0012002051 0.0010838829 -0.0002433872 2.8747943e-05 -0.0004971983 4.85252e-05 -0.00065184827 0.0010855948
-0.001770584 0.0007603524 0.00084864086 0.0005826238 -0.0034261402 0.00044413275 -0.00141422 9.2206115e-05
-0.00163393 0.004291594 -5.4130345e-05 0.0033527745 -0.0023966588 0.001826013 -0.00010788992 0.00081891374
-0.0002763609 0.0004992877 -0.0014214333 0.000108557884 -0.0010083093 0.001104914 0.00088051666 0.0016782647
-0.0027539954 0.0010678271 0.00016697792 0.0009521458 0.0009183067 -2.5927999e-05 0.00046351724 -2.7704291e-05
3.2868185e-05 0.000627572 -0.00021301392 0.00026242834 0.0038721461 -0.0038173054 -0.00040436638 -0.0012737275
-0.0023036283 -0.0011649095 -0.0029416443 4.760957e-05 -0.0016038497 0.0049003465 0.0009705921 0.0039022982
0.00014984293 -0.0011145278 -0.00040883056 -7.4359436e-05 -0.0006778965 -0.00016252606 -0.0024843696 8.981163e-05
-0.0012628621 0.0025534872 0.0010310148 0.002503884 -0.0022288489 0.0007210588 -0.00059084356 0.0007768067
-0.0035473956 0.004913305 -0.0022163456 1.4689634e-06 -0.0015792355 0.0072141793 -0.0020357242 0.003368912
-0.00017573287 0.00028999883 -0.0040223985 -1.2125932e-05 -0.0041310894 0.004412147 -0.0003474852 0.00021109535
-0.0009316282 -0.0015995791 -0.0010584359 -0.0013628982 -0.00502102 0.00061162055 -0.001766591 0.0017726121
-0.0006077717 0.0025588488 0.0007785442 -1.5159311e-05 -0.00018437447 0.00054265687 -0.0016107324 -0.00019559472
0.0012616286 -0.0016866997 -0.0005199376 -0.00042914876 0.006228425 -0.009561961 -0.0015698177 -0.00014965619
00000000: e9e6 08bb 896a d33a 0a23 74ba e560 3d38
00000010: 328e 8cba 715a 4f3b ab35 39ba 1914 1e3b
00000020: 2949 cdba 781b cb3a a303 9a38 e801 0a3a
00000030: b9fa 763a badb 673a afab e73a 4a56 9fb8
00000040: cd07 e7b6 2e47 1c3b a3a3 9eba 8020 b73a
00000050: 203c 803b 2d19 1bbb 3f1b 29ba 5e3c b0ba
00000060: d3b1 bbba 51e5 23b9 6e77 42ba e026 7738
00000070: 8bbb 83b9 4ff0 58ba bc25 2139 0879 a839
00000080: cd90 71ba 00b2 583a fbf5 153b 43b8 9639
00000090: 7f03 893a 28ab ee3a e489 253b 9e0a 8fb8
000000a0: 4103 fb38 a5ba 6e37 2dc1 89ba 389a aa36
000000b0: 7bd0 de3b 6d8d eebb 3ab1 0bb9 f565 13bb
000000c0: 14d8 4cba c52e 66bb 166b 33bb 4c6a 6838
000000d0: b4ce e0b9 6281 113b fbac e93a 754e 1d39
000000e0: 6d65 0abb 4044 383b 577e 05ba 0553 353a
000000f0: 1055 12bb 03d1 5a3a 7091 89ba 5564 bc37
00000100: d675 c8b9 35c5 083b 8770 8aba ec1a 0dba
00000110: c545 353a c2c5 2f39 ced7 25ba fdad 82b9
00000120: c06f d2ba 7081 843b 6758 9638 3f14 7738
00000130: 4460 56ba 7d8e 013b e269 0fbb 6829 4939
00000140: 0883 65ba 9081 1db9 a12b 95ba 8e14 9c39
00000150: 9e33 16bb 3280 00bb 3e12 27bb d655 7738
00000160: cf1a 2bba 5f8b d43a d9b7 af3a a139 d43a
00000170: 9622 51ba 69aa 983a 5b31 6a3a 0c4b 8439
00000180: 4e02 c8b9 cb38 13ba be52 1fbb 3e55 0439
00000190: 1fd1 89ba 9533 993a d9c1 c23a b066 be3a
000001a0: 6b27 66bb 5d18 d03a 0451 cc39 69e1 9f3a
000001b0: 75df cdbb 1ab0 4939 299f 5fbb ec86 cb38
000001c0: f4e0 6bba 6505 e23a cc1b 16ba 598c 063b
000001d0: 23cf ecba 31fe de39 bda3 00ba 9e48 103a
000001e0: bd2c 36bb da84 cf39 f479 e6ba a32e 3138
000001f0: 819e 5eba 226b 723b 3662 37ba 9b82 213b
00000200: d4be d139 5796 e539 b206 0138 3012 2cb9
00000210: ec0c 12bb eb96 43ba 61ca d6ba d42c 9938
00000220: c5cd 78ba 5421 0f3b 8e54 243a f567 253b
00000230: ac42 e1ba 940e da3a 4d1a a63a 68b7 163a
00000240: 3350 9dba 1311 8e3a c135 7fb9 bd27 f137
00000250: 6a56 02ba 8987 4b38 cce0 2aba 844a 8e3a
00000260: f112 e8ba 6352 473a 5377 5e3a 39bb 183a
00000270: 1889 60bb 7dda e839 595d b9ba c85e c138
00000280: 9829 d6ba 80a0 8c3b 040a 63b8 39ba 5b3b
00000290: 4311 1dbb d456 ef3a f642 e2b8 5fac 563a
000002a0: 88e4 90b9 a1e2 023a 634f baba 92a9 e338
000002b0: 3f29 84ba c3d2 903a 79d2 663a 38f9 db3a
000002c0: 607c 34bb 55f6 8b3a cb16 2f39 6c99 793a
000002d0: 85ba 703a f47f d9b7 3b04 f339 8366 e8b7
000002e0: f2db 0938 a583 243a 7d5c 5fb9 8996 8939
000002f0: d5c3 7d3b c22b 7abb 2301 d4b9 34f3 a6ba
00000300: 78f8 16bb e0af 98ba 9ac8 40bb 63b0 4738
00000310: 4438 d2ba 1693 a03b 556f 7e3a b3bd 7f3b
00000320: 281f 1d39 5915 92ba 4f58 d6b9 6bf1 9bb8
00000330: ddb4 31ba c26b 2ab9 ced0 22bb 4059 bc38
00000340: 9f86 a5ba 6858 273b 1e23 873a 3418 243b
00000350: e111 12bb 7005 3d3a d7e2 1aba 9da2 4b3a
00000360: 6c7b 68bb caff a03b 1c40 11bb 3329 c535
00000370: 5afe ceba ec64 ec3b c969 05bb f7c8 5c3b
00000380: ef44 38b9 fc0a 9839 53ce 83bb 7b70 4bb7
00000390: 175e 87bb c693 903b ad2e b6b9 7a59 5d39
000003a0: 8338 74ba f8a8 d1ba 37bb 8aba 46a3 b2ba
000003b0: 5e87 a4bb 2955 203a f58c e7ba fe56 e83a
000003c0: de52 1fba 5cb2 273b 3817 4c3a bf54 7eb7
000003d0: a554 41b9 1641 0e3a 361f d3ba 8f18 4db9
000003e0: 3b5d a53a 4014 ddba 6c4c 08ba 5fff e0b9
000003f0: d117 cc3b c5a9 1cbc 57c2 cdba 07ed 1cb9

exp_avg_sq f4 [100, 12]
6.323868e-05 0.00017623049 6.16747e-05 2.457794e-07 9.59286e-06 0.00015985013 6.293481e-05 0.00010730695
0.00010495666 0.00012985631 6.711608e-05 1.4316802e-05 9.782999e-05 0.00014701176 9.3616734e-05 5.1409444e-07
2.4134733e-06 0.00030165486 0.00010849204 0.0001292263 0.00015780254 0.00023187343 9.021714e-05 2.161349e-05
9.188257e-05 0.00034904777 0.00010909794 4.0329405e-07 1.26749355e-05 0.00025772516 0.00010449299 0.00017463151
0.00026035213 0.00017700755 0.00010865523 3.662751e-05 0.00020341272 0.0005061056 0.0002774568 1.3306267e-06
6.953312e-06 0.00079595705 0.0002873046 0.0003360401 0.00039427498 0.0006290238 0.00024805404 5.323558e-05
0.00010323461 0.00022317565 0.00012624923 3.5766573e-07 1.6258284e-05 0.00021378462 7.672104e-05 0.00015380513
0.00019716623 0.0001807157 9.709711e-05 2.743409e-05 7.4531716e-05 0.00015163378 7.18241e-05 3.2468267e-07
1.6737313e-05 0.00018413941 7.001868e-05 0.00016042539 8.996266e-05 0.00017502306 9.008455e-05 1.1875892e-05
6.598176e-05 0.00019573898 7.1535804e-05 2.9211242e-07 1.0472648e-05 0.00019326911 7.46334e-05 0.000129695
4.5760014e-05 0.00016078378 7.642981e-05 5.6501467e-06 5.1432064e-05 0.0002096489 5.771916e-05 2.1621653e-07
8.457377e-06 0.00015193556 5.5203e-05 9.760167e-05 0.00012230467 0.00011439454 6.5197986e-05 1.7006081e-05
0.00012096409 0.00032223723 0.00011100482 4.2069712e-07 1.5574044e-05 0.00027793652 0.00010330582 0.00017042465
0.0002214876 0.00020612634 0.00011582269 3.103112e-05 0.00022143427 0.0007571181 0.00022600604 8.8550405e-07
2.2360591e-05 0.00060865836 0.00027992015 0.00036585217 0.00014570868 0.000631189 0.00021833568 1.6462505e-05
5.06951e-05 0.00016646416 5.4446213e-05 2.0887333e-07 7.676274e-06 0.00013280168 6.197152e-05 9.548738e-05
6.146284e-05 0.000111240646 5.558862e-05 8.207484e-06 6.5419554e-05 0.000278304 7.830003e-05 2.8464683e-07
1.0866098e-05 0.00020625803 7.4221054e-05 0.00012671556 0.00016007549 0.00014779679 8.633454e-05 2.2297594e-05
4.5099077e-05 0.00018369182 5.2147658e-05 1.9815586e-07 4.161384e-06 0.00013951573 5.6513578e-05 7.456623e-05
0.0001122984 9.562969e-05 5.231042e-05 1.5768022e-05 9.933653e-05 0.00033864696 0.00011125824 4.3334745e-07
1.7696095e-05 0.00028428523 0.000111084795 0.00020253027 0.00022293856 0.00020721939 0.00011694495 3.112896e-05
8.0261474e-05 0.00019949023 7.177287e-05 2.638281e-07 9.839467e-06 0.00017181096 6.603588e-05 0.000111130306
0.00014362196 0.00013350566 7.3325056e-05 1.997334e-05 0.0001433824 0.00018071695 0.00012704112 7.065162e-07
3.89827e-06 0.00039967214 0.00016286845 0.00018344268 0.00030412947 0.00031143398 0.00012232986 4.228064e-05
0.00011639179 0.00034881118 0.0001170336 4.2729158e-07 1.0299721e-05 0.0002868905 0.00011493676 0.00013896689
0.00017936784 0.00022993679 0.0001144167 2.4509767e-05 7.424786e-05 0.00018983975 6.577609e-05 2.4900987e-07
8.8207025e-06 0.00016118397 6.219195e-05 9.900018e-05 0.00013195987 0.00012323738 6.8582944e-05 1.8408362e-05
0.00040075055 0.0009846493 0.00031820708 1.653327e-06 5.9009322e-05 0.0009575039 0.0004076354 0.0007129218
0.00022856824 0.0010570664 0.00038474833 2.5221525e-05 0.00018307184 0.00065698265 0.0002131814 8.0451116e-07
2.8297954e-05 0.00052241934 0.00020885048 0.00033990855 0.0003948171 0.00038767472 0.00022571317 5.4742348e-05
4.0217798e-05 5.283938e-05 3.4168243e-05 1.7959952e-07 1.0917359e-05 9.3875075e-05 3.6602843e-05 8.635271e-05
4.0786428e-05 9.839219e-05 5.0473e-05 5.2158866e-06 0.0004140415 0.002202611 0.00036430178 1.5831064e-06
00000000: 029f 8438 83ca 3839 5a57 8138 aaf3 8334
00000010: 05f1 2037 719d 2739 defb 8338 fb09 e138
00000020: 2e1c dc38 0a2a 0839 acc0 8c38 3232 7037
00000030: 132a cd38 2b27 1a39 1a54 c438 4d00 0a35
00000040: 28f7 2136 6e27 9e39 3886 e338 ec80 0739
00000050: cc77 2539 0d23 7339 f532 bd38 9e4e b537
00000060: 14b1 c038 6600 b739 83cb e438 5084 d834
00000070: 6fa6 5437 491f 8739 3f23 db38 4a1d 3739
00000080: df7f 8839 1a9b 3939 d5dd e338 7da0 1938
00000090: 304b 5539 2cac 043a 9f77 9139 fc97 b235
000000a0: 7f50 e936 c6a7 503a 5fa1 9639 8a2e b039
000000b0: b1b6 ce39 13e5 243a 400d 8239 4549 5f38
000000c0: a97f d838 4204 6a39 c561 0439 3405 c034
000000d0: 6662 8837 5f2b 6039 4be5 a038 c046 2139
000000e0: 68be 4e39 807e 3d39 9da0 cb38 4222 e637
000000f0: e94d 9c38 e2ff 1e39 45a0 9638 0c50 ae34
00000100: 1b67 8c37 8c15 4139 fed6 9238 dd37 2839
00000110: 56aa bc38 6586 3739 c6eb bc38 913e 4737
00000120: b05f 8a38 483f 4d39 7e05 9638 a0d3 9c34
00000130: aeb3 2f37 48a8 4a39 8084 9c38 bdfe 0739
00000140: 71ee 3f38 1198 2839 f148 a038 6496 bd36
00000150: c2b8 5738 33d5 5b39 7a17 7238 2629 6834
00000160: 28e4 0d37 e450 1f39 c589 6738 7faf cc38
00000170: e93e 0039 1ae7 ef38 e7ba 8838 48a8 8e37
00000180: 1aae fd38 f3f1 a839 42cb e838 2cdc e134
00000190: 01a5 8237 02b8 9139 e4a5 d838 05b4 3239
000001a0: 203f 6839 9e23 5839 d5e5 f238 6927 0238
000001b0: cf30 6839 5679 463a 09fc 6c39 60b3 6d35
000001c0: 0193 bb37 5f8e 1f3a 3fc2 9239 d9cf bf39
000001d0: 60c9 1839 6076 253a 0af1 6439 f618 8a37
000001e0: 73a1 5438 e28c 2e39 2d5d 6438 aa46 6034
000001f0: 59c9 0037 ae40 0b39 b5f6 8138 6640 c838
00000200: 9ce5 8038 de49 e938 d427 6938 e0b2 0937
00000210: db31 8938 55e9 9139 0235 a438 90d1 9834
00000220: 894d 3637 f846 5839 20a7 9b38 f3de 0439
00000230: f0d9 2739 e6f9 1a39 810e b538 b80b bb37
00000240: c428 3d38 669d 4039 1fb9 5a38 abc4 5434
00000250: 04a2 8b36 f84a 1239 fe08 6d38 7160 9c38
00000260: bf81 eb38 cd8c c838 e367 5b38 9245 8437
00000270: e552 d038 6d8c b139 5053 e938 d2a6 e834
00000280: 1372 9437 1e0c 9539 32f6 e838 4e5e 5439
00000290: 9dc4 6939 0849 5939 5840 f538 7790 0238
000002a0: 0d52 a838 402e 5139 c484 9638 42a4 8d34
000002b0: 3014 2537 2728 3439 be7c 8a38 a10e e938
000002c0: 3a99 1639 a7fd 0b39 17c6 9938 6c8c a737
000002d0: ec58 1639 d67e 3d39 5736 0539 6ca7 3d35
000002e0: e2cd 8236 168b d139 abc7 2a39 855a 4039
000002f0: 9173 9f39 f647 a339 ac45 0039 7e56 3138
00000300: 5e17 f438 a5e0 b639 f06f f538 8266 e534
00000310: f7cc 2c37 cb69 9639 340a f138 a4b7 1139
00000320: b014 3c39 301b 7139 00f3 ef38 539a cd37
00000330: 84b5 9b38 b80f 4739 45f1 8938 a8af 8534
00000340: a1fc 1337 7e03 2939 0d6d 8238 519e cf38
00000350: b55e 0a39 4839 0139 30d4 8f38 a86b 9a37
00000360: d41b d239 590f 813a 08d5 a639 e2e7 dd35
00000370: c780 7738 0001 7b3a e6b7 d539 5fe3 3a3a
00000380: d2ab 6f39 438d 8a3a 0cb8 c939 d092 d337
00000390: f9f6 3f39 5c39 2c3a 7289 5f39 96f5 5735
000003a0: 6561 ed37 f8f2 083a e0fe 5a39 c135 b239
000003b0: 74ff ce39 d240 cb39 6bad 6c39 269b 6538
000003c0: 88af 2838 da9f 5d38 df4f 0f38 f1d7 4034
000003d0: b329 3737 ccde c438 0186 1938 4218 b538
000003e0: 1812 2b38 e857 ce38 f9b2 5338 2004 af36
000003f0: b613 d939 ae59 103b c2ff be39 1f7b d435

exp_avg f4 [100]
0.002053695 -0.00863283 0.0020331098 -0.002287857 -0.0026503997 -0.0025661725 0.005338521 0.0005995891
0.009247681 0.0065649794 -0.00351776 0.0017579697 0.0052512796 0.005260521 0.009446177 -0.0026370813
0.003661331 0.008917778 0.0012078506 0.022890316 0.001415962 -0.020310646 0.012231621 0.003452474
0.013704943 0.003777613 -0.014187093 0.004926684 -0.0030792658 -0.009551655 0.0055325925 -0.0015955056
0.03319202 0.004305586 0.03624532 0.0069568497 -0.016724586 0.0036990913 0.0013366258 0.0041478947
0.0053139552 -0.01061867 0.00406689 0.023985757 0.008745383 -0.004636853 -0.011240929 0.00036191443
0.0062463996 0.0047614193 -0.006228543 0.0063162595 0.0076885256 0.0042364052 0.002078124 -0.0038572152
0.0027417745 -0.003136477 0.010031042 -0.00029094217 0.0121047385 0.0031117753 -0.0026338776 0.006810881
0.0061362525 0.014889249 0.0011522382 0.0105652725 0.0034147336 0.0055282013 0.0084872255 -0.0066658063
0.01058724 0.0047754925 0.005171079 0.010905564 -0.016081953 -0.0028150002 0.005479632 0.005154367
0.0053214226 -0.00851717 0.0035278422 -0.015300228 -0.016488632 -0.0072788293 0.007750023 0.011401199
0.012193262 -5.935588e-05 -0.0034499974 0.00047373876 0.0066828565 0.005159387 -0.00736888 -0.007059463
0.010101998 0.0039983476 0.0025360768 0.008256253
00000000: 4997 063b b770 0dbc ec3d 053b dfef 15bb
00000010: 54b2 2dbb 3b2d 28bb c3ee ae3b be2d 1d3a
00000020: 9683 173c 0a1f d73b 388a 66bb ad6b e63a
00000030: ed12 ac3b 7360 ac3b 23c4 1a3c e2d2 2cbb
00000040: f1f2 6f3b df1b 123c be50 9e3a 7984 bb3c
00000050: cd97 b93a 8362 a6bc 2367 483c e742 623b
00000060: b28a 603c d491 773b fb70 68bc 0570 a13b
00000070: 82cd 49bb 8b7e 1cbc c04a b53b 4920 d1ba
00000080: 5bf4 073d e015 8d3b f975 143d 49f6 e33b
00000090: 0002 89bc 746c 723b b831 af3a 10eb 873b
000000a0: b020 ae3b eef9 2dbc 8c43 853b c77d c43c
000000b0: cb48 0f3c bef0 97bb e02b 38bc 55bf bd39
000000c0: 99ae cc3b ae05 9c3b ce18 ccbb a0f8 ce3b
000000d0: 07f0 fb3b 8bd1 8a3b 2331 083b 55c9 7cbb
000000e0: 58af 333b 5a8d 4dbb 3d59 243c 9989 98b9
000000f0: f452 463c edee 4b3b 229d 2cbb d02d df3b
00000100: 9e12 c93b 09f2 733c b306 973a f719 2d3c
00000110: b9c9 5f3b ea25 b53b 010e 0b3c d66c dabb
00000120: 1a76 2d3c bc7b 9c3b 2872 a93b 40ad 323c
00000130: 4dbe 83bc de7b 38bb 7c8e b33b f7e5 a83b
00000140: 545f ae3b 9a8b 0bbc 5f33 673b cfad 7abc
00000150: 2b13 87bc 3f83 eebb e8f3 fd3b 18cc 3a3c
00000160: 3fc6 473c e4f4 78b8 5a19 62bb 2460 f839
00000170: ddfb da3b 1310 a93b a576 f1bb 1153 e7bb
00000180: da82 253c 9204 833b 4f34 263b 3c45 073c

exp_avg_sq f4 [100]
0.0015877383 0.0026973356 0.0027366257 0.0072189877 0.002241595 0.001928848 0.0018648675 0.0015555156
0.00278478 0.005749075 0.0013376279 0.0020969878 0.0013145518 0.0028244434 0.0017551847 0.003803602
0.002796321 0.0016183966 0.009063365 0.0052138143 0.0009386662 0.0111489 0.008210587 0.0034460477
0.0037901532 0.001484556 0.00557649 0.000983229 0.0013372523 0.004267258 0.0032237768 0.0037284188
0.016251985 0.0011600367 0.0054313806 0.003607718 0.00945516 0.004042697 0.00095433975 0.0008791659
0.0028619512 0.006531838 0.0011101353 0.013493888 0.0014085788 0.002414026 0.008129611 0.0014753123
0.0038491471 0.0015868562 0.010237234 0.0010308509 0.0011898385 0.004089523 0.00042993095 0.0002555796
0.0009777927 0.015643632 0.0063787675 0.0011679382 0.0026667747 0.0026636394 0.0033210504 0.0008089377
0.0011789757 0.0033235787 0.004122778 0.002536088 0.0014033389 0.0017751158 0.0008436659 0.0036461316
0.0037313101 0.005893712 0.0015507755 0.0038370267 0.009399723 0.0032721553 0.0020237837 0.0048606554
0.002012174 0.006370825 0.001373368 0.024636598 0.010156838 0.0040278323 0.0031059803 0.0026110462
0.0052312836 0.00095704244 0.004237348 0.0011695796 0.0030869336 0.0019969656 0.0026119899 0.0022377735
0.003888754 0.0012457075 0.0023009873 0.0043389867
00000000: a81b d03a c8c5 303b f658 333b 428d ec3b
00000010: b9e7 123b 66d1 fc3a 926e f43a 71e2 cb3a
00000020: db80 363b bd62 bc3b 5853 af3a 9e6d 093b
00000030: 0a4d ac3a 4c1a 393b 3a0e e63a da45 793b
00000040: 7b42 373b 6120 d43a 827e 143c a5d8 aa3b
00000050: d310 763a e0a9 363c b385 063c 16d7 613b
00000060: 3864 783b 6f95 c23a fdba b63b b1df 803a
00000070: be46 af3a 5bd4 8b3b 0046 533b 7d58 743b
00000080: e222 853c 5f0c 983a b9f9 b13b 776f 6c3b
00000090: d1e9 1a3c 9a78 843b a82c 7a3a d377 663a
000000a0: 938f 3b3b 0709 d63b f681 913a 7815 5d3c
000000b0: 10a0 b83a a334 1e3b 0f32 053c 445f c13a
000000c0: f941 7c3b 0ffe cf3a 12ba 273c 9e1d 873a
000000d0: 5bf4 9b3a 6801 863b 5b68 e139 50ff 8539
000000e0: 4729 803a 1327 803c fb04 d13b 8115 993a
000000f0: 0ec5 2e3b 7490 2e3b fba5 593b e40e 543a
00000100: dc87 9a3a 66d0 593b 5e18 873b 7f34 263b
00000110: 3df0 b73a 01ab e83a 7629 5d3a f0f3 6e3b
00000120: ff88 743b 0a20 c13b 6443 cb3a a076 7b3b
00000130: 4c01 1a3c a871 563b 75a1 043b 2246 9f3b
00000140: aede 033b 5bc2 d03b 9502 b43a b1d2 c93c
00000150: de68 263c e8fb 833b b48d 4b3b 161e 2b3b
00000160: 306b ab3b 08e2 7a3a 74d9 8a3b 944c 993a
00000170: 274e 4a3b 86df 023b eb2d 2b3b 9ca7 123b
00000180: 77da 7e3b 0247 a33a 29cc 163b 0f2e 8e3b
