runs/perovskite_multiscale_dataset_3/ae1_bg_predictor_enc_l_12_l1_1em2_tanh_pred_p_0_1_100_relu_dec_15_linear_seed_0_lr_1em3_bs_10_1500_epochs_mae_mtl_k_fold_2_xavier_normal/checkpoints/epoch=374-total_val_loss=0.15.ckpt (torch, 36546 bytes, 21 tensors)

submodules.encoder.0.weight f4 [12, 15]
0	0xba5a37f6	-0.0008324379
1	0xba33fc67	-0.0006865919
2	0x3a801c06	0.0009773977
3	0xba5dd854	-0.00084627164
4	0xba4611e2	-0.00075557653
5	0x3e37e6c7	0.17959128
6	0x3e2cb728	0.16866744
7	0x391d7944	0.00015017862
8	0xb8023a20	-3.104855e-05
9	0x3a98243f	0.0011607482
10	0x3a612ebd	0.00085900334
11	0x39a30895	0.00031096177
12	0xba1470f1	-0.00056625815
13	0xba0824b0	-0.0005193455
14	0xba48191f	-0.0007633138
15	0x3a8c0178	0.001068159
16	0x3cf6f5cd	0.030146504
17	0xb9db945e	-0.00041881477
18	0x393bf57d	0.00017925161
19	0x39853640	0.00025408156
20	0xbe576f16	-0.2103847
21	0x3e6dbc2c	0.23216313
22	0xbe0e49fd	-0.13895412
23	0xbeaa9f6c	-0.33324754
24	0xba875467	-0.0010324836
25	0x3ac84248	0.0015278542
26	0x3acd737a	0.0015674673
27	0xbad0bad4	-0.001592482
28	0xbae419e8	-0.001740274
29	0xbabfcaa1	-0.0014632532
30	0xba9abef4	-0.0011806176
31	0x3c77d333	0.015126037
32	0x3a9cf10c	0.0011973693
33	0xba93c463	-0.0011273738
34	0xba9b4db1	-0.0011848715
35	0x3daa021f	0.08301186
36	0xbd27263c	-0.040807948
37	0x3dd08d84	0.10183242
38	0xbad10ca5	-0.0015949203
39	0xbe72702d	-0.23675604
40	0x3813f154	3.5272285e-05
41	0x3a01b775	0.00049482967
42	0xb99dfb08	-0.00030132406
43	0xb9be099c	-0.00036246784
44	0xb92adea2	-0.000162954
45	0xba9c3d89	-0.0011920194
46	0x3d7c098c	0.061532542
47	0x3ac20efa	0.0014805489
48	0xbac281f4	-0.0014839754
49	0xbac0e414	-0.001471641
50	0xbac7db56	-0.0015247862
51	0xbb282323	-0.0025655709
52	0x3e2b95df	0.1675639
53	0x3b7fbcca	0.003902244
54	0x3e1523e0	0.14564466
55	0x3927f75a	0.00016018507
56	0xb97e2e04	-0.0002424047
57	0x38d0cdbe	9.956535e-05
58	0x38e212f4	0.0001078005
59	0xb946a998	-0.0001894593
60	0x3d0e77a5	0.03478207
61	0xbdeb121d	-0.11478064
62	0x3dbb9e4f	0.09161054
63	0xbe3c581c	-0.18392986
64	0x3825f671	3.9568582e-05
65	0x3a9c26b3	0.0011913389
66	0x3a00ecec	0.00049181166
67	0x3b8de7be	0.0043306043
68	0xba914a9e	-0.001108486
69	0xba177a39	-0.00057784055
70	0xba2459cc	-0.00062694843
71	0xb9ac172e	-0.00032823667
72	0x39cd6897	0.00039178572
73	0x39c150d2	0.00036872044
74	0x3a170c9a	0.00057620707
75	0x3d01cd71	0.031690065
76	0xbd6aaad1	-0.05729181
77	0xbb5d689c	-0.0033784276
78	0x3d8ddf38	0.06927341
79	0x3e6e6f88	0.23284733
80	0xbb1a5cc6	-0.0023553832
81	0xbad7ac50	-0.0016454551
82	0xbaeaf992	-0.0017927161
83	0xb9c5cd54	-0.0003772775
84	0xba6fb0d9	-0.0009143479
85	0xba10f2d6	-0.00055293494
86	0xba6c24c9	-0.0009008167
87	0x3a48a712	0.000765429
88	0x3a373166	0.0006988257
89	0x3a1c4804	0.0005961659
90	0x3853e3a6	5.0518334e-05
91	0xbc791013	-0.015201586
92	0xb9dcc736	-0.00042110094
93	0x3a25ea50	0.0006329166
94	0x39bdad43	0.0003617798
95	0xbd75de6b	-0.060026567
96	0x3a968247	0.0011482917
97	0x3e7509bc	0.23929495
98	0x3a66fa27	0.00088110793
99	0x3a983210	0.00116116
100	0x3a84933c	0.001011468
101	0x3a9370a9	0.0011248785
102	0xba951569	-0.0011374179
103	0xba92a9da	-0.0011189536
104	0xba806510	-0.0009795744
105	0x3e9c3dd5	0.30515924
106	0x3d932e84	0.071866065
107	0xba964a52	-0.0011466241
108	0xbcb51f0a	-0.022109527
109	0x3aa4de24	0.001257841
110	0x3aea8907	0.001789362
111	0x3a937d94	0.0011252635
112	0xbaca3552	-0.0015427268
113	0xbaf5681e	-0.0018723046
114	0xbad82adb	-0.0016492264
115	0x3885229c	6.348381e-05
116	0xba851a6d	-0.001015497
117	0x3a36bc00	0.0006970763
118	0x3a45c0ea	0.00075437
119	0x39914d8d	0.00027714335
120	0xb967df3a	-0.00022113035
121	0x3cbd3be9	0.023099856
122	0xb804709c	-3.1576128e-05
123	0xb95d4b64	-0.00021104288
124	0xb7a57360	-1.9723258e-05
125	0xbad6cdbb	-0.0016388217
126	0xbaed8a6f	-0.0018122921
127	0x39e44d12	0.0004354497
128	0x3a7a7d4b	0.0009555413
129	0x39500bde	0.00019840847
130	0xb9b7472b	-0.00034957504
131	0xbce29d02	-0.027662758
132	0x3e65f861	0.2245803
133	0x393e5fed	0.00018155547
134	0x395fc3f1	0.00021339931
135	0xb731fed4	-1.0609354e-05
136	0x38a588c6	7.893289e-05
137	0xb992b448	-0.0002798161
138	0x395b3d7f	0.00020908377
139	0x38eb112a	0.0001120887
140	0x3b0e06fa	0.0021671639
141	0x3aa4d303	0.0012575093
142	0x3a1388c0	0.00056279823
143	0xba16b89e	-0.0005749556
144	0x3903f9ca	0.00012586187
145	0x3eb44e81	0.35216144
146	0x3a805af5	0.0009792732
147	0xba8ddce8	-0.0010823281
148	0xba7880fa	-0.0009479668
149	0xbaf94d8b	-0.0019020302
150	0xb9d07138	-0.00039757206
151	0x3e0a4f66	0.1350685
152	0x39d1a2ae	0.00039984792
153	0xb9cce181	-0.00039077926
154	0xbde638bb	-0.11241289
155	0xb9507620	-0.00019880431
156	0xbb218a80	-0.0024649203
157	0x3a880497	0.0010377344
158	0x3a4ff61a	0.00079330953
159	0x39924efa	0.00027906132
160	0x3a45ad83	0.0007540809
161	0x3a9eaed2	0.0012106544
162	0xba8adec1	-0.001059495
163	0xba858678	-0.001018717
164	0xba5e34dd	-0.0008476505
165	0x3a09be59	0.0005254499
166	0x3999754a	0.0002926982
167	0x39b6bcce	0.00034854416
168	0xba472073	-0.0007596083
169	0xb9b851c8	-0.00035156147
170	0x3a7c48c8	0.00096238824
171	0x3aa48946	0.0012553118
172	0x3a4631eb	0.0007560539
173	0xb9dc194e	-0.00041980523
174	0x379dc130	1.8805818e-05
175	0x3ac48d70	0.0014995765
176	0x3dbd3076	0.09237759
177	0xbb147093	-0.0022650107
178	0xbe2b51ba	-0.16730395
179	0xbad305d8	-0.0016099764

submodules.encoder.0.bias f4 [12]
0	0x3d7af8fc	0.061272606
1	0x3e226d68	0.15862048
2	0xbd218490	-0.039433062
3	0xbd9acbe7	-0.075584225
4	0xbc5e378d	-0.013563049
5	0xbd8534f5	-0.065042414
6	0xbd7ba373	-0.061435174
7	0x3c806235	0.015671829
8	0xbdb826be	-0.089917645
9	0xbe1672d7	-0.14692245
10	0xbe0f2e11	-0.13982417
11	0x3e24aea2	0.16082242

submodules.bg_pred.0.weight f4 [100, 12]
0	0xbc6db251	-0.014507846
1	0x3e0abad6	0.13547835
2	0xbe55e03d	-0.20886321
3	0xbe910538	-0.28324294
4	0xbdc80165	-0.09765891
5	0x3d85abe9	0.0652693
6	0xbe6d7ef0	-0.23192954
7	0x3e1a396e	0.1506097
8	0xbe488dc4	-0.1958533
9	0xbe686b0d	-0.22697087
10	0x3d3c2e04	0.04594232
11	0xbe1c5d5b	-0.15269987
12	0x3c5326fa	0.012887711
13	0xbe89a00e	-0.26879925
14	0xbe301880	-0.17196846
15	0x3e855917	0.26044533
16	0x3ec1f0c4	0.37879002
17	0xbe98fd73	-0.29880866
18	0xbd090a63	-0.03345717
19	0xbe4efe8a	-0.20214286
20	0xbe3af386	-0.1825696
21	0xbd03a112	-0.03213603
22	0x3ea31a9f	0.31856248
23	0xbe20d960	-0.15707922
24	0xbdd4d1ff	-0.10391616
25	0x3d9d79c2	0.07689239
26	0x3df92e09	0.12166984
27	0x3c801341	0.015634181
28	0xbe3ad783	-0.18246274
29	0xbd9e4994	-0.07728878
30	0x3e24c709	0.16091551
31	0x3ec098b3	0.376165
32	0xbe1e84a0	-0.1548028
33	0x3e7b0356	0.24512991
34	0x3e0f69f5	0.14005263
35	0x3e00d34f	0.12580608
36	0xbce1b50a	-0.027552146
37	0xbee15efb	-0.44017777
38	0x3e91e5ee	0.28495735
39	0x3e1fafd1	0.15594412
40	0x3da5891e	0.08082794
41	0xbe82ba25	-0.25532642
42	0xbd0dba97	-0.034601774
43	0xbe5061ca	-0.20349804
44	0x3d790282	0.060793407
45	0xbdf4ab7d	-0.11946771
46	0x3ec6ab2c	0.3880247
47	0x3d423c25	0.04742064
48	0x3f2488d5	0.6427129
49	0x3e00718b	0.12543313
50	0x3d9a110c	0.07522783
51	0xbca991f4	-0.020699479
52	0xbdb2ac3a	-0.08724256
53	0xbd575216	-0.052568518
54	0xbe4a0a69	-0.19730534
55	0x3dafc15e	0.08581804
56	0x3c143a4a	0.0090471
57	0xbd6d7ba7	-0.057979252
58	0xbe714d08	-0.23564541
59	0x3de23a5f	0.1104629
60	0xbe87f0ce	-0.26550907
61	0xbcda7ff4	-0.02667234
62	0x3ef3e2c3	0.47633943
63	0xbe88cead	-0.2672018
64	0xbb28acf9	-0.0025737865
65	0x3ed07c50	0.40719843
66	0x3dec58ef	0.115404
67	0x3e0d6f0c	0.13811892
68	0x3e465aae	0.19370529
69	0xbe38372d	-0.17989798
70	0xbe7754bd	-0.24153419
71	0xbea4e3ff	-0.32205197
72	0xbdf88528	-0.121347725
73	0x3e25e92d	0.16202231
74	0x3dc78fde	0.09744237
75	0x3e451387	0.1924573
76	0x3ea99e5a	0.33128625
77	0xbd2d8b7b	-0.042369347
78	0xbed323ad	-0.41238156
79	0x3d35a5dc	0.04434763
80	0x3ebd4854	0.36969244
81	0xbeaf84a9	-0.342809
82	0x3c6d6850	0.014490202
83	0xbde34ef7	-0.11099046
84	0xbea01ac6	-0.31270427
85	0x3d98da54	0.07463518
86	0x3ec1f7f0	0.37884474
87	0xbe91546b	-0.28384718
88	0xbd4ca3ec	-0.049961016
89	0x3ec98d16	0.39365453
90	0x3db13ab3	0.08653774
91	0x3dd69dd5	0.10479323
92	0x3e908fd2	0.28234726
93	0x3e19fcf8	0.15037906
94	0xbd716835	-0.05893727
95	0xbef718d5	-0.48261133
96	0xbc153a46	-0.009108132
97	0x3eb69fd7	0.35668823
98	0xbdd149ac	-0.1021913
99	0xbd38e8ed	-0.04514401
100	0xbde6bd5f	-0.112665884
101	0x3c8fbcb3	0.017546033
102	0x3d830092	0.06396593
103	0xbe18040f	-0.14845298
104	0xba720b00	-0.00092332065
105	0x3b70efde	0.0036764066
106	0x3d22283a	0.039589144
107	0x3d2cd240	0.042192698
108	0x3e2dd21e	0.16974685
109	0x3dc556bf	0.09635686
110	0xbe9b3fd7	-0.30322143
111	0xbee74014	-0.45166075
112	0x3dbb7690	0.091534734
113	0xbd9221d5	-0.07135359
114	0x3d315f62	0.043303855
115	0x3e11a9ff	0.14225005
116	0xbcacf83d	-0.021114463
117	0xbdd4e98c	-0.10396108
118	0x3e12b47c	0.14326662
119	0xbd11fb0b	-0.035639804
120	0xbda39208	-0.079868376
121	0x3e2314e6	0.15925941
122	0x3dedb0d2	0.116059914
123	0xbdc43af8	-0.0958156
124	0x3e5bd48a	0.21467796
125	0xbe16b08b	-0.14715783
126	0xbca2c707	-0.019870294
127	0x3ccd631d	0.025071675
128	0x3e87cd7f	0.2652397
129	0xbeaa0110	-0.33203936
130	0xbdc83e58	-0.09777516
131	0xbe98a996	-0.29816884
132	0xbdb15896	-0.086594746
133	0x3e2bd801	0.16781618
134	0x3ec47e65	0.3837768
135	0xbe3f200a	-0.18664566
136	0xbe90a526	-0.28250998
137	0x3d721185	0.05909874
138	0xbe3ed880	-0.18637276
139	0xbe31cfb9	-0.17364396
140	0xbcb131fd	-0.021630282
141	0xbd4deb1a	-0.05027304
142	0x3e10c717	0.14138447
143	0xbd216ee0	-0.03941238
144	0xbe5efc26	-0.21775874
145	0x3e81a06c	0.25317705
146	0x3b9f927d	0.0048697577
147	0xbea335a7	-0.3187687
148	0x3ca45df1	0.020064326
149	0xbdf54164	-0.11975363
150	0xbd99f060	-0.07516551
151	0xbe87d2f1	-0.26528123
152	0xbc446e1c	-0.011989143
153	0x3e925dd7	0.2858722
154	0x3e95fd9b	0.29295048
155	0x3df6057f	0.12012767
156	0xbe8aadf7	-0.2708585
157	0x3e0faa67	0.14029847
158	0x3e3c2055	0.18371709
159	0xbe210c4a	-0.15727344
160	0xbcb51671	-0.022105427
161	0xbd8ae0c7	-0.06781154
162	0x3b7d9a7d	0.0038696819
163	0x3e8169b3	0.25275955
164	0xbd691df2	-0.056913324
165	0x393a500f	0.00017768166
166	0x3d762cdb	0.06010137
167	0xbe4a63af	-0.19764589
168	0x3d225785	0.039634246
169	0x3ea60f52	0.32433563
170	0xbdbc510e	-0.091951475
171	0xbd8358a5	-0.06413392
172	0x3e30429d	0.17212911
173	0x3d133186	0.0359359
174	0xbe00e973	-0.12589054
175	0x3e62c67d	0.2214603
176	0x3e03f96a	0.12888113
177	0xbde35d0f	-0.11101734
178	0x3ca150cc	0.019691847
179	0xbd7d680a	-0.061866798
180	0xbc1b1728	-0.00946597
181	0xbe91a7ab	-0.28448233
182	0xbdca2148	-0.09869629
183	0x3e5daec9	0.21648706
184	0x3e9f4513	0.31107387
185	0xbe6a0e5f	-0.22857045
186	0xbda9a76d	-0.08283887
187	0xbe63f707	-0.22262202
188	0x3d1ea613	0.0387326
189	0xbcf78992	-0.030216966
190	0x3e872d98	0.26401973
191	0x3db8fecb	0.09032973
192	0x3dd56beb	0.10420974
193	0x3ef865a6	0.48515052
194	0x3d36b141	0.044602636
195	0x3bb519c9	0.0055267555
196	0xbe05243c	-0.13002104
197	0x3d2600fa	0.040528275
198	0xbd9a7bd6	-0.07543151
199	0xbef03e2c	-0.46922433
200	0xbaa1bcd9	-0.0012339606
201	0xbd0a237c	-0.033725247
202	0x3e64fe8e	0.2236273
203	0xbe818102	-0.25293738
204	0x3dc19144	0.09451535
205	0x3eb43b65	0.35201564
206	0xbcc3e67d	-0.023913616
207	0xbdb5eee3	-0.08883455
208	0xbcf842d8	-0.030305311
209	0xbdd0ce49	-0.10195596
210	0xbda6eb37	-0.081503324
211	0xbe85912b	-0.26087317
212	0x3e8a7290	0.2704053
213	0x3d166711	0.036719386
214	0x3ce7944a	0.028268952
215	0x3c5cccb4	0.013476539
216	0x3da85875	0.08219997
217	0x3de33a60	0.110951185
218	0xbee7ac2d	-0.45248547
219	0x3e6e9e61	0.23302604
220	0x3e2d6fd0	0.16937184
221	0x3dc7d7e1	0.097579725
222	0xbe710843	-0.23538308
223	0x3de6c0e4	0.1126726
224	0x3d3fc37e	0.046817295
225	0xbe99c3c6	-0.30032176
226	0x3c999682	0.018748526
227	0xbe0fd040	-0.14044285
228	0xbeb8f17e	-0.36121744
229	0x3ea0592f	0.31318042
230	0xbdd681fc	-0.10474011
231	0xbd43f97f	-0.04784536
232	0xbd9afed4	-0.07568136
233	0x3da8dc0d	0.08245096
234	0x3df0e15f	0.11761736
235	0x3d6f05de	0.058355205
236	0xbd1f6889	-0.038918052
237	0xbd691cfd	-0.05691241
238	0x3dfc041e	0.12305473
239	0x3c25b965	0.010115002
240	0x3e0facd4	0.14030772
241	0x3d89000f	0.06689464
242	0xbece57a2	-0.40301234
243	0x3d021d90	0.031766474
244	0xbe3f2206	-0.18665323
245	0xbcfcb5f5	-0.030848483
246	0x3e5c0851	0.21487547
247	0xbe1e48d5	-0.1545747
248	0x3e9437de	0.28948873
249	0xbe6e83b5	-0.2329243
250	0x3e2be3cb	0.16786115
251	0x3db19c3c	0.086723775
252	0x3cc9f38c	0.024652265
253	0x3b05c1aa	0.0020409622
254	0x3d6b6d7a	0.05747745
255	0xbe31e121	-0.17371036

submodules.bg_pred.0.bias f4 [100]
0	0x3e673b23	0.22581153
1	0xbe14973f	-0.14510821
2	0x3d9bd5d6	0.07609145
3	0xbdb1496c	-0.08656582
4	0xbcc3c7aa	-0.023898918
5	0x3b4218ea	0.00296169
6	0x3e110ffa	0.14166251
7	0x3d93f1a0	0.07223821
8	0x3d02f882	0.031975277
9	0x3de2e068	0.11077958
10	0x3dfbdc9f	0.122979395
11	0x3e020176	0.1269587
12	0x3dc89688	0.097943366
13	0x3e1b0f66	0.15142593
14	0x3e379d25	0.1793104
15	0xbe0a6e6e	-0.13518688
16	0x3e0fa282	0.14026836
17	0x3da574af	0.08078896
18	0x3db19e9b	0.0867283
19	0x3cc49cdb	0.024000576
20	0xbdd06af9	-0.101766534
21	0xbe90f808	-0.28314233
22	0x3d7e152a	0.062031902
23	0xbd6a94b7	-0.05727073
24	0x3d9d5c6a	0.07683642
25	0x3e4cf656	0.20015845
26	0xbe4aa554	-0.1978963
27	0x3e878361	0.26467422
28	0x3e020233	0.12696151
29	0xbd87c8eb	-0.06630119
30	0x3e27c960	0.16385412
31	0xbe137fb3	-0.14404182
32	0xbde2f1c6	-0.11081271
33	0x3dcd26f5	0.10017196
34	0xbe420de0	-0.18950605
35	0x3e7a776a	0.24459615
36	0xbe356020	-0.1771245
37	0x3dd3998e	0.103320226
38	0x3e22fbcc	0.15916365
39	0x3e195886	0.14975175
40	0x3d44d0a5	0.04805054
41	0xbe50294a	-0.2032825
42	0x3e8f82d1	0.28029492
43	0xbe9f76d8	-0.31145358
44	0x3e56ff74	0.20995885
45	0x3e16132a	0.14655748
46	0xbd1f82bc	-0.038943037
47	0x3e2b953f	0.16756152
48	0x3e7d488e	0.24734709
49	0x3e06a4a5	0.13148744
50	0x3d5538fd	0.0520563
51	0x3e142a95	0.14469369
52	0x3e6c39c7	0.23068915
53	0xbeb84eca	-0.3599761
54	0xbd459918	-0.048241705
55	0xbe41bb1f	-0.18919037
56	0x3e18a252	0.1490567
57	0xbe799b25	-0.24375589
58	0xbdb05870	-0.08610618
59	0x3e734052	0.23755005
60	0x3e06ae21	0.13152362
61	0xbcdf6203	-0.027268415
62	0x3b011949	0.001969891
63	0x3e747dd8	0.2387613
64	0x3dcf06da	0.10108729
65	0xbd58812c	-0.052857563
66	0xbece390d	-0.402779
67	0x3e0bbacd	0.13645478
68	0x3e0c0fbd	0.13677879
69	0x3dd8726e	0.10568701
70	0x3e81bcfa	0.2533949
71	0xbdafe0f6	-0.0858783
72	0x3c404ce5	0.011737083
73	0xbe0f65a7	-0.14003621
74	0x3e075d50	0.1321919
75	0x3dce3507	0.10068708
76	0xbe383121	-0.17987491
77	0xbe261b8b	-0.16221444
78	0x3baa3267	0.0051939967
79	0xbd9af35a	-0.07565947
80	0x3e94f17c	0.29090488
81	0xbdc7411a	-0.09729214
82	0x3d830ed9	0.06399316
83	0xbd7ee5f1	-0.062231008
84	0xbea22f2a	-0.31676608
85	0xbe20c376	-0.15699562
86	0x3dbf9a17	0.09355562
87	0x3da52e67	0.08065491
88	0xbe8ab569	-0.2709153
89	0xbdd0f7f8	-0.10203546
90	0xbd6d9190	-0.058000147
91	0x3e5873f0	0.21137977
92	0xbe8f2e7b	-0.2796515
93	0x3e28112e	0.16412804
94	0xbe2eded7	-0.17077194
95	0x3e124587	0.14284335
96	0x3dcc92c5	0.099889316
97	0x3e244516	0.16041979
98	0x3dad5c5c	0.08464882
99	0xbdbf4cc7	-0.09340816

submodules.bg_pred.3.weight f4 [1, 100]
0	0x3dd84801	0.10560609
1	0xbea69fec	-0.32543886
2	0x3e329cce	0.17442629
3	0xbedce309	-0.43141964
4	0x3e2167b4	0.15762216
5	0x3e65a311	0.22425486
6	0x3e17a818	0.14810216
7	0x3eb7e834	0.35919344
8	0x3e9f365c	0.3109616
9	0x3e6452c7	0.22297202
10	0x3e1a6646	0.15078077
11	0x3e47de03	0.19518284
12	0x3e0b521a	0.13605538
13	0x3e71a168	0.23596728
14	0x3df83b12	0.12120642
15	0xbeea73a7	-0.4579136
16	0x3e3b6744	0.18301111
17	0x3e46e95c	0.19424957
18	0x3e5bc443	0.21461587
19	0x3ecd54b5	0.4010369
20	0xbe0dda84	-0.13852888
21	0xbf249ad8	-0.6429877
22	0x3e33e847	0.17569076
23	0x3e39211c	0.18079036
24	0x3e09104e	0.13385126
25	0x3e1e845f	0.15480183
26	0xbf950ca1	-1.1644479
27	0x3de8579e	0.11344837
28	0x3e762f44	0.24041468
29	0xbea1817f	-0.3154411
30	0x3e262193	0.16223745
31	0xbeb45fe1	-0.352294
32	0xbf00f126	-0.50367963
33	0x3e00f78b	0.1259443
34	0xbed5b62d	-0.41740552
35	0x3e2ad136	0.1668137
36	0x3eb9306a	0.3616975
37	0x3e245598	0.16048276
38	0x3e2040a0	0.15649652
39	0x3e00596b	0.1253411
40	0x3e48a3a4	0.19593674
41	0xbf17cc9a	-0.5929657
42	0x3de66f18	0.11251658
43	0xbf4b4403	-0.7940065
44	0x3e2fb26f	0.17157911
45	0x3e5149a5	0.2043825
46	0xbe833b83	-0.2563134
47	0x3e1b30da	0.15155354
48	0x3e07e849	0.13272204
49	0x3e256a79	0.16153897
50	0x3e804224	0.2505046
51	0x3e08c99f	0.13358162
52	0x3e2a5a72	0.16636065
53	0xbf323121	-0.69606215
54	0x3e0981c2	0.13428405
55	0xbe91b75e	-0.2846021
56	0x3e1ac898	0.15115583
57	0xbf8d6cc0	-1.1048813
58	0xbece8819	-0.4033821
59	0x3e09dbac	0.13462704
60	0x3e2f7690	0.17135072
61	0x3e69894d	0.22806282
62	0xbe0ef484	-0.13960463
63	0x3e0f765e	0.14009997
64	0x3dfd70c8	0.12375027
65	0xbece61b3	-0.40308914
66	0xbf695fcc	-0.911618
67	0x3e45409a	0.19262925
68	0x3e262ef6	0.16228852
69	0x3e34955e	0.17635104
70	0x3e0a9390	0.13532853
71	0xbe8ab3f2	-0.27090412
72	0x3e50e549	0.20399965
73	0xbeba4f97	-0.36388847
74	0x3e35908c	0.17730922
75	0x3e0d4091	0.13794161
76	0xbf6006c2	-0.8751031
77	0xbe978e92	-0.2960096
78	0x3ebac7c9	0.3648055
79	0xbeecfbd8	-0.46285892
80	0x3e0e4f76	0.138975
81	0xbeee66d3	-0.46562824
82	0x3e18110e	0.14850256
83	0xbf0ef228	-0.5583825
84	0xbf46f55a	-0.77718127
85	0xbecc2b45	-0.39876762
86	0x3e4231a0	0.18964243
87	0x3e8974fc	0.26847064
88	0xbf7d8135	-0.9902528
89	0xbe0c48bf	-0.13699625
90	0xbe4ad4d2	-0.19807747
91	0x3e08e8e6	0.13370094
92	0xbf8717c9	-1.0554134
93	0x3e7dd445	0.24788006
94	0xbeb4eb6d	-0.35335866
95	0x3e0afd71	0.13573243
96	0x3e81f2d6	0.25380582
97	0x3e1a069b	0.15041582
98	0x3e255773	0.1614664
99	0xbef51bc7	-0.47872755

submodules.decoder.0.weight f4 [15, 12]
0	0xbd34777d	-0.044059265
1	0x3cb999aa	0.02265628
2	0x3d82fa61	0.06395412
3	0x3e2e6c1d	0.1703343
4	0x3f6b98f7	0.9203028
5	0x3f853c6d	1.0409065
6	0xbe043863	-0.12912135
7	0x4047d22a	3.1222024
8	0xbdd491e3	-0.10379388
9	0xbd6ada6b	-0.057337206
10	0xbf092996	-0.5357908
11	0xbd88a601	-0.06672288
12	0xbefa633b	-0.48903832
13	0x3ecb47e4	0.39703286
14	0x3f4b643e	0.7944983
15	0x3ffb46f3	1.9631027
16	0xc021bf12	-2.527287
17	0xbffb92e6	-1.9654205
18	0xbfa877bc	-1.316154
19	0x3f8a4b55	1.080424
20	0x3f26a281	0.6509171
21	0x3ca84428	0.020540312
22	0x401c7216	2.4444633
23	0x3f196000	0.5991211
24	0xbda51154	-0.08059946
25	0x3d2246d1	0.039618317
26	0x3dfd90d2	0.12381138
27	0x3e9dcc1f	0.30819795
28	0x3fefa091	1.8720876
29	0xbf9e5194	-1.2368646
30	0xbe8c0b86	-0.27352542
31	0xbef5ad00	-0.4798355
32	0x3eae392f	0.34028003
33	0x3d6993ef	0.057025846
34	0x3f32d5db	0.6985757
35	0x3e8c8165	0.2744247
36	0x3dd67a38	0.1047253
37	0xbd688105	-0.056763668
38	0xbe257fa7	-0.16161977
39	0xbeccd250	-0.40004206
40	0xc014d6fc	-2.3256216
41	0x3fb98d90	1.4496326
42	0x3eb76b3d	0.35824004
43	0xbef8495d	-0.48493472
44	0xbe0aa04d	-0.13537712
45	0xbc37c773	-0.011216986
46	0xbf62572f	-0.8841428
47	0xbe00fff8	-0.12597644
48	0x3dea0b62	0.11427952
49	0xbd858a72	-0.06520547
50	0xbe356c50	-0.17717099
51	0xbee21e91	-0.44163945
52	0xbfa8f8ca	-1.3200924
53	0x3fc1313d	1.5093151
54	0x3eb8c555	0.36088052
55	0x3ee5ee28	0.4490826
56	0xbe98bfe9	-0.29833916
57	0xbd4050b5	-0.04695197
58	0xbf2abea2	-0.6669713
59	0xbe796d1d	-0.2435803
60	0x403db225	2.963998
61	0xbf839261	-1.0279046
62	0x3ff6fb33	1.929541
63	0x3e8eff42	0.2792912
64	0xbd8031be	-0.062594876
65	0xbe23b6f6	-0.15987763
66	0xbfd3abeb	-1.653684
67	0x3c2e1cb0	0.010626957
68	0xbe9ded6a	-0.30845195
69	0xbcea2a71	-0.02858469
70	0xbeac0149	-0.3359473
71	0xbe8920ea	-0.26782924
72	0x402b8f32	2.680615
73	0x3fcd12ec	1.60214
74	0xbfc02290	-1.5010548
75	0x3f5eadd1	0.8698397
76	0x3d6cb6b2	0.05779142
77	0xbdce4963	-0.10072591
78	0x3f9caef5	1.2240893
79	0xba81f6b7	-0.0009915446
80	0xbe9dcb01	-0.30818942
81	0xbddb4e65	-0.10708312
82	0xbea3f211	-0.3202062
83	0xbe46e60b	-0.19423692
84	0x3ecd6c18	0.4012153
85	0xbd2078e3	-0.039177787
86	0x3f7dd436	0.99151933
87	0x3fa13d9a	1.2596924
88	0xbd8abafb	-0.06773945
89	0xbe793bd4	-0.24339229
90	0x40459f19	3.0878356
91	0x3ca8be26	0.020598482
92	0x3e4fe7b2	0.20303228
93	0x3d74558b	0.059651893
94	0xbefe17f0	-0.49627638
95	0x3e112206	0.14173135
96	0xbec91c1e	-0.39279264
97	0xbf9e25d6	-1.2355297
98	0xc0230706	-2.5473037
99	0x3f1eab1d	0.6197985
100	0xbda0a5a4	-0.078440934
101	0xbdcd81fc	-0.10034558
102	0x3ca69be6	0.02033801
103	0x3d97c6a8	0.074109375
104	0xbdaaacfe	-0.08333777
105	0xbd8949e4	-0.06703547
106	0x3d94a87a	0.07258697
107	0xbbec6006	-0.0072135953
108	0x3f374238	0.71585417
109	0xbf0de7b2	-0.55431664
110	0xc035eb5a	-2.8424897
111	0x3f5790c9	0.842053
112	0xbda391cb	-0.07986792
113	0xbd9c9e0a	-0.07647331
114	0x3e9fa20f	0.31178328
115	0x3cac7409	0.021051424
116	0x3e87727c	0.26454532
117	0x3c2a7d90	0.010405913
118	0xbc99558f	-0.018717555
119	0x3e78f72d	0.2431304
120	0xb8c293de	-9.278183e-05
121	0x3c495ec2	0.012290658
122	0x3b8e69e0	0.0043461174
123	0xbce5dacd	-0.028058434
124	0xbd73806d	-0.05944865
125	0xbd8c9047	-0.06863456
126	0x3d1a5275	0.037676293
127	0x3d01e6fe	0.031714432
128	0xbec9d637	-0.39421245
129	0x400b5c97	2.1775262
130	0xbc75bfa4	-0.014999304
131	0x3f44ba2f	0.76846594
132	0x3da32e8a	0.07967861
133	0xbd9bc451	-0.07605804
134	0xbe0a7c66	-0.13524017
135	0xbeafcbed	-0.3433527
136	0xbd87d3ec	-0.06632218
137	0x3dcd5237	0.10025447
138	0x3e591ee2	0.21203187
139	0x3caeae2d	0.021323288
140	0xbfecd34a	-1.850198
141	0x3c029259	0.007969462
142	0x3ee5bc9a	0.44870454
143	0x400c79fd	2.1949456
144	0xbd13e21c	-0.036104307
145	0x3ce94b81	0.028478386
146	0x3d5b9ea6	0.053618096
147	0x3e2888ff	0.1645851
148	0x3d025f68	0.031829268
149	0xbdbfcdf0	-0.09365451
150	0xbde2178c	-0.110396475
151	0xbc175e21	-0.009238751
152	0x3fc8b0d9	1.567897
153	0xbf4b692b	-0.7945735
154	0xbeb19218	-0.34681773
155	0xbfb7fb62	-1.4373591
156	0xbd21abc9	-0.039470468
157	0x3d05418d	0.032533217
158	0x3d815794	0.06315532
159	0x3e331624	0.17488915
160	0x3d773d27	0.060361054
161	0xbda82db1	-0.0821184
162	0xbdd8230e	-0.10553561
163	0xbc9fa849	-0.019489424
164	0x3ff5f9a0	1.9216805
165	0xbee5cb94	-0.4488188
166	0xbec043ed	-0.37551823
167	0xbfc4f032	-1.5385802
168	0xbcff0195	-0.031128684
169	0x3c9204cd	0.017824555
170	0x3d44601d	0.047943223
171	0x3e1d4aae	0.1536052
172	0x3dbd51bb	0.092441045
173	0x3d5e5171	0.054276887
174	0xbdf1abbd	-0.118003346
175	0xbd1de0ac	-0.038544342
176	0x3f859d1d	1.0438572
177	0xbfe37644	-1.7770467
178	0xbe0cd8a0	-0.13754511
179	0xbf26d9a3	-0.6517584

submodules.decoder.0.bias f4 [15]
0	0xbd110a29	-0.03541008
1	0x3e3e35f4	0.18575269
2	0x3d7069cb	0.058694642
3	0xbd836c1d	-0.06417105
4	0xbd0d1f71	-0.034453813
5	0xbd866f25	-0.06564168
6	0xbec816db	-0.39079937
7	0x3e4ae0a8	0.19812262
8	0x3e0d3132	0.13788298
9	0xbc927197	-0.01787643
10	0x3e09cc03	0.1345673
11	0xbed99727	-0.42498133
12	0x3e43c9ee	0.19119999
13	0x3e8f7499	0.28018644
14	0xbd6f1773	-0.058371972

exp_avg f4 [12, 15]
0	0xbdaab6f4	-0.08335677
1	0x3d230d51	0.03980762
2	0x3da4c624	0.08045605
3	0xbd9d0711	-0.076673634
4	0xbda32d0e	-0.07967578
5	0xbcf79047	-0.030220164
6	0x3d80ef28	0.062956154
7	0x3dafeab5	0.08589689
8	0x3db0fcb8	0.08641952
9	0x3dc2895e	0.09498857
10	0x3d9bb00c	0.07601938
11	0x3da224fe	0.07917212
12	0xbda242ab	-0.07922872
13	0xbd9f0287	-0.07764154
14	0xbd9df207	-0.07712179
15	0x3d053140	0.03251767
16	0xbda8582e	-0.08219944
17	0xbc70639d	-0.014672187
18	0x3c8a0a62	0.016850654
19	0x3cbd4622	0.023104731
20	0x3e2c9491	0.16853549
21	0xbba675b3	-0.005079949
22	0xbd6a140f	-0.057148036
23	0xbe01ba24	-0.12668663
24	0xbddabeb1	-0.10680903
25	0x3cd5cac8	0.02609767
26	0x3c9fa410	0.01948741
27	0xbc9816a1	-0.018565478
28	0xbcc4e1d8	-0.024033472
29	0xbcb8b063	-0.022545045
30	0xbb543f90	-0.003238652
31	0xbce1306f	-0.027488915
32	0x3b19ab7c	0.002344816
33	0x39e60b5c	0.00043877482
34	0x3a17870e	0.00057803176
35	0xbd55061c	-0.05200778
36	0xbcbb31df	-0.022850929
37	0x3bb3b430	0.0054841265
38	0x3cc4c5bb	0.024020066
39	0x3c2ebde1	0.010665388
40	0x3c9a5193	0.018837726
41	0x3cdb9506	0.026804458
42	0xbcbc29f9	-0.022969233
43	0xbcd2c218	-0.025727317
44	0xbcabc7d0	-0.020969301
45	0xbd09f3c5	-0.033679742
46	0x3d24245c	0.040073738
47	0x3d0f8a59	0.035044048
48	0xbd107460	-0.035267234
49	0xbd145d19	-0.036221597
50	0xbe00b399	-0.12568511
51	0xbbd9f8e1	-0.006651983
52	0x3d9f5e35	0.077816404
53	0x3df3cb50	0.11904013
54	0x3dd42a99	0.10359687
55	0x3cb510a1	0.022102656
56	0x3ca386e0	0.019961774
57	0xbca15197	-0.019692225
58	0xbc88cc5e	-0.016699012
59	0xbcc3f390	-0.02391985
60	0xb90ad530	-0.00013240124
61	0xbd049748	-0.032370836
62	0x3be8797f	0.0070945616
63	0xbaebc967	-0.00179891
64	0xbb239700	-0.002496183
65	0xbdbca8a2	-0.09211852
66	0xbcdc3c8e	-0.026884343
67	0x3dc4f8fd	0.09617803
68	0x3deed2f0	0.11661327
69	0x3daf2348	0.08551651
70	0x3cb06e1f	0.021536885
71	0x3c4b1b71	0.012396679
72	0xbc610b5b	-0.0137356175
73	0xbc17035d	-0.00921711
74	0xbca55256	-0.020180862
75	0x3d66c047	0.056335714
76	0xba426fbe	-0.00074171636
77	0xbd4b013a	-0.049561717
78	0x3d34d867	0.04415169
79	0x3d435f50	0.04769832
80	0x3e13d209	0.14435591
81	0xbc901e1c	-0.017592482
82	0xbe190b69	-0.14945759
83	0xbe3cdf5f	-0.18444584
84	0xbe27406d	-0.1633317
85	0xbd8f79b0	-0.07005632
86	0xbd8a1cbb	-0.06743761
87	0x3d8e9998	0.069628894
88	0x3d88e89c	0.06684992
89	0x3d8f2274	0.06988993
90	0x3c6709cf	0.01410146
91	0xbc37b2f2	-0.0112120975
92	0xbc8cf7c4	-0.017207988
93	0x3c881290	0.016610414
94	0x3c87b84c	0.016567372
95	0xbca13457	-0.019678278
96	0x3c5475be	0.012967525
97	0xbc19dbfb	-0.009390826
98	0x3c9920b5	0.018692354
99	0x3c9aafbe	0.018882629
100	0x3ce0f676	0.027461272
101	0x3cfafa46	0.030636918
102	0xbcfc1695	-0.030772487
103	0xbce92657	-0.028460665
104	0xbceba2e4	-0.028764196
105	0xbbdfe354	-0.0068325195
106	0x3bb59100	0.005540967
107	0xbc66d7e6	-0.01408956
108	0x3c4b823d	0.012421188
109	0x3c37ce15	0.011218567
110	0x3b8dfdc8	0.0043332316
111	0xbd564a45	-0.052316923
112	0x3ac6f432	0.0015178977
113	0xbcfeb0cb	-0.03109016
114	0xbd453799	-0.048148725
115	0xbd5e4223	-0.05426229
116	0xbd83db68	-0.06438333
117	0x3d772f7d	0.060348023
118	0x3d6ea34b	0.058261197
119	0x3d712f8f	0.058883246
120	0x3d5fd86f	0.054649767
121	0xbd4d9956	-0.05019506
122	0xbd2f0e61	-0.042738322
123	0x3d0a86ca	0.03381995
124	0x3d3ed702	0.046591766
125	0x3c65e635	0.014031936
126	0xbbd54c7e	-0.0065093627
127	0x3c160c70	0.009158239
128	0xbb2fb129	-0.0026808477
129	0xbb1670ee	-0.0022955495
130	0xb78830d1	-1.6235195e-05
131	0xbb8397a1	-0.0040158783
132	0x3b9ca92f	0.0047809104
133	0xbb0f6b8e	-0.0021884176
134	0xbb0b2c60	-0.0021236166
135	0xbbfda925	-0.007741111
136	0x3d13902b	0.03602616
137	0xbb826273	-0.003979021
138	0x3b037da0	0.0020063892
139	0x3a714919	0.0009204313
140	0xbd2bdfab	-0.041961353
141	0xbcd2556f	-0.025675504
142	0xbbdbd9e3	-0.0067093237
143	0x3bcb76f9	0.006209251
144	0xbb1e9039	-0.002419485
145	0x3af3fe83	0.0018615279
146	0xb9eb44b3	-0.00044873878
147	0xbbbf8fa2	-0.00584598
148	0xba50fe0d	-0.0007972427
149	0xbb146bc9	-0.0022647253
150	0x3b23e422	0.0025007804
151	0xbc1afe95	-0.009460111
152	0x3b80023d	0.003906517
153	0xbb94e42c	-0.004543802
154	0xbb92dc35	-0.004481817
155	0xbdb93f53	-0.09045281
156	0x3b313d3d	0.0027044558
157	0x3d98aa90	0.07454407
158	0x3dd51b32	0.10405578
159	0x3db4fc72	0.088372126
160	0xba60d0f4	-0.00085760583
161	0xba4e64f1	-0.0007873318
162	0xba90ba51	-0.0011041855
163	0x39acc855	0.00032955655
164	0xb95fd870	-0.00021347567
165	0xbd3de983	-0.046365272
166	0x3d2901c6	0.041261457
167	0x3d28bee3	0.04119767
168	0xbd1b48cd	-0.037911225
169	0xbd32ee45	-0.043684263
170	0xbd4ff906	-0.050774597
171	0x3ca19b18	0.019727275
172	0x3d945972	0.07243623
173	0x3d9e2b22	0.07723071
174	0x3d9c7955	0.0764033
175	0x3ca5d84f	0.020244746
176	0x3c98c2b0	0.018647522
177	0xbcacfa3c	-0.021115415
178	0xbcac4be7	-0.021032287
179	0xbca9d500	-0.02073145

exp_avg_sq f4 [12, 15]
0	0x3d8be12e	0.06830059
1	0x3d478f3d	0.048720587
2	0x3d87d42c	0.066322654
3	0x3d83f6ca	0.06443556
4	0x3d87a139	0.06622548
5	0x3d9a7831	0.07542456
6	0x3d371918	0.044701666
7	0x3d86c729	0.065809555
8	0x3d883579	0.06650824
9	0x3d51f31e	0.051257245
10	0x3d7d514a	0.0618451
11	0x3d81941f	0.0632708
12	0x3d809615	0.06278626
13	0x3d80f3a8	0.06296474
14	0x3d7f16d6	0.062277637
15	0x3ef5923c	0.4796313
16	0x3f24a8c6	0.6432003
17	0x3f0d3268	0.5515504
18	0x3f11ff5a	0.5703026
19	0x3f0cc017	0.54980606
20	0x3f0d2ba8	0.5514474
21	0x3f09244c	0.5357101
22	0x3f06cc35	0.52655345
23	0x3f0f2bc9	0.55926186
24	0x3f0ab9f7	0.5419001
25	0x3f206c70	0.6266546
26	0x3f266745	0.65001327
27	0x3f244851	0.64172846
28	0x3f24e481	0.6441117
29	0x3f218da9	0.6310678
30	0x3d35e53b	0.044408064
31	0x3d21363f	0.039358374
32	0x3d48016c	0.04882948
33	0x3d4a368e	0.049368434
34	0x3d47f6c0	0.048819304
35	0x3d38bcd7	0.045101967
36	0x3d0d0628	0.0344297
37	0x3d2f06eb	0.042731207
38	0x3d4015dc	0.046895847
39	0x3d2eb296	0.04265078
40	0x3d537739	0.05162737
41	0x3d52dd8d	0.05148082
42	0x3d535f10	0.05160433
43	0x3d5333c9	0.051563058
44	0x3d53a910	0.051674902
45	0x3dce9ca5	0.10088471
46	0x3e19388c	0.14962977
47	0x3de5bf8a	0.11218174
48	0x3deb9a33	0.115040205
49	0x3de779ab	0.11302503
50	0x3e0d189c	0.13778919
51	0x3dd7de74	0.105404764
52	0x3dd63776	0.10459797
53	0x3e055c4e	0.13023493
54	0x3de60e88	0.1123324
55	0x3e0ee5d5	0.13954861
56	0x3e13ddac	0.1444003
57	0x3e120e03	0.14263158
58	0x3e1296bc	0.14315313
59	0x3e0fc8fb	0.14041512
60	0x3d80d1c4	0.062900096
61	0x3da1d1fa	0.07901378
62	0x3d9e833b	0.07739874
63	0x3da5aab4	0.080892
64	0x3da1b204	0.07895282
65	0x3d8df2fe	0.06931113
66	0x3d803079	0.062592454
67	0x3d8b7fd9	0.068114944
68	0x3d9ae508	0.075632155
69	0x3d925290	0.07144654
70	0x3daca942	0.08430721
71	0x3db0b388	0.08627993
72	0x3daf3fd7	0.08557098
73	0x3dafb626	0.08579664
74	0x3dad9031	0.08474768
75	0x3d928315	0.07153908
76	0x3d9ba16d	0.07599149
77	0x3d93b1b7	0.07211631
78	0x3d8d75b1	0.069072135
79	0x3d90d5bb	0.07072016
80	0x3dda577a	0.10661216
81	0x3d7b8aeb	0.06141178
82	0x3d9f42a8	0.077763855
83	0x3dc95269	0.098301716
84	0x3d94c504	0.0726414
85	0x3dbe0fce	0.09280358
86	0x3dc5845f	0.096443884
87	0x3dc2d4e7	0.09513264
88	0x3dc42669	0.09577639
89	0x3dbf8f25	0.093534745
90	0x3d1c1549	0.038106237
91	0x3d4588fd	0.048226345
92	0x3d5ee352	0.05441601
93	0x3d73c227	0.05951133
94	0x3d5ed65b	0.054403644
95	0x3d11f648	0.035635263
96	0x3d5a3a18	0.05327806
97	0x3d2220ea	0.03958217
98	0x3d3759ae	0.04476326
99	0x3d5314c6	0.051533483
100	0x3d61cade	0.05512511
101	0x3d6f9df9	0.058500264
102	0x3d6a2aff	0.05716991
103	0x3d6bc376	0.057559453
104	0x3d64713d	0.055772055
105	0x3dc7f3cd	0.09763298
106	0x3de1fff2	0.11035146
107	0x3df02ee2	0.11727692
108	0x3df7dae2	0.121022955
109	0x3df0c760	0.11756778
110	0x3e1fc348	0.15601838
111	0x3da45235	0.08023492
112	0x3dee03b8	0.11621803
113	0x3e1192f7	0.14216219
114	0x3dcd440a	0.10022743
115	0x3de6f670	0.11277473
116	0x3df685eb	0.120372616
117	0x3df0eb2a	0.11763604
118	0x3df2d8a6	0.11857729
119	0x3de9daea	0.11418708
120	0x3d6b08be	0.057381384
121	0x3d20da93	0.03927095
122	0x3d7464da	0.059666492
123	0x3d72c881	0.059273247
124	0x3d7447bc	0.059638724
125	0x3d3b2c9d	0.045696843
126	0x3d32f3bd	0.04368948
127	0x3d650e68	0.055921942
128	0x3d53f874	0.051750615
129	0x3d58d9c4	0.052942052
130	0x3d4deeef	0.050276693
131	0x3d4f96bd	0.050680865
132	0x3d4cc980	0.049996853
133	0x3d5072f9	0.050890896
134	0x3d4ec1e5	0.05047788
135	0x3d429617	0.047506418
136	0x3d2d1b45	0.042262334
137	0x3d56d756	0.052451454
138	0x3d596ce0	0.053082347
139	0x3d55da84	0.052210346
140	0x3d28f5f0	0.04125017
141	0x3d309383	0.04310943
142	0x3d534d05	0.051587123
143	0x3d3d07ad	0.0461499
144	0x3d482901	0.04886723
145	0x3d2388d9	0.03992543
146	0x3d29ab07	0.04142287
147	0x3d289738	0.04115984
148	0x3d2a07f1	0.04151148
149	0x3d26fcc5	0.040768404
150	0x3d6009e9	0.05469695
151	0x3d9837b1	0.07432497
152	0x3d741165	0.0595869
153	0x3d73345a	0.0593761
154	0x3d6f130b	0.05836777
155	0x3da2e9a5	0.079547204
156	0x3d5fbab1	0.054621402
157	0x3d8aeddb	0.067836486
158	0x3da7155c	0.08158371
159	0x3d83f24c	0.06442699
160	0x3d98b016	0.07455461
161	0x3d9eb129	0.07748634
162	0x3d9c802c	0.07641634
163	0x3d9d6f7a	0.07687278
164	0x3d99c36b	0.07507976
165	0x3d804ac5	0.06264261
166	0x3d43ebe3	0.04783238
167	0x3d805371	0.06265915
168	0x3d7b4aa5	0.061350483
169	0x3d807311	0.06271947
170	0x3d7a305e	0.061081283
171	0x3d429af2	0.04751105
172	0x3d845fa0	0.064635515
173	0x3d86a404	0.06574252
174	0x3d7ada85	0.061243553
175	0x3d6f7fa0	0.058471322
176	0x3d7636e0	0.060110927
177	0x3d72af62	0.05924929
178	0x3d73a190	0.05948025
179	0x3d701526	0.05861392

exp_avg f4 [12]
0	0xbd2578d4	-0.040398434
1	0x3e033317	0.12812458
2	0x3cef4991	0.029209884
3	0xbda1cc4a	-0.07900293
4	0xbd1eae54	-0.03874047
5	0x3d55b7fb	0.05217741
6	0xbbb54637	-0.005532052
7	0xbd3a4429	-0.04547516
8	0x3c26900e	0.010166181
9	0xbcef2e9c	-0.02919703
10	0xbc97cc78	-0.018530115
11	0xbd0f7436	-0.035022937

exp_avg_sq f4 [12]
0	0x3d5c9a41	0.053858045
1	0x3f10eb47	0.56609005
2	0x3d148108	0.036255866
3	0x3df6af3e	0.120451435
4	0x3d884f94	0.06655803
5	0x3d8f74da	0.070047095
6	0x3d2e4fbe	0.042556517
7	0x3dce5def	0.1007651
8	0x3d27aa43	0.04093386
9	0x3d2dbf8d	0.042419005
10	0x3d7f8385	0.062381286
11	0x3d460138	0.048341006

exp_avg f4 [100, 12]
0	0xba117247	-0.00055483397
1	0x3afd0cda	0.0019306198
2	0x3b09423b	0.0020944017
3	0xbb82201f	-0.0039711143
4	0xb9f08e54	-0.0004588241
5	0x3a821df5	0.0009927141
6	0xbb314fd9	-0.002705565
7	0x3aab1514	0.0013052546
8	0xb873c8dc	-5.812278e-05
9	0xbb40bc67	-0.0029409172
10	0xbb2b5beb	-0.0026147317
11	0x3a38cad4	0.0007049267
12	0x398ac430	0.00026467582
13	0x3ac9551c	0.0015360448
14	0x38431eea	4.6520414e-05
15	0xb98f8b15	-0.0002737871
16	0xba9a8a4f	-0.0011790487
17	0x3ac324cb	0.0014888284
18	0xba239f16	-0.0006241662
19	0x3ad659e3	0.0016353693
20	0xba0dd323	-0.0005410185
21	0x3b0cf392	0.0021507484
22	0x3a37c4c3	0.0007010216
23	0x3927dcb2	0.00016008576
24	0x3b416fef	0.002951618
25	0x3aab1ac2	0.0013054239
26	0x3af9f2d4	0.0019069561
27	0xbb233c69	-0.0024907833
28	0xbb0bfbf6	-0.0021359897
29	0x3b880836	0.0041513694
30	0xbac6136e	-0.0015111992
31	0x3b6597b2	0.0035033044
32	0xba9086aa	-0.0011026461
33	0xba47a346	-0.0007615577
34	0xbb854eec	-0.004068246
35	0x3ac26e3e	0.001483388
36	0x3adee04d	0.0017004103
37	0xbb2056ef	-0.002446588
38	0xbb824470	-0.0039754435
39	0x3bb941ce	0.0056535965
40	0xb982cafa	-0.00024946762
41	0xbaccfebf	-0.0015639885
42	0x3b77e674	0.003782657
43	0x39e7f219	0.0004424013
44	0xbb2c7ba4	-0.0026318813
45	0x3b22bfba	0.0024833516
46	0x3a63d057	0.0008690408
47	0x3b4f56ca	0.0031637424
48	0x3af16a50	0.0018418524
49	0x3b2979ee	0.002586003
50	0x3b4e80de	0.0031509916
51	0xbb9656e0	-0.004587993
52	0x3ac40d1d	0.0014957521
53	0x392d58ab	0.00016531597
54	0xbb39dc06	-0.0028359904
55	0xbaa4baed	-0.0012567915
56	0xbb880e00	-0.0041520596
57	0x3b5f7286	0.003409536
58	0xbb3d3072	-0.0028867987
59	0x3b914a2f	0.004433892
60	0xb7deddc9	-2.6567739e-05
61	0x3bad871b	0.005295647
62	0x3afb2484	0.0019160663
63	0xbbbef30d	-0.0058273138
64	0xbaa2cd91	-0.0012420883
65	0x3b18e08a	0.0023327195
66	0xbb9a155a	-0.0047022523
67	0x3b5f2414	0.0034048604
68	0x3a9fc001	0.0012187959
69	0xbbb4e508	-0.0055204667
70	0xbb6dbed8	-0.0036277082
71	0xba0bcdc7	-0.00053330924
72	0x3aea9b9e	0.0017899161
73	0x3b9db971	0.004813366
74	0x3b1896df	0.0023283286
75	0xbb87ae79	-0.004140672
76	0x3a2fc60a	0.00067052303
77	0xbb0986b1	-0.0020984823
78	0xbb6b25d5	-0.0035880704
79	0xb91adc91	-0.00014768752
80	0x39447acf	0.00018737766
81	0xbb88bf21	-0.004173175
82	0xbac1e01c	-0.0014791521
83	0x3a5bab9f	0.00083797605
84	0x3a0b00d7	0.00053025543
85	0x3ba5a91c	0.00505556
86	0x3afeb796	0.0019433375
87	0xbbb6df17	-0.0055807936
88	0xb9afcaa7	-0.0003352959
89	0x3aae0e8f	0.0013279485
90	0xbb97e02a	-0.0046348767
91	0x3b6f426e	0.00365081
92	0x3baf7a17	0.0053551304
93	0xbc3a6d64	-0.01137862
94	0xbb7a4c5d	-0.0038192489
95	0xbb99ba2d	-0.0046913833
96	0x3bdc1d41	0.0067173545
97	0x3c18b6ee	0.009320958
98	0x3ba99021	0.005174652
99	0xbc187eac	-0.009307545
100	0x3ac8c1e4	0.0015316573
101	0x37c9c462	2.4052515e-05
102	0xbc03b996	-0.008039853
103	0xb8fa820d	-0.00011945153
104	0xbb24f263	-0.0025168888
105	0xba2b2468	-0.0006528557
106	0xbb8a0991	-0.004212566
107	0x3b50d7ce	0.003186691
108	0x3b9a5f7c	0.0047110897
109	0x3b73aace	0.0037180665
110	0x3b3fd4c5	0.0029271108
111	0xbb90d322	-0.0044197002
112	0xb9e82ef1	-0.00044285462
113	0x3b2c8d46	0.0026329323
114	0xbb5fc14a	-0.003414231
115	0x3b4491fe	0.0029994245
116	0x3ae22320	0.00172529
117	0xbba6276a	-0.0050706165
118	0xbb888b64	-0.0041670073
119	0xba9ea930	-0.0012104865
120	0x38386b71	4.396908e-05
121	0x3b1b7eea	0.002372677
122	0x3adec529	0.0016996014
123	0xbb5a1830	-0.0033278577
124	0xb92edf8b	-0.0001667721
125	0x39a38193	0.00031186323
126	0xbb183add	-0.0023228445
127	0x3a8a665c	0.001055907
128	0x3a8e0de6	0.0010837882
129	0xbb94cb1a	-0.004540813
130	0xbb1d519f	-0.0024004949
131	0xb9d8d57e	-0.00041357795
132	0x3b9171c7	0.004438612
133	0x3b6591cb	0.0035029526
134	0x3af70dbe	0.00188487
135	0xbb3f3c9f	-0.002918042
136	0xbacd5010	-0.0015664119
137	0x3b3348bf	0.0027356592
138	0xbb3226e5	-0.0027183827
139	0x3b6fe2e4	0.0036603743
140	0x3a31534f	0.0006764428
141	0xbb607948	-0.0034251977
142	0xbb527949	-0.0032115749
143	0xb94d0189	-0.00019550895
144	0xba840a89	-0.001007394
145	0x399aa6ef	0.00029497544
146	0x38e85af4	0.000110795634
147	0xbae2a260	-0.0017290823
148	0x39f1945d	0.0004607764
149	0x38ccd4a6	9.767087e-05
150	0xba757190	-0.00093629304
151	0xba2ba4f6	-0.00065477134
152	0xbaa2bdb4	-0.0012416155
153	0xb94da4d3	-0.00019611725
154	0xbaf6218e	-0.0018778311
155	0x3ad8b483	0.0016533289
156	0x3b26a6a8	0.0025428925
157	0x3bda5f83	0.006664218
158	0x3b1171d1	0.0022193084
159	0xbbcc4e24	-0.006234901
160	0xba467235	-0.0007570119
161	0x3aa70fee	0.0012745836
162	0xbbb58fea	-0.0055408375
163	0x3b4dd65e	0.003140829
164	0x3b842151	0.004032292
165	0xbc2916fe	-0.010320423
166	0xbb828e74	-0.003984267
167	0xbb469bc4	-0.0030305246
168	0x39079ee9	0.00012933802
169	0x3acdaadd	0.001569118
170	0x3af62279	0.0018778584
171	0xbb462b94	-0.0030238377
172	0xb8b644ac	-8.6912274e-05
173	0x3aa686ff	0.0012705027
174	0xbafb8aeb	-0.0019191181
175	0x3a8c6218	0.0010710387
176	0x3aa542e0	0.0012608431
177	0xbb56bda0	-0.0032766834
178	0xbb0afda9	-0.0021208322
179	0xba87fdba	-0.0010375299
180	0xba07edb1	-0.000518526
181	0xb8ed6be3	-0.00011321136
182	0xba978984	-0.0011561369
183	0x3ab0573f	0.0013453736
184	0x37db8554	2.616892e-05
185	0xba3ac6c2	-0.0007124954
186	0x3a73b926	0.00092973036
187	0x38e1eb17	0.00010772625
188	0x3758cbbb	1.2922038e-05
189	0xb859f3a7	-5.196375e-05
190	0x3a1e3623	0.00060352887
191	0xb8791bc4	-5.9392085e-05
192	0x3a81fc17	0.0009917048
193	0x3b4b3c5b	0.0031011316
194	0x3b203252	0.0024444056
195	0xbb808608	-0.003922228
196	0x39c300f0	0.00037193997
197	0x3a13b5fb	0.0005634722
198	0xbb52057f	-0.0032046733
199	0x39c908f0	0.00038344366
200	0xb9cdd439	-0.00039258765
201	0xb8800a1d	-6.1053994e-05
202	0xba87e4b8	-0.0010367846
203	0x3a0dcd58	0.0005409322
204	0x3bb0a91c	0.005391253
205	0x3b556cfb	0.0032566178
206	0x3b50b34b	0.0031845148
207	0xbb5bde37	-0.0033549198
208	0x3a5944f7	0.00082881696
209	0x3ab1ae18	0.0013555912
210	0xbb30139d	-0.002686716
211	0xb92e6a28	-0.0001663348
212	0xbb2db644	-0.0026506344
213	0x3b470229	0.0030366278
214	0xbaeb2897	-0.0017941174
215	0x3b281f6c	0.0025653495
216	0xb9bd93ad	-0.00036158916
217	0x3b089781	0.0020842256
218	0x39ce76d2	0.0003937991
219	0xbb4a6692	-0.003088389
220	0x39717311	0.00023026417
221	0x39749a5b	0.00023327155
222	0xbb11674f	-0.002218682
223	0x3a82086b	0.0009920722
224	0x3b443c32	0.0029943106
225	0xbbf4947b	-0.0074639893
226	0xbb571f7b	-0.003282516
227	0xbb157999	-0.0022808074
228	0x3b4da644	0.003137962
229	0x3c1bd187	0.009510404
230	0x3b8d2a87	0.004308048
231	0xbc2cf02c	-0.010555308
232	0x395c8dfc	0.00021033728
233	0xba27a06a	-0.0006394448
234	0xbc212902	-0.009836437
235	0x3b613b29	0.0034367538
236	0x3ba70278	0.00509673
237	0xbc6d7164	-0.014492366
238	0xbb9cdd44	-0.004787119
239	0xbb5e71a7	-0.0033942254
240	0x3b462480	0.0030234158
241	0x3b0593e7	0.0020382346
242	0xb98c5a2e	-0.0002677007
243	0xb8a5347e	-7.8775905e-05
244	0xb93481d1	-0.00017214498
245	0xb9011ed3	-0.00012313882
246	0xba412d90	-0.0007369155
247	0xb9fb5e17	-0.00047944553
248	0xb985f8ee	-0.00025553204
249	0x39754aa3	0.00023392825
250	0x37ae294f	2.0761652e-05
251	0x396697d9	0.00021991077
252	0xbb9feb41	-0.0048803394
253	0xbc16b80e	-0.0091991555
254	0xbb8d0634	-0.004303718
255	0x3c23fa1b	0.01000836

exp_avg_sq f4 [100, 12]
0	0x390edbe8	0.00013624097
1	0x391c225c	0.00014890119
2	0x38966f63	7.173305e-05
3	0x391b25bc	0.00014796009
4	0x384f536f	4.943035e-05
5	0x3949d6f5	0.00019248931
6	0x38e2b652	0.000108104796
7	0x38b543f5	8.6434105e-05
8	0x38d7a284	0.0001028227
9	0x394ee9e5	0.00019732823
10	0x38dee125	0.00010627721
11	0x38fa8eb1	0.00011947507
12	0x39ace414	0.00032976328
13	0x39275f36	0.0001596183
14	0x394890bf	0.00019127408
15	0x3989e19a	0.00026298763
16	0x38ccd51e	9.767174e-05
17	0x39f028ff	0.00045806912
18	0x39227b11	0.0001549537
19	0x392ac11e	0.00016284405
20	0x39802e60	0.00024448615
21	0x39ffaf74	0.00048768113
22	0x389343d2	7.022139e-05
23	0x39986fcf	0.00029075003
24	0x394ddfcb	0.00019633693
25	0x395dbc4e	0.00021146351
26	0x38bab2d6	8.902482e-05
27	0x394d30eb	0.00019568547
28	0x38926983	6.9814756e-05
29	0x39a16163	0.00030780872
30	0x39170195	0.00014401072
31	0x39144690	0.00014140666
32	0x3943e512	0.00018681985
33	0x3936bb3b	0.00017426621
34	0x3942f4ff	0.0001859255
35	0x39834bac	0.00025042647
36	0x39ede520	0.00045374874
37	0x39b2a535	0.00034073894
38	0x398abf32	0.00026463863
39	0x39c90d86	0.00038347783
40	0x39035af1	0.00012527012
41	0x3a45d0b5	0.00075460534
42	0x399229fc	0.0002787857
43	0x395d1e3d	0.00021087467
44	0x39a05f59	0.00030588618
45	0x3a6087db	0.0008565166
46	0x38f66c8a	0.00011750411
47	0x39a55384	0.00031533476
48	0x393e5fe5	0.00018155536
49	0x39671498	0.00022037548
50	0x38f1a363	0.00011522209
51	0x39595a85	0.00020728454
52	0x38a3b038	7.805269e-05
53	0x39968674	0.00028710405
54	0x39180bb2	0.00014500206
55	0x390a53c6	0.00013191914
56	0x39224867	0.00015476496
57	0x398776b6	0.00025837653
58	0x394557ca	0.00018820088
59	0x39446967	0.00018731282
60	0x394ad8da	0.00019345005
61	0x39885264	0.00026001327
62	0x38c6c2fd	9.477695e-05
63	0x398d977a	0.00027006475
64	0x38d202fc	0.00010014136
65	0x39a0c3a7	0.0003066335
66	0x394ae60a	0.00019349917
67	0x394c425d	0.00019479678
68	0x38e22b8a	0.000107846296
69	0x39df9338	0.0004264356
70	0x398442ef	0.0002522687
71	0x38c51987	9.398447e-05
72	0x392d3936	0.00016519878
73	0x39629fb7	0.00021612538
74	0x38c04914	9.168885e-05
75	0x3959a093	0.00020754551
76	0x387e9f0e	6.070645e-05
77	0x397dd550	0.00024207425
78	0x39253c25	0.00015758032
79	0x38f1204d	0.00011497792
80	0x389ccda0	7.47696e-05
81	0x399b6edc	0.000296465
82	0x38f415c4	0.00011638881
83	0x38a28de9	7.751195e-05
84	0x3a074803	0.0005160572
85	0x3a3ff0ea	0.0007321971
86	0x396ec87f	0.0002277214
87	0x3a4c7d93	0.00078006944
88	0x3982951e	0.00024906633
89	0x3a5190f3	0.00079943164
90	0x3a0d8a4d	0.00053993316
91	0x3a05152e	0.00050767034
92	0x39a503fb	0.00031474218
93	0x3a8b245e	0.0010615697
94	0x3a2bb1e5	0.00065496407
95	0x3999fb93	0.00029369871
96	0x3a731e81	0.000927426
97	0x3a93b219	0.0011268287
98	0x39f33eea	0.00046395446
99	0x3a941683	0.0011298213
100	0x39af8428	0.00033477065
101	0x3aac0d1b	0.0013126464
102	0x3a43b299	0.0007465273
103	0x3a0ced7f	0.0005375966
104	0x3a3f00b1	0.0007286175
105	0x3a9ddbd4	0.0012043663
106	0x3a38d976	0.0007051447
107	0x3a670f0f	0.00088141946
108	0x3a0e9bf6	0.000544011
109	0x3a1e2062	0.0006032047
110	0x3991435a	0.00027706736
111	0x3a1ed080	0.00060582906
112	0x3947de0a	0.00019060835
113	0x3a459d30	0.00075383764
114	0x39df0a5d	0.00042541596
115	0x39b5c80b	0.00034672054
116	0x39c9e8b1	0.00038511076
117	0x3a50b721	0.00079618586
118	0x39d06606	0.00039748865
119	0x39eabfb1	0.0004477478
120	0x392634ae	0.00015850618
121	0x3956678c	0.00020447205
122	0x38b7928b	8.753416e-05
123	0x395405d0	0.00020220061
124	0x387ff036	6.102045e-05
125	0x3978ca22	0.00023726423
126	0x391df751	0.0001506482
127	0x38ebe53d	0.00011248372
128	0x388b111e	6.631225e-05
129	0x39952dc1	0.00028453584
130	0x38f01604	0.000114481925
131	0x3887967f	6.465334e-05
132	0x395cf412	0.00021071758
133	0x39c19e0d	0.00036929586
134	0x38b0cb24	8.430172e-05
135	0x39a83ad1	0.0003208728
136	0x38a5d9e4	7.9083984e-05
137	0x39a761f3	0.000319257
138	0x39740778	0.00023272436
139	0x3911b191	0.00013894426
140	0x394365e1	0.00018634602
141	0x39ac8e6c	0.0003291251
142	0x3935755a	0.00017305222
143	0x396ad51e	0.00022395371
144	0x3902043b	0.00012399342
145	0x393e3b37	0.00018141871
146	0x385ad8aa	5.2177034e-05
147	0x392ceef2	0.00016492212
148	0x3814695f	3.5384084e-05
149	0x39299244	0.00016171584
150	0x38fc5f8a	0.00012034092
151	0x387b021b	5.9845024e-05
152	0x38ed2265	0.00011307447
153	0x39199c4b	0.0001464944
154	0x3872045d	5.770136e-05
155	0x39194557	0.00014617048
156	0x3a00b5f8	0.0004909928
157	0x3a360441	0.0006943383
158	0x3967e452	0.00022114933
159	0x3a1f3566	0.00060733256
160	0x39332a6f	0.00017086578
161	0x3a3dcf4e	0.00072406686
162	0x39fc8a09	0.0004816803
163	0x39b6e9db	0.0003488798
164	0x39c8f18c	0.0003832694
165	0x3a4c41d2	0.00077917904
166	0x39c81df1	0.0003816928
167	0x39ec17a6	0.00045031047
168	0x3940b895	0.00018379309
169	0x39547f02	0.0002026521
170	0x38c3515f	9.313481e-05
171	0x39512326	0.00019944887
172	0x38847d08	6.3175394e-05
173	0x398077a1	0.00024503193
174	0x39158efe	0.00014263016
175	0x38f02f01	0.00011452847
176	0x39057559	0.00012727584
177	0x398bd606	0.00026671606
178	0x390cdd6a	0.00013433924
179	0x391806d7	0.00014498398
180	0x3a2856f9	0.00064216513
181	0x399ae48d	0.00029543453
182	0x39bd9819	0.0003616221
183	0x3a04766c	0.00050530466
184	0x394896be	0.00019129642
185	0x3a660c27	0.00087756146
186	0x39966b4a	0.00028690166
187	0x39a5e217	0.00031639703
188	0x39f8db9c	0.00047465868
189	0x3a7172d4	0.0009210531
190	0x390a21c9	0.00013173292
191	0x3a14359c	0.00056537404
192	0x398cad84	0.0002683216
193	0x39af16f1	0.00033395694
194	0x390d51c1	0.00013477264
195	0x39af8db7	0.00033484187
196	0x38bb8b57	8.942809e-05
197	0x39ba73de	0.00035563012
198	0x396c1462	0.00022514307
199	0x390b4c05	0.00013284392
200	0x3943364c	0.00018616876
201	0x39d0e715	0.0003984502
202	0x392af987	0.0001630542
203	0x3960486e	0.00021389287
204	0x39abfd91	0.00032804583
205	0x39d8595f	0.00041265317
206	0x3924fad5	0.00015733701
207	0x39d5dc7c	0.000407908
208	0x38dea888	0.00010617176
209	0x39dc897e	0.0004206411
210	0x398fbf04	0.00027417403
211	0x392bc898	0.00016382558
212	0x397842d4	0.00023676018
213	0x3a02f997	0.0004996298
214	0x394afe68	0.00019358995
215	0x398e3b5e	0.00027128583
216	0x39c10a92	0.00036819704
217	0x39b47842	0.00034421874
218	0x394ebbcf	0.00019715655
219	0x39c1d12d	0.00036967677
220	0x3909cc27	0.00013141391
221	0x3a02933f	0.0004981048
222	0x3989a543	0.00026253806
223	0x397fd0b4	0.00024396443
224	0x392fdd04	0.00016771635
225	0x3a1a8dda	0.00058957713
226	0x39946dcc	0.00028310565
227	0x392f8f2b	0.00016742635
228	0x3a62e3af	0.00086551433
229	0x3aa03327	0.0012222276
230	0x39b82b3c	0.00035127427
231	0x3aab3d49	0.0013064529
232	0x39c012d7	0.0003663513
233	0x3ab80cac	0.0014041862
234	0x3a8c701b	0.0010714562
235	0x3a444ff6	0.0007488722
236	0x3a32cd10	0.0006820718
237	0x3ac3f196	0.0014949318
238	0x3a51d200	0.000800401
239	0x3a4ec5f1	0.0007887772
240	0x388daf55	6.756062e-05
241	0x38069835	3.2089843e-05
242	0x3839dd0f	4.4313314e-05
243	0x383ef223	4.5525037e-05
244	0x37ced5d5	2.4656687e-05
245	0x38bd3bf4	9.0233894e-05
246	0x3800a914	3.0675044e-05
247	0x381814e9	3.6259098e-05
248	0x37e5aeb9	2.7380289e-05
249	0x390a7b92	0.00013206739
250	0x38408445	4.5899553e-05
251	0x37b42afe	2.1477692e-05
252	0x395491a2	0.00020272148
253	0x39bf99d6	0.00036544976
254	0x38c1a521	9.233715e-05
255	0x39edecf1	0.00045380698

exp_avg f4 [100]
0	0x3c3595ba	0.011083061
1	0xbba1a5f5	-0.0049331137
2	0x3c2a66ea	0.010400513
3	0x3b983507	0.004644993
4	0x3bfcf915	0.0077201226
5	0x3c6e52e5	0.014546131
6	0x3c75a4f2	0.014992939
7	0x3c934256	0.017975967
8	0x3c7e06d9	0.015504562
9	0x3c4a070b	0.012330781
10	0x3c45d9a4	0.012075815
11	0x3c369162	0.01114306
12	0x3be42d31	0.006963395
13	0x3c9c5b20	0.01908642
14	0x3bc140d5	0.005897621
15	0x3a9b20ed	0.0011835374
16	0x3ad91e2d	0.0016564779
17	0xba4620e9	-0.00075580046
18	0x3c7e59ce	0.015524341
19	0x3cf107b8	0.029422626
20	0x39737cc3	0.00023220763
21	0xbcb1df15	-0.02171282
22	0x3c8154b0	0.015787452
23	0x3c97de47	0.018538607
24	0x3b5552ab	0.0032550495
25	0x3c63525d	0.013874617
26	0x3c1046d3	0.008805948
27	0x3c5b0f0a	0.013370285
28	0x3ce72734	0.028216936
29	0x3bccd020	0.0062503964
30	0x3c1e8c58	0.009677015
31	0x3b25b920	0.0025287345
32	0xbb12649b	-0.0022337798
33	0x3c2df4fa	0.010617489
34	0xbc985771	-0.018596383
35	0x3aff7428	0.0019489573
36	0x39d46667	0.00040512087
37	0xbb909389	-0.004412119
38	0x3bef1426	0.007296103
39	0x3ba99edc	0.005176408
40	0x3c8d8e34	0.017279722
41	0xbba14942	-0.004922063
42	0x3c33db66	0.010977602
43	0xbcb0a1a6	-0.021561455
44	0x3bfefdc6	0.007781717
45	0x3c17b66b	0.0092598
46	0xbb97df78	-0.004634794
47	0x3c565c29	0.013083496
48	0x3b412be1	0.0029475617
49	0x3bdd18f3	0.006747359
50	0x3c2f5cce	0.010703279
51	0x3bea278f	0.007145829
52	0x3ca88fcd	0.020576382
53	0xbcb47e98	-0.02203302
54	0xba257f8f	-0.0006313258
55	0xbac029e6	-0.0014660924
56	0x3c55697a	0.013025636
57	0xbc0d9b88	-0.008643039
58	0x3bd35620	0.006449476
59	0x3c5310b1	0.0128823975
60	0x3c3d9628	0.011571445
61	0x3c8bdbbc	0.017072551
62	0xbbc1d3ef	-0.005915157
63	0x3b0ac634	0.0021175267
64	0x3bd7a7e0	0.0065812916
65	0x3b7fede7	0.0039051713
66	0xbd308616	-0.043096624
67	0x3c98d0df	0.018654285
68	0x3c5511d0	0.013004735
69	0x3c3e1af0	0.011603102
70	0x3c31eb54	0.010859329
71	0x3b273100	0.0025511384
72	0x3c91248d	0.017717624
73	0xbaa36397	-0.0012465593
74	0x3cd6b898	0.026211068
75	0x3bd4d7f8	0.006495472
76	0xbcc66287	-0.024216903
77	0x3be7163f	0.0070522125
78	0x3c933111	0.017967733
79	0xbb018f4b	-0.0019769247
80	0x3bea3f63	0.0071486696
81	0xbc2c5eff	-0.010520696
82	0x3bb97537	0.005659725
83	0xbc4285a0	-0.011872679
84	0xbcb6c9c5	-0.022313008
85	0x3b4ec1c6	0.0031548603
86	0x3bd6b6d8	0.0065525584
87	0x3c670a86	0.01410163
88	0xbb653641	-0.0034974965
89	0xbaa28cb7	-0.0012401555
90	0xbb522fd7	-0.0032071972
91	0x3c7900f6	0.015197983
92	0x3a00eb00	0.000491783
93	0x3cafbd6f	0.021452634
94	0x3b691e6d	0.0035571114
95	0x3c73fc39	0.014891678
96	0x3bee1a6a	0.0072663324
97	0x3c102008	0.008796699
98	0x3c0a6089	0.008445867
99	0xbb441570	-0.0029920004
