runs/perovskite_multiscale_dataset_3/ae1_bg_predictor_enc_l_12_l1_1em2_tanh_pred_p_0_1_100_relu_dec_15_linear_seed_0_lr_1em3_bs_10_1500_epochs_mae_mtl_k_fold_2_xavier_normal/checkpoints/last.ckpt (torch, 36546 bytes, 21 tensors)

submodules.encoder.0.weight f4 [12, 15]
00000000: e0d3 a3b8 1dde 05ba 79fa a739 1485 91b9
00000010: 49c5 aab9 8b83 f03d b1f1 e03d d650 02ba
00000020: 7e38 c9b9 b2aa 7339 5991 53ba 9db6 bbb9
00000030: 9427 163a e85e eb39 d222 4f3a 1638 913c
00000040: a74b 9eba b168 c4ba 65fa a13a 50ad d23a
00000050: eaf3 3ebe d95f 183e e787 02be a998 8dbe
00000060: ee2a 90bb 1804 6839 54c5 bf3a a31a 72ba
00000070: 8900 b1ba 2748 cfb9 b7b3 ec3a 8091 e736
00000080: 1a0d d6ba 25b2 bc3a b9cd c43a cefd 263d
00000090: e1fd 10bd 5653 41ba 02e9 12bd 229b 3fbe
000000a0: 9388 64ba e56c ae39 0ef4 a238 b1ba d038
000000b0: 777c 373a 1cad 3c3a 4435 d0ba 900b 81b9
000000c0: b6f3 ec39 6677 1c39 e379 553a 0b35 8139
000000d0: ace2 a539 0d3d ceb9 963e 00b9 f6d5 803a
000000e0: 53a1 aa3a af24 8dba 27b3 90ba 9f4c 94ba
000000f0: 0eb8 27ba 2cdc 10bd 3230 c13a 626f 41be
00000100: aba9 95ba 2882 41ba d015 563a 63ec 1e3a
00000110: cb92 723a 3e27 8e3a d429 803a 52fd ee39
00000120: c053 30ba 2b27 0cba 888d 7cba 3d2f 173b
00000130: 3560 06bb aad8 e5ba 3152 f03d 249d 1e3e
00000140: 076c 943a f6c5 4fba e07b aaba 3e58 8dba
00000150: 7375 84ba 4138 65ba 3c06 35ba beb2 453a
00000160: aca5 273a baa2 5f3a 6022 9c38 69d3 0eba
00000170: e2cc b5b9 0ec6 e539 1ed5 af39 7c74 83b8
00000180: 02c5 e03a 33bd 553e 8421 fd39 77d0 ae39
00000190: c8b6 e839 f2cb ef38 da03 85b9 d6c8 36b9
000001a0: 1eb6 eab9 39fd 8a3e 9576 8eba 465d 78ba
000001b0: 1853 5e3a 01ed 893a 0857 0b38 0f26 16bb
000001c0: 3e7e 00bb 3229 00bb f7ab 30bb 8d0e edb9
000001d0: 1743 40ba a22f 213a 74a7 143a 20dc e839
000001e0: 80ef ceb9 2473 d1ba dc3a e7b9 8040 413a
000001f0: ec9f de39 6b8a efb9 2e91 a6ba 01c4 84ba
00000200: c210 58ba da97 77ba e456 3cba 7520 1fbd
00000210: f3bf 893d a7f0 b03a 5cde 373a 5052 0238
00000220: 2459 26b9 d083 a737 b0d7 a837 a0a9 76b8
00000230: 0686 68ba 6ad2 edb8 cd9c 1b3a 1c3f 8e3a
00000240: d737 693a b4ed 8d3e c2ef d939 6b18 82ba
00000250: cd67 2cba d3ce f7ba 783e baba 7b9e 3f3e
00000260: ed2a b939 f074 84b7 30ad 00ba e932 22bb
00000270: 8dc1 633a 4098 a13a d7b7 903a c98e 8e3a
00000280: 9471 9f3a 226f 9c3a 2cc0 9aba f800 99ba
00000290: cc3c 9fba d226 153a 5248 5d39 5090 b7b7
000002a0: 4ca2 cfb8 6001 c4b7 6c31 95b9 24f4 f239
000002b0: befb a63a 8cb2 4c3a 1620 6c3a f974 5d39
000002c0: 3280 503e 71f1 8dba bf40 d4bc 1eb0 80b9
-7.8119105e-05 -0.0005106645 0.0003203934 -0.00027755706 -0.00032571916 0.1174384 0.10983599 -0.0004971152
-0.00038379797 0.00023237875 -0.000807067 -0.00035803477 0.00057279435 0.00044893404 0.0007901612 0.01772694
-0.001207699 -0.0014984814 0.0012357949 0.001607338 -0.18647733 0.14880313 -0.12747155 -0.27655533
-0.004399649 0.00022126769 0.0014630952 -0.00092355366 -0.0013504188 -0.00039535874 0.001805893 6.901275e-06
-0.0016330809 0.0014396353 0.0015014923 0.04076939 -0.035398368 -0.0007374784 -0.035866745 -0.18711522
-0.0008717861 0.00033269 7.770221e-05 9.952987e-05 0.00069994427 0.0007197426 -0.0015885015 -0.00024613412
0.00045195007 0.00014921799 0.0008143468 0.00024644317 0.00031640136 -0.00039336868 -0.00012230346 0.000982939
0.0013018049 -0.0010768379 -0.001103972 -0.0011314339 -0.0006397971 -0.035366222 0.0014739095 -0.18890145
-0.0011418363 -0.00073817605 0.00081667025 0.0006062446 0.0009253441 0.0010845435 0.0009778091 0.00045583636
-0.0006726347 -0.00053464127 -0.0009634127 0.0023068928 -0.0020504121 -0.0017535884 0.11734427 0.15489632
0.0011323699 -0.0007925922 -0.0013006888 -0.0010783745 -0.0010105803 -0.0008744039 -0.0006905531 0.0007541588
0.00063952315 0.0008531023 7.4450625e-05 -0.00054483727 -0.0003467566 0.00043825846 0.00033537386 -6.268264e-05
0.0017148557 0.20872955 0.00048280891 0.00033343185 0.0004438667 0.00011434396 -0.00025370606 -0.0001743169
-0.00044767646 0.2714632 -0.001086908 -0.0009474348 0.000848101 0.0010522903 3.3221237e-05 -0.0022910868
-0.0019606496 -0.0019555804 -0.0026957968 -0.00045215004 -0.0007334216 0.00061487604 0.00056707044 0.00044414494
-0.00039469823 -0.0015979749 -0.00044103607 0.0007371977 0.0004246229 -0.00045688762 -0.0012708062 -0.0010129214
-0.0008242243 -0.000944493 -0.00071845786 -0.038849313 0.067260645 0.0013499454 0.000701403 3.1071075e-05
-0.00015864201 1.9969331e-05 2.0127598e-05 -5.8808946e-05 -0.00088700687 -0.00011340233 0.0005936146 0.0010852548
0.00088965654 0.27720416 0.000415681 -0.000992549 -0.0006576747 -0.0018906243 -0.0014209291 0.18712799
0.00035317932 -1.579008e-05 -0.00049086194 -0.0024749583 0.0008688204 0.0012328699 0.0011041117 0.0010876294
0.0012164586 0.0011934976 -0.0011806539 -0.0011673262 -0.0012148856 0.00056896836 0.00021103144 -2.18825e-05
-9.900759e-05 -2.3365661e-05 -0.00028456317 0.00046339736 0.001273982 0.0007808588 0.0009007467 0.00021119778
0.20361403 -0.0010829401 -0.02590978 -0.0002454528

submodules.encoder.0.bias f4 [12]
00000000: 0f97 353d 51a3 dd3d 8324 103d d8ea 133b
00000010: 25fd a8bc c1fb 87bd fa4b c53b 668e 14bd
00000020: 23f3 86bd 8afd 9cbd f8f8 9abd bd3a 273e
0.044333514 0.10822166 0.03519107 0.0022570398 -0.020628521 -0.06639815 0.00602102 -0.036268614
-0.065893434 -0.07665546 -0.07567018 0.16331

submodules.bg_pred.0.weight f4 [100, 12]
00000000: 0238 4dbd 756a 913e d3ce 243e decf 4bbe
00000010: a234 adbc 3153 22bb 7c18 b8be b1e7 363e
00000020: 8dc7 47be 8bf9 92be 996d 593d 49c9 13be
00000030: 9f8d 31bd beea dcbe 03ab b4be 73b9 743d
00000040: f75e 153f fca9 d6be 0b3b a7bd 4cb7 66be
00000050: b2ce 3dbe b080 953d c163 ad3d 738e 26be
00000060: 7073 bcbe 4b2e 433e 3a0c 843e 7cdf 14bb
00000070: 00df 8e3d 905e 7bbe a956 95bc 8deb 1a3f
00000080: 8d5b 07be 9627 353e 7a85 9b3e e4a0 cb3d
00000090: 2fd9 bcbc d77a 22bf 36c6 893e 2efa 10bc
000000a0: 768e 733e 3124 c3be c75e 343e 7d8c 9abe
000000b0: 52fe 1c3e 73b1 1ebd cb4b aa3e db4a 08be
000000c0: 1064 503f 8d8e bd3d 8c2b 2e3d 9465 d93d
000000d0: 7113 d1bc d4e5 59bd bccb 46be e7b2 a23d
000000e0: 4d60 283c c73d c6bd 4087 d6be 3b41 ca3d
000000f0: a6d4 f2be c623 8b3d d862 313f f8c5 ddbd
00000100: 4785 8abe 6b2f c63e 6f6c 963d 9b34 603e
00000110: 543b 5d3e 21e9 82bd dcb3 a3bd 7907 f7be
00000120: 3705 d33d 3003 683e 4138 4f3e 6262 b03e
00000130: d2fd a73e f494 97bd 44ce b33d 2096 f83d
00000140: 04b9 e33e 91c2 09bf d924 dc3b b9e3 bfbd
00000150: ea11 a4be 1762 cf3d 6cd2 fe3e c422 38bd
00000160: 4f14 83be 501b cb3e 8182 0d3e 240d 193b
00000170: 3588 a33e 7b33 853e 267d 09be faab 28bf
00000180: fe09 613b 1aa4 e73e 3abf 003d 2542 183d
00000190: 87b9 15be e04c 1b3d e4c9 8fbc e220 29be
000001a0: aeb7 97bd a867 28be ba68 873c 878c 233e
000001b0: 6616 913e c491 843e ea56 063e 8342 ecbe
000001c0: 5824 ad3d 3b11 c3bc 3327 3dbe 427d 09bd
000001d0: b17f c7bc 0849 dabd 1017 9dbd 7880 8cbd
000001e0: 5b30 dc3c 2172 a23e a4e5 973e 3319 55ba
000001f0: bb89 213e 9e2b 31be ef74 a13e 93bb e23d
00000200: 7029 903e 0930 fdbe da9b 1ebd b618 54be
00000210: 69a2 49bd 47cd 223e 4435 e33e aa04 c43d
00000220: cf17 a2be a578 fc3d ebc3 47be 6959 87be
00000230: 6783 1dbe 4a23 9bbe 5527 1f3e 5283 503e
00000240: fefc 93bd 68a5 fb3e 40b7 2b3e 0fad 21be
00000250: d6c0 aa3d 5d00 92bc 94b1 acbd fbb8 b1be
00000260: 9865 9f3c ca97 d53d ef30 e63d c372 f83d
00000270: 54c3 8cbe abcf 743d a237 023f 4487 70bd
00000280: 47dc d8bd 1a71 57bd cbab 9cbd 178e 46bc
00000290: 11da cdbd 24c9 57be 1625 963c a4ef acbd
000002a0: 2f5f b3bd 6fad b93e afb8 493e 0615 893b
000002b0: 4ebf 893e daa5 80bd e6b1 51be 4617 ef3d
000002c0: 631c 2f3e 4769 32be a672 bb3b 24d5 ffbd
000002d0: cb74 00be 9be5 d3be 9119 92be b182 223d
000002e0: a334 083f fb92 b1be 4847 29be 37c6 7bbe
000002f0: 2e84 ed3c bc5e e33c 0d03 2dbc b886 d53d
00000300: 5881 1e3e b329 1b3f 811a b63c ac1f 803e
00000310: f3c3 92be 4b76 bb3d 2cba acbc 24d2 fabe
00000320: e314 e2bc ea5f b4bd 0a74 a43e 8195 63be
00000330: bcb4 353e 957c 033f cf37 1dbe aaf4 c43b
00000340: 2a7f 0ebe c69a 85bd 73b0 f3bd b67b c6be
00000350: ea60 ba3e 0704 06bd e4de e73d dad0 d0bd
00000360: aebf 113e 3374 c63e 0fef 19bf 66b6 e53d
00000370: 2a3d e03e f8a7 603b 29c8 a6be d69d 943e
00000380: d240 dabd 7a36 8cbe c58e 2cbd a03f 173c
00000390: c62a 02bf 5598 c63e 18a0 50be 1eba 85bd
000003a0: 8c07 5abe 995e 6d3d 5a1e 98bd 7ccd 963c
000003b0: cbbc eabd 85db 0ebe d701 503e 5189 d23d
000003c0: 5a38 933d a479 943e fb88 09bf f68b 8cbc
000003d0: 1b10 8cbd 91c8 7abd 6198 9c3e 0405 f2bd
000003e0: 22d3 d93e 6ef0 b9be 5377 3e3e d051 383d
000003f0: edc0 d3bd fe93 803e f014 013d e811 3d3d
-0.05010224 0.28401533 0.16094522 -0.19903514 -0.021143261 -0.0024768824 -0.3595618 0.17861821
-0.19509716 -0.2870601 0.053083036 -0.14432253 -0.04334795 -0.43147844 -0.35286722 0.05974717
0.5834803 -0.41926563 -0.081655584 -0.2253086 -0.18535879 0.07299936 0.08466292 -0.16265278
-0.36806822 0.19060628 0.25790578 -0.0022716215 0.069761276 -0.24547791 -0.0182298 0.6051567
-0.13218518 0.17690882 0.30375272 0.09942797 -0.02305278 -0.6346869 0.26909035 -0.00884871
0.23784813 -0.3811355 0.1761428 -0.3018531 0.1533139 -0.038743448 0.3326095 -0.13309805
0.81402683 0.09255705 0.042522 0.106150776 -0.025521966 -0.053197697 -0.19413656 0.07944279
0.010276866 -0.09679752 -0.41900063 0.09875723 -0.47427863 0.067939326 0.6929145 -0.10828775
-0.27054808 0.38708052 0.07344901 0.21895067 0.21604663 -0.06392122 -0.0799329 -0.4824789
0.10303729 0.22657466 0.20236303 0.3445006 0.32810837 -0.074014574 0.087795764 0.12138009
0.44477093 -0.5381251 0.00671826 -0.093696065 -0.32044917 0.10126131 0.49769914 -0.04495503
-0.25601432 0.39669275 0.13819315 0.002335378 0.31939855 0.2601584 -0.13426647 -0.65887415
0.0034338231 0.45242387 0.031432368 0.037172455 -0.14621554 0.03791511 -0.017552324 -0.1651645
-0.07408081 -0.16445792 0.01652943 0.15971576 0.283374 0.2589246 0.13119093 -0.46144494
0.08454198 -0.023811927 -0.18471985 -0.03356672 -0.02435288 -0.10658461 -0.076704144 -0.06860441
0.026878526 0.31727698 0.2966739 -0.000812906 0.15775196 -0.17301795 0.31534526 0.11070933
0.28156614 -0.4945071 -0.03872285 -0.20712551 -0.049227152 0.1589862 0.44376576 0.09571202
-0.3165879 0.123276986 -0.1950833 -0.26435402 -0.15382157 -0.3030036 0.15542348 0.20362595
-0.07225989 0.49149632 0.16769123 -0.15788673 0.08337562 -0.017822439 -0.08432308 -0.3471144
0.019457623 0.10429342 0.11239802 0.12131264 -0.27492774 0.05976836 0.5086614 -0.05872275
-0.105888896 -0.052598096 -0.076499544 -0.012118838 -0.100513585 -0.21072823 0.01832823 -0.08444145
-0.08758389 0.36265132 0.19699357 0.0041834144 0.26903766 -0.06281634 -0.20478019 0.11674361
0.17100672 -0.17422973 0.0057204543 -0.12491825 -0.12544553 -0.41386113 -0.2853513 0.03967542
0.5320532 -0.3468245 -0.16531098 -0.24587332 0.028993692 0.027755134 -0.010559809 0.10426086
0.15479028 0.606105 0.022229435 0.25024164 -0.28665122 0.09153422 -0.021084867 -0.4898845
-0.02759785 -0.08807357 0.3211978 -0.22225 0.17744726 0.5136197 -0.1535332 0.0060106115
-0.13915697 -0.06523661 -0.118988894 -0.3876626 0.36402065 -0.032718685 0.1132181 -0.10196085
0.14233276 0.38760528 -0.601304 0.1121643 0.43796664 0.0034279805 -0.32574585 0.2902667
-0.10656895 -0.27385312 -0.042128343 0.009231478 -0.5084652 0.38788095 -0.20373571 -0.0652964
-0.21291941 0.057951543 -0.07427664 0.01840853 -0.11461791 -0.13950928 0.20313202 0.10280097
0.071884826 0.28999054 -0.5372464 -0.017156582 -0.068390094 -0.06122643 0.30585006 -0.11817363
0.42543894 -0.36316246 0.18600206 0.044999897 -0.10339532 0.2511291 0.03151411 0.046159655

submodules.bg_pred.0.bias f4 [100]
00000000: c83b 3a3e df4a 26be 7a0f 943b 5cb9 00be
00000010: 9ce2 eebd 584e fc3c c590 a73d 96ef bf3d
00000020: 3d1b 343c 37ba d13d ed51 5a3d 225c 013d
00000030: 1145 e1bb 732c 073e 43fe 323e 1b93 40be
00000040: 2db9 9a3d 22b9 f23c 6094 b4bc 6a3f 503b
00000050: bb4c f6bd 04d9 a2be 96a3 2c3d 34ba 08be
00000060: 6350 63bd b9b9 353e 3b50 85be 3a37 f63d
00000070: a03c 143e 0ff6 fbbd 3093 223e a79b 31be
00000080: 9001 10be 649f 82bb 1329 81be d047 6d3e
00000090: 88f6 87be 3900 2a3d ffcb 993d f895 0c3e
000000a0: 7d92 06bb 2a90 7cbe 82d5 3d3e 7373 9bbe
000000b0: 2b09 193e ec46 ea3d a0f8 a53c d52e 123e
000000c0: 446a 603e 26a6 cf3d b3e2 553d cca3 723d
000000d0: 2431 2f3e f633 c8be f006 83be f7a4 6abe
000000e0: d31d 0e3d 44b6 a3be 3f23 37be 2e71 283e
000000f0: 360c 013e 633d 80ba b7d7 853d 0c0a 4a3e
00000100: b091 863c 5af9 46bd 8c76 cdbe d215 ee3b
00000110: 5483 c93c 2f70 123d cd16 493e d628 5ebd
00000120: 930b bc3c 39ed 2dbe 6cc2 1a3e ceeb 093b
00000130: 3686 62be 9dec 4ebe dee5 14bd e3f2 1ebe
00000140: 4030 5c3e 6963 1bbe 2660 3b3c c935 c9bd
00000150: 71c2 b1be 93f2 28be 0514 683d c963 263d
00000160: aafe a5be c13e 95bd 6d50 05bd a8f1 283e
00000170: 31c5 a5be d239 bc3d 83bd 87be da37 ea3d
00000180: d375 0e3d 3f7d 0d3e 8c37 efbc d1d5 35be
0.18186867 -0.16239499 0.0045184465 -0.12570709 -0.11664316 0.030799076 0.081819095 0.09371869
0.010992822 0.10240596 0.053300787 0.031582005 -0.0068746884 0.1320055 0.17479806 -0.18806116
0.07554851 0.029629294 -0.022043407 0.003177608 -0.12026354 -0.31806195 0.042148195 -0.13352281
-0.055496585 0.17746629 -0.26037773 0.120222524 0.14476252 -0.12302791 0.1587646 -0.17344533
-0.14063096 -0.003986286 -0.2522665 0.23171926 -0.26555276 0.04150412 0.07509612 0.13729084
-0.002053409 -0.24664369 0.18538478 -0.30361518 0.14944904 0.114393085 0.020260155 0.14275678
0.21915537 0.10139112 0.05221815 0.05923824 0.1710859 -0.39102143 -0.2559123 -0.22914492
0.03469641 -0.31974995 -0.17884539 0.16449425 0.12602314 -0.000978392 0.06535285 0.19730395
0.016426891 -0.048577644 -0.40129507 0.007265785 0.024598755 0.035751518 0.19637604 -0.054238163
0.022954738 -0.16985025 0.15113229 0.0021045092 -0.2212151 -0.20207448 -0.03635203 -0.15522341
0.21502781 -0.1517464 0.011436498 -0.09824712 -0.3471866 -0.16498785 0.056659717 0.040622506
-0.32420856 -0.0728736 -0.032547403 0.16498435 -0.32377008 0.09190716 -0.26511773 0.11436434
0.034780335 0.13817309 -0.029201292 -0.17757346

submodules.bg_pred.3.weight f4 [1, 100]
00000000: 128f da3d 03b4 97be 5597 403e 8ed3 d4be
00000010: ebed 353e 8f2e 863e db88 203e bda4 af3e
00000020: 7772 163e d1c5 ea3d be47 3e3e 3833 213e
00000030: 7da6 c63d 83a8 173e 466b c63d 3b47 d7be
00000040: 8eec 1b3e 25e9 413e bb34 963e ec8c 7d3e
00000050: 48fd 1cbe 5d6a 95bf 63c9 073e 1204 483e
00000060: ebf7 2e3e 1bae cd3d 21bb a5bf 6c79 c13d
00000070: a98d e03d 81dc 02bf ea53 dd3d 95c9 a2be
00000080: 2137 1ebf e41f d43d b2c3 1ebf f2e6 c73d
00000090: bd5c 853f 125b 033e 91ff ca3d 6de8 c53d
000000a0: 1317 273e cc4f 36bf 908a e23d 0b7d 3bbf
000000b0: a216 f83d fa1d fc3d 2fe3 0cbf e31b bb3d
000000c0: 15f7 033e 3508 db3d c2f2 473e 016d 1f3e
000000d0: 4c2b d23d ec9f 37bf 3cd8 f53e b4e4 88be
000000e0: 6e15 303e 6f92 e3bf b179 fabe c456 ec3d
000000f0: daea 063e a1e6 803e fccc 65be 4af6 c53d
00000100: 741f b53d e41c bdbe ad2c 18bf 155e 133e
00000110: 427e 073e 86a1 303e 2b84 c13d 035c fdbe
00000120: 950b 483e 2554 d3be 9ff5 fd3d d64c 2b3e
00000130: 3e6b a0bf 8c8a 96be 98db db3e 424d debe
00000140: 0f7f ff3d 7902 0bbf df79 db3d 94b7 0bbf
00000150: 42e6 3bbf c5da bfbe 3543 f83d fa19 033e
00000160: 4f1b b9bf f95a 3ebe 6c97 b4be aed5 083e
00000170: 50bc c3bf e29e 053e c578 c2be f513 d93d
00000180: 6db8 c53e 99fb d33d 2917 503e e63b 06bf
0.1067182 -0.29629526 0.18807729 -0.41567653 0.1776654 0.26207396 0.15677206 0.34305373
0.14692102 0.11463512 0.18582055 0.15742195 0.09699724 0.14810376 0.096884295 -0.42046532
0.15226957 0.18936594 0.29337105 0.24760789 -0.15330994 -1.1673084 0.13260417 0.19532803
0.1708676 0.100429736 -1.2947732 0.094469875 0.109645195 -0.5111771 0.10807021 -0.3179442
-0.6180287 0.10357645 -0.6201736 0.09760846 1.0418926 0.1282771 0.09912027 0.09663472
0.16317396 -0.7121551 0.11061585 -0.73237675 0.12113692 0.12310405 -0.55034155 0.09136178
0.12887223 0.10694925 0.19526199 0.15568925 0.102621645 -0.71728396 0.48016536 -0.26736987
0.17195675 -1.7779063 -0.48920968 0.11539987 0.13175526 0.25175956 -0.22441477 0.096661165
0.0884389 -0.36936104 -0.5944317 0.14391358 0.13231757 0.17249116 0.09449037 -0.49484262
0.19535668 -0.41275135 0.12400364 0.1672853 -1.2532728 -0.29402578 0.42940974 -0.43418318
0.124754064 -0.5430065 0.107166044 -0.54576993 -0.7339822 -0.37471595 0.12122194 0.12802878
-1.4461459 -0.18589391 -0.35271776 0.13362762 -1.5291843 0.1304889 -0.37982765 0.105995096
0.38617268 0.10350723 0.20321335 -0.5243515

submodules.decoder.0.weight f4 [15, 12]
00000000: 2e37 ce3c da65 babc 6825 373c 6b2d 99bd
00000010: 14d4 613f c1d9 113f dad2 393c a8f3 7740
00000020: 6653 04bd 3a0e 4cbb 5cdd 183e c800 afbb
00000030: ebf3 f83c 1c48 03bd 8a74 75bc 539e d23d
00000040: 2c1c 40c0 c5d2 24c0 b994 24bd aec6 ef3e
00000050: dafa 223f 2770 943d e816 9a40 3786 7d3e
00000060: 3eb3 2fbc 4e52 1e3b c1e2 593b c3d3 7dbc
00000070: 3d66 0a40 5cc0 e5bf df8a 1dbc d9c0 31bf
00000080: 2594 763e 975c cb3c e8d0 6a3d fc04 9d3d
00000090: 48fc 9637 58f3 2a3c 4db3 d5bb 34d4 373d
000000a0: ad36 2dc0 2579 0f40 6ce6 623c db87 c1be
000000b0: c252 56bd 7a1d 71bb 9a8e eabe d726 193b
000000c0: a5cd e23b ada1 913b 090a 27ba a3e7 a53c
000000d0: 6039 b9bf c8af 0240 ca65 4b3c 8dd9 3e3f
000000e0: 88ce 32be ddce c1bc 5a78 c8be 6c44 62bd
000000f0: 6073 9c40 7fa6 e3bf 4e42 2540 dc87 e23d
00000100: 5791 2ebe f188 f1bd 41ce 87bf 7d6a f43d
00000110: 83cb 65be d251 0c3d 6b64 10bc 851a 00be
00000120: f591 7b40 751e 0340 3b83 2bc0 94c5 523d
00000130: 3677 45be 2af5 38be bd1c a53f aba8 b7bd
00000140: 0b78 3dbe 8940 14bd f78c 32bd ccb5 c3bd
00000150: 65c1 f3bb 41f0 7abc 369e e43c e0fd 6abc
00000160: 4bae 29be 77c8 02be cd72 9c40 3817 fc3c
00000170: cd3f 613e ee38 e0b9 cdb3 2dbd d005 b43d
00000180: d0cc 98bf 0673 aabf ba0c 50c0 d8c4 abbc
00000190: 8ef6 03be 4560 ebbd 0505 49bf f140 f73d
000001a0: ac35 7fbd 0ac2 e2bd 1ba1 5ebd 0d65 473d
000001b0: f6c9 013f bf1c f5be 4e52 77c0 5f6f 913c
000001c0: 1a4a 54be 4d20 fbbd ee2c d3be 8804 283d
000001d0: a40e b73e 69b3 43ba 31f2 97bc b41e f03d
000001e0: 043a fbba 9c7d 093b 7e9f 523c 882e 26bc
000001f0: ba80 e7bd 343e a9bd 8a76 4f3b c3c6 d73c
00000200: fc1a 70be d858 5240 6baf a7bc 4ae6 d73e
00000210: b5a8 64bc 96a9 79bc ca33 bb3b f175 dbbb
00000220: bab5 fc3d df98 c93d 8eb4 c6bb 99e1 acbc
00000230: 2e04 0dc0 4d36 8e3e 0d32 263d c918 4840
00000240: 7747 683c bc45 2e3c 5092 05bc 7b56 d13a
00000250: e6de 9dbd b190 83bd 320a 223c e7ef 2b3c
00000260: 7a5c db3f 50d6 babf 7df2 0fbd 0b9a f7bf
00000270: 6ea0 1c3c 5ee6 cd3b 9a56 a7bb d77c 2fba
00000280: 98a7 a5bd 1de7 90bd b7fe 5a3c 68b1 1c3c
00000290: 31d8 fd3f e78b 83bf 976b 0dbd 89d3 14c0
000002a0: bc2a b23b fe46 163b 600a 32bc be0e 7d39
000002b0: 804b 963d 5de0 433d 94aa d23b 9702 72bc
000002c0: eaf3 723f 2a1d 31c0 84ea a03b f578 34bf
0.025172796 -0.022753645 0.011178352 -0.07479366 0.8821423 0.5697289 0.011341775 3.8742466
-0.032306097 -0.003113641 0.14928192 -0.0053406693 0.030389747 -0.03205119 -0.014981398 0.10284104
-3.0017195 -2.5753644 -0.040180895 0.46831268 0.6366402 0.07247954 4.815296 0.2475823
-0.010723887 0.0024157944 0.0033246728 -0.015492382 2.1624901 -1.7949328 -0.009615629 -0.6943489
0.2407995 0.024824424 0.057328135 0.07666966 1.7998871e-05 0.010433994 -0.0065216185 0.044880107
-2.7064621 2.241769 0.013848882 -0.37798962 -0.052325018 -0.003679125 -0.4581192 0.0023369098
0.0069214874 0.004444322 -0.000637204 0.020252055 -1.4470634 2.0419788 0.012414405 0.74550706
-0.17461598 -0.02365821 -0.3915432 -0.055241033 4.889084 -1.7785186 2.582172 0.11061069
-0.1704763 -0.117936976 -1.0609819 0.119343735 -0.22440915 0.034257717 -0.008813004 -0.12510116
3.9307835 2.048734 -2.6798847 0.051457956 -0.19283757 -0.18062273 1.2899395 -0.08967718
-0.18502824 -0.036194358 -0.043591466 -0.095561594 -0.007438826 -0.01531607 0.027907472 -0.014342755
-0.16570394 -0.12771784 4.889014 0.03077279 0.21996994 -0.00042767025 -0.0424078 0.08790171
-1.1937504 -1.3316352 -3.2507768 -0.020967886 -0.12887022 -0.11492971 -0.78523284 0.120729335
-0.062307045 -0.11072166 -0.05435286 0.048680354 0.5069879 -0.47873494 -3.8643985 0.017753301
-0.20731393 -0.1226202 -0.41245216 0.041019946 0.35753357 -0.0007465394 -0.018548103 0.11724606
-0.001916707 0.002097941 0.012855409 -0.01014293 -0.113038495 -0.082638174 0.0031656348 0.026339894
-0.23447794 3.2866726 -0.020469388 0.42167884 -0.0139562385 -0.015238186 0.005712961 -0.0066974093
0.12339349 0.09843611 -0.0060640043 -0.021103667 -2.20338 0.27775803 0.040575076 3.1265128
0.014177195 0.010636743 -0.008152559 0.0015971208 -0.0770853 -0.06424082 0.009890126 0.010494209
1.7137597 -1.4596653 -0.035143364 -1.9343885 0.009559734 0.0062835654 -0.0051067593 -0.0006694323
-0.080886066 -0.07075331 0.013366393 0.009563781 1.9831601 -1.027707 -0.034526434 -2.325411
0.0054372232 0.0022930498 -0.010866731 0.00024133452 0.07338619 0.04782139 0.006429026 -0.014771125
0.94903433 -2.767405 0.004910769 -0.70497066

submodules.decoder.0.bias f4 [15]
00000000: 1efe 553e 80dd 263e cf7f b4bd a5a0 1e3d
00000010: 2b87 c43d 39d1 ddbd e494 a5be 0b89 27bd
00000020: 5a2e 8d3e a575 1e3e c3fc 143e 6a0e 17bf
00000030: 5a8c 973e d5c1 cd3e 949d babc
0.2089772 0.16295433 -0.0881344 0.03872742 0.09596094 -0.10830922 -0.32340157 -0.04090218
0.27574426 0.15474565 0.14549546 -0.5900637 0.29599267 0.40186945 -0.022780217

exp_avg f4 [12, 15]
00000000: 140e 09be b4d7 3b3d 5db1 fb3d 59c3 ebbd
00000010: b84f fabd e9c8 653d e14c 033d 68dc b9bd
00000020: f423 84bd b109 31bd 793a 463d ea78 5a3d
00000030: f19d 50bd 42a4 55bd 8008 4ebd 5936 1dbe
00000040: 89b8 5dbe bffa 1a3e cd49 02be 72c6 00be
00000050: 807d abbe d1b7 5e3d ca1e 143f 5f9e 083f
00000060: 4c16 f63e 00a7 583e 13e1 3d3e 062a 4abe
00000070: d240 41be 4a74 55be f2b8 bb3b 14ac 953d
00000080: 5edd bd3c 9331 10bd f9e7 dbbc 9960 953d
00000090: b6cc 013e afd5 e73d b243 4e3c 6424 773d
000000a0: 5f0e 49bd b1e1 29bd 4abc 443d 927e 333d
000000b0: dfa8 453d 5796 403b 2db6 b3b9 1ddf 66bb
000000c0: 5ea6 3d3b c0da 913a 79ca 8ebc b9ba 8bbc
000000d0: 07d1 52ba bd0f 3e3b 0485 1f3a 3c44 033a
000000e0: a7cc 3f39 a8dd e3b9 bb65 ddb9 011e d3b9
000000f0: 0b1f ed3c 62fc ccbc ca16 f4bc 615a 013d
00000100: 96e9 f33c ea2a d43c 96cb c6bd c7b5 c6bd
00000110: dd99 9dbd 2c02 d7bd 503d acbd 3b5f adbd
00000120: 9a20 aa3d 174d b13d 2c3b af3d d011 b3bd
00000130: 7104 2b3c ab54 d33d 3a7e cbbd d824 c6bd
00000140: 5a25 68bd 40e8 333c f4d8 ba3d 6a1d b83d
00000150: 703e ae3d fb12 ee3d ad60 e53d bba1 e8bd
00000160: 16a0 e9bd 464b eebd 9cdc d3bd 7074 183e
00000170: 1db6 ea3d 256a f2bd 2b8d f6bd 0ffc e33c
00000180: 43d0 9d3b 478c 7fbd 6a1c 2abd c643 36bd
00000190: 80a4 eb3a 9fd1 fb3b a3e7 bfbb 4757 c6bb
000001a0: bf56 1bbb 24ad 24be be29 b0bd 436d 093e
000001b0: a857 dabd d253 f9bd 2bc2 55be 07f2 59bb
000001c0: 3af5 a93e d0b7 a83e 51e2 8c3e da82 473e
000001d0: 675b 423e 173c 45be 571a 42be 09f6 46be
000001e0: a08f 003e 4898 c2bd 87a6 d5bd 7403 c63d
000001f0: b502 df3d f808 40bd 6fbf 9a3c c6f1 753d
00000200: 101a 143d aac6 233d 4d5a a0bd 3fc2 a5bd
00000210: 558d a53d e266 a73d 4764 a13d 6083 48be
00000220: 4901 0c3e 0849 2a3e c9d8 1cbe 196e 2fbe
00000230: 3125 9e3d 9a83 8ebd 7004 25be ce3f e9bd
00000240: afae 00be 055d 323d 8e11 553d 3837 3fbd
00000250: 4d2c 45bd 1e46 39bd 901d 893d 9c59 c5bc
00000260: ba56 bebd 0c2e bc3d 3bab b03d 512b cebc
00000270: 1542 3e3d 3de3 a23d 72f1 773d 855f 8b3d
00000280: be27 1dbc 4bf8 d0bb 8b82 e73b 9e5d c63b
00000290: 5fb3 f53b 3e66 fbbd 1c06 b73d 96c4 ca3d
000002a0: ada3 b8bd 5b96 d2bd f406 613d 7fcc 0dbd
000002b0: 2498 a6bd c584 6bbd 0d79 86bd 8d79 723d
000002c0: c918 873d 23e8 83bd aa94 88bd 3de3 76bd
-0.13384277 0.045860007 0.12289689 -0.11511869 -0.122222364 0.056099806 0.03205574 -0.09075242
-0.0645217 -0.043222133 0.048395608 0.05333797 -0.050931875 -0.0521586 -0.050301075 -0.15352763
-0.21652426 0.15134715 -0.12723465 -0.12575701 -0.33494186 0.05437452 0.5785948 0.53366655
0.48063886 0.21157455 0.1854289 -0.19742593 -0.18872383 -0.20845142 0.0057288343 0.07308212
0.023176845 -0.035203528 -0.026844012 0.07293815 0.12675747 0.11320054 0.012589382 0.06033744
-0.04908597 -0.041475 0.04803113 0.04382188 0.04825675 0.0029386485 -0.00034277272 -0.00352282
0.0028938274 0.0011127815 -0.01743053 -0.01705681 -0.0008042012 0.002900108 0.00060851895 0.0005007421
0.00018291418 -0.0004346196 -0.000422282 -0.0004026741 0.028945467 -0.02502269 -0.029796023 0.031580333
0.029774468 0.02589937 -0.097068 -0.0970264 -0.07695363 -0.10498461 -0.08410132 -0.084654294
0.083069995 0.08657282 0.08556208 -0.08743632 0.010438071 0.103188835 -0.09936185 -0.09674996
-0.056676246 0.010980666 0.09123412 0.08989985 0.08508003 0.11624714 0.1120008 -0.11358973
-0.11407487 -0.11635451 -0.10344812 0.14888167 0.114605166 -0.11836652 -0.120386444 0.027830152
0.0048160865 -0.06238964 -0.041531004 -0.044498228 0.0017978102 0.007684901 -0.0058564707 -0.0060528847
-0.0023702828 -0.16081673 -0.08601712 0.13420586 -0.1066125 -0.121741906 -0.2087485 -0.0033255832
0.33194906 0.32952738 0.27516416 0.1948351 0.1898018 -0.19261204 -0.1895536 -0.19429792
0.12554789 -0.095017016 -0.10432153 0.096686274 0.10889188 -0.046883553 0.01889011 0.060045026
0.036157668 0.039984383 -0.078297235 -0.0809369 0.080835976 0.0817392 0.078804545 -0.19581366
0.13672365 0.16629422 -0.15317072 -0.17131843 0.077219374 -0.06958695 -0.16114974 -0.11389123
-0.12566637 0.04354574 0.052018695 -0.04668352 -0.04813795 -0.045232885 0.06695092 -0.02409058
-0.092938855 0.0918847 0.086264096 -0.02516714 0.04644974 0.079534985 0.060532995 0.06805328
-0.009591995 -0.006377255 0.0070651225 0.0060536405 0.0074981893 -0.122753605 0.08936712 0.09900777
-0.09015594 -0.10282584 0.05493827 -0.03461885 -0.08134487 -0.057499666 -0.06566057 0.05919795
0.06596524 -0.06440761 -0.066689804 -0.060275305

exp_avg_sq f4 [12, 15]
00000000: dd6a ac3d 0fe5 683d bfd8 a83d fc96 a33d
00000010: 458a a83d c422 993d 1edb a33d 810f 9e3d
00000020: 15ba 983d 53c8 9a3d b378 a53d 9859 a63d
00000030: da37 a63d 7a5c a63d a3ef a53d a5f2 6d3f
00000040: 2605 bf3f 1262 913f ede2 993f 17db 913f
00000050: 97af a03f 5ca1 873f 83f9 923f 3731 a83f
00000060: 18f8 943f 5fab ab3f b2ea b03f 9b27 af3f
00000070: 9889 af3f 2eb2 ac3f 20c8 283e 69c8 1a3e
00000080: b406 433e ede8 493e 5b1f 433e beb3 263e
00000090: 7f68 223e f4be 243e dddb 1f3e 2ee2 1f3e
000000a0: 3037 4d3e 8914 473e d5e1 493e 6196 483e
000000b0: f764 4c3e 78a3 113b 4bc8 0c3b 7838 163b
000000c0: 9142 163b 34eb 153b 1231 193b cf1c 053b
000000d0: affb 183b bbf9 103b 0f50 0b3b acb7 0e3b
000000e0: b1cd 0d3b c87d 0e3b f7c3 0e3b 8e5f 0e3b
000000f0: 2754 063e 7902 063e 5f3b 2e3e 7fee 363e
00000100: 3fbd 2c3e 1504 0b3e a519 043e f8a7 153e
00000110: ac46 1a3e 2e74 143e 8544 2a3e 8cd2 2f3e
00000120: 61c4 2d3e 0545 2e3e a843 2b3e f351 093e
00000130: 6c62 0d3e 8759 1e3e 0740 203e dbea 1b3e
00000140: 2f21 193e 4fa2 d63d 70cc 073e d8e5 223e
00000150: d76f 053e 7de3 1d3e 8221 243e 6a1a 223e
00000160: 30c3 223e 97fc 1e3e 7068 8d3d b9cc c63d
00000170: adff b73d dc65 c63d d4d3 b93d e635 b53d
00000180: 37fd a03d 47dc 8e3d 6ca5 c33d bab3 b73d
00000190: 7a5a d63d 6c59 e43d ed30 df3d a47f e03d
000001a0: b803 d93d 617b 633e 8645 8d3e cf65 813e
000001b0: 130c 853e 80c3 813e b238 a83e 2a12 2e3e
000001c0: a4b1 853e 486f a23e 4d41 663e 7bbf 8b3e
000001d0: 50e8 933e e9d6 903e b1ac 913e 2721 8d3e
000001e0: 65e5 da3d 10ad 8a3d fecb d73d d1b1 d13d
000001f0: ac55 d83d ba6f a53d fdd4 853d 75d4 aa3d
00000200: 7da1 a73d 826f 993d b1b9 a53d 9657 a33d
00000210: 537a a33d 572f a43d a9ce a53d 0f5f 2c3e
00000220: c89e 233e 00da 3d3e d8f2 403e 42a7 3e3e
00000230: fa1a 073e 4f09 223e 4705 243e 6fa4 113e
00000240: 65f4 213e 0b14 0f3e ba83 123e 9980 113e
00000250: b3a6 113e c692 0f3e dd79 5f3d 4461 453d
00000260: 366b 803d 1154 823d dbfb 7f3d eb79 503d
00000270: 7d8f 3e3d 17e9 7b3d d00f 763d 6eea 6c3d
00000280: 5c91 743d 5443 7a3d bc63 783d 9d34 793d
00000290: bcf0 753d 707e 063e a7e4 a33d 7628 023e
000002a0: d4d1 fa3d 1f31 023e be15 db3d 4799 a93d
000002b0: cc27 d03d 1bf6 d73d e167 c13d b4eb c63d
000002c0: 8f19 c93d e7c9 c73d c08c c73d 53f5 c73d
0.0841882 0.056859072 0.08244466 0.07987782 0.08229498 0.07477334 0.08000778 0.07717801
0.07457367 0.0755774 0.08079662 0.081225574 0.081161216 0.08123107 0.08102348 0.9294837
1.4923446 1.1358054 1.2022377 1.1394986 1.2553586 1.0596118 1.1482395 1.3140019
1.1638212 1.3411673 1.3821623 1.3683962 1.3713865 1.3491876 0.16482592 0.15115513
0.19045526 0.1971776 0.1905493 0.16279504 0.15860175 0.16088468 0.15611215 0.15613624
0.20040584 0.19441427 0.19715054 0.19588615 0.1996039 0.002222268 0.0021481689 0.0022921842
0.002292786 0.0022875788 0.0023375195 0.002031136 0.0023343374 0.0022121507 0.0021257435 0.0021776957
0.0021637494 0.0021742452 0.0021784285 0.0021724436 0.13118039 0.1308688 0.17014836 0.17864417
0.16869067 0.13575776 0.12900408 0.14614856 0.15066022 0.14497444 0.166277 0.17170161
0.16969444 0.17018516 0.16725028 0.13410167 0.13807076 0.1546384 0.15649424 0.15226309
0.14954065 0.10480177 0.1326158 0.15907991 0.13030945 0.15418811 0.16028407 0.15830389
0.1589477 0.15526043 0.069046855 0.097070165 0.08984313 0.09687397 0.09073606 0.08848171
0.07860797 0.06975608 0.09553036 0.08969827 0.10466476 0.11149868 0.10898004 0.109618455
0.105964124 0.22215034 0.27592105 0.25272986 0.25985774 0.25344467 0.32855755 0.16999117
0.26112092 0.31725526 0.22485848 0.27294526 0.28888178 0.28288963 0.28452066 0.27564356
0.10688285 0.0677129 0.10536955 0.10238994 0.105632156 0.08077951 0.06534765 0.08341304
0.08185098 0.074919716 0.080920584 0.0797569 0.07982316 0.08016842 0.08096058 0.16833137
0.15978539 0.18540192 0.18842638 0.18618491 0.13193884 0.15823863 0.16017638 0.14222883
0.15815885 0.1397249 0.14308062 0.14209212 0.14223747 0.14020833 0.054559577 0.048188463
0.06270449 0.06363691 0.062496047 0.05089752 0.04652356 0.06150159 0.060073674 0.057840757
0.059708938 0.061099365 0.06064199 0.06084119 0.060044035 0.1313417 0.08002596 0.12710747
0.12247053 0.1271405 0.10697506 0.082811885 0.10163841 0.10544988 0.094436415 0.097129256
0.09819328 0.09755307 0.09743643 0.09763589

exp_avg f4 [12]
00000000: 2a10 b53d d40a 3e3e 903f 66bc 85b1 333c
00000010: a90c 93bd 8665 013e 2439 d23d f517 ff3d
00000020: 3496 0bbd 8c8d 063d 689c 29bd faae 903c
0.08840974 0.18558818 -0.01405324 0.010967617 -0.07180149 0.12636384 0.10264805 0.12455741
-0.03407879 0.032849833 -0.041408926 0.01766156

exp_avg_sq f4 [12]
00000000: 5244 833d c76c a03f 58dc 153e 36eb 073b
00000010: 2a1f 063e 4d5a 013e d589 9c3d 5f92 6e3e
00000020: 3ea4 7c3d 8118 0e3e 2460 353d 272c 9c3d
0.064095154 1.2533196 0.14634836 0.0020739562 0.13097826 0.12632103 0.07643477 0.23298024
0.06168007 0.13876535 0.04428114 0.07625609

exp_avg f4 [100, 12]
00000000: 8508 daba 2b80 1cbb b2a1 05bb 7188 2a35
00000010: 332a 7cba 47ba 243b f4d4 c53a f4e6 1b3b
00000020: c831 873a 304a eeb9 be28 97ba 24a7 12bb
00000030: 9ecd 2dba db9e fb3b f41f f53b 91be 86b9
00000040: 4667 42bb 58e2 be3b a87e f1bb d3ae d23b
00000050: ec6e 363b dba0 f7ba 6542 4c3b 81cf bfbb
00000060: 0e31 09bb 598a e2ba 26e9 13bb 31ee 2539
00000070: 6bda dcba 21be 2f3b 09db 233b 9dfe 3e3b
00000080: bae0 52b9 6979 f439 d891 c3ba d967 aa39
00000090: 0aec 4c3b c96b c83b f9d1 823b bff7 61b9
000000a0: d210 72b9 9a07 4aba 7052 6cbb 2f98 563a
000000b0: 8588 d139 a950 e8ba a2f1 823b 68d8 38ba
000000c0: 050d 003b cf97 41bb d089 7bbb 65e1 7f38
000000d0: f96a 8539 3b0c 6db6 6fdc 843b ee4b ed39
000000e0: a6bd 81ba 49f0 3a3b a9ff e5b9 0fd0 e43a
000000f0: 74e8 0b3a 4c9b 9539 e6f4 273a ea0b 8036
00000100: 72aa 95ba 7182 0d3b de01 f03a 0554 8b3b
00000110: c8f3 983a 2309 1dbb bc5e 16ba b46b 19bb
00000120: 2e8f 2fbb 795a e0ba 818a d5ba eb9a c538
00000130: d47e 27ba f49b a739 c0b6 fb3a 76ca 823a
00000140: 1ec2 b639 1f53 52bb aba4 04bb 1688 c6b9
00000150: 7838 24bb b192 98ba 8205 1eba 08c0 b738
00000160: ae57 4bbb d9f8 783b cd9e 483b b603 af3b
00000170: 0616 813a 22ff aabb 5a0a 04bb b34e b6ba
00000180: 837f df38 4dd7 6239 4ffa 50b8 72c9 ed37
00000190: 6f4c bbba a5c0 393b d62b 003a 6b05 423b
000001a0: 637e 4539 5763 723a 35f5 96ba a7ba 0bba
000001b0: ccf8 553a 2f07 faba 10b9 01bb 5efc 2938
000001c0: 90e7 91ba ba51 043b 5770 1e3b 7c72 053b
000001d0: 48ed 7938 447a 33ba 988e 1abb 08f9 d8b7
000001e0: dc8e 5bbb 4d33 57bb a2e6 33bb b71f a438
000001f0: 5279 b4ba 575a 073b 7686 673b 2400 093b
00000200: eedb 843a 3d1b 7fbb 35c8 89bb 9a0e e5ba
00000210: cb0f 71ba 41c5 56ba b8ae 04ba 5c05 80b6
00000220: 5cfc b7ba 0d98 3f3b 7668 8f3a da0d 243b
00000230: 9480 b03a 9838 c8ba 26b3 a8ba 1996 38bb
00000240: e5c1 6d3a 3062 7bba b62d b0ba 0572 8f38
00000250: 8cdc 5bba 9763 a33a 61f2 ef3a 5986 b83a
00000260: c0ab 43ba 9548 c53a b9a7 45ba c3f2 c23a
00000270: a644 a7ba b683 6bbb b584 37bb 57bc 5538
00000280: 1c51 7fb8 fdb2 9ab9 aaeb 593b 4cf4 24ba
00000290: fb84 5a37 dc33 64ba 7256 1fba fcfe d838
000002a0: b750 bcba f226 f7ba 96ae f9ba 42c1 aa37
000002b0: b4bb 03ba 3f18 683a efaf d23a 0b61 a53a
000002c0: 0766 1b3a d3e1 8fba 6137 d6b9 a126 9dba
000002d0: 01d4 93ba aab8 d13b 36cd 0b3c 6ec5 d2b9
000002e0: 44ed b7bb 8962 413c 5e4d 0bbc cc42 413c
000002f0: 4b7a bb3b ec62 7cbb 1f6c 523b f13a 47bc
00000300: d85c a0ba f6cb ea38 96c2 11b9 0449 7d38
00000310: 9d53 9aba b4ec f63a 0392 4cb9 c891 913a
00000320: 225a b339 e461 83b9 9709 a5ba 5888 46ba
00000330: aaaa 9aba ca32 29bb ab63 63bb 9c72 0839
00000340: c2c0 84ba d437 3d3b 25ec 2d3b 9481 123b
00000350: 5a62 e337 8e21 e23a ccaa 56bb 2634 51b9
00000360: 09ce 1abb 64c8 a0bb 78f5 b7bb 49f7 3839
00000370: 8eff c339 8a5b 793a 7f94 8b3b da1d ce3a
00000380: b91f 1bba aa25 863b 375d a3ba e9fe 313a
00000390: bc9e c7bb d054 fabb 8459 dabb 67bb 3639
000003a0: 599c efba 0b3e 843b 7137 bf3b aedc 853b
000003b0: 5f5c 883a 751f f9b9 30df e8ba b53c 0ebb
000003c0: d2bd 4c3a 0205 5d3b 1cf8 393b 058c 15b8
000003d0: b0ce 4e3a 9ca1 8cba d4d7 38bb c21e 6dba
000003e0: 183d 2f39 79d0 a83a 786b 243b 15a0 29ba
000003f0: 8371 bebb c427 aabb 17c4 bcbb cc59 1c39
-0.0016634619 -0.0023880105 -0.0020390567 6.3528483e-07 -0.0009619325 0.0025135444 0.0015093372 0.0023788782
0.0010314519 -0.00045450171 -0.0011532528 -0.0022377456 -0.00066300656 0.007678849 0.0074806157 -0.00025700455
-0.0029663607 0.005825322 -0.007369835 0.006429532 0.002783711 -0.0018892543 0.0031167504 -0.005853594
-0.002093378 -0.0017283662 -0.0022569387 0.0001582436 -0.0016849762 0.0026816207 0.0025002381 0.002914346
-0.00020110878 0.00046629764 -0.0014920784 0.000325023 0.003126862 0.0061163646 0.003992316 -0.00021549965
-0.00023085185 -0.0007706821 -0.0036059879 0.0008186129 0.000399653 -0.0017724234 0.00399609 -0.000705129
0.001953901 -0.0029539948 -0.0038381703 6.1006653e-05 0.00025447438 -3.532287e-06 0.004054598 0.00045260735
-0.0009898439 0.0028524569 -0.00043868765 0.0017457026 0.00053370674 0.000285352 0.0006407037 3.8160842e-06
-0.0011418595 0.0021592642 0.0018311103 0.0042519593 0.0011669332 -0.0023961745 -0.00057361624 -0.0023410143
-0.0026788223 -0.0017116807 -0.0016291888 9.422548e-05 -0.00063894433 0.00031968916 0.0019204244 0.0009978551
0.00034858374 -0.0032093 -0.0020239751 -0.00037866895 -0.0025058072 -0.0011640397 -0.00060280424 8.7618886e-05
-0.0031027603 0.0037990122 0.003061223 0.0053410186 0.0009848482 -0.0052184025 -0.0020147772 -0.0013908952
0.000106572195 0.00021633245 -4.9824182e-05 2.8346407e-05 -0.0014289747 0.0028343585 0.00048893446 0.002960528
0.00018834467 0.000924637 -0.0011517169 -0.00053302426 0.0008162379 -0.0019075627 -0.0019794144 4.0527775e-05
-0.0011131633 0.0020190314 0.0024175846 0.0020362427 5.958721e-05 -0.0006846527 -0.0023583528 -2.586517e-05
-0.00335019 -0.0032836974 -0.00274507 7.826037e-05 -0.0013769066 0.0020653212 0.0035327948 0.0020904625
0.0010136345 -0.0038926147 -0.0042047747 -0.0017475665 -0.0009195774 -0.0008192845 -0.00050614355 -3.815321e-06
-0.0014037001 0.0029234916 0.0010941166 0.002503267 0.0013466054 -0.0015275655 -0.0012870773 -0.0028165637
0.0009069725 -0.0009589521 -0.0013441357 6.840009e-05 -0.0008387051 0.0012465593 0.0018306487 0.0014078125
-0.00074642524 0.0015051538 -0.0007539946 0.0014873374 -0.0012761548 -0.003593666 -0.0028002684 5.0958562e-05
-6.0872277e-05 -0.00029506526 0.003325204 -0.00062925066 1.30247745e-05 -0.00087052374 -0.000607825 0.00010347177
-0.0014367317 -0.0018856211 -0.0019049223 2.0355572e-05 -0.00050252234 0.00088537106 0.0016074161 0.0012617422
0.0005927984 -0.0010977335 -0.0004085852 -0.0011989662 -0.0011278392 0.0064001875 0.008532813 -0.00040201418
-0.005613001 0.011803278 -0.0085023325 0.011795711 0.0057213656 -0.003851111 0.0032107902 -0.012160049
-0.0012234701 0.0001119598 -0.00013900766 6.03879e-05 -0.0011774186 0.0018838854 -0.0001950935 0.0011106068
0.00034208695 -0.000250592 -0.0012591359 -0.00075734174 -0.001180013 -0.0025817626 -0.0034696858 0.00013012666
-0.0010128247 0.0028872387 0.0026538458 0.0022355067 2.7106307e-05 0.0017252432 -0.0032755611 -0.0001995122
-0.0023621342 -0.004906701 -0.005613979 0.00017639728 0.000373837 0.00095122366 0.0042596455 0.0015725449
-0.0005917508 0.0040938454 -0.0012463693 0.0006789999 -0.0060919207 -0.007639505 -0.006663503 0.00017426685
-0.0018280848 0.0040357164 0.0058354666 0.004085145 0.0010403505 -0.00047516418 -0.001776671 -0.0021703665
0.0007810268 0.0033724909 0.0028376644 -3.565477e-05 0.0007889075 -0.0010729316 -0.0028204815 -0.0009045416
0.0001671206 0.0012879513 0.002508847 -0.00064706925 -0.0058118715 -0.0051927287 -0.0057606804 0.00014910771

exp_avg_sq f4 [100, 12]
00000000: 1157 4a38 672d ba38 6954 a038 3be3 2234
00000010: e587 0738 eb0a b238 32b0 4b38 9352 a138
00000020: 832e 8337 c9a4 c438 ff6b 3f38 469d 9238
00000030: 9ade 0339 5119 d238 31f9 1c39 c1b3 ce34
00000040: 90cc 4538 7b67 8a39 17b1 0939 bd09 4e39
00000050: 68f7 5938 76eb 8039 0553 df38 4567 7139
00000060: 27bd be38 a346 6d39 ba87 2839 8f9b b034
00000070: a34e 5f38 0254 2739 eec2 e238 5e2e 2339
00000080: c723 4d38 5dc3 1039 ce92 b838 9091 6639
00000090: ac02 5939 d6dd 7939 2804 8e39 e0dc 3335
000000a0: 055a aa38 90c8 003a a0ea 7339 1353 b039
000000b0: 782b 8238 551d fa39 995f 4f39 9fe3 9039
000000c0: 7981 cf38 0615 0d39 55cc 2939 f4d0 8c34
000000d0: 7602 8538 a99a 1239 8702 8b38 017b 0439
000000e0: aa84 0e38 4e1a 1a39 afaa a238 2964 1e39
000000f0: eb01 0639 5502 a639 c6aa 7239 7973 0635
00000100: 2eac 0539 5a76 7c39 f203 2539 6e7f 8c39
00000110: b830 ff37 67f4 a139 a117 1b39 e3fe 0c39
00000120: 6f84 b138 0a94 1139 4621 0539 2357 8334
00000130: 19d4 4f38 f7f0 1739 20d4 ad38 7bc6 0539
00000140: 262c 2037 0940 2c39 9afb a138 6ec7 3a38
00000150: 1f2b 6239 310a 093a 73fa cf39 c276 7635
00000160: e23f 7739 8d81 de39 dd20 8c39 9760 f439
00000170: 0873 7338 5118 0d3a 7727 8939 4589 8639
00000180: 34e3 bd38 d123 2839 8efa 1d39 379a 8e34
00000190: d82a 6638 fefb 1b39 feb4 a838 003a fc38
000001a0: f996 0f38 cca7 1f39 173c a738 9930 2039
000001b0: 6bbe 8338 427d ed38 a6cf dd38 4a1c 5234
000001c0: 12b8 3038 8225 ee38 6393 8238 d232 cc38
000001d0: 12b5 be37 526a eb38 55e7 7438 e2df d438
000001e0: add0 df38 63a9 4339 be33 3139 80ae ac34
000001f0: 773c 8b38 eb07 4b39 f841 ec38 0582 3639
00000200: 007a 4437 a01b 6a39 0af0 d138 10eb 6238
00000210: 0c02 8338 313b 3139 0757 fa38 142e 7334
00000220: cab0 3d38 d144 0139 5366 8c38 eabe d638
00000230: 28b5 e137 6def fa38 a886 8c38 f7b5 fd38
00000240: 04a0 0138 6bad a238 b50b 7b38 3e4d e333
00000250: 92f8 8937 3bdc 6e38 d30c 1338 e0c4 4238
00000260: 6e82 7f37 1fe7 5b38 91ac f137 38bb 8f38
00000270: 0b9c 9b38 1fd7 3539 db40 0539 88b3 8834
00000280: 2941 5a38 bf1f 1839 1371 b238 0005 0d39
00000290: e2db d737 7e4a 1c39 530e 9e38 68f5 f338
000002a0: caae 3538 2605 aa38 ef4c 9038 2430 0c34
000002b0: 21fa e437 d717 a238 654d 3638 19e3 9138
000002c0: fe5f 6037 c0f7 af38 2f19 2a38 6bcf 7938
000002d0: e3ea 6f39 363a 4439 8421 9339 3280 4035
000002e0: ab2d bf38 f8ce 013a 7fea 8039 1103 c839
000002f0: 5c4c d538 96de eb39 1f90 4039 6f5f ee39
00000300: 28fa bc38 5af1 3539 dfc3 2139 ea8c 9234
00000310: 2833 5138 7b83 2439 f545 ba38 0fce f338
00000320: 055f ea37 2c51 2e39 678e aa38 1201 0339
00000330: d1f9 f538 5fbe 6d39 63ff 5639 de49 bf34
00000340: 5553 8138 0c2b 5d39 1a83 f138 8773 2039
00000350: f7ce 1938 4c36 6d39 801e d838 99e6 2a39
00000360: 1b31 8039 ce53 b939 7a6d cd39 7768 3b35
00000370: b2ca 2239 1280 cd39 3702 8039 de1f da39
00000380: 5e81 4538 639b ed39 6e65 5639 538d 5e39
00000390: 6062 0d39 baee b339 0840 7139 226d 0f35
000003a0: 483e df38 d6ab 9239 3784 5139 5ce5 8a39
000003b0: 6b89 6438 f1b8 9739 bf9d 1d39 20d0 8139
000003c0: 9376 3038 5885 ea37 9b56 6438 2206 0734
000003d0: afd0 c137 e9a6 9038 f903 2438 a0b2 6738
000003e0: 7b72 ab36 df65 c838 6885 1b38 b563 b537
000003f0: 14f2 8d39 580b 643a 530b 1f3a 84ad f835
4.824164e-05 8.877628e-05 7.645117e-05 1.5170092e-07 3.231307e-05 8.489735e-05 4.8563066e-05 7.692459e-05
1.5638076e-05 9.376702e-05 4.5638528e-05 6.991117e-05 0.00012576059 0.00010018296 0.0001497015 3.8501278e-07
4.7158974e-05 0.0002639851 0.00013131309 0.00019649319 5.1967247e-05 0.00024589495 0.00010648932 0.00023022022
9.0951384e-05 0.00022628396 0.0001607229 3.2895738e-07 5.324058e-05 0.00015957656 0.00010812828 0.00015562164
4.890913e-05 0.00013805689 8.801148e-05 0.00021988736 0.00020695728 0.00023829131 0.00027087447 6.700411e-07
8.122999e-05 0.00049126986 0.0002326169 0.0003363123 6.20698e-05 0.0004770557 0.00019776671 0.0002763541
9.894645e-05 0.0001345464 0.00016193216 2.6229065e-07 6.3423926e-05 0.0001398126 6.628507e-05 0.00012634324
3.397899e-05 0.00014696384 7.756554e-05 0.00015105367 0.0001277995 0.00031663725 0.00023142537 5.0086925e-07
0.0001274801 0.00024076682 0.00015737096 0.00026797823 3.0421055e-05 0.00030890407 0.00014790754 0.00013446393
8.4646854e-05 0.00013883426 0.00012696264 2.4464052e-07 4.9550177e-05 0.00014490249 8.288794e-05 0.00012757808
9.547022e-06 0.00016427053 7.723943e-05 4.453159e-05 0.00021569103 0.0005227654 0.00039668716 9.1814957e-07
0.00023579554 0.00042439663 0.00026727366 0.00046611272 5.8042846e-05 0.00053823466 0.0002616008 0.00025660745
9.054542e-05 0.00016035071 0.00015066026 2.6561767e-07 5.4876175e-05 0.00014875826 8.044577e-05 0.000120271
3.423446e-05 0.00015225931 7.974373e-05 0.00015276893 6.282035e-05 0.00011324372 0.00010576779 1.9568066e-07
4.21331e-05 0.00011355711 6.226336e-05 9.736944e-05 2.2734082e-05 0.00011225477 5.8389578e-05 0.00010150649
0.000106723375 0.0001865975 0.00016899311 3.2164462e-07 6.639299e-05 0.00019362538 0.000112656446 0.00017405309
1.1710916e-05 0.0002232627 0.000100106074 5.4101518e-05 6.246948e-05 0.00016902086 0.00011937139 2.2647902e-07
4.522576e-05 0.00012328035 6.6947796e-05 0.00010239876 2.6906448e-05 0.000119655255 6.700802e-05 0.00012097874
3.0905023e-05 7.7570636e-05 5.9853966e-05 1.05845615e-07 1.6447422e-05 5.6948727e-05 3.5059475e-05 4.643656e-05
1.5229552e-05 5.2428917e-05 2.8809796e-05 6.8536436e-05 7.420041e-05 0.00017341644 0.00012708029 2.54626e-07
5.2035935e-05 0.00014507676 8.508763e-05 0.0001344867 2.5732388e-05 0.0001490507 7.536695e-05 0.000116328534
4.3316548e-05 8.107191e-05 6.880785e-05 1.305603e-07 2.7296193e-05 7.7292025e-05 4.346426e-05 6.956439e-05
1.337379e-05 8.390797e-05 4.0554612e-05 5.95594e-05 0.00022880318 0.00018713702 0.00028062996 7.171212e-07
9.116096e-05 0.00049518 0.00024588776 0.00038149257 0.000101708545 0.00044988532 0.00018364236 0.00045466
9.011134e-05 0.00017351416 0.00015427124 2.7297148e-07 4.9877126e-05 0.00015689239 8.882202e-05 0.00011625524
2.793922e-05 0.00016624172 8.132756e-05 0.00012493532 0.00011729042 0.00022673 0.0002050377 3.5630268e-07
6.166721e-05 0.00021092239 0.00011516195 0.00015301826 3.6670794e-05 0.00022622308 0.00010305364 0.00016298368
0.0002445065 0.0003534839 0.00039182213 6.9814945e-07 0.00015525034 0.00039196067 0.00024415713 0.00041603943
4.7088943e-05 0.00045319935 0.00020446416 0.00021224217 0.00013483455 0.00034319406 0.00023007405 5.343046e-07
0.000106450694 0.00027975318 0.00019981047 0.00026492297 5.4487416e-05 0.00028938756 0.00015031452 0.00024759863
4.20721e-05 2.7957067e-05 5.4440094e-05 1.2575086e-07 2.3104569e-05 6.8975445e-05 3.9104347e-05 5.524105e-05
5.1095244e-06 9.555718e-05 3.7079124e-05 2.1623311e-05 0.00027073978 0.00086992 0.0006067056 1.852794e-06

exp_avg f4 [100]
00000000: 0ea7 dbbb 230a afbc 2b26 0b3b bcbc 473a
00000010: 3728 60ba 77be f439 9d04 393c 4893 563c
00000020: 5a29 64bb 5ecd 2b3b a4f8 203c 8308 b8bb
00000030: 1015 053b 2b15 913b 3a11 9039 cf99 2bbd
00000040: b9a8 1439 9520 95bb 4055 f3bb 83af d9bb
00000050: b89c e2bb 70f2 22bd 613b e9ba a0d4 a3ba
00000060: b1ca f23b b696 233b de19 63bc db5f 7aba
00000070: df87 cdba 1695 cabc 5db5 ab38 e2a5 09bd
00000080: 9184 8a3c b743 0cbb a897 5c3c 46a7 7dba
00000090: 3396 193d 31af 993a 04c6 1ebc e665 63bb
000000a0: 0b48 c235 c3d1 0cbb 6b0c f33b 07e3 e1bc
000000b0: 4abb edba 1222 d4b8 190d 38bc 4179 c53a
000000c0: e78b 52bb 9d6c 0b3c 7de5 91bb 35ca 1ab9
000000d0: 4914 953b 52ea 26ba 74f9 4c3c 5f23 313c
000000e0: 1f0e c43b 8bff de3b 0d4c 4dbd d0a6 4bbb
000000f0: b203 2d3b d948 a63b 37cb c3bc 364b 0ebb
00000100: ea35 193b f786 61bc 71c9 c0bc 682a 29bc
00000110: 9c15 5cbc 74ef 063b ead8 f139 bc9a babc
00000120: 410f 0cbb 61d5 c6bc 73ee b5bb 8acf c23b
00000130: 7d7f 2ebd b37d 0dbd 0f27 c03b f6a1 31bd
00000140: 5c16 6039 b860 aabc 11ff d3ba 15d6 1b3c
00000150: 616d 1dbc 4f7f ebbc 7213 44b9 4669 8ebb
00000160: 5ed7 123c dca5 2fbc 668a 84bc 5803 21bb
00000170: e4be 88bc ecce 23bb 8e3d e9bc ac27 7f3a
00000180: 5c64 8f3b 5940 3d3a d6d9 c2bb 502c 95bb
-0.006703264 -0.021367138 0.0021232467 0.0007619371 -0.00085509144 0.00046681214 0.011292604 0.013096638
-0.0034814687 0.0026214938 0.009824906 -0.005616249 0.0020306744 0.0044275722 0.00027478655 -0.04189473
0.00014177234 -0.004551003 -0.007425934 -0.006643237 -0.006915655 -0.039781988 -0.0017794186 -0.001249928
0.0074094166 0.0024961657 -0.013861148 -0.0009551027 -0.0015680752 -0.024729293 8.187697e-05 -0.033605464
0.016908916 -0.0021402666 0.013463892 -0.000967611 0.037496757 0.0011725185 -0.009690765 -0.0034698187
1.4475094e-06 -0.0021487332 0.007417252 -0.027574075 -0.0018137482 -0.00010115294 -0.0112335915 0.0015066044
-0.0032126845 0.008509782 -0.004452406 -0.00014761912 0.0045495373 -0.0006367314 0.012510646 0.010811656
0.0059831287 0.0068053654 -0.050121356 -0.003107477 0.0026399908 0.005074602 -0.023900611 -0.002171231
0.0023378083 -0.013765088 -0.023533555 -0.010325052 -0.013432886 0.0020589503 0.00046128716 -0.022778861
-0.0021371397 -0.024271669 -0.005552107 0.0059451507 -0.04260205 -0.034543704 0.005864031 -0.04336735
0.00021370634 -0.020798072 -0.0016174038 0.00951149 -0.0096085975 -0.028747229 -0.0001869926 -0.0043460457
0.00896248 -0.010720696 -0.016179275 -0.0024568643 -0.016692586 -0.0024995161 -0.028471734 0.00097333896
0.0043759774 0.00072193664 -0.005946378 -0.0045524016

exp_avg_sq f4 [100]
00000000: 2a47 a13a 81d9 4d3b 08ec 1e3b e356 bc3b
00000010: 1ca1 083b a195 6c3b 35d1 043b 2d11 ce3b
00000020: ec1f 0a3b 9240 c63a 0206 323b d060 e93a
00000030: 167a 533a 7469 083b 6004 8f3a dc32 bf3b
00000040: 219a 0c3b 7f4e 363b 32fa b93b e7c3 853b
00000050: 3672 753a df12 243c d850 cc3a 1933 1f3b
00000060: 9bc6 ee3a 3798 873a 0e91 413c c1f3 5c3a
00000070: b734 913a ed6f 3b3c 373a 953a ef9f 6d3b
00000080: 0ea1 2f3c 60d6 603a c7bb 2a3c 7ccf 763a
00000090: 73eb 573c 5cd9 e83a e14e 7a3a d0de 7c3a
000000a0: 7749 0c3b 6855 db3b f624 8c3a e505 f83b
000000b0: 9217 d73a c630 d83a 2f3f 333c a054 8f3a
000000c0: b958 ce3a 2688 933a fc3d 0f3b 0e82 c73a
000000d0: 1e20 9c3a 3308 473b 1ca8 ca3b 0135 293b
000000e0: b62d 243b 58ec e23c 34af cb3b 7d8c a83a
000000f0: e9d0 fa3a ad00 5d3b cd5e 563b 1a77 753a
00000100: 818e 0e3a aa22 e33b d696 8c3b 2ba8 cc3a
00000110: 6f98 c23a 041e 1e3b e086 993a 5a18 173c
00000120: c621 523b 956a bd3b 904e de3a a082 153b
00000130: 4d31 b83c e458 553b a80e 133c 1cc0 b93b
00000140: 7d45 d83a 337d 1a3c 7c4a 8e3a 69a0 0d3c
00000150: e136 463b ea34 a53b 8f66 ad3a 2b22 cc3a
00000160: cf45 653c f7d7 9d3a 000c a53b 0c3e e13a
00000170: 00f5 413c 2c5b 9b3a 996a a73b 3c0c bc3a
00000180: c4c1 cc3b b488 983a 5f66 453b a329 9f3b
0.0012304534 0.003141016 0.0024249572 0.0057476624 0.0020847982 0.0036099928 0.0020266299 0.0062886686
0.0021076156 0.0015125445 0.0027164225 0.0017805342 0.00080672035 0.0020814808 0.0010911338 0.0058349203
0.0021454173 0.0027817783 0.0056755776 0.0040821913 0.0009363027 0.010014265 0.0015588058 0.0024291931
0.0018217148 0.0010345046 0.011814369 0.0008428656 0.0011078332 0.011440259 0.0011385147 0.0036258658
0.010719551 0.0008576866 0.010420746 0.0009415073 0.013178694 0.0017764973 0.0009548497 0.0009646239
0.0021406093 0.006693531 0.0010692168 0.007569062 0.0016410223 0.0016494028 0.010940357 0.0010935254
0.0015742994 0.0011255785 0.0021857014 0.0015221254 0.0011911427 0.0030369877 0.006184591 0.0025818946
0.002505166 0.027700588 0.006215954 0.0012859252 0.0019135746 0.0033722327 0.0032710314 0.0009363756
0.0005438105 0.0069316225 0.004290442 0.0015614083 0.0014846454 0.0024126777 0.001171317 0.009222114
0.0032063588 0.005780528 0.0016960669 0.0022813454 0.022484446 0.0032554204 0.008975662 0.005668653
0.0016500201 0.009429264 0.0010855938 0.008644202 0.0030245113 0.0050417082 0.0013229417 0.0015574148
0.013993694 0.0012042512 0.005036831 0.0017184629 0.011838198 0.0011852733 0.005109143 0.0014346908
0.0062486846 0.001163742 0.0030120832 0.0048572584
