runs/perovskite_multiscale_dataset_3/ae2_PCE_predictor_enc_l_2_l1_1em2_tanh_predictor_0_1_100_relu_decoder_linear_seed_0_lr_1em3_bs_100_e_1500_pass_latents_ae1_fold_0_ae2_fold_2_xavier_normal_gain_10/submodule_params/etm_pred_params.pt (torch, 1159 bytes, 2 tensors)

0.weight f4 [7, 2]
0	0x40fa680f	7.8252025
1	0xc10e087f	-8.877074
2	0x3f9476a9	1.1598712
3	0xc0740ce1	-3.813286
4	0x411b4673	9.7046995
5	0xc04f48a5	-3.2388089
6	0xc111c61c	-9.110867
7	0x4006db52	2.1071362
8	0xc0baa22d	-5.832297
9	0x414e8ebd	12.909848
10	0x40c9e48b	6.3091483
11	0x412fabf6	10.979483
12	0xc12f1d90	-10.944717
13	0xc11696d0	-9.411819

0.bias f4 [7]
0	0xc0048330	-2.070507
1	0x407fbae0	3.995781
2	0x3e2e2c26	0.17009029
3	0xbe6a8f1f	-0.22906159
4	0xc05d7ac5	-3.4606183
5	0x3eae8648	0.34086823
6	0xc00b34ca	-2.175097
