runs/perovskite_multiscale_dataset_runs/ae2_PCE_predictor_enc_l_18_l1_1em2_tanh_predictor_0_1_100_relu_decoder_linear_seed_0_lr_1em3_bs_100_e_1500_pass_latents_ae1_fold_0_ae2_fold_4_xavier_normal_gain_10/submodule_params/encoder_params.pt (torch, 2819 bytes, 2 tensors)

0.weight f4 [18, 23]
00000000: dc40 3f3e 5645 50b9 0fa2 05ba a7d7 383a
00000010: 660a 103a 9a0f 9eba af26 48bb 254a 8ebc
00000020: 9dea c4b9 3701 b63a fe6a f73b eadf d939
00000030: 38c9 b4bb 30f0 6f3b 87d3 c03b 3e27 af39
00000040: bc94 1a39 f628 d9bb 64ce ae3d a75d 93bd
00000050: f05f 5b3e cb70 ceb9 fdc8 b4ba 4cdf 533d
00000060: 5bf6 8e3c 7dec b2bb ca2f c63c 08ed 82ba
00000070: 5d61 35bd 1dae fcbb c505 6c3d 1789 e33c
00000080: 1e93 2f39 bd27 4c3c edcd 30bb 1f83 11bc
00000090: 3a1d 683b ac64 023d 98b4 fbb9 505c 3cbb
000000a0: ba35 d4ba 125d 8f3d f8da a83a fa47 6dba
000000b0: 68d9 0b3c b37c dabc 70c0 d53d ba2c cfbe
000000c0: f71b 49bd 8554 2ebd 64c7 b4bb de64 273b
000000d0: ad7a 06ba 2c2c 8c3d ec7c 633d 455a 83bc
000000e0: a803 69bd 1439 a5bc c2e3 37bd 7ca1 843b
000000f0: eb6a c13b deeb ab3a 05e6 28bb 6339 adbb
00000100: 8d48 c23e f421 893b 8acc e4be 28c4 9dbb
00000110: b51a a03b eeb9 9cbc ea87 b4ba 2425 b3b8
00000120: 74b2 743a 08a0 5b38 8ff1 0bbe db09 84bd
00000130: f090 faba 15e6 0abc 42bb 1c3b c72b e1bd
00000140: e8b8 aa3b c0ff 5abe a86b a1bd ff88 963b
00000150: a9d4 84ba 641e b23a 7060 433b 3190 cd3a
00000160: df34 d9bd 2459 713a 6a97 90bb 0a77 a93e
00000170: 8099 bbbd 8762 afbd 169f 093b ef89 9e3d
00000180: c287 6dba f01f bcba d29b cc3c b50f 89be
00000190: 73c5 8e39 53e9 d7b9 b4d6 4a38 aa47 b3b9
000001a0: e0ae b0bb f475 c83b 00f6 bd3c b218 78bb
000001b0: 7bee 75bb d601 2ab9 ad12 2c3b b893 6639
000001c0: 02ad 073c 72e0 023b b466 1dbd f9b4 cf3a
000001d0: 7c4b b939 7246 27bc 7d12 483c 4094 293a
000001e0: 5f6e 64bc 4d57 5f3d 0132 7bbd 5b78 1c3b
000001f0: a99d 60bb 0d1b 113e a334 14bb ac88 80bc
00000200: 307f 57bb b084 2b3c 06df 62bb 1907 273a
00000210: ef28 9d3d 4667 7ebb a261 34bb 2fbd 1cbe
00000220: 2c64 ee3c f4a2 80ba 586e daba adb7 03bb
00000230: 6ccb 2cbd 51e0 b63d 857e 9c3a 9aef e0bc
00000240: 001f c7bd 77c7 143b 6d7d 3cbd cfe1 853a
00000250: df96 80bb d6ee 743b 85c8 433c 2bca 3f3a
00000260: e9ba 73bb c698 16ba a9e4 203b 0dab 04be
00000270: 2d30 c73a e6d8 d73a 959a 533b e082 a73d
00000280: 4af0 63bc 877e 87bb 631a b0bc e3a7 633c
00000290: 66b7 d7ba b3f7 86bb e57b 053b 135f 843b
000002a0: f8e4 91bb d014 bd3d 34a3 b2bb 2b8b 89ba
000002b0: 9128 f6bb 840a e23d 2677 0fbe 0ff2 76bb
000002c0: 2e32 1bbb c438 14ba 6561 e63b 8ab0 d239
000002d0: 6552 95ba e487 9639 f6bc 76ba 0363 2f3b
000002e0: 91f2 843a c739 1e3c 18cd a63a 82a2 683a
000002f0: cd9a 9f3c 3e24 ef3a 767e adb9 55a3 c7b9
00000300: cd18 09bb 7a80 9b3c 4aef 4e3b 398b 913b
00000310: af38 76bd fe85 80bb 1ed6 703d 46ac 06b9
00000320: c21f 933d 1f1e d9ba b57d debd 2e52 1c3e
00000330: d868 bbbc a8fb 07bb b57e 7f3d ea26 2fbb
00000340: 0b36 2dbb 6258 413b 2fd7 f7ba 6ae5 43ba
00000350: 9005 6a3d b302 ac3c f532 b5ba 90ce ca3a
00000360: 3ad7 27ba ad5c 89ba 0da3 e2ba c104 b13c
00000370: 5153 333b 80bd 953e f796 b438 99f9 f73c
00000380: 57ca 4abe fa83 b7bb 2fc7 af3b f0bb 0438
00000390: 8631 623b a0c3 15bb 425b 263b 00c3 703a
000003a0: 802a 87bb 1df1 4f3b 945a ea3c 263a 6ebb
000003b0: ca35 4bbb 0594 c33a d89f 77bb ec48 883d
000003c0: af62 993a 2e70 973b aa7d 133b 2c9f b13b
000003d0: f01c 1c3a c47a 3bba 666d 3abe a90a 8eba
000003e0: fab0 d6bd f990 783a 39f9 7a3b 7c35 003b
000003f0: 7b46 36bd a927 493a 3362 4d3a f054 f33d
0.18677086 -0.00019862255 -0.0005097696 0.00070511777 0.00054947136 -0.0012059093 -0.0030540635 -0.01736934
-0.00037558834 0.001388586 0.0075505963 0.00041556294 -0.005517151 0.0036611669 0.005884591 0.0003340784
0.00014741992 -0.0066271974 0.0853546 -0.07195597 0.21423316 -0.0003937542 -0.0013792809 0.051726624
0.017451456 -0.0054603205 0.02419271 -0.0009988854 -0.044282306 -0.0077111856 0.05762269 0.02777533
0.00016744106 0.012460646 -0.002697821 -0.008881359 0.003541781 0.03183429 -0.00048009004 -0.0028741546
-0.0016190328 0.07000174 0.0012882641 -0.0009051558 0.00853572 -0.02667079 0.10437095 -0.4046381
-0.049098935 -0.042561073 -0.0055169333 0.00255423 -0.00051299745 0.068443626 0.055539057 -0.016034255
-0.056888252 -0.020168819 -0.04489494 0.0040475708 0.005902638 0.0013116559 -0.0025771868 -0.005286382
0.37945977 0.0041849557 -0.446873 -0.0048146434 0.004885996 -0.019131627 -0.0013773416 -8.542303e-05
0.0009334453 5.236271e-05 -0.13666366 -0.06447192 -0.0019116681 -0.008477707 0.0023915325 -0.10994678
0.005210031 -0.21386623 -0.07881862 0.004593968 -0.0010134178 0.0013589379 0.002981212 0.0015683231
-0.106057875 0.00092067034 -0.004412581 0.33098632 -0.09160137 -0.085637145 0.0020999364 0.077411525
-0.0009061062 -0.001435278 0.024976645 -0.26769796 0.00027231462 -0.00041181836 4.836051e-05 -0.00034194934
-0.0053919405 0.0061175767 0.023188591 -0.0037856516 -0.0037526179 -0.00016213147 0.0026256249 0.00021989539
0.008280994 0.0019970206 -0.038428023 0.0015846781 0.0003534219 -0.010209667 0.012211439 0.00064689294
-0.01394233 0.054526616 -0.061326984 0.0023875448 -0.003427366 0.14170475 -0.0022614382 -0.01569017
-0.0032882206 0.010468647 -0.0034617796 0.0006371602 0.07673823 -0.003881888 -0.0027524014 -0.15306543
0.0291005 -0.0009814189 -0.0016664965 -0.0020098493 -0.042186186 0.08929504 0.0011939561 -0.027458
-0.0972271 0.0022701898 -0.046018053 0.0010214391 -0.0039242352 0.0037373803 0.011949663 0.0007316197
-0.0037190265 -0.0005744811 0.0024550355 -0.12955876 0.0015196853 0.0016467839 0.0032288183 0.08179259
-0.01391227 -0.0041349563 -0.021496957 0.013895008 -0.0016457855 -0.0041188835 0.0020368036 0.004039654
-0.004452344 0.09232485 -0.0054515842 -0.0010493746 -0.00751216 0.11037162 -0.14010295 -0.00376809
-0.0023681032 -0.00056542107 0.0070306533 0.00040185853 -0.0011392353 0.00028711476 -0.00094123126 0.0026761896
0.0010143091 0.00965733 0.0012725918 0.0008874313 0.019482994 0.0018245054 -0.00033091352 -0.0003807793
-0.0020919323 0.01898216 0.0031575733 0.0044416455 -0.06011265 -0.003922223 0.058797948 -0.00012843413
0.07183792 -0.0016564763 -0.108638205 0.15265724 -0.022877142 -0.0020749364 0.062376697 -0.0026726075
-0.0026429917 0.0029502143 -0.0018908734 -0.0007472845 0.05713421 0.02099738 -0.001382439 0.0015472937
-0.00064026157 -0.001047989 -0.0017291025 0.021608712 0.0027362893 0.2924614 8.611188e-05 0.030270385
-0.19803749 -0.0056004496 0.0053643207 3.1646283e-05 0.0034514382 -0.0022852197 0.0025383984 0.00091843307
-0.0041249394 0.0031729408 0.028607644 -0.0036350577 -0.0031007403 0.0014921433 -0.0037784483 0.06654534
0.0011702384 0.004621527 0.0022505322 0.005420586 0.000595524 -0.00071517774 -0.18205795 -0.0010836917
-0.10482974 0.0009482052 0.003829552 0.001956313 -0.04450081 0.00076734513 0.0007834762 0.11881435

0.bias f4 [18]
00000000: 8ed8 403d 97b3 153c e2fd a4be 3cf5 5cbd
00000010: 2b52 abbe b595 623e e6e0 403e b2be 233e
00000020: 5efd d3bd 1d2d c2bd db8b 2cbe 49d1 bc3d
00000030: 0e65 e73a e7f5 a9bc cefe bb3c 6c89 83bd
00000040: e22b 8c3a c270 1bbe
0.047081523 0.009137056 -0.32224947 -0.05394481 -0.33461127 0.22127421 0.18835792 0.15990713
-0.1035106 -0.09481261 -0.16850226 0.092196055 0.0017654018 -0.020747138 0.022948649 -0.064226955
0.001069423 -0.15179732
