runs/perovskite_multiscale_dataset_3/ae2_PCE_predictor_enc_l_18_l1_1em2_tanh_predictor_0_1_100_relu_decoder_linear_seed_0_lr_1em3_bs_100_e_1500_pass_latents_ae1_fold_0_ae2_fold_0_xavier_normal_gain_10/submodule_params/etm_pred_params.pt (torch, 1607 bytes, 2 tensors)

0.weight f4 [7, 18]
0	0xc025219e	-2.5801768
1	0xc1282920	-10.51004
2	0xbff83e42	-1.9394
3	0xc0085700	-2.13031
4	0xc0c40b81	-6.1264043
5	0xbfa02447	-1.2511071
6	0x4063cd74	3.5594149
7	0x409b3b8d	4.8510194
8	0xc127f1ea	-10.496561
9	0x400f4ed9	2.2391875
10	0x40ca5937	6.3233905
11	0x40987e98	4.7654533
12	0x3f71f0b3	0.945079
13	0x3f0feaa6	0.5621742
14	0x3df3b3b1	0.11899508
15	0x3fdae205	1.7100226
16	0xbfbe387c	-1.4860988
17	0x40b31fad	5.5976167
18	0x3f4d8f95	0.80297214
19	0xbef7ea8e	-0.4842114
20	0xc000e7f4	-2.0141573
21	0xc12fbbe2	-10.98337
22	0x3e690cd5	0.22758801
23	0x3f3cf367	0.738089
24	0xc05de7e2	-3.467278
25	0xc147c4cd	-12.485547
26	0x4095f251	4.6858296
27	0xc12117ca	-10.068308
28	0xc012dc29	-2.2946875
29	0xc0b00e35	-5.5017343
30	0x410383e9	8.219705
31	0xc0fc4729	-7.8836865
32	0xc0b8d1ba	-5.7756014
33	0xc12b2d38	-10.69854
34	0x3f9b5ca1	1.2137643
35	0xc013708f	-2.303745
36	0xbee85c31	-0.45382836
37	0x40aadee2	5.3397074
38	0xc0818f17	-4.048717
39	0xc02b68f3	-2.6782806
40	0x4138462c	11.517132
41	0xc07c833c	-3.94551
42	0xc013be06	-2.308473
43	0x408ba6a5	4.3640924
44	0x40ec3d23	7.382463
45	0x41777c19	15.467797
46	0xbdd9dafb	-0.1063747
47	0x402dca27	2.7154634
48	0xc011524d	-2.2706482
49	0x40ccd009	6.400395
50	0xc05dda30	-3.466442
51	0xbd88dce9	-0.0668276
52	0x3ec90b65	0.39266506
53	0x3f567335	0.8376954
54	0xc149abc9	-12.60444
55	0x3f16e7cc	0.58947444
56	0x3d8b6336	0.06806032
57	0x412fb613	10.981952
58	0x3eb12da1	0.34605125
59	0x40109b50	2.2594795
60	0x3f7db395	0.99102145
61	0xbf1c3626	-0.61020124
62	0xc01d86ea	-2.4613595
63	0x4051ecfe	3.2800899
64	0x40144d05	2.317201
65	0x4123fb75	10.248891
66	0xc0aa28c4	-5.3174763
67	0xc127ecd3	-10.495318
68	0x3f38515e	0.71999156
69	0xc069cf38	-3.6532726
70	0x41150855	9.314534
71	0xc10ecae9	-8.924539
72	0xbd99c91a	-0.0750906
73	0x407f1997	3.9859369
74	0x3ed58a17	0.41706917
75	0x3faa94fa	1.3326714
76	0xc08abdf8	-4.3356895
77	0xc029cdcd	-2.653186
78	0x406c3655	3.6908162
79	0xbfa9c4b5	-1.3263155
80	0x41727ac9	15.154977
81	0x40b6d8a5	5.713946
82	0xc1184551	-9.516923
83	0xc134f0ea	-11.308817
84	0xc11eff07	-9.937263
85	0xc02d9fc1	-2.7128756
86	0xbfcef34c	-1.6167998
87	0xbeb32a37	-0.34993145
88	0xc167bbec	-14.483379
89	0x4025a14f	2.5879705
90	0xc01f5af8	-2.4899273
91	0xbf1b8325	-0.60746986
92	0xbfb15236	-1.3853214
93	0x40b2f2b5	5.5921273
94	0xbfc78997	-1.5588864
95	0x4006a2cb	2.103686
96	0xc082d643	-4.088655
97	0x40937ea1	4.6092076
98	0x40a7c105	5.242312
99	0xc177d6a6	-15.489904
100	0x4183151f	16.385313
101	0xc164bf97	-14.296775
102	0xbf54084c	-0.8282516
103	0x407dcfe7	3.9658144
104	0xc03bf0bd	-2.9365685
105	0x41063a93	8.3893
106	0x40366bcd	2.8503296
107	0xbfdea992	-1.7395499
108	0x40f94937	7.7901874
109	0x40ea792d	7.327292
110	0x4108e493	8.555804
111	0x3f8b3b0c	1.0877395
112	0xc06c49b3	-3.6919982
113	0x3fbd1d4d	1.4774567
114	0xc0063686	-2.0970778
115	0x3ff35731	1.9010984
116	0xc0f1d61e	-7.5573874
117	0x407376b5	3.8041203
118	0xc103eb8b	-8.245006
119	0xc0bce01d	-5.9023576
120	0x405c0760	3.4379501
121	0x4115b5be	9.356871
122	0x40f18d95	7.548533
123	0x3fe9e79b	1.8273805
124	0x410eaff7	8.91796
125	0xbd540d39	-0.051770423

0.bias f4 [7]
0	0xc02334cc	-2.5500975
1	0x4007aa51	2.1197703
2	0x4054f759	3.327597
3	0xc05423aa	-3.3146768
4	0xbf7a374d	-0.9774063
5	0x3fa3b2eb	1.2788976
6	0x3d0fa73d	0.0350716
