runs/perovskite_multiscale_dataset_3/ae2_PCE_predictor_enc_l_18_l1_1em2_tanh_predictor_0_1_100_relu_decoder_linear_seed_0_lr_1em3_bs_100_e_1500_pass_latents_ae1_fold_0_ae2_fold_0_xavier_normal_gain_10/submodule_params/latents_pred_params.pt (torch, 2007 bytes, 2 tensors)

0.weight f4 [12, 18]
1.4373628 0.5023762 -0.25215894 -0.29213816 0.16438876 -0.18504226 1.4192234 -0.4143693
0.018337995 0.049066316 -0.14296322 -0.3095711 -1.711617 -1.1639645 -0.4845865 0.7883899
1.5878217 -0.42240945 0.94041115 0.38847572 -0.2513439 -0.32603738 -0.08093371 -0.30354065
0.83472836 -0.23356864 -0.0158256 0.08333851 -0.28890756 -0.329399 -1.3151021 -0.7101682
-0.86778355 0.7707818 1.4915321 -0.37258202 -2.2251158 -0.2991353 -0.043164063 0.042558007
-0.38836175 -0.32446766 -1.7881324 0.43089777 -0.292633 -0.022076676 -0.09693933 -0.06863191
1.2868551 1.412667 0.7772397 -0.9415478 -0.9597174 0.24893598 0.097462535 0.84477115
-0.0873125 1.0069528 -0.19249482 0.2373539 1.4661385 -0.26064897 -0.02550497 -0.099553235
0.87392694 0.9470389 -0.80703384 1.5950555 -0.15617134 -2.298544 -1.1241534 0.47593585
-0.01424931 0.7442912 -0.15680663 0.8167537 -0.34978163 0.15799743 1.0898184 -0.21951464
-0.012893435 -0.03558384 0.7142783 0.8100534 -0.6828457 1.5374986 -0.19608836 -1.8880802
-0.8905835 0.36862594 0.26513183 -0.9575336 0.66558677 -0.94716495 0.028989905 -0.62147564
-1.8287394 0.10430677 0.11573245 0.21515606 -0.24603947 -0.993269 0.21866988 -2.0282226
0.6669248 1.9332361 0.91971457 -0.60037786 -2.0123637 -0.23905596 -0.039000243 0.097145036
-0.40265107 -0.26512673 -1.5264055 0.47359815 -0.17271075 0.0056971977 0.027709365 0.0027824943
1.6866783 1.3075615 0.85527134 -0.86498404 -1.3181846 0.15077053 -0.6780145 0.3342481
0.34302345 0.20060834 -0.86175 -1.3892092 0.34476912 0.5837203 0.14981546 0.08276861
-0.36446846 -0.01117306 1.1642786 0.7553884 -2.8299906 -0.11612731 -0.179369 0.17154661
0.4778243 0.7428349 0.409752 -0.28566262 -0.005598041 0.29699588 -0.8039172 1.475334
-0.6460086 -0.14648417 0.11793555 -0.29605424 -1.7163279 -1.0412946 -1.319289 -1.4270856
1.2448944 1.6572796 -0.19590414 -1.2372565 -0.07226805 0.50538766 -0.6823727 -0.037636258
-0.36080176 -2.4121664 0.9408366 0.53362876 0.5028921 0.593117 0.6431408 1.611657
1.5697064 1.6894321 -1.0847551 -1.4528676 1.4697161 0.8595146 -0.05707442 0.11016928
-0.32219964 0.5259922 0.3546723 -0.160711 -0.22592351 0.10780093 0.9055233 0.24490221
-3.1739647 -0.24068609 0.17597741 -1.3126976 1.0975841 0.47699165 -0.42359278 -0.8832843
-0.35066223 0.35611176 -0.09700973 -0.22611596 0.6026644 -1.7066566 0.713663 0.20119148
-0.013926773 0.4088127 1.4591981 1.2492579 1.3839496 1.4595907 -1.2209486 -1.6704209
00000000: 81fb b73f ba9b 003f fa1a 81be 2293 95be
00000010: 8755 283e b87b 3dbe 1da9 b53f 3628 d4be
00000020: 9039 963c c3f9 483d f364 12be 1a80 9ebe
00000030: 4416 dbbf cafc 94bf b91b f8be ecd3 493f
00000040: be3d cb3f 0d46 d8be c9be 703f 4ae6 c63e
00000050: 26b0 80be 5fee a6be 93c0 a5bd ae69 9bbe
00000060: c2b0 553f 9e2c 6fbe b0a4 81bc 61ad aa3d
00000070: b1eb 93be fca6 a8be 4455 a8bf 95cd 35bf
00000080: 1027 5ebf f551 453f 86ea be3f 12c3 bebe
00000090: 4c68 0ec0 4328 99be cdcc 30bd 4e51 2e3d
000000a0: 5ad7 c6be a020 a6be 86e1 e4bf a29e dc3e
000000b0: fed3 95be 25da b4bc 2188 c6bd e38e 8cbd
000000c0: abb7 a43f 46d2 b43f 2ef9 463f 4709 71bf
000000d0: 0ab0 75bf 13e9 7e3e 709a c73d ec42 583f
000000e0: e5d0 b2bd d4e3 803f 5d1d 45be e70c 733e
000000f0: 6daa bb3f c873 85be cdef d0bc 91e2 cbbd
00000100: adb9 5f3f 2471 723f c599 4ebf c72a cc3f
00000110: 61eb 1fbe 581b 13c0 42e4 8fbf ddad f33e
00000120: f075 69bc de89 3e3f eb91 20be c516 513f
00000130: 9416 b3be 14ca 213e 2b7f 8b3f 72c8 60be
00000140: fc3e 53bc 5cc0 11bd f1da 363f a95f 4f3f
00000150: face 2ebf c1cc c43f 63cb 48be 9dac f1bf
00000160: 48fd 63bf 8abc bc3e 5cbf 873e ec20 75bf
00000170: e563 2a3f 6779 72bf 3d7c ed3c 0719 1fbf
00000180: 2214 eabf ca9e d53d 2205 ed3d df51 5c3e
00000190: c5f1 7bbe e146 7ebf ffea 5f3e 66ce 01c0
000001a0: 95bb 2a3f 4874 f73f 6a72 6b3f 5db2 19bf
000001b0: 91ca 00c0 16cb 74be b8be 1fbd faf3 c63d
000001c0: 4828 cebe b1be 87be 4161 c3bf 757b f23e
000001d0: 16db 30be 8faf ba3b c0fe e23c 825a 363b
000001e0: 13e5 d73f 2d5e a73f 10f3 5a3f 986f 5dbf
000001f0: 46ba a8bf 9763 1a3e 5c92 2dbf 9122 ab3e
00000200: c5a0 af3e 466c 4d3e a69b 5cbf 9bd1 b1bf
00000210: 9485 b03e b26e 153f 3969 193e 9782 a93d
00000220: 9c9b babe 360f 37bc 1507 953f 2261 413f
00000230: 911e 35c0 28d4 edbd 82ac 37be eaa9 2f3e
00000240: 63a5 f43e 6e2a 3e3f 04cb d13e 5f42 92be
00000250: c66f b7bb d80f 983e 85cd 4dbf bfd7 bc3f
00000260: d260 25bf f2ff 15be 3288 f13d 6c94 97be
00000270: a2b0 dbbf 2449 85bf 76de a8bf beaa b6bf
00000280: b358 9f3f bd21 d43f 189b 48be 6c5e 9ebf
00000290: 4501 94bd 1661 013f faaf 2ebf 7a28 1abd
000002a0: 02bb b8be ef60 1ac0 abda 703f e59b 083f
000002b0: 89bd 003f 84d6 173f e0a4 243f c74a ce3f
000002c0: 24ec c83f 503f d83f 41d9 8abf 91f7 b9bf
000002d0: a81f bc3f 2609 5c3f dec6 69bd 6ea0 e13d
000002e0: 5af7 a4be 6da7 063f 9c97 b53e 6d91 24be
000002f0: 7e58 67be bcc6 dc3d 60d0 673f a5c7 7a3e
00000300: 3d22 4bc0 6a76 76be 6c33 343e 7a06 a8bf
00000310: a37d 8c3f 4038 f43e 27e1 d8be eb1e 62bf
00000320: 008a b3be 4854 b63e 0aad c6bd f18a 67be
00000330: 3748 1a3f b973 dabf 9eb2 363f 2405 4e3e
00000340: 1f2d 64bc e64f d13e 01c7 ba3f afe7 9f3f
00000350: 4325 b13f ded3 ba3f 0b48 9cbf 5ad0 d5bf

0.bias f4 [12]
-0.32190046 -0.24193189 0.31269267 -0.45022646 -0.44804257 0.81719273 0.21489948 0.00557458
0.15231216 0.26447362 -0.2763448 -0.07872947
00000000: 23d0 a4be febc 77be 4119 a03e 1584 e6be
00000010: d665 e5be 8b33 513f 9c0e 5c3e f7aa b63b
00000020: b8f7 1b3e 1669 873e 117d 8dbe eb3c a1bd
