runs/perovskite_multiscale_dataset_3/ae1_bg_predictor_enc_l_12_l1_1em2_tanh_pred_p_0_1_100_relu_dec_15_linear_seed_0_lr_1em3_bs_10_1500_epochs_mae_mtl_k_fold_1_xavier_normal/checkpoints/last.ckpt (torch, 36546 bytes, 21 tensors)

submodules.encoder.0.weight f4 [12, 15]
000000 d6 63 70 3a 94 1e 10 bb ac ec f6 b9 e8 41 d2 39
       0.000917015 -0.0021990882 -0.0004709711 0.00040103425
000010 c8 52 1c 3a 0f d0 d5 3d ce 67 03 3e 1f ac 1f bb
       0.0005963263 0.10440075 0.12832567 -0.0024364067
000020 2c dd f9 ba df 92 bc ba 60 75 88 ba 54 ce 36 ba
       -0.0019063107 -0.0014387033 -0.0010410957 -0.00069734943
000030 67 76 4d 3a 02 82 5c 3a bc 4e 8b 3a 46 23 95 3c
       0.0007837773 0.00084117067 0.0010628323 0.018205296
000040 13 db 29 3a 06 1c 87 bb 73 11 00 3b 02 08 f8 3a
       0.0006479483 -0.0041232137 0.001954165 0.0018923285
000050 eb a7 45 be c6 b3 06 3e 79 93 f7 bd 11 8e 9a be
       -0.19302337 0.13154516 -0.12088675 -0.30186513
000060 09 a7 89 ba 0d ec 4b ba 78 25 83 3a 9c 33 0f ba
       -0.0010502051 -0.000777901 0.0010005673 -0.00054627075
000070 d6 19 d7 b9 f8 6e ca 39 f4 d2 c5 b9 b4 93 63 b9
       -0.00041027245 0.0003861112 -0.0003773194 -0.0002170343
000080 7d 30 ef b8 60 81 36 39 b6 8e 8e 38 3a 94 86 3d
       -0.0001140544 0.00017405069 6.7976696e-05 0.06571241
000090 c7 23 59 bd e8 71 2c 3a c9 a8 94 bc 27 a1 26 be
       -0.053012636 0.00065782527 -0.01814689 -0.16272412
0000a0 f3 71 ec 39 64 7b 20 3a e4 29 13 ba 85 4f 11 ba
       0.00045098327 0.0006121902 -0.0005613847 -0.00055431604
0000b0 ee 61 10 ba e9 e5 8a ba 95 c6 34 3e a7 ec 79 3a
       -0.0005507757 -0.0010597083 0.17653878 0.000953386
0000c0 a0 4b 85 ba 04 78 63 ba 17 b6 f9 3a d4 a6 3b 3a
       -0.0010169633 -0.00086772465 0.0019051459 0.0007158343
0000d0 52 3f 25 3b 38 45 c6 39 5c d6 d7 39 e8 f8 23 b9
       0.0025214744 0.00037817075 0.00041167706 -0.00015637616
0000e0 91 62 86 b9 23 99 9d 39 50 db 64 39 58 10 37 39
       -0.0002563191 0.0003005947 0.00021825475 0.00017458329
0000f0 9a 29 b2 ba 7d bb 34 bb 27 80 ac 3a e0 16 71 be
       -0.001359272 -0.0027577572 0.0013160751 -0.23543882
000100 a4 1a 43 ba a9 9f a4 b9 11 0d 1a bb 49 2c 9f 39
       -0.00074426294 -0.00031399474 -0.0023506323 0.00030359838
000110 1e a7 84 39 ee 1d 27 ba ba b3 35 3a 00 05 20 3a
       0.00025301514 -0.00063750043 0.00069313834 0.00061042607
000120 bf 06 20 ba 74 fe 30 ba 83 36 3c ba e6 08 56 3b
       -0.0006104521 -0.00067517837 -0.0007179754 0.0032659112
000130 fb 69 18 3b e0 b4 5a bb f8 73 ac 3d 3c fc df 3d
       0.0023256529 -0.003337197 0.08420557 0.10936782
000140 3c 72 5e 38 91 e1 dc 3a 27 76 df ba 2c d6 a7 ba
       5.3035314e-05 0.0016851892 -0.0017048762 -0.0012804917
000150 a2 03 58 ba 4e 14 90 ba 97 99 8f ba 0e c5 8a 3a
       -0.00082402874 -0.0010992379 -0.0010955808 0.0010587291
000160 ee 52 91 3a 80 e4 8a 3a 6c 77 78 ba d2 d5 cf ba
       0.0011087337 0.0010596663 -0.00094782445 -0.001585657
000170 02 5e df b9 da 7d 55 3a f0 62 f2 39 34 b2 04 bb
       -0.00042603916 0.00081440585 0.0004623155 -0.002024782
000180 60 76 6b ba 58 c7 46 3e 6c 4d 26 39 50 1b 30 b9
       -0.0008982178 0.19411981 0.00015859836 -0.00016794843
000190 f1 cd 8a 3a 55 3a 6f 3a 54 19 8b ba 48 68 96 ba
       0.001058994 0.00091258186 -0.0010612407 -0.001147517
0001a0 f2 51 78 ba d3 7d 8b 3e fd ac 0f 3b 7a 28 c7 39
       -0.000947266 0.27244434 0.0021923177 0.00037986395
0001b0 c7 07 61 ba 42 31 31 ba 0f e3 0c ba 10 4a a0 39
       -0.0008584228 -0.0006759354 -0.00053744105 0.0003057276
0001c0 83 7d 33 3a 03 8c c1 b9 00 91 d6 b9 f0 ab 36 39
       0.0006847011 -0.00036916145 -0.00040925294 0.00017420924
0001d0 d8 76 02 38 1c 9b 8f b8 80 82 4b 36 b6 0a 2b b9
       3.1105097e-05 -6.847663e-05 3.0325318e-06 -0.00016311821
0001e0 47 fc 9c 3a 1a 20 86 3b 88 64 70 ba e4 a4 27 3a
       0.001197704 0.0040931823 -0.0009170254 0.0006395115
0001f0 31 42 29 3a 62 14 32 3a ae a8 db 3a 5c 56 20 b9
       0.00064567017 0.00067931984 0.0016758644 -0.0001529096
000200 36 e3 84 3a 79 77 a6 3a ba f3 c2 b9 44 e9 2b be
       0.0010138515 0.00127004 -0.00037184154 -0.16788203
000210 dd c8 f3 3d 46 ca 29 3a 0e e0 45 39 b5 7f 0b bb
       0.11903546 0.00064769795 0.00018870851 -0.0021285836
000220 a3 6a 07 bb 48 78 ad 3a b0 d3 5c ba ea 51 91 ba
       -0.0020662926 0.0013234699 -0.0008423878 -0.0011087034
000230 72 5f ec ba 07 62 8a ba 4d 17 32 3a 9d c1 6b 3a
       -0.0018033816 -0.0010557779 0.0006793633 0.0008993389
000240 ee a7 f7 39 f4 63 94 3e f4 fe 85 3a 4c e6 95 ba
       0.0004723663 0.28982508 0.0010223077 -0.0011436432
000250 c2 8e 95 ba cd 6b 07 bb ef d9 97 ba 5b 6b ae 3a
       -0.0011410343 -0.002066362 -0.0011585335 0.0013307141
000260 67 36 a3 3a 0e 51 88 ba 18 91 94 ba 69 ea b3 3a
       0.0012452126 -0.0010400133 -0.0011334745 0.0013726476
000270 ae 44 0b 39 11 a5 21 bb f9 c2 d9 ba 90 10 bb ba
       0.00013281658 -0.0024665038 -0.0016613893 -0.0014271904
000280 8d a2 82 ba c1 10 81 ba 2f 88 82 3a 48 45 79 3a
       -0.0009966657 -0.0009846912 0.0009958799 0.000950892
000290 e5 b6 70 3a a6 30 66 3a 56 e5 2d bb 34 d2 37 ba
       0.0009182527 0.0008781053 -0.00265344 -0.00070122187
0002a0 58 85 e2 39 d4 ed 8a 3a cf 32 25 bb 65 fe 95 bb
       0.00043205428 0.0010599443 -0.0025207286 -0.0045774453
0002b0 a8 0d 6a 38 e8 76 6b b8 b8 4d be b9 30 2f b1 ba
       5.5802666e-05 -5.6139106e-05 -0.0003629753 -0.0013518091
0002c0 e1 b9 4a ba 3c 74 87 3a 10 93 88 3a 47 42 b5 3a
       -0.00077333866 0.0010334323 0.0010419805 0.0013828956

submodules.encoder.0.bias f4 [12]
000000 02 11 dd 3c c3 50 c5 3d ac df f7 3c 22 4d 7e bd
       0.026985649 0.09634545 0.030258022 -0.06208528
000010 5d 70 b3 3b 40 e9 02 bd dd bc 8d 3b ba a8 7b bd
       0.005476041 -0.031960726 0.004325493 -0.061440207
000020 12 0b 3f be 51 43 a4 bd 67 95 04 bc 6d 00 8f 3b
       -0.18656567 -0.08020652 -0.008092261 0.0043640644

submodules.bg_pred.0.weight f4 [100, 12]
000000 a7 91 41 3f 91 14 85 3e 83 54 8f bc 8c 2f a3 be
       0.7561287 0.25992253 -0.017496353 -0.31872213
000010 17 c4 4f be 42 5c f5 3d 69 4b e7 bd e9 1c 63 be
       -0.20289646 0.119804874 -0.1129368 -0.22178997
000020 16 6e 6b be be f3 7b be ff fd 7e 3d 64 f0 8c be
       -0.22991213 -0.24604699 0.06225395 -0.27527153
000030 08 08 50 3d eb 6d 0c bf d8 13 31 3e 36 41 3f 3e
       0.05078891 -0.5485522 0.17292726 0.1867722
000040 1d 2b cb 3e bc ba 8c be 89 8a 4a 3e 3b 9c 1c be
       0.3968133 -0.27486217 0.1977941 -0.15293972
000050 29 b3 39 3c 1d 39 32 be 74 ae 8b 3d cc c3 81 be
       0.011334219 -0.174046 0.06820384 -0.25344694
000060 9b 00 9d bd 61 7d b2 3d 4f 78 e3 3e d6 1a 9b 3d
       -0.07666131 0.087153204 0.44427726 0.07573478
000070 57 2a 07 3d 21 a9 35 be ad 0a 21 3e 7d 62 dd 3e
       0.032999363 -0.17740299 0.15726729 0.43239203
000080 d6 27 49 be ed 34 94 3e 2c 6e b9 3b ca d7 bb 3d
       -0.19644102 0.2894663 0.0056588855 0.09172018
000090 55 b9 fa 3c f7 b7 18 bf 2d 0b 10 3f 4d 08 b0 3d
       0.030605951 -0.5965571 0.5626705 0.08595333
0000a0 58 69 02 bd f5 aa e0 bd bc 65 59 3d 6e 5d b6 be
       -0.031838745 -0.109701075 0.053075537 -0.35618156
0000b0 36 da 06 3e 5e 7c b8 bd 8c 3e 5d 3d 92 5a 39 be
       0.13169178 -0.09008096 0.054014727 -0.18100956
0000c0 a6 2d 10 3f fb d1 d8 be 9a 0e f1 be 22 62 2a 3e
       0.56319654 -0.42347702 -0.47081453 0.16638997
0000d0 e5 4a 07 3e 9b 32 03 bd f7 35 73 3e 28 e7 85 be
       0.13212164 -0.032030683 0.23751055 -0.2615292
0000e0 5c 44 17 3f f5 ea c8 bc 58 38 4c 3c 7a 75 da be
       0.59088683 -0.024526099 0.012464605 -0.42667753
0000f0 fc 66 02 bf f8 c4 3a 3e aa ae 84 3e c1 75 16 bd
       -0.5093839 0.182392 0.25914508 -0.036733393
000100 14 03 95 3e b5 56 72 3e 2d 18 70 bc 92 e9 03 3f
       0.2910391 0.23665889 -0.014654201 0.51528275
000110 90 0b 48 3f 9f 79 08 bf 48 d5 01 3d 88 44 d4 be
       0.7814264 -0.5331058 0.03169754 -0.41458535
000120 76 e5 77 3e a3 7e bf 3e 20 80 c7 bd 20 13 3c 3e
       0.24208626 0.37401304 -0.09741235 0.1836667
000130 57 58 98 3e e8 9a a1 bc 81 a0 ee bd f4 4d 4b 3e
       0.29754898 -0.019727185 -0.116517074 0.19853956
000140 d0 94 9e 3e 9f 50 f5 be 10 da 92 3d 3b eb 92 3d
       0.3097291 -0.47913072 0.07170498 0.07173773
000150 78 d1 5d be a7 7d 80 3e df 92 be 3e dc 32 0f bf
       -0.21661937 0.25095865 0.3722143 -0.5593698
000160 a3 7f 1a 3e 15 da b6 3e 9f 6f 92 bd ec 12 75 bd
       0.15087752 0.35713258 -0.07150196 -0.0598325
000170 80 4e 95 3e 5a 31 96 bd a8 ae 5b 3a b4 fd 98 be
       0.29161453 -0.07333632 0.0008380213 -0.2988106
000180 fc 27 08 3e 20 e7 06 3f 42 e6 bd bc bd bb d0 3d
       0.13296503 0.5269642 -0.023181085 0.10192058
000190 ab bb 25 be 11 ac 93 3c 29 32 35 3d ec 53 f4 bd
       -0.16184871 0.018026384 0.04423729 -0.11930069
0001a0 c1 1e fb bc 91 8e ff bd 38 3d 48 3d 89 3b a9 3d
       -0.030654313 -0.12478364 0.048886508 0.082633086
0001b0 a7 07 59 be 26 e0 ce 3e 58 52 8a be 0d 3f c0 be
       -0.21194325 0.40405387 -0.27015948 -0.37548104
0001c0 6a 91 10 3d 80 a3 00 be b1 58 8a be bf d5 8c 3d
       0.035294928 -0.1256237 -0.2702079 0.06876706
0001d0 d1 e9 ec 3d 61 db a2 be 10 92 19 3e c3 18 24 3c
       0.115680344 -0.31807998 0.14997125 0.010015669
0001e0 2f 60 5b be 3a 3f a6 3e 6f 2a a2 3e bc 4b d5 be
       -0.2142341 0.32470113 0.31673 -0.41659343
0001f0 e3 0f af bd 51 f9 aa 3d 22 f4 65 be 5e ba a2 bc
       -0.08547952 0.083483346 -0.2245641 -0.019864257
000200 e9 c8 5d 3d 49 55 ad be 01 00 5d be 91 db a4 bc
       0.05414668 -0.3385413 -0.21582033 -0.020124229
000210 52 27 51 bc 3f 67 42 3e 96 c7 d0 3e dc 4e 24 3e
       -0.012765722 0.18984698 0.40777272 0.16045707
000220 fe aa 14 be 2e 4c c3 bd 68 41 40 be 0f c1 aa 3c
       -0.14518353 -0.095360145 -0.1877495 0.02084401
000230 62 60 16 3e 14 96 15 be 60 7b 00 3e dd e6 e5 bd
       0.14685205 -0.14608032 0.12547064 -0.11225674
000240 42 66 4c be 68 85 e4 3e 81 c3 b9 3e 1a db 8e 3d
       -0.19960883 0.4463303 0.3628197 0.06975384
000250 bc 88 4e 3d fc ff 9d be 1d 49 07 3e 46 80 72 be
       0.05042337 -0.30859363 0.13211484 -0.23681745
000260 18 2d 2a ba 2d 02 1b 3e 8c 77 8d 3e 09 14 21 3e
       -0.0006491705 0.15137549 0.2763027 0.15730299
000270 90 31 44 be 83 f6 37 3e 9f 47 a8 3e 42 7d 13 3e
       -0.19159532 0.1796513 0.32867143 0.14403251
000280 1c f3 b0 bd ea 4d 10 be c0 dd 0b bc 79 f5 87 3d
       -0.086401194 -0.14092222 -0.008536756 0.06638617
000290 a2 61 21 3d 3a a9 51 be 33 36 00 3b ff b2 5e be
       0.03939975 -0.20474711 0.0019563555 -0.21747969
0002a0 b9 6f 68 3d e7 18 de 3e b4 7b 5c 3d 0d 60 1a 3e
       0.056747172 0.43378374 0.05382891 0.15075703
0002b0 5e 91 2a 3e 69 14 9a bd 63 83 5d be 15 b8 32 3e
       0.16657016 -0.07523424 -0.21632151 0.17453034
0002c0 df 1d fb 3d 8e 27 28 be db a4 1f 3d 84 d2 92 3c
       0.12261557 -0.16421339 0.038975578 0.017922647
0002d0 b2 28 3f 3b ee 50 15 bf f8 b1 58 3e a8 2e 9a 3d
       0.0029168543 -0.58326614 0.2116164 0.0752843
0002e0 c5 9b b1 3e 78 e0 33 be 58 9d 99 bd 9a 43 76 be
       0.34689155 -0.17566097 -0.07500714 -0.24049225
0002f0 a5 b5 7c 3e 47 21 93 3d 7a bf 92 3d 8a 8e 4d bd
       0.24678667 0.071840815 0.071654275 -0.050184764
000300 84 1e cf bd 6c 0c 07 3f b6 15 74 3e de 83 9e 3e
       -0.10113242 0.5275333 0.23836407 0.30959982
000310 f1 8a 63 be 86 f5 a2 3c 7b 27 91 bd 66 63 5c be
       -0.2222097 0.019892465 -0.070876084 -0.21522292
000320 e7 96 26 3b 4e dc 33 be 42 02 4a 3d 84 d8 81 be
       0.0025419535 -0.17564508 0.04931856 -0.253605
000330 19 53 1d 3e c4 91 13 3f b3 b6 84 3c d8 f6 f7 3d
       0.1536373 0.57644296 0.016200399 0.121076286
000340 93 f0 2d be 21 f8 ff bb d6 05 92 bd f0 a1 77 bd
       -0.16986303 -0.0078115617 -0.07130019 -0.06045717
000350 61 20 9e 3d bb bf c2 bc 0b e5 af bd 29 73 44 3e
       0.077210195 -0.023773065 -0.08588608 0.19184555
000360 d8 04 73 3e 30 10 8a 3e b1 62 14 bf ea 2a 92 bd
       0.23732316 0.26965475 -0.5796309 -0.071370915
000370 fe 6b 83 3e 69 3f 70 3d b9 fb b9 be bc 46 ea 3d
       0.2566833 0.058654223 -0.36324862 0.11439273
000380 5f f0 22 3d 33 08 9a be fe f4 07 3e 98 cb 07 3d
       0.039780017 -0.3008438 0.13277051 0.033153147
000390 cc 59 1f bf d6 d5 af 3e 1a f3 d6 bd e3 00 bd 3e
       -0.62246394 0.3434283 -0.10495587 0.3691474
0003a0 c2 a0 15 bd 74 b7 69 3d 9e a9 42 3e 49 9e 75 3c
       -0.036530264 0.05705972 0.19010016 0.014991351
0003b0 50 dd 76 3d b7 ad d2 3c e9 36 f9 bb d3 4f 2c 3e
       0.060269654 0.0257176 -0.0076054228 0.16827326
0003c0 de 87 12 3d 8e b7 e8 be 0d ea 8e be 3c a7 b0 3e
       0.035774104 -0.4545254 -0.27912942 0.3450259
0003d0 3b e7 b8 3b 15 94 f7 bd 10 b3 c3 3e ce 26 05 3e
       0.005642799 -0.12088791 0.3822255 0.13003084
0003e0 27 b6 b4 bd 82 a2 c9 be e2 c8 f7 3d 14 07 8d 3e
       -0.08823805 -0.39381796 0.12098862 0.27544463
0003f0 a4 c2 3a be 0c ad 99 3e 7f 75 47 bd 1d 8e 17 3e
       -0.18238312 0.30014837 -0.048696037 0.14800306

submodules.bg_pred.0.bias f4 [100]
000000 7a 19 f7 bd cc c7 1f be ff 4d 77 bd e8 81 74 bd
       -0.12065406 -0.1560356 -0.060377117 -0.0596942
000010 ba c4 aa be c7 77 58 be 2f ce fb 3d d6 9b 97 3d
       -0.33353215 -0.21139441 0.12295186 0.0740277
000020 26 e2 31 3d d1 92 18 3d 4b 05 37 3d 7d 55 2e 3e
       0.043428563 0.03724939 0.044682782 0.17024799
000030 86 a2 59 bd 4b 5a 09 3e 4d da 1f 3e 76 52 a2 bd
       -0.05313351 0.1341335 0.15610619 -0.079258844
000040 c7 8d e4 3d 5e ab b0 3d 5d 27 e3 3c 80 62 1a bd
       0.111598544 0.08626436 0.02772873 -0.037691593
000050 3c 70 c8 3c b0 9a c2 be 67 f0 97 bd 0e 82 06 be
       0.02446758 -0.38008642 -0.074189 -0.1313555
000060 36 a4 38 bd d5 93 4b 3e 61 7c 23 be cb f3 88 bd
       -0.04507848 0.19880612 -0.15965416 -0.06687125
000070 6f c4 34 3d fb 7e 0e be cc 86 00 3e e6 f8 00 be
       0.044132646 -0.13915627 0.12551421 -0.12594947
000080 e5 93 42 be d4 06 4b 3e 92 8e 59 be ad e7 57 3e
       -0.1900173 0.19826823 -0.21245793 0.21084471
000090 df 46 2f bd 95 13 f4 3c b3 36 ab 3d 8a bd b3 3d
       -0.042792197 0.029794494 0.083600424 0.08776386
0000a0 71 ce 2b bc b1 06 80 be 4b 1e 30 3e 7d 51 a7 be
       -0.010486231 -0.25005105 0.17199056 -0.32679358
0000b0 bc 29 17 3e f3 d7 1e 3d f6 89 db be f7 f8 1c bd
       0.14762014 0.038780164 -0.42878693 -0.03832337
0000c0 07 33 93 3d 0d fd b7 3d 7c 11 bb bd 42 9c 53 3e
       0.07187467 0.089838125 -0.09134194 0.20665076
0000d0 81 69 32 3e 0e a1 c0 be ff 42 91 be 38 22 60 be
       0.17423059 -0.37622875 -0.28371426 -0.21888053
0000e0 2f 0e 0d 3e d0 c5 1d be 22 19 25 be 0b 59 4b 3e
       0.13774942 -0.1540749 -0.16122869 0.19858186
0000f0 4e 6a 0d 3e 16 28 8c bc de 77 5e bd 3c 2f 3b 3e
       0.13810083 -0.017108958 -0.054313533 0.18279737
000100 3a 7e 82 bd 61 2f cf bd ff e9 ac be 6c 38 e6 3d
       -0.06371732 -0.10116459 -0.33772275 0.1124123
000110 22 18 5c 3c e2 43 fa 3d b7 d6 6c 3e 3b 0e b9 bd
       0.013433488 0.12219979 0.23128782 -0.09035917
000120 7f 03 09 bd 77 e2 1f be 2d e6 01 3e 63 7d dd 3b
       -0.0334506 -0.15613733 0.12685461 0.006759332
000130 53 74 2c be db 2f db bd 37 b7 2c 3e e5 2d d0 bd
       -0.16841249 -0.10702487 0.16866766 -0.10165004
000140 1a 47 11 3e 37 a1 8c bd f5 e2 e4 bd 92 ee bb bd
       0.1418728 -0.06866687 -0.11176101 -0.09176363
000150 f7 ce bf be d7 fb 5d bd 35 27 07 3d c6 c5 ad 3d
       -0.3746259 -0.05419525 0.032996375 0.08484988
000160 11 f7 e9 bc 09 34 59 bd 78 17 0d be c0 2d b5 3d
       -0.028560193 -0.05302814 -0.13778484 0.08846617
000170 66 cb c5 be 41 80 e7 3d 33 3e c8 be 89 2d aa 3c
       -0.38631743 0.11303759 -0.39109954 0.020773666
000180 2b 52 14 3d 39 7a f5 3d 2f 05 0c 3d e8 ea 60 be
       0.036211174 0.11986203 0.03418463 -0.2196461

submodules.bg_pred.3.weight f4 [1, 100]
000000 8f de 4d 3e 86 f0 86 be dc 2b 16 3e 84 5a f1 be
       0.2010443 -0.2635538 0.14665169 -0.4713937
000010 43 ef 36 3f 06 47 24 3f e6 b1 00 3e cb cb 3b 3e
       0.71458834 0.64170873 0.12567863 0.1833946
000020 82 4e 3b 3e 9a f8 24 3e 5a 4e 24 3e 16 5c 04 3e
       0.18291667 0.16110459 0.16045514 0.12925753
000030 9b c1 15 3e d3 de e8 3d 47 12 cc 3d 58 ed b3 be
       0.14624636 0.11370625 0.099644236 -0.35142016
000040 7c 5e 02 3e ca 9d 08 3e c6 3d 42 3e 8c 7d cd 3e
       0.12731355 0.13341442 0.18968877 0.40134847
000050 47 0f 1f be 4b 2f be bf df 0e b5 3e 1d 31 32 3e
       -0.15533172 -1.4858183 0.35362908 0.17401548
000060 6b 0d 84 3e d8 26 02 3e db 80 0e bf 63 f8 fb 3d
       0.25791487 0.1271013 -0.5566537 0.123032354
000070 ff ed 8e 3e bf 40 a0 be ec 6d ef 3d 95 c7 9b be
       0.27915952 -0.31299397 0.11690888 -0.30425707
000080 31 09 be be 43 ba 0a 3e a2 55 04 bf 90 40 d2 3d
       -0.37116387 0.13547616 -0.51693165 0.102662206
000090 af 55 11 3e 9f ce 46 3e 43 be 06 3e 4e 8f 02 3e
       0.14192842 0.19414757 0.13158517 0.12749979
0000a0 1c e4 6d 3e 2f a7 06 bf ce 06 eb 3d 5a 8b 4b bf
       0.23231548 -0.5259885 0.11475907 -0.7950951
0000b0 b0 ee 02 3e 26 ab 3b 3e 27 52 1f c0 23 33 70 3e
       0.12786365 0.18327007 -2.4893892 0.23457007
0000c0 1d f9 86 3e a5 02 06 3e 17 9f 0a 3e 3c 41 ce 3d
       0.26361933 0.13086946 0.1353725 0.10071036
0000d0 5c 52 0c 3e 41 41 46 bf 73 0d a1 3e 55 5e dd be
       0.13703293 -0.7744332 0.31455573 -0.43236032
0000e0 d4 43 d9 3d ba 3c 91 be c0 53 b0 be 50 d8 e7 3d
       0.1060864 -0.28366643 -0.34438896 0.11320555
0000f0 79 08 14 3e 78 56 39 3e 9f da c2 be 2a c8 e8 3d
       0.14456357 0.18099391 -0.3805742 0.11366303
000100 41 27 04 3e ff 9d a3 be 18 16 46 bf 84 00 01 3e
       0.12905599 -0.3195648 -0.7737746 0.12597853
000110 6d 32 22 3e d6 56 fe 3d 72 94 d0 3d a0 0f da be
       0.15839548 0.124189064 0.10184564 -0.42590046
000120 51 72 75 3e 51 ca 88 be 82 e8 19 3e 60 ce 46 3e
       0.2396939 -0.26716855 0.15030101 0.19414663
000130 40 6e 23 bf 1a 5a 9c be 4d d1 08 3e 5b 95 a4 be
       -0.63840103 -0.30537492 0.13361092 -0.321452
000140 d3 b3 09 3e ea 1f e6 be 63 dd 1f 3e 2f 8a dc be
       0.13447504 -0.44946223 0.15611796 -0.43074176
000150 fa fe 57 bf 22 e4 bd be bc b8 36 3e 16 fc 12 3e
       -0.8437344 -0.37088114 0.17843908 0.14353976
000160 b6 53 13 bf da f1 8f be ea d0 0f bf 4f 4d eb 3d
       -0.5754961 -0.28114206 -0.5617815 0.11489355
000170 f5 a3 37 bf 52 b1 09 3e 56 40 07 c0 a7 43 20 3e
       -0.71734554 0.13446549 -2.1133018 0.15650807
000180 6b 9d 5d 3e 26 d9 d1 3d e0 a2 f2 3d e5 c8 85 3f
       0.21642081 0.10246496 0.11847472 1.0451933

submodules.decoder.0.weight f4 [15, 12]
000000 ea 64 05 3c 6b c6 a4 bc 58 fb 1e 3b a6 fe d1 3c
       0.008141736 -0.020114144 0.00242587 0.025634121
000010 b1 4e 27 3f 2b f1 45 3f 85 2e 9e bb 1d a0 74 40
       0.6535445 0.7732112 -0.004827323 3.8222725
000020 0f dd 85 bc 3a 16 c4 3c 42 1a 80 bd b1 50 02 3e
       -0.01634076 0.02393638 -0.06255008 0.12726094
000030 90 3a c6 bb fd e7 5c 3c 3a de 82 bc 2a c9 b7 40
       -0.0060494617 0.013483045 -0.015975107 5.743306
000040 23 14 a8 bf 5d 40 f8 bf d5 96 25 3d 33 18 73 3e
       -1.3131145 -1.9394642 0.040427048 0.237397
000050 c4 c9 1a 3d 19 78 8b 3c 86 7b 6d 3d e3 d1 1f 3f
       0.037790075 0.01702504 0.05797913 0.62429637
000060 9b 09 13 3b 90 de d0 ba dd 60 9f bc 07 20 b8 be
       0.0022436145 -0.001593547 -0.019455368 -0.35961935
000070 1c 64 1b 40 8d 9d c5 bf 09 3c 2b bb 0b e6 45 bf
       2.4279852 -1.5438706 -0.0026128313 -0.7730414
000080 db 7d c1 3c c2 af ad bb 7c bd 5f bd 97 29 77 be
       0.023619583 -0.005300493 -0.054624066 -0.24136959
000090 48 e8 04 bc 48 e2 14 3c 11 82 9e 3c 3f 89 03 3d
       -0.008112021 0.009087153 0.01934913 0.03211331
0000a0 f5 09 3d c0 eb db 01 40 78 c9 ae ba e3 72 88 be
       -2.9537327 2.0290477 -0.0013335189 -0.26650152
0000b0 22 f6 d7 bc 00 ee 50 bb dc 66 3e 3d ef 7f 88 3e
       -0.026362482 -0.003188014 0.046484813 0.26660106
0000c0 b7 b4 3d bb c0 4f 3e ba d6 3b 8c 3c ec e4 0d be
       -0.0028946826 -0.00072598085 0.017118376 -0.13856858
0000d0 3e 53 f5 bf 4d e8 e4 3f 29 ff 0a bc 74 25 57 3f
       -1.9166028 1.7883393 -0.0084836865 0.84041524
0000e0 08 83 17 bd 18 3a e1 ba 82 f4 c8 3c 03 3a 4a 3e
       -0.036990196 -0.0017183451 0.024530653 0.19748692
0000f0 4d 57 92 40 14 8b dc bf 07 92 4f 40 99 50 81 bc
       4.573157 -1.7229943 3.2432878 -0.015785502
000100 e3 2b 7a 3d 16 e2 0f 3e 81 b2 83 bf fb ab ce 3d
       0.06107701 0.14051089 -1.028885 0.100913964
000110 c0 3e e1 3b 3a 06 6f 3b 7b 45 3d 3d fd 3b 73 be
       0.0068739355 0.0036472217 0.04620884 -0.23753352
000120 78 a1 84 40 46 d0 be 3f 0c d4 2b c0 b8 09 89 bb
       4.1447105 1.490731 -2.6848173 -0.004182067
000130 3e ac b6 3d 74 e0 87 3d 01 2f 69 3f a2 ad d7 bd
       0.08919571 0.06634608 0.9108735 -0.10531165
000140 8a d9 83 3a 14 5f 98 ba 26 89 c1 3d 13 b4 ba be
       0.0010059339 -0.0011625015 0.09449987 -0.3646551
000150 0c 21 9c bc ec ff 0a bc cc 43 8d 3c a4 df f5 3b
       -0.019058727 -0.008483868 0.017244242 0.0075034667
000160 68 6f 17 3e 2e 1d 52 3e 30 48 a6 40 00 76 2b bc
       0.14788592 0.20518944 5.196312 -0.010465145
000170 8a 52 df bb 41 93 c4 bc 55 7f 1c 3b 80 3f 90 bd
       -0.0068152593 -0.023995997 0.0023879607 -0.07043362
000180 7b 3f 92 bf a4 74 d2 bf 92 b9 4e c0 62 f0 94 bc
       -1.1425623 -1.6441846 -3.2300763 -0.01818103
000190 24 b4 26 be 2d 5c 48 be cb bd 73 bf 33 d9 08 3e
       -0.16279656 -0.19566412 -0.95211476 0.13364105
0001a0 17 e0 30 bd 1d 91 86 bd 8e 16 81 3d af e0 65 3d
       -0.04318246 -0.06570647 0.0630313 0.056122478
0001b0 e7 8f 1a 3f 7a 41 74 bf df 82 74 c0 cf 5b 18 3c
       0.6037583 -0.9541241 -3.8204877 0.009299233
0001c0 71 16 cf bd 97 04 e1 bd 86 2a 2b bf 01 a6 84 3d
       -0.10111702 -0.109872036 -0.6686176 0.06476975
0001d0 7e 5a 3c 3d 96 41 8f 3c c6 d2 c2 3d 74 ed cd 3d
       0.045984738 0.017487328 0.09512858 0.10055056
0001e0 4f 39 fe bb 3c 35 51 bc 9d d8 32 3c f5 5a 9b 3a
       -0.0077582966 -0.01276904 0.010915902 0.0011852669
0001f0 4e 96 b1 bd 70 1a b2 bd b9 80 f7 bc 76 fc a5 3c
       -0.086712465 -0.08696449 -0.030212747 0.020261984
000200 c1 ac e4 be 54 3c 4a 40 03 c3 74 3d e2 d2 a4 3d
       -0.4466305 3.1599321 0.05975629 0.08048035
000210 4d a7 6b 3c 9f c3 8f bc e6 08 88 3c 25 58 2e 3c
       0.014383149 -0.017549334 0.016605806 0.0106411325
000220 76 5c 56 be 7d d3 8d be 26 5a 0a bd 73 94 e8 3c
       -0.20933709 -0.27700415 -0.03377738 0.028391099
000230 18 7e 4f c0 3e af d9 3e a8 fb 41 bd 8e db 02 3f
       -3.2420712 0.42516512 -0.04735914 0.51116264
000240 b2 47 30 bc 8a 9a 81 3c f0 91 73 bc 16 97 34 bc
       -0.010759281 0.01582076 -0.014866337 -0.01102235
000250 82 19 02 3e 98 84 20 3e 56 f9 e4 3c 31 a2 a6 bc
       0.12705043 0.1567558 0.027950924 -0.02034101
000260 62 0d 09 40 a5 0b c1 bf 23 d0 7f 3b 68 5d a8 bd
       2.1414418 -1.5081679 0.0039033971 -0.08220941
000270 61 09 03 bc f6 d7 9e 3c 9c 85 a5 bb 5d b6 9a bc
       -0.007997842 0.019390088 -0.005051328 -0.018885786
000280 76 58 03 3e 64 69 1f 3e f6 1e 2c 3d f3 0e cc bc
       0.12826714 0.15567547 0.042021714 -0.024909472
000290 76 e8 22 40 99 85 8d bf 39 de 1b 3d e1 af 42 be
       2.5454383 -1.1056396 0.038053725 -0.19012405
0002a0 90 44 a4 3b 80 1d ad 3c 98 76 05 bc 5c 0d 09 3b
       0.005013056 0.02113223 -0.008145951 0.0020912504
0002b0 ca 15 0d 3e e2 9e 1e 3e 2b 60 2a 3d fc b5 bc bc
       0.13777843 0.15490296 0.04159562 -0.023035996
0002c0 7e 33 6a 3f 00 25 2d c0 af e6 2d bd 7f 9b 9b 3d
       0.9148482 -2.7053833 -0.042456325 0.07598018

submodules.decoder.0.bias f4 [15]
000000 6d 08 7e 3e 25 d6 99 3e 46 23 fe bd 65 37 7f 3d
       0.24807902 0.30046192 -0.124090716 0.062308688
000010 90 d5 d1 3d 0d f7 1f bd 77 94 2e be 42 84 d8 bc
       0.10245812 -0.039053965 -0.17048822 -0.026430253
000020 ca c2 86 3e fc c9 48 3e 92 90 21 3e e4 bd 05 bf
       0.26320487 0.19608301 0.15777805 -0.52242875
000030 1d fb 80 3e 7b f8 b4 3e 48 27 35 bd
       0.25191584 0.35345826 -0.044226915

exp_avg f4 [12, 15]
000000 67 3b e4 3d 52 e4 58 3d 1f 92 7d bd df 3e 21 3d
       0.111441426 0.05295212 -0.06190693 0.0393666
000010 9a 9b 69 3d 07 63 25 bd 59 a8 4f 3d f4 08 1d 3e
       0.05703316 -0.040377643 0.05069766 0.15335447
000020 28 4d 1b 3e ca 03 17 3e 25 93 02 bd d8 b5 de bc
       0.15166152 0.14747539 -0.03187861 -0.02718632
000030 54 dc eb 3c 8d 69 cb 3c 1b 40 e6 3c 00 42 03 be
       0.028791584 0.024830604 0.02810674 -0.12818146
000040 a9 12 d0 be 0b ff 4c bd f1 cf 07 3e f8 d3 9c 3d
       -0.40639237 -0.050047915 0.13262917 0.07657617
000050 a2 69 90 be 52 6b 85 bd 4f 24 40 3c 51 6a 7a 3e
       -0.2820559 -0.0651461 0.011727407 0.24454619
000060 02 58 4a 3e 1c fa f5 3e 79 9d ee 3e 0b 49 f4 be
       0.19760135 0.4804238 0.46604517 -0.47711977
000070 22 87 f5 be 1f ac f7 be 01 ba eb bd 4a a8 34 bd
       -0.4795466 -0.48373505 -0.11510087 -0.044105805
000080 b3 cd 26 3d 00 0b 68 bc cd 57 23 bd b4 00 2a 3c
       0.040723514 -0.014162779 -0.039878655 0.010376144
000090 fa 0f 1f bc 61 d1 5f bd b1 b4 54 bd 36 7d 4b bd
       -0.009708399 -0.05464304 -0.051930133 -0.049679957
0000a0 be 02 03 be de 50 0b be 86 97 08 3e b4 e4 0a 3e
       -0.12794015 -0.13605067 0.13339052 0.13563806
0000b0 45 58 06 3e 4b 38 7a 3d f5 dd 45 be 55 87 ca bd
       0.1311961 0.06108884 -0.19322951 -0.09889094
0000c0 11 81 f4 3d 43 f1 df 3d 5a 5a 46 bd 67 5c 26 bc
       0.1193868 0.10934689 -0.04842601 -0.010153866
0000d0 c8 97 38 3d e2 b7 62 3d 02 9b 32 3d 6c f3 94 bd
       0.045066625 0.055351146 0.04360486 -0.072729915
0000e0 6c 51 ad bd b7 d4 a4 3d bd 2b ad 3d 3e 9f 9c 3d
       -0.084627956 0.08048385 0.08455608 0.076475605
0000f0 b6 e6 a9 bd 78 cd ff 3d 21 0a e7 3d 14 7b f8 bd
       -0.08295958 0.12490362 0.11281229 -0.1213285
000100 09 b6 e9 bd 93 0c 30 3d a2 46 9b bc 8b a5 08 bd
       -0.114116736 0.04298074 -0.018954579 -0.033361
000110 6a 55 94 bd 8d aa 92 bd 63 83 a3 bd 7f 4c 84 bd
       -0.07242854 -0.07161436 -0.079840444 -0.06459903
000120 2b 46 92 3d c2 3e 91 3d fa ce a1 3d e1 fc a0 bb
       0.0714229 0.07092048 0.07900806 -0.004912958
000130 2c ab d8 3c b5 5c 79 3c 0d 46 96 bc aa 26 6c bc
       0.026448809 0.015219857 -0.01834395 -0.014413515
000140 e7 71 50 bc de 53 10 3d c4 0e 11 3b 08 53 ff 3c
       -0.012722469 0.035236232 0.0022134045 0.031167522
000150 90 ee 28 3d d1 23 ea 3d 9c 9b e2 3d ac 46 e8 bd
       0.041243136 0.11432613 0.110648364 -0.113416046
000160 aa 8d ec bd ca 73 ec bd 86 7d 23 bc 74 f7 23 3e
       -0.11550458 -0.115455225 -0.009978658 0.16012365
000170 4f da 73 3d 86 f7 a5 bd 73 44 8b bd 84 83 6e 3d
       0.059534367 -0.08103852 -0.06800165 0.05823089
000180 f4 d2 bc bc 22 52 68 bd 03 0b b9 bd 56 2d b4 bd
       -0.023049809 -0.056718953 -0.090353034 -0.0879771
000190 2d e1 b9 bd fc a6 b8 bd d9 87 b6 3d ea 02 b4 3d
       -0.09076152 -0.09016225 0.0891263 0.08789618
0001a0 23 18 b5 3d 76 a5 49 bd 39 16 44 ba c6 e8 a2 3d
       0.08842494 -0.04923006 -0.0007480118 0.07954554
0001b0 b7 c5 9f bd 2e 05 97 bd cb 69 1e 3d f2 fe 2f 3d
       -0.07801383 -0.07374035 0.03867511 0.042967744
0001c0 db 07 01 bd c9 54 45 bd e5 6e d4 bc 2b 9e 27 3e
       -0.031501632 -0.04817656 -0.025931785 0.1636893
0001d0 cb 17 31 3e 03 ad 2e be 71 5d 30 be 99 42 29 be
       0.17294233 -0.17058186 -0.17223145 -0.16529311
0001e0 ca b1 06 be 8e 89 97 3c e4 9d ad 3d 41 ee 85 bd
       -0.13153759 0.018498208 0.08477381 -0.06539584
0001f0 b4 75 ad bd 40 0d 60 3c 33 89 42 3d aa 2a ab bd
       -0.08469716 0.013675034 0.047494125 -0.08357747
000200 ab 1c 05 bd 98 ec 38 bc 3b 2a c6 3d d0 75 b9 3d
       -0.032498043 -0.011286877 0.096760236 0.09055674
000210 a8 b6 bc bd eb 11 ba bd 11 5a c8 bd 1e 51 0e 3d
       -0.092145264 -0.09085449 -0.09782804 0.034745328
000220 20 08 fe 3d ef 40 42 3d 7e 90 a2 bd d4 2e 57 bd
       0.124038935 0.047425207 -0.07937716 -0.052534893
000230 99 dc 8b 3d cc 28 4a bd c4 2a 72 bc d9 86 b9 bd
       0.06829185 -0.049355313 -0.014780704 -0.09058923
000240 e8 70 ce bd 4d 58 35 be 11 65 2b be 3a 18 2f 3e
       -0.10080129 -0.17709465 -0.16737773 0.17099085
000250 d5 e7 2d 3e 24 37 32 3e 4b 5a 11 bb 8a c6 1c bb
       0.16982968 0.17403847 -0.0022179063 -0.002392205
000260 f6 37 f5 b8 e5 c2 2e 3a 46 99 c6 b9 26 30 9d 3a
       -0.00011692934 0.0006666615 -0.000378797 0.0011992499
000270 09 fa 15 bc c2 1a 56 bb 69 1a 50 bb 00 c5 85 bb
       -0.009153851 -0.0032669757 -0.0031754023 -0.004082322
000280 0f e0 a2 3b 46 0b 04 3b 61 cd 3a bb 7d 81 2f bb
       0.0049705575 0.002014832 -0.0028503763 -0.0026780062
000290 e8 bb 96 bb 3d 2f 96 3d 16 11 46 bd 0d a7 8f bd
       -0.004600037 0.07333229 -0.04835614 -0.07014284
0002a0 44 27 89 3d b6 73 90 3d 3b 18 03 bc 12 63 cf 39
       0.066969424 0.0705332 -0.008001382 0.0003955593
0002b0 6b 70 1f 3d 8a bc e8 3c 11 a7 8d 3c 94 58 0a b9
       0.03892557 0.028410215 0.017291578 -0.00013193703
0002c0 b8 9b 59 3b c0 0e 55 ba 80 75 c6 ba a0 20 5a ba
       0.0033204388 -0.0008127503 -0.0015141219 -0.00083209015

exp_avg_sq f4 [12, 15]
000000 25 f1 be 3d 1b 27 8d 3d 6d 88 b1 3d e2 03 aa 3d
       0.093233384 0.068922244 0.08668599 0.08301522
000010 a0 96 b1 3d 08 ee 98 3d 82 ec dc 3d 7e 32 b5 3d
       0.086713076 0.07467276 0.10787298 0.08847521
000020 78 e2 b3 3d f3 94 cc 3d 73 b8 bc 3d d0 b6 c0 3d
       0.0878343 0.09989347 0.092148684 0.09409869
000030 8f 77 bf 3d bd d7 bf 3d ac 67 bd 3d 69 55 6f 3f
       0.09348976 0.09367321 0.092482895 0.934897
000040 22 90 b6 3f 1c 3b 84 3f 58 ea 86 3f 50 45 84 3f
       1.4262736 1.0330539 1.0540266 1.0333652
000050 de c5 90 3f a3 72 84 3f 00 3d 92 3f 61 c8 9d 3f
       1.1310384 1.0347484 1.1424866 1.2326776
000060 d4 37 92 3f 7c 7c a4 3f 79 48 a8 3f 3c 1c a7 3f
       1.1423287 1.285049 1.3147117 1.3055491
000070 57 97 a7 3f 45 34 a5 3f db 57 1c 3e 79 27 cf 3d
       1.309306 1.2906576 0.15267889 0.10114951
000080 26 0c 14 3e d3 99 0e 3e cc bf 14 3e 69 7e c3 3d
       0.1445776 0.13925867 0.1452629 0.09545595
000090 b6 43 cb 3d 3b 3e e3 3d 39 f8 c6 3d 5a 96 cd 3d
       0.09925024 0.11095854 0.097153135 0.10038443
0000a0 04 e0 1d 3e e9 d4 1b 3e 8c f0 1c 3e 0a 38 1c 3e
       0.15417486 0.15217938 0.15326136 0.15255752
0000b0 68 dd 1d 3e 48 ae 83 3d 85 86 58 3d af 46 87 3d
       0.15416491 0.06429726 0.052862663 0.06605279
0000c0 e8 17 84 3d 53 a4 86 3d 94 3c 62 3d d1 3d 5d 3d
       0.06449872 0.06574311 0.055233553 0.05401403
0000d0 ab 75 86 3d 60 24 7c 3d 1e 09 7f 3d 81 94 90 3d
       0.06565412 0.061558127 0.062264554 0.07059575
0000e0 45 d3 8f 3d ae 70 90 3d e9 81 90 3d eb 96 90 3d
       0.07022718 0.07052742 0.070560284 0.07060035
0000f0 e3 ae 03 3e 7f e9 00 3e 10 b9 10 3e e5 c1 11 3e
       0.12859683 0.12589072 0.14133096 0.14234121
000100 ad 08 11 3e 08 37 fe 3d 03 db db 3d 85 d0 07 3e
       0.14163466 0.1241284 0.107351325 0.13263138
000110 8f ea 0d 3e 8c d7 05 3e 8d 14 11 3e 7b c7 14 3e
       0.13859008 0.13070506 0.14167996 0.14529221
000120 79 97 13 3e df fe 13 3e cf bc 11 3e 30 c5 e6 3d
       0.14413251 0.14452694 0.14232181 0.11268079
000130 34 ff e6 3d 2c ac fb 3d 2c ca fb 3d 92 b8 f8 3d
       0.11279145 0.122886986 0.122944206 0.12144579
000140 c7 05 de 3d 2a 40 b4 3d eb 49 dd 3d fb 6a f4 3d
       0.10840946 0.08801301 0.10805114 0.119344674
000150 eb 70 d9 3d 10 67 02 3e 71 64 05 3e a9 6f 04 3e
       0.106172405 0.12734628 0.13026597 0.1293322
000160 0a d4 04 3e b0 e4 02 3e fe 40 de 3d 21 40 c3 3d
       0.12971511 0.1278255 0.1085224 0.09533716
000170 86 aa 0c 3e dd ac 14 3e 8c 49 0c 3e 45 6b 98 3d
       0.13736925 0.14519067 0.13699931 0.07442335
000180 82 bf d5 3d 23 32 c2 3d dc e5 c8 3d c4 a9 e2 3d
       0.10436918 0.09482219 0.09809467 0.110675365
000190 1f 04 fe 3d 65 c3 03 3e 32 e2 01 3e 90 6a 02 3e
       0.1240313 0.12867506 0.12683943 0.12735963
0001a0 50 d5 ff 3d b0 53 33 3e ba a2 60 3e 2c 52 43 3e
       0.12491858 0.17512393 0.21937075 0.19074315
0001b0 7c 8f 47 3e b5 d0 44 3e 98 c7 82 3e 3d 66 f7 3d
       0.19488329 0.1922024 0.25542903 0.12080047
0001c0 95 51 4f 3e e1 43 77 3e cd a1 2a 3e 21 82 5a 3e
       0.20245965 0.24146987 0.16663285 0.21338703
0001d0 ba 0b 64 3e 48 7c 60 3e 98 4d 62 3e 09 04 5c 3e
       0.22270098 0.2192241 0.22099912 0.21485914
0001e0 49 4e f2 3d 7a bf a7 3d 1d 08 ea 3d da 17 df 3d
       0.11831338 0.08190818 0.11427329 0.10893221
0001f0 b3 e4 e6 3d d0 bf d2 3d ac 6b d4 3d 80 3c 11 3e
       0.1127409 0.102904916 0.10372099 0.14183235
000200 ce ed fa 3d e0 87 03 3e 57 22 0c 3e 53 2d 12 3e
       0.12252389 0.12844801 0.13684975 0.14275102
000210 8d 1c 0f 3e 9b f4 10 3e 64 b5 0d 3e 02 14 4d 3e
       0.13975735 0.1415581 0.13838726 0.20027164
000220 8d 8c 10 3e 5c e8 4f 3e 37 23 4d 3e 67 3e 4f 3e
       0.14116116 0.20303482 0.20032965 0.20238648
000230 59 7e 0e 3e 5e 2e 29 3e 00 fa 45 3e e2 81 2d 3e
       0.13915385 0.16521594 0.19333649 0.16944078
000240 86 b1 3d 3e 19 b3 47 3e c3 c2 4e 3e 8c 8a 4c 3e
       0.18524751 0.19501914 0.20191483 0.19974726
000250 34 8a 4d 3e 1f 46 49 3e 64 75 6c 3a 1a a7 5b 3a
       0.20072252 0.19655655 0.0009020178 0.0008379087
000260 66 ae 6c 3a 2c 2d 6a 3a 38 fd 69 3a 96 a9 7f 3a
       0.0009028673 0.0008933123 0.0008925977 0.00097527483
000270 14 49 6c 3a 89 ac 71 3a 5f 7c 7f 3a 2c a9 76 3a
       0.0009013575 0.000921913 0.0009746011 0.0009409364
000280 23 de 7d 3a 44 5f 81 3a d0 c0 7f 3a 9e b8 81 3a
       0.0009684285 0.000987031 0.00097562093 0.0009896939
000290 7b 8a 7f 3a ba f1 5b 3c d2 dc 1f 3c 9f 97 44 3c
       0.0009748113 0.013424331 0.0097572375 0.01199904
0002a0 d1 5d 3c 3c 53 e8 45 3c 44 2b 39 3c e2 fb 1f 3c
       0.011496977 0.012079316 0.011301819 0.009764643
0002b0 2e f3 48 3c bd af 37 3c d1 27 2c 3c d7 7b 44 3c
       0.01226501 0.011211333 0.01050754 0.011992416
0002c0 30 de 4e 3c 92 7b 4a 3c b6 ac 4c 3c e1 a5 46 3c
       0.012626216 0.012358563 0.012492349 0.01212451

exp_avg f4 [12]
000000 e6 bf d6 3d 77 fb 7a be bf a4 8d bd 77 6e 29 3d
       0.104858205 -0.24509989 -0.069161884 0.041365113
000010 9a a7 61 3d b0 c5 72 bd e6 ea 9c 3c e8 2e 1f bd
       0.055091478 -0.05927056 0.019154977 -0.038863093
000020 0a 6a a3 bd c6 76 e2 3d f0 20 b8 b9 79 1c 21 3c
       -0.0797921 0.110578105 -0.00035119755 0.009833449

exp_avg_sq f4 [12]
000000 df 2f 99 3d 62 68 9d 3f 73 99 cc 3d 99 04 4b 3d
       0.07479834 1.229748 0.099902056 0.04956493
000010 de 81 e6 3d 0f c7 c6 3d bc 74 c1 3d ca 3c 49 3e
       0.11255239 0.09705936 0.094460934 0.19652095
000020 7c a8 c6 3d 43 c7 1f 3e 08 7d 50 3a a1 10 1f 3c
       0.097001046 0.15603356 0.00079532014 0.0097085545

exp_avg f4 [100, 12]
000000 e1 cc e7 ba 23 8e 4a bb 01 38 7d bb c1 05 33 b9
       -0.001768496 -0.0030907474 -0.0038638117 -0.00017072914
000010 08 0e c9 b9 f1 98 87 38 e3 3e 7e 3a 56 0c ee ba
       -0.00038348162 6.465789e-05 0.0009698702 -0.0018161635
000020 f1 25 ae bb ca 8c d3 3b 1d 3c 67 b9 fe b1 f2 b7
       -0.0053145816 0.0064559923 -0.0002205227 -2.8931532e-05
000030 a0 33 5c ba eb 9c 56 3b 96 83 7e 3b a6 ec 08 3b
       -0.00084000267 0.003274734 0.0038835756 0.0020893007
000040 3c c4 86 3a 63 45 60 ba 9f 51 ea ba 20 99 3d b9
       0.0010281871 -0.00085552613 -0.0017877108 -0.00018081488
000050 eb d2 8b 3b 7a b9 ac bb 50 10 08 39 e7 bb cb 38
       0.0042670867 -0.005271134 0.00012976048 9.714794e-05
000060 5d ec ac ba 4d 5c f0 ba 5f 9a 00 bb 49 d7 37 ba
       -0.0013193 -0.0018338055 -0.0019623262 -0.0007012976
000070 a3 f8 80 b8 3d 0c 01 b9 f9 9e 1f 3a 0e a9 f0 ba
       -6.149828e-05 -0.00012306958 0.00060890574 -0.0018360929
000080 ad 89 07 bb 45 c6 5d 3b 45 8c 20 b8 31 64 e3 b6
       -0.0020681426 0.0033840102 -3.827761e-05 -6.776791e-06
000090 95 5e a3 b9 c3 c4 46 3b 08 04 47 3b 13 15 ea 3a
       -0.00031160252 0.0030329681 0.0030367393 0.0017859064
0000a0 0e 94 29 3b d5 70 10 bb e0 15 87 ba 8a e4 e2 ba
       0.00258756 -0.002203991 -0.0010306202 -0.0017310542
0000b0 d2 56 e8 3b 04 67 f7 bb e0 b2 7f 39 f9 00 80 39
       0.007090428 -0.007550122 0.00024385331 0.00024414787
0000c0 20 3f d4 37 2d 23 1d ba ba aa c0 b9 c4 61 fb 3a
       2.5301764e-05 -0.00059943163 -0.00036748295 0.0019178917
0000d0 4a c1 21 3b b4 57 09 bb a4 ff be 39 ee f1 3f bb
       0.002468186 -0.0020956816 0.0003643009 -0.0029288488
0000e0 d7 db 40 3a a8 85 8c ba a8 b2 49 b8 6f 4d 7b b9
       0.00073569774 -0.0010720985 -4.808852e-05 -0.00023966072
0000f0 a1 45 bb bb ed 0d 9f bb d6 85 8b bb fd e3 1a 3b
       -0.0057150875 -0.004853955 -0.004257898 0.0023634427
000100 0d a7 4b 3c c3 7b 26 bc 51 94 ba ba 11 d5 95 bc
       0.012429965 -0.010161343 -0.0014234876 -0.018290075
000110 c0 cd 71 bb 59 24 6c 3c 57 f7 f2 39 2d ff 13 ba
       -0.0036896318 0.014412963 0.0004634212 -0.0005645629
000120 67 6d 0e ba fb 7e d3 39 f5 2f 51 39 30 82 78 3a
       -0.00054331723 0.00040339664 0.00019949659 0.00094798487
000130 4d 43 ad 3a ca 8b 81 ba 3a 9a ea ba 99 81 2f bb
       0.001321891 -0.0009883579 -0.0017898746 -0.0026780127
000140 74 5e 1d ba bc df 83 3b 28 5d cd 38 9f 82 44 b9
       -0.00060031493 0.004024474 9.7925134e-05 -0.00018740677
000150 2d 59 88 bb cf 2c 85 ba ce 6d ff ba 6a 6a 2d 3a
       -0.004161021 -0.0010160449 -0.001948768 0.0006615283
000160 3b 8a 25 38 45 8e 56 38 4d ff aa ba 48 f5 ed ba
       3.9467803e-05 5.1154075e-05 -0.0013046056 -0.0018154765
000170 fe bc 8b bb 3e 8d 0b 3c 24 1b d5 37 23 f3 30 b8
       -0.004264473 0.0085175615 2.5404217e-05 -4.218811e-05
000180 43 f8 0c bb 6d 1b 75 bb 9f cd 9c bb 3d 93 dc ba
       -0.002151028 -0.003740038 -0.004785254 -0.0016828548
000190 ff da 57 b9 4d 14 8d b8 53 3b 98 3a 41 b4 5e bb
       -0.0002058558 -6.727185e-05 0.001161436 -0.0033981951
0001a0 29 ef 9d bb 74 d4 04 3c 9c 55 0e b9 ab 3b 14 b8
       -0.00481977 0.008107293 -0.00013574067 -3.534152e-05
0001b0 d1 bc 66 bb cc 7a 03 bb a1 b7 a1 ba 1c 7b 5b b9
       -0.0035207758 -0.0020062206 -0.0012338051 -0.0002093133
0001c0 6b a8 34 38 c9 74 b4 38 2e dc 48 ba 32 a6 34 bb
       4.3072196e-05 8.604822e-05 -0.0007662204 -0.002756488
0001d0 35 b1 85 ba ee f2 e5 3b 84 5d ac 38 67 34 b8 b8
       -0.0010199907 0.007017485 8.219018e-05 -8.7835644e-05
0001e0 c5 e6 81 ba f1 93 96 b9 44 25 51 ba ad 8e 31 ba
       -0.0009910694 -0.00028720454 -0.00079782703 -0.00067732745
0001f0 ae 7b 44 3a c0 c1 23 ba 2a 72 cb ba be 3b 7d bb
       0.00074952364 -0.00062468275 -0.0015521694 -0.0038640345
000200 3c e5 36 bb b6 7a 03 3c 82 86 b6 38 95 a9 23 b9
       -0.002790763 0.008024862 8.70349e-05 -0.00015608066
000210 56 99 60 bb 0c 1d d0 ba 9c a9 e9 ba 79 81 77 ba
       -0.0034271083 -0.0015877797 -0.0017827037 -0.0009441595
000220 7e 9b cd b7 4c 8b 8c 38 29 ef 84 b9 0c 8e 0d bb
       -2.4510311e-05 6.701666e-05 -0.0002535519 -0.002159956
000230 69 6d f5 b9 b2 4c 98 3b 2d 6c c2 37 ce ba 57 b8
       -0.00046811558 0.0046478147 2.3176975e-05 -5.143397e-05
000240 6e fe 05 bb a3 88 f9 38 2d 81 04 ba 25 84 81 bb
       -0.0020445841 0.00011898696 -0.0005054649 -0.0039525204
000250 96 eb 3e bb 89 e5 19 3b c5 30 8e ba 98 cb a9 3a
       -0.002913212 0.002348276 -0.0010848275 0.0012954352
000260 c7 98 93 ba 92 49 25 3b 5c 3a 96 b8 7d 0c 1f 39
       -0.0011260741 0.0025220853 -7.163428e-05 0.00015168074
000270 1b c7 2c bb eb f1 a3 ba e4 db 8a ba 47 a8 8b ba
       -0.0026363793 -0.001250801 -0.0010594097 -0.0010655009
000280 be 9b 19 b9 44 d7 1a 39 b5 80 61 b9 e3 0a 9e ba
       -0.00014649236 0.00014766777 -0.00021505619 -0.0012057688
000290 2c c7 b7 b9 21 ea 25 3b d1 84 99 37 fd ef b2 b6
       -0.00035052875 0.0025316554 1.8300869e-05 -5.3327517e-06
0002a0 51 d9 84 ba 64 b5 e7 ba 4b 7c bb ba b9 c7 ca b9
       -0.0010135566 -0.001767796 -0.001430401 -0.00038677247
0002b0 6f 7b 93 3a 82 ba 85 ba 31 f0 d2 38 74 7b 41 bb
       0.0011251996 -0.0010202678 0.000100583195 -0.0029523047
0002c0 7c da 12 ba bb b5 1e 3b 26 4e 3b b6 e2 88 8a b8
       -0.0005602015 0.0024217207 -2.791066e-06 -6.605849e-05
0002d0 e2 66 67 3a f9 6c 46 3b 75 ad 26 3b 9f b2 03 3b
       0.00088272814 0.0030277355 0.0025432978 0.002009548
0002e0 b1 fa 64 3a 4c 84 4a ba 2d 85 a5 ba d3 b2 0f b9
       0.00087348657 -0.0007725402 -0.001262819 -0.0001370416
0002f0 5c 90 07 3b 2f 68 30 bb 67 ae 88 38 d0 6f e4 38
       0.002068541 -0.0026917567 6.51747e-05 0.00010892714
000300 67 31 02 bb 1d f1 05 bb 2f d6 d5 ba 48 f3 cf ba
       -0.0019865872 -0.0020437904 -0.0016314442 -0.001586535
000310 9d 41 ca 39 ef 56 c7 b9 89 69 1a b9 c9 16 2a bb
       0.00038577328 -0.00038021008 -0.000147259 -0.0025953522
000320 a7 bd 40 3a 63 e5 d2 3a 01 96 06 b8 1b 6b 2e b7
       0.0007352479 0.0016090091 -3.208779e-05 -1.0396146e-05
000330 0e f9 af ba d1 9e 42 bb c6 8a 4c bb 64 0a c7 ba
       -0.0013425665 -0.0029696713 -0.0031210645 -0.0015185592
000340 26 ae a1 b9 20 4e 68 39 dc 23 8c 3a ec b0 da ba
       -0.00030838064 0.00022154348 0.0010691839 -0.0016684807
000350 a6 ed ba ba 98 8b 91 3b 61 3d 8d b8 a4 4f be b7
       -0.0014261499 0.0044416897 -6.734837e-05 -2.268685e-05
000360 cf d9 fe ba a7 7b b7 bb dc 6a bf bb 36 cc 24 38
       -0.0019443574 -0.0055994573 -0.005841596 3.9290833e-05
000370 b3 3a 22 3b 2c 5f 00 bb bd 8d 1b 3b 1a 0a a9 bb
       0.0024754226 -0.0019587977 0.0023735606 -0.005158675
000380 7f 59 06 bb 12 5d 08 3c 3f 9d 89 36 c7 91 92 b9
       -0.0020500121 0.008322971 4.101224e-06 -0.00027955903
000390 bb 7b db bb de d1 41 bb 5b fe 67 bb 6c 98 27 bc
       -0.0066980994 -0.0029574553 -0.003539941 -0.010229211
0003a0 2a 61 8d bb 0b 2f 42 3b 8b 81 3b 3b 46 eb 37 3a
       -0.0043145614 0.002963009 0.002861115 0.00070159545
0003b0 70 4f 59 ba 3f 8a a8 ba 81 69 87 b9 77 ed 20 3a
       -0.000828973 -0.0012858583 -0.00025827813 0.00061389006
0003c0 19 25 6e ba 51 2d bf 3a e5 45 c5 3a 50 ea 5e 3a
       -0.00090845075 0.0014585649 0.0015050737 0.0008503543
0003d0 91 88 0b ba 82 88 1b 3a f5 de 64 ba 10 93 07 3b
       -0.0005322779 0.0005933122 -0.0008730733 0.0020687021
0003e0 4a 25 f7 3a 12 de 17 bb ce 63 90 37 ff 2b 18 39
       0.0018855717 -0.0023173136 1.7212613e-05 0.0001451224
0003f0 1d 79 a4 3b c9 6c 6b 3c d2 36 15 3c c9 97 de bb
       0.0050193206 0.014369198 0.009107308 -0.0067929965

exp_avg_sq f4 [100, 12]
000000 df c5 ee 38 ab 33 45 39 ca 3b 3f 39 7a 15 af 38
       0.00011385581 0.00018806632 0.00018237453 8.3486506e-05
000010 0e 88 13 39 e5 33 c2 38 d5 63 9f 38 ff 99 37 39
       0.00014069697 9.260307e-05 7.600306e-05 0.00017509608
000020 b4 27 8e 39 6e cd 4c 39 31 7e d8 34 dd e1 1e 35
       0.00027113932 0.00019531485 4.0324952e-07 5.918826e-07
000030 33 ee d7 38 d1 4d f9 38 30 ba d8 38 7d b7 a4 38
       0.00010296367 0.0001188774 0.00010334363 7.854307e-05
000040 0d 12 db 38 e4 a8 c9 38 6b 29 b9 38 91 ae 40 39
       0.00010446096 9.615885e-05 8.829202e-05 0.00018375578
000050 e5 53 62 39 3d 68 4f 39 a4 15 b0 34 f7 97 2a 35
       0.00021584293 0.0001977989 3.27983e-07 6.3551073e-07
000060 be fd 34 38 eb 1e d4 38 c5 84 73 38 d0 c3 17 38
       4.315166e-05 0.00010114707 5.8059366e-05 3.618357e-05
000070 f6 4b 72 38 e1 d3 24 38 d7 97 26 38 25 7a a9 38
       5.776804e-05 3.9297975e-05 3.9718896e-05 8.081299e-05
000080 fa 8e 3d 39 b5 66 95 38 42 a2 3c 34 b8 c0 b5 34
       0.00018077708 7.124004e-05 1.7567893e-07 3.3854099e-07
000090 9e 83 8d 39 77 95 1d 3a 25 18 d4 39 05 79 83 39
       0.00026991678 0.00060113467 0.0004045378 0.00025076434
0000a0 fe 42 ba 39 11 54 aa 39 51 da 8e 39 0c c3 32 3a
       0.00035526598 0.0003248756 0.0002724701 0.00068192254
0000b0 2b d3 d1 39 04 07 56 3a 6d 85 9b 35 dc eb fa 35
       0.0004002092 0.00081644976 1.1587232e-06 1.8695096e-06
0000c0 c6 9a 8c 39 00 ef 42 39 1e 72 a6 39 b0 59 3c 39
       0.00026818196 0.00018590316 0.0003174701 0.00017962488
0000d0 e3 39 68 39 95 df 3b 39 27 78 56 39 1e 44 a5 39
       0.00022146809 0.00017917 0.0002045339 0.00031522004
0000e0 41 97 22 39 3f ed 16 3a 63 69 31 35 04 55 62 35
       0.0001550587 0.00057573983 6.6090996e-07 8.4315275e-07
0000f0 13 0f f3 39 7d 80 b1 3a 77 0d 36 3a ff 2e c9 39
       0.00046359803 0.0013542321 0.00069447554 0.00038372722
000100 0f a3 30 3a 17 33 f5 39 96 17 0e 3a ec d5 88 3a
       0.0006738165 0.00046768106 0.00054203847 0.001043973
000110 43 59 d5 39 1b d3 ee 3a 8b 23 1a 36 9a fd 25 36
       0.0004069303 0.0018220873 2.2968477e-06 2.4734532e-06
000120 53 92 37 38 ec 99 d1 38 4c 3a 8e 38 64 4f 23 38
       4.3766875e-05 9.994567e-05 6.781946e-05 3.8936167e-05
000130 2a 89 6b 38 a6 15 2c 38 02 fd 3c 38 37 6a ac 38
       5.615611e-05 4.1028157e-05 4.5058325e-05 8.221383e-05
000140 50 37 43 38 16 22 de 38 24 67 36 34 a0 0f 83 34
       4.6543137e-05 0.00010592134 1.6987593e-07 2.441202e-07
000150 e8 ad cc 38 a8 9a 8c 39 30 3b 26 39 07 fb aa 38
       9.7598706e-05 0.0002681811 0.00015853043 8.152989e-05
000160 5b af 0a 39 24 5a bf 38 5f 25 dd 38 6b 47 4f 39
       0.0001322603 9.12438e-05 0.00010545062 0.00019767664
000170 7c ef 44 39 83 08 7e 39 1b 9b d9 34 db ad 1c 35
       0.00018781231 0.00024226498 4.0532254e-07 5.836752e-07
000180 2b e8 06 39 c4 1d 84 39 96 40 41 39 2b 34 c8 38
       0.00012865725 0.0002519918 0.00018429974 9.54646e-05
000190 f7 1f 1d 39 d6 7e dc 38 b9 d0 d9 38 f2 b0 50 39
       0.00014984595 0.000105140425 0.00010386244 0.00019902343
0001a0 a2 47 91 39 d2 73 70 39 15 8a eb 34 a0 5a 43 35
       0.00027709926 0.0002293133 4.387263e-07 7.277504e-07
0001b0 f6 c6 a5 38 04 f1 5b 39 1e af 07 39 fe cd 90 38
       7.9048725e-05 0.00020975253 0.0001293984 6.904824e-05
0001c0 10 50 e5 38 a3 57 a2 38 79 ca c3 38 ec 3e 2e 39
       0.00010934484 7.7410856e-05 9.336038e-05 0.00016617373
0001d0 48 b9 f5 38 bb 99 53 39 70 bc b7 34 dc 18 fd 34
       0.00011717022 0.00020179797 3.4223513e-07 4.714301e-07
0001e0 82 bb 7b 38 35 25 2f 39 d4 c9 cd 38 bd 35 5b 38
       6.0017694e-05 0.00016703161 9.812755e-05 5.2263716e-05
0001f0 4d 55 b1 38 da 7c 74 38 d7 fe 8a 38 31 4a 01 39
       8.455906e-05 5.829041e-05 6.6278204e-05 0.00012330037
000200 19 d4 ff 38 24 b9 1b 39 fc 7c 89 34 0f d9 c5 34
       0.00012198854 0.00014850922 2.5609177e-07 3.685204e-07
000210 b7 ec 62 38 67 33 15 39 a9 9a ad 38 43 fc 4d 38
       5.4103057e-05 0.00014228896 8.2780905e-05 4.9110746e-05
000220 fa 5f 98 38 75 4d 5d 38 b3 65 6c 38 14 33 e0 38
       7.265802e-05 5.2762643e-05 5.63615e-05 0.000106906664
000230 f5 9c f5 38 d3 99 16 39 01 53 6b 34 6f b7 bf 34
       0.00011711746 0.00014362419 2.1916277e-07 3.5709988e-07
000240 97 31 49 38 4d ad 17 39 3e 2b a9 38 9a cd 27 38
       4.796832e-05 0.00014465042 8.0666025e-05 4.0007384e-05
000250 34 25 5c 38 bd fe 32 38 ea ef 5f 38 d0 5b b0 38
       5.2486736e-05 4.267575e-05 5.339078e-05 8.4094354e-05
000260 05 d5 0c 39 c2 4a db 38 cd 2e 3f 34 81 66 bc 34
       0.00013430796 0.000104566585 1.7805287e-07 3.509231e-07
000270 a8 1c 63 38 b3 97 11 39 db 57 ae 38 d3 72 4c 38
       5.4147706e-05 0.0001388479 8.313331e-05 4.874433e-05
000280 51 b0 9c 38 9e 3d 66 38 da b1 74 38 e5 02 ee 38
       7.471501e-05 5.489366e-05 5.833977e-05 0.000113492635
000290 51 58 f2 38 71 01 0f 39 4c a0 70 34 82 5a c6 34
       0.000115559094 0.0001363808 2.2410057e-07 3.6946227e-07
0002a0 fc 78 51 38 5e 72 e7 38 5a 8a 94 38 c5 fc 2a 38
       4.994216e-05 0.00011036241 7.08296e-05 4.076657e-05
0002b0 49 ce 82 38 6b ef 3f 38 4f c9 43 38 55 dd c4 38
       6.237307e-05 4.5760924e-05 4.6679106e-05 9.3872346e-05
0002c0 fd e9 cc 38 44 6c f1 38 99 2e 4a 34 21 1b ae 34
       9.771062e-05 0.000115119416 1.8829668e-07 3.2429764e-07
0002d0 d1 1a 2c 39 c7 d5 66 39 2b 4f 34 39 d9 cb 0e 39
       0.00016413188 0.00022014148 0.0001719563 0.00013618114
0002e0 9d c0 43 39 cf 4f 34 39 28 34 22 39 cf c6 b2 39
       0.00018668403 0.00017195869 0.00015468954 0.0003409893
0002f0 c6 1b b2 39 17 2e bb 39 4c af 16 35 71 e4 90 35
       0.00033971498 0.0003570176 5.6134445e-07 1.0795321e-06
000300 93 49 3d 38 67 7e fb 38 47 05 96 38 06 12 29 38
       4.5129633e-05 0.00011992157 7.15354e-05 4.0309526e-05
000310 86 6a 78 38 42 bc 36 38 63 68 3d 38 51 e7 b1 38
       5.9227015e-05 4.356751e-05 4.515833e-05 8.483104e-05
000320 06 ac da 38 33 f2 f0 38 20 27 43 34 02 f0 9a 34
       0.00010427092 0.00011489205 1.8175024e-07 2.8859364e-07
000330 68 d2 97 38 40 9b 16 39 b9 aa d5 38 51 28 65 38
       7.239432e-05 0.0001436295 0.00010188431 5.4635402e-05
000340 50 0d b0 38 c4 2c 76 38 27 13 73 38 c1 a9 e8 38
       8.3948136e-05 5.869266e-05 5.795355e-05 0.00011094241
000350 43 16 21 39 00 ff 0a 39 90 81 8b 34 3b fc de 34
       0.0001536245 0.000132557 2.5985037e-07 4.1534244e-07
000360 40 56 fa 38 ed 6f 69 39 25 e3 2f 39 e7 ea c7 38
       0.00011936994 0.00022262307 0.00016773918 9.5328134e-05
000370 9a 48 16 39 4b 70 d6 38 94 05 e5 38 66 7f 5b 39
       0.00014332161 0.000102252314 0.0001092061 0.00020932927
000380 72 66 13 39 cc f5 8a 39 51 47 e9 34 bd 91 25 35
       0.00014057176 0.00026504544 4.3451521e-07 6.1679367e-07
000390 3b d2 b4 39 65 ce 42 3a b1 8d a5 39 67 f8 78 39
       0.0003448891 0.0007431268 0.0003157682 0.0002374366
0003a0 d9 e1 b7 39 86 64 8b 39 1a 67 b8 39 a6 d3 05 3a
       0.0003507275 0.00026587042 0.00035172031 0.00051050854
0003b0 d9 b3 16 3a d6 93 17 3a 29 24 9f 35 a0 f7 fd 35
       0.0005748845 0.0005782222 1.1856947e-06 1.8922037e-06
0003c0 60 58 80 38 29 db 6d 38 74 78 8c 38 73 11 59 38
       6.119977e-05 5.6709312e-05 6.698156e-05 5.1753083e-05
0003d0 b5 98 a9 38 bb ee 72 38 2b 6d 65 38 e9 69 e7 38
       8.086992e-05 5.791963e-05 5.4699525e-05 0.00011034666
0003e0 75 07 10 39 94 21 01 39 4e 71 81 34 6e 4f d1 34
       0.00013735688 0.00012314908 2.4110562e-07 3.8987076e-07
0003f0 bb fe 0d 3a 4d df d4 3a e3 e3 43 3a fb 6e f4 39
       0.0005416681 0.0016240865 0.00074726174 0.00046621994
