runs/perovskite_multiscale_dataset_3/ae2_PCE_predictor_enc_l_18_l1_1em2_tanh_predictor_0_1_100_relu_decoder_linear_seed_0_lr_1em3_bs_100_e_1500_pass_latents_ae1_fold_0_ae2_fold_3_xavier_normal_gain_10/submodule_params/encoder_params.pt (torch, 2819 bytes, 2 tensors)

0.weight f4 [18, 23]
0	0x3e06c124	0.13159615
1	0x39a004a0	0.00030521024
2	0xbc8449d6	-0.016148489
3	0x39f28770	0.00046258746
4	0x3aad1bc5	0.0013207129
5	0xb89f27b8	-7.589109e-05
6	0xbab08fb1	-0.0013470558
7	0xbaa6afdb	-0.0012717204
8	0x3b63043d	0.0034639977
9	0x3ada6053	0.0016660787
10	0x3bb0ebe6	0.005399215
11	0xbb1d8a43	-0.002403871
12	0xbb842a69	-0.004033376
13	0x3a7a1672	0.0009540088
14	0x3a469931	0.0007575928
15	0xbd05d37c	-0.03267239
16	0xbca24b5d	-0.019811327
17	0x3b8636d6	0.0040958924
18	0x3e3ead9f	0.18620919
19	0xbc2dbcc3	-0.010604086
20	0x3e5fb7fa	0.21847525
21	0xbba6a711	-0.005085834
22	0x3ab488b2	0.0013773649
23	0x3a904318	0.0011006324
24	0x3b70cce0	0.0036743209
25	0xb9b225a6	-0.00033978856
26	0x3d1481fb	0.03625677
27	0x3b20ab16	0.0024516038
28	0xbd037c06	-0.0321007
29	0xba250f17	-0.0006296499
30	0x3baad915	0.0052138665
31	0x3cf90fe7	0.03040309
32	0xbcc20180	-0.023682356
33	0x3ae0a20d	0.0017138139
34	0xba8d3570	-0.0010773372
35	0xbe45d5bf	-0.19319819
36	0xbb23241d	-0.0024893351
37	0x3ba465e6	0.00501703
38	0x3b69c9b7	0.003567321
39	0xbb92e86e	-0.004483274
40	0xbc292f32	-0.010326194
41	0x3d014145	0.031556387
42	0x3aabc3ce	0.0013104619
43	0xbdde50a1	-0.108552225
44	0x3ce43a7d	0.02785992
45	0x39ba138e	0.00035491254
46	0x3daee852	0.08540405
47	0xbeb49ad9	-0.3527439
48	0xbcc2a1ab	-0.02375873
49	0xbd2df55f	-0.042470332
50	0x3a4f5f37	0.00079106115
51	0xb95b5018	-0.00020915305
52	0xb939c1e8	-0.0001771521
53	0x3de55a60	0.11198878
54	0x3d4434fc	0.047902092
55	0xba36cab2	-0.0006972953
56	0xbd27315a	-0.04081855
57	0xbb853d75	-0.004066164
58	0xbe059242	-0.13044074
59	0x3b0fa627	0.0021919103
60	0xbc8ad2bf	-0.016946195
61	0x38ebf5e8	0.00011251477
62	0x39005d40	0.0001224177
63	0xba4725da	-0.0007596888
64	0x3e6a1c82	0.22862437
65	0xbc07469a	-0.008256579
66	0xbed52520	-0.41629887
67	0xbb38f633	-0.0028222918
68	0x3c90daba	0.017682422
69	0xbb89de99	-0.004207444
70	0xbc08a9d8	-0.008341275
71	0x3b10219f	0.0021992696
72	0xba3f9d2e	-0.00073094934
73	0x383281f0	4.255952e-05
74	0xbd3b17fb	-0.045677166
75	0x3b624593	0.0034526333
76	0x3c313814	0.010816593
77	0x3a66274c	0.00087796594
78	0x3d551971	0.052026216
79	0xbb80d40a	-0.003931527
80	0x37362a60	1.0857912e-05
81	0x3a5e0d6e	0.0008470629
82	0xbc486145	-0.012230222
83	0xbb01611c	-0.001974172
84	0x3c405fa0	0.011741549
85	0x3b398337	0.002830697
86	0xba32b771	-0.0006817496
87	0x3a6adac9	0.0008958993
88	0xbe42ca93	-0.19022588
89	0x3b373793	0.0027956709
90	0x3af39761	0.0018584543
91	0x3e70b685	0.23507126
92	0xbcbc62e5	-0.022996375
93	0xbb02c7d4	-0.0019955533
94	0x3ae7d859	0.0017688378
95	0xb95e8fca	-0.00021225135
96	0x39e9fc7b	0.00044629336
97	0x39e5be66	0.00043820142
98	0x3ca594dc	0.020212583
99	0xbe0b4495	-0.1360038
100	0x3b113e1f	0.0022162271
101	0xbca17487	-0.019708885
102	0xbd8c2528	-0.068430245
103	0xbc78dca7	-0.015189326
104	0xbc02869e	-0.007966666
105	0x3d67a511	0.056553904
106	0x3d811393	0.063025616
107	0x3afb41dc	0.0019169408
108	0xbd53aca8	-0.05167833
109	0xbb0da8dc	-0.002161554
110	0x3a54e48f	0.0008121216
111	0x3aa750e9	0.0012765202
112	0x3caffab6	0.021481853
113	0xbd17ba31	-0.0370428
114	0xb986a399	-0.0002568036
115	0xbc9ddc85	-0.019270191
116	0xbdc1fcb0	-0.094720244
117	0xbe055446	-0.13020429
118	0x3bd74b88	0.0065702833
119	0x3b61dab4	0.0034462633
120	0xbc9a5be8	-0.018842652
121	0x3dfe0268	0.12402803
122	0xbe3de74f	-0.18545268
123	0x3cd0e226	0.025498461
124	0xbd31c404	-0.043399826
125	0x3c37706e	0.011196239
126	0xbba745c8	-0.005104754
127	0xbd112440	-0.03543496
128	0x3ce6414b	0.028107306
129	0x3ab02c71	0.0013440979
130	0x3a42c9f9	0.0007430609
131	0x3c2ea038	0.010658316
132	0xba58617f	-0.0008254274
133	0xbbcb5014	-0.0062046144
134	0xb95e2b64	-0.00021187734
135	0xbd8437a8	-0.06455928
136	0x3c739aac	0.01486842
137	0x3dab1257	0.083531074
138	0x3a41cf26	0.0007393233
139	0xba63bbf4	-0.000868737
140	0xbdc4e573	-0.096140765
141	0x3e1ea0f6	0.15491089
142	0x3a9424b3	0.0011302441
143	0xbc14a38f	-0.0090721985
144	0xbe1fbde2	-0.15599778
145	0x3b8c5bf8	0.0042834245
146	0xbd5bcc81	-0.053661827
147	0xbc5ba351	-0.013405637
148	0xbb230ae1	-0.002487831
149	0x3b44dcb5	0.0030038778
150	0x3b100c05	0.002197982
151	0xbc9c6fda	-0.019096304
152	0x3a9e56f6	0.001208036
153	0xbb54b61e	-0.0032457183
154	0xbb373162	-0.0027953018
155	0xbba546fc	-0.0050438624
156	0x3b86faa4	0.004119234
157	0x3a6169f6	0.0008598858
158	0xba5074a2	-0.000795195
159	0x3d0f437b	0.034976464
160	0xbae1821a	-0.0017204911
161	0xbbdaabc5	-0.0066733086
162	0xbb551daa	-0.0032518902
163	0x3d12b9bb	0.035821658
164	0xba927aec	-0.001117555
165	0xbc88c54c	-0.016695641
166	0xba11b8c5	-0.0005558844
167	0x3beaac23	0.0071616336
168	0x3a050b97	0.00050752744
169	0x3d1fe475	0.039036233
170	0xbd92b4b5	-0.071633734
171	0xbbdc0d93	-0.0067154854
172	0xbb4fb32e	-0.0031692493
173	0x399a33d8	0.00029411796
174	0xbe437ad1	-0.1908982
175	0x3b818db2	0.003953659
176	0xba06aa26	-0.00051370484
177	0xbba4f9ad	-0.0050346465
178	0x3d05422d	0.032533813
179	0xbac4acf7	-0.0015005161
180	0xba6678d2	-0.00087918073
181	0x3ae7f305	0.0017696327
182	0xbd8df6ca	-0.06931837
183	0xba97898f	-0.0011561381
184	0x3b40fd14	0.0029447721
185	0x395826f2	0.00020613873
186	0xbc8abbf1	-0.01693532
187	0xbb37b7b8	-0.002803309
188	0x3c9474d8	0.018122122
189	0x3c0f1998	0.008734129
190	0xbb4d2824	-0.0031304443
191	0x3b132bb2	0.0022456464
192	0xbd2ef3d1	-0.04271299
193	0x3b682967	0.0035425068
194	0xbb279cf8	-0.0025575738
195	0x3c235e8d	0.009971273
196	0xbe25d219	-0.16193427
197	0x3b045d15	0.0020197083
198	0x3b9f2492	0.0048566544
199	0xbc8d57df	-0.017253814
200	0x3e043163	0.12909465
201	0x3cfee9a2	0.031117264
202	0xbc59234c	-0.013253044
203	0x3cfd15aa	0.03089412
204	0x3a405f1c	0.0007338391
205	0xbe198121	-0.14990665
206	0x3c841ff5	0.01612852
207	0xbb8534bf	-0.0040651257
208	0xbb57ea65	-0.0032946107
209	0x3d3fd6f3	0.04683585
210	0xbb43ded5	-0.0029887457
211	0xbafa1300	-0.0019079149
212	0x3d2983cb	0.041385453
213	0x3c30522b	0.010761778
214	0xbb74b4c5	-0.0037339192
215	0x3a7b1437	0.00095779024
216	0x3c450415	0.012024899
217	0xba583805	-0.00082480937
218	0xb90d2878	-0.00013461884
219	0xb999396f	-0.00029225225
220	0xbdc97b13	-0.09837928
221	0x3e7e66c5	0.24843891
222	0xbb280a63	-0.0025640957
223	0xbaab8ec0	-0.0013088807
224	0xbe6a9fdf	-0.22912548
225	0x3a09e56e	0.0005260323
226	0x3b4438e1	0.002994113
227	0xba9d9cb3	-0.001202485
228	0x3b65afb3	0.0035047352
229	0xbbe63a80	-0.0070260167
230	0xbb066417	-0.0020506436
231	0xbb2d7eb7	-0.0026473233
232	0x3b28b0e6	0.0025740205
233	0xbafdefe4	-0.0019373861
234	0x3d9615a3	0.073283456
235	0x3b54e4c2	0.0032484983
236	0x3b147ce7	0.0022657455
237	0x39d1b59f	0.00039998905
238	0xbae34544	-0.0017339368
239	0x3d318496	0.043339334
240	0x3988a880	0.00026065484
241	0x3b1b0f77	0.002366034
242	0x39e807b0	0.00044256216
243	0x3ba02923	0.0048877164
244	0xbb00d171	-0.0019656087
245	0xbb9a764b	-0.0047138087
246	0xbdc83b56	-0.097769424
247	0x3df63040	0.12020922
248	0x3a0b66f7	0.0005317772
249	0xbacf9479	-0.0015837095
250	0x3b871612	0.004122504
251	0xb9fbab04	-0.00048001867
252	0xbdd24c8c	-0.102685064
253	0xbb76ccba	-0.0037658648
254	0xba823c4f	-0.0009936186
255	0x3d50796a	0.05089704

0.bias f4 [18]
0	0xbd05d902	-0.032677658
1	0x3e2ba5ab	0.16762416
2	0xbe9e35c7	-0.30900404
3	0xbda56908	-0.08076674
4	0xbe9b2e8d	-0.30308953
5	0x3e78c79a	0.24294892
6	0x3e5ec533	0.21754913
7	0x3e60ad68	0.21941149
8	0xbe01b0f9	-0.12665166
9	0xbd9ee183	-0.07757857
10	0xbe20462d	-0.1565177
11	0x3ddc4087	0.10754495
12	0x3bff808a	0.0077973055
13	0x3b038e4b	0.0020073827
14	0x3cf668b9	0.030079233
15	0xbcec56f9	-0.028850066
16	0x3cafc460	0.021455944
17	0xbe434bd7	-0.190719
