runs/perovskite_multiscale_dataset_runs/ae2_PCE_predictor_enc_l_18_l1_1em2_tanh_predictor_0_1_100_relu_decoder_linear_seed_0_lr_1em3_bs_100_e_1500_pass_latents_ae1_fold_0_ae2_fold_3_xavier_normal_gain_10/checkpoints/epoch=1242-total_val_loss=2.28.ckpt (torch, 54674 bytes, 33 tensors)

submodules.encoder.0.weight f4 [18, 23]
00000000: 8a27 1c3e 3486 903a 07be 36bc 0174 3b3a
00000010: d174 023b 6843 003a 65ce 94bb 8684 67bb
00000020: ec7e 843a 1264 143c 7c3f f33b 9866 5bba
00000030: b26e 13bb 48e3 cc3a 993d 4a3b d689 a7bd
00000040: 38ca bcbb 7296 8d39 45fc 4c3e 6d97 26bd
00000050: 1565 6c3e ab61 d13a 8659 0cbb 2618 9fba
00000060: 0253 8b3b 5866 a33a fc68 293d 5524 2f3c
00000070: 5c2a 02bd a78a 883a 1ebb 303c e771 123d
00000080: b729 bcbc 11ce d1b9 3103 c1ba 300c 41be
00000090: f026 8d3b 3c84 8fba 2000 be3b fbf9 05ba
000000a0: ac4d 45bb ee47 2f3d 0952 f33a da31 e2bd
000000b0: 20ef 283d 23bb 893a 03a2 dc3d ba63 bdbe
000000c0: bd6e c6bc 866a 88bd 47f3 59bb 5aa9 5a3b
000000d0: 274b 11ba d023 f33d d0bf 583d b96a a0b9
000000e0: 96f6 1ebd 0c52 73ba 61cb 19be 6859 ad3a
000000f0: b59b d7bc 0bc0 15ba 464f 50ba 3a7f 6bb9
00000100: 477c 713e 3457 6abd cf9d e3be babb 80ba
00000110: 71ea 913b fa46 2bba 317b 32bb 598b 17bb
00000120: 37e5 223b d184 de3a ca10 88bd 1ad7 e8b9
00000130: 632e 203b 91e6 e739 f768 623d ab0c 55bc
00000140: 1887 49b8 613f a5ba 6aea 25bd 4033 9cb6
00000150: 6696 0f3c 4884 87b9 3a10 b03a 0e3f 163b
00000160: 7e30 48be 86fd 6b39 9e5c 22ba fec9 8e3e
00000170: 02f5 97bc a643 2fbc a271 3a3a 411b 52ba
00000180: 9783 70ba d726 4a3a d5d3 5a3c 8ece 19be
00000190: 0f46 dc3a b27b 06bd f5b2 99bd b38e 9bbc
000001a0: 13b2 07bc 04d9 653d 624a dc3d 2c1b 1f3a
000001b0: 3a29 63bd a5f3 b33a 5264 a639 7800 e0ba
000001c0: 684d 69ba b510 79bd 634d f7bc 3d86 d7bc
000001d0: 4819 7bbd 10f9 12be c5e7 ef3b a08b 433b
000001e0: 26d7 56bc 4265 1f3e c2c0 35be a6e8 993c
000001f0: ba41 1ebd 8337 193d f5f3 48bb e3f0 27bd
00000200: bd70 053d b490 193b 1905 733a 210e 4f3c
00000210: de23 903a 119d f0bb 379c 3cbc 3d0a 9ebd
00000220: b96c b03c 931c bc3d 4b23 8c3a 02d3 d539
00000230: 398a 84bd 3222 2b3e 1498 f53a 2fa5 2fbc
00000240: 04ed 2fbe 8c49 30b9 fdef 8cbd d125 1fbd
00000250: f19c b73a fda7 973a 9d29 2c3b d7b5 76bb
00000260: 26ae 4639 015f 4939 64ec 643b 1e83 9ebc
00000270: 0ea1 f33a 69a6 fa3a dcb8 df39 bb25 273d
00000280: c2f2 5c39 3572 81bb a0d3 90ba 250e f53c
00000290: a77b 2039 4449 4fbc b48c 16bb 6456 943b
000002a0: a1ec 243b a66b 653d 988e 85bd 68ff 07bc
000002b0: 57fd 7ebb 0134 cf3c 385b 50be 032b 67bb
000002c0: 4521 293a 5f62 d3bb ba10 583d f98f a2bb
000002d0: 25f0 23bb 4028 de3b ab36 73bd 0aa8 98b9
000002e0: 6638 493b 99a6 0c3b a770 8abc a895 2a3a
000002f0: fa9f 8c3c 7e27 013b 838e 5dbb 9abd d3b9
00000300: 2614 04bd 258c dcba a72a 583b 3ca8 3b3c
00000310: 673b 30be 8b53 1e3b e19a a539 59b5 d9bc
00000320: 80cd 103e 5e7b d43c 0d71 2dbd fb0a 023d
00000330: ec6a a8bb 656f f6bd 7f2a 5e3d ac90 96bb
00000340: ca11 97bb 1d06 1b3d c79b 61bb fca4 a1ba
00000350: 79da 593d c5c1 f33c d411 53bb c1f2 2bbb
00000360: 3366 2c3c 2c6b e0ba d355 363b 8165 903b
00000370: b66a e1bd a9dc 9d3e 5e45 4939 31c0 16bb
00000380: 15c2 6dbe 7014 48b7 7234 9cba c13a 083b
00000390: b37c 1f3a 3635 c839 f8d8 59ba 3c63 59ba
000003a0: d537 0f3a c89c 703a 1a64 8e3d fd15 003b
000003b0: 43cd 113a b0f9 b53b a9b3 963a ee31 213d
000003c0: 4557 9239 cbfc 81ba d400 243a 04e8 ac39
000003d0: 2ebc 3e3a f00f 01bb 2133 dabd e9f8 113e
000003e0: c446 1fbb 47d2 9c39 5e32 333b ee1f 02bb
000003f0: a7a2 f7bd b620 04ba 9653 02ba b8f4 3f3d
0.15249458 0.0011026324 -0.0111537045 0.000715077 0.0019906054 0.0004892857 -0.0045412057 -0.0035326793
0.0010108626 0.009057062 0.0074233394 -0.00083694747 -0.00224964 0.00156317 0.003085947 -0.08180587
-0.005761411 0.00027005706 0.20018108 -0.040671755 0.23085435 0.0015974542 -0.0021415665 -0.0012137934
0.0042518387 0.0012466414 0.041359887 0.010689815 -0.03177868 0.0010417298 0.0107868 0.035753157
-0.02296911 -0.00040017118 -0.0014725683 -0.18852305 0.00430762 -0.0010949443 0.0057983547 -0.00051107974
-0.003010611 0.042793207 0.0018563877 -0.11044665 0.041243672 0.0010508042 0.10773089 -0.36990148
-0.024222726 -0.06660943 -0.0033256577 0.0033365102 -0.00055425096 0.11872065 0.0529173 -0.00030597093
-0.03880938 -0.00092819403 -0.15018989 0.0013225498 -0.026319364 -0.00057125156 -0.0007946383 -0.00022458742
0.23582564 -0.05721207 -0.44456336 -0.0009821572 0.0044529964 -0.00065337087 -0.0027234072 -0.002312383
0.002485586 0.0016976838 -0.06643827 -0.0004441075 0.002444171 0.0004423154 0.055275884 -0.013003509
-4.804795e-05 -0.0012607389 -0.040506758 -4.6551286e-06 0.008763885 -0.00025847764 0.001343257 0.0022925767
-0.19549748 0.00022505791 -0.00061936106 0.27888483 -0.018549446 -0.010697281 0.00071122695 -0.00080149254
-0.0009174882 0.0007711476 0.013356169 -0.150202 0.0016805547 -0.03283281 -0.075048365 -0.018988943
-0.008282202 0.056115165 0.10756375 0.00060694176 -0.05545924 0.0013729228 0.00031736732 -0.0017089983
-0.0008899779 -0.06080695 -0.030188268 -0.026309127 -0.061303407 -0.14352822 0.0073213303 0.0029837862
-0.013112819 0.1556597 -0.17749313 0.018787693 -0.0386369 0.037406456 -0.0030662988 -0.04100121
0.03257822 0.0023432197 0.0009270474 0.012637646 0.0010997017 -0.0073429425 -0.011511854 -0.077167965
0.021536218 0.091851376 0.001069167 0.0004078374 -0.064716764 0.16712263 0.0018737339 -0.010720535
-0.17180258 -0.00016812066 -0.06881712 -0.038854424 0.0014008564 0.001157045 0.002626992 -0.0037645006
0.00018947627 0.00019204245 0.003493094 -0.01934963 0.0018587427 0.001912308 0.00042671605 0.040807467
0.0002107127 -0.003950382 -0.0011049397 0.029913971 0.00015304853 -0.012651745 -0.002297205 0.0045269
0.0025165456 0.056010865 -0.06521338 -0.00830064 -0.0038908327 0.025293352 -0.20347297 -0.003527344
0.0006451796 -0.0064509357 0.052750327 -0.0049610105 -0.0025014963 0.0067797005 -0.059378307 -0.00029116898
0.0030703782 0.0021461605 -0.01689942 0.0006507286 0.017166127 0.0019707377 -0.0033806867 -0.0004038632
-0.032245778 -0.0016826434 0.0032984407 0.011453684 -0.1721016 0.0024158682 0.00031586646 -0.026575731
0.14140892 0.025937732 -0.04234414 0.031748753 -0.005139699 -0.120329656 0.054239746 -0.004594883
-0.004610275 0.037847627 -0.0034425126 -0.0012332494 0.053186867 0.029755482 -0.0032206671 -0.0026237222
0.010522413 -0.0017121783 0.0027822151 0.0044066315 -0.110066816 0.30832413 0.00019194695 -0.0023002739
-0.23218568 -1.1925687e-05 -0.0011917485 0.0020786973 0.000608395 0.00038186618 -0.0008310224 -0.000829268
0.0005463337 0.00091786357 0.069526866 0.0019544356 0.00055618974 0.0055534467 0.0011497635 0.039354257
0.0002791231 -0.0009917257 0.0006256227 0.00032979262 0.0007275966 -0.0019693337 -0.10654283 0.14255108
-0.0024303654 0.00029911308 0.0027343254 -0.0019855457 -0.1209157 -0.00050402747 -0.0004971562 0.04686424

submodules.encoder.0.bias f4 [18]
00000000: 84e4 c7bc 1d20 263e 64c1 96be fd5d b2bd
00000010: 666c 99be 8a93 743e 1571 593e 10b9 6d3e
00000020: 9b40 19be 0c41 a4bd 3016 18be 15e9 fa3d
00000030: de97 3c3b 4365 bc3b 3ccd 8f3c 13fe 2cbd
00000040: 14d4 7a3c 2901 30be
-0.024400957 0.16223188 -0.2944442 -0.08709333 -0.29965514 0.23884407 0.21234544 0.23215127
-0.14966051 -0.08020219 -0.14852214 0.12251488 0.0028777043 0.005749376 0.017553918 -0.04223449
0.015309352 -0.17187943

submodules.PCE_pred.0.weight f4 [100, 18]
00000000: 9956 103f 45d1 d83f 3984 37bf ae2b febf
00000010: 8278 9abe bdee c4bf 17e4 59bf c709 81bd
00000020: 4147 c63f 194d 133f f3be bcbe 0210 b73f
00000030: 9fa0 88be 1af7 883e c5b4 a13e fc0f e7be
00000040: 6ec5 823e 063f 703f 6c25 0140 a991 e3bf
00000050: 0f2e 6b3e 463a efbf f40a 813f b819 aabf
00000060: bfe5 3dbf 398b 31be 8b0e 953e 084d 81bf
00000070: 6418 d5bf d7fb 843f 3b9f 9ec0 3615 b0be
00000080: cbbb 573f 59a0 a8bf db56 2fbf b8c2 cdbf
00000090: 7320 653f e86a 36c0 0dd0 20bf 259e f2bf
000000a0: 4ed3 15c0 6ea5 48bf 145b 503e 7064 afbf
000000b0: c1e9 de3f ca3c 413e a03c d73f 175e 65bf
000000c0: 0546 42bf 4c7d 8a3e 31dd e23e 618d 2e40
000000d0: 1b6d 8ebe 4f9d a4be 9bc0 ee3f f863 d3bc
000000e0: f6a9 423f 556c 00c0 1dd4 9abe df92 33bf
000000f0: 3993 1940 823b 863d ddb5 3240 a4d7 5c3d
00000100: bfb6 4240 1b0e fe3f 2451 7b3d cd1d 303f
00000110: 6c67 11bf 4932 713f a274 523e 4076 5bbf
00000120: 50ef 0f40 1b9f 33bf 42f9 cfbf bd4f 95bf
00000130: 786a 25bf bf69 1740 3cab 59bf 1baf 4a3d
00000140: c32f efbf 3b91 393e b327 0f3f b4ca 3e40
00000150: ec89 1c3f ab45 3bbf 6ec4 40bf 1c15 6fbf
00000160: cecb 493f 9238 cfbf be26 cdbd 8a68 16bf
00000170: fac2 c2bf 3c74 cb3d 8bfc a83f 813e 8bbf
00000180: 06df 3ebf a403 143f 358c 6cbe 3efb 933f
00000190: c8dd f6bd a7d3 0740 9b20 2cc0 cb01 b1bf
000001a0: d612 8ebe ee05 05c0 9578 21bf c600 12c0
000001b0: bf89 e63e c72f 2f3f bc80 42be c1b6 ea3f
000001c0: f822 933f 441d f53f 222c 7cbf 0161 25c0
000001d0: 53c8 3d3f 00c4 043e a616 ed3f acf4 ae3e
000001e0: 1a3a 6d3f f421 903e cd31 d2bf a394 62be
000001f0: 4712 0240 e246 0dc0 2bda e2be 81ab 93bf
00000200: 05db 943f 7b44 2bbf 7fc1 7cbf 7a53 27bf
00000210: 1f04 a1ba 1f42 843e 5bab b73f 2dc6 82bf
00000220: bc2f 043f 720a 4d3f 63ec b73e 35c0 0d40
00000230: 26c2 33bf ff5e 10c0 62c8 313e f3a0 8a3c
00000240: cc17 023f e6fa 6140 4061 07bf 5ef5 cabe
00000250: 453f 8a3f 7f90 88bf f98f 03bf b137 b4be
00000260: 43ff afbe b4e2 7c3d d28e 183f 961d 00c0
00000270: e185 dcbe 07cb a6bf e862 42c0 d9bd 2ebf
00000280: e63a 16bf 95dc 0ebe 95f4 15bf c7a5 5f3f
00000290: a013 ae3e 966a 553f 52ee 0e3f e195 87bf
000002a0: f339 33be 6d0c cdbf e037 063f f265 0840
000002b0: 79af 49bf 7ef5 cc3f f09c ce3f 5a4b 0bc0
000002c0: dbaf d7bf 0f8f 7abd 52a4 ab3f 7217 d4bf
000002d0: 82c8 13bf e1e6 72bf 35a2 3e3f b036 0740
000002e0: 4e90 0fbf b1f9 653f c2cb 963f 6d91 92be
000002f0: 7247 8abf a29b 313e a23d a0bf e305 a0bf
00000300: 42fe 3bbf cc2c ab3f 7e24 0abd 2a96 8d3f
00000310: be55 273e 00b2 74bf 2e57 e5be a89b 00bf
00000320: 67ae e23f cadc b93f f752 20c0 bf9d 0dbf
00000330: 207e e53f 3743 1dc0 11f8 92bf 35bf d5bf
00000340: b5b7 2dbf 7de0 21c0 5d89 7ebc dd08 adbe
00000350: 6a74 543f f564 b5bf 27f4 3f3e eaf6 a0bf
00000360: 68f7 ee3f 0380 ccbf a0d7 28c0 284a 8bbd
00000370: ebea a7bf 0c85 5e3f a43c 1dbf 4b7c 9cbf
00000380: 534d 99bf 7408 7abc cfef 20c0 6652 80bc
00000390: f130 ec3f 42bc 1d40 d49e 8bbf 9b1b b8be
000003a0: 46b6 843c 2389 d9bd 70db 40c0 de15 ad3f
000003b0: e91b 00c0 71bb 363f a38f 5a3f 6ac4 1fbf
000003c0: f90c bb3e 3495 3cbf 25b5 82bf 5782 4dbe
000003d0: 0d0f 003f a1af 7abf 0070 03c0 3978 4e3f
000003e0: ad9f 433f 4909 2240 f86d edbe 6884 42bf
000003f0: a35f 0240 f139 0a3f de1f 903f d3dc 34be
0.5638214 1.6938864 -0.7168613 -1.985708 -0.30170065 -1.5385357 -0.8511366 -0.06300693
1.5490495 0.57539517 -0.36864433 1.430176 -0.26685044 0.26751024 0.3158323 -0.45129383
0.25541252 0.93846166 2.017909 -1.7778827 0.22966789 -1.8689659 1.0081468 -1.3289099
-0.7417869 -0.17338265 0.29112658 -1.0101633 -1.6648068 1.0389355 -4.9569373 -0.34391183
0.84270924 -1.3173934 -0.68491906 -1.6075048 0.8950264 -2.850275 -0.6281746 -1.8954512
-2.341022 -0.78377426 0.20347244 -1.3702526 1.7415086 0.18870845 1.6815376 -0.89596695
-0.7588809 0.2704872 0.4430938 2.727379 -0.27817616 -0.32151267 1.8652529 -0.025804505
0.7604059 -2.006612 -0.30239955 -0.7014598 2.3996108 0.06554319 2.79235 0.05391659
3.042404 1.9848055 0.06135668 0.6879547 -0.56798434 0.94217354 0.20552304 -0.8572731
2.2489815 -0.7016465 -1.6247942 -1.1664959 -0.64615583 2.3658292 -0.8502691 0.0494834
-1.8686451 0.18121807 0.5591995 2.981122 0.6114795 -0.7315318 -0.7529973 -0.93391585
0.78826606 -1.6189139 -0.10017155 -0.58753264 -1.5215752 0.09934279 1.320207 -1.087845
-0.74559057 0.57818055 -0.2310036 1.1561048 -0.1205402 2.1222932 -2.68949 -1.3828672
-0.27748746 -2.078487 -0.6307462 -2.2812972 0.45026967 0.6843228 -0.18994421 1.8337022
1.1495047 1.9149556 -0.9850484 -2.5840456 0.74133795 0.12965393 1.8522537 0.34171045
0.9266678 0.28150904 -1.6421448 -0.22127013 2.0323656 -2.2074513 -0.44307074 -1.1536714
1.162934 -0.6690137 -0.9873275 -0.6536175 -0.0012284553 0.25831696 1.4349169 -1.0216728
0.51635337 0.80094063 0.35922536 2.2148564 -0.7021812 -2.255798 0.17361596 0.01692245
0.5081756 3.5309386 -0.52882767 -0.39640325 1.0800558 -1.0669097 -0.5139156 -0.3519874
-0.34374437 0.06173964 0.59592927 -2.0018058 -0.43070891 -1.3030709 -3.0372868 -0.68258435
-0.5868362 -0.13951333 -0.5857633 0.8736233 0.33999348 0.8336576 0.558324 -1.0592614
-0.17502575 -1.6019417 0.5242901 2.1312222 -0.78783375 1.6012418 1.6141644 -2.176474
-1.6850542 -0.061171588 1.3409522 -1.6569655 -0.57727826 -0.94883543 0.7446626 2.1127129
-0.56079566 0.89834124 1.1780932 -0.28626576 -1.0803053 0.17344525 -1.2518809 -1.2501796
-0.7343484 1.3373046 -0.033726208 1.1061451 0.16341302 -0.95584106 -0.44793075 -0.5023751
1.7709473 1.4520504 -2.5050638 -0.55318826 1.7929115 -2.4572275 -1.1481954 -1.6698977
-0.6785844 -2.5293267 -0.01553568 -0.33795825 0.82990134 -1.4171435 0.1874548 -1.2575352
1.8669252 -1.5976566 -2.6381607 -0.068012536 -1.3118566 0.86921763 -0.61420655 -1.2225431
-1.1976722 -0.015260804 -2.5146368 -0.01566429 1.8452436 2.4646153 -1.0907845 -0.3595856
0.016200196 -0.1062186 -3.0133934 1.3522298 -2.0017035 0.7137976 0.8537542 -0.6240908
0.36533335 -0.73665166 -1.0211531 -0.20069252 0.50022966 -0.9792424 -2.053711 0.80652195
0.7641552 2.5318167 -0.46372962 -0.75983286 2.0370872 0.5399466 1.1259725 -0.17662363

submodules.PCE_pred.0.bias f4 [100]
00000000: 8c68 863b 21db abbe 49b5 d1be 14d6 3bbf
00000010: 54a8 183f 9046 413d 4dac 15bf 6d24 21bf
00000020: d830 e4be 0047 1cbf d20d e4bc ba42 a53e
00000030: 9d62 be3e 3db0 3a3e d8bd cfbd 0c69 923d
00000040: d10d 1bbf 4063 843e a6ed 8a3e 2acc 1cbf
00000050: 951c 223d 586c 07bf a110 333f 954e eabd
00000060: 5107 c8be c909 79bd f8e6 493e a1c6 153e
00000070: e612 023f c99d 973d 2710 8d3e 1905 093f
00000080: 1691 7cbd 3e22 e2be b4cb 923e b39d 363e
00000090: 395e f83d 1bde 38bd f838 113e a6ce 2abf
000000a0: d690 213f 2cc0 24bd 79da 7ebd 7798 1abf
000000b0: b343 293e 5f13 913e 2c7c d3be a10d ff3e
000000c0: cb30 803e c778 adbe 05c2 23bf 56eb 103e
000000d0: 82b7 26bf 4098 a73e 2d92 1d3f 7429 d83d
000000e0: fe45 3e3e 78b6 1e3e ed7f 14bf 7a9e abbd
000000f0: 83ca 0c3e ca8e 3c3f 8d01 163f 5cb2 88be
00000100: 8600 08bf 5a0f 0c3f e62f 2dbf 0952 60bf
00000110: 6bcd 0abf ba95 a9bd 6985 8e3e eb19 763d
00000120: d2f8 42bf 410f 26bf be15 5f3e 9dcc c33e
00000130: 23bd 193e ceb4 a43d 2abc 2bbf 1b2b ae3d
00000140: f6bf 7cbd 4f02 76be a072 f4be af57 ef3d
00000150: d0bd 4cbe d51c 39bf 5841 2fbe 82f2 48be
00000160: 8c25 6d3e d0e6 123f 1544 2ebe 6b5b 30bf
00000170: 8c69 14bf 9cb8 d6be 289d bcbe 7ee0 2abf
00000180: f95d 25bf 40f8 56bd e4cd b43e 9029 1ebf
0.0041018184 -0.3356562 -0.40958622 -0.7337353 0.5963185 0.047186434 -0.58466035 -0.62946206
-0.44568515 -0.6104584 -0.027838621 0.3227747 0.3718461 0.18231292 -0.10143632 0.07148942
-0.6056796 0.25856972 0.27134436 -0.6124903 0.03957804 -0.52899694 0.6994725 -0.114407696
-0.39068082 -0.060800347 0.19717014 0.14626552 0.50810087 0.07403142 0.27551386 0.53523403
-0.061661802 -0.4416675 0.28671038 0.17833595 0.121273465 -0.04513369 0.14181888 -0.6672157
0.6311163 -0.040222332 -0.06222007 -0.6038889 0.16529731 0.2833509 -0.41305673 0.49815086
0.25037226 -0.33881208 -0.63967925 0.14152274 -0.6512376 0.32733345 0.6155117 0.105547816
0.18581387 0.15499294 -0.580077 -0.083798364 0.13749127 0.7365538 0.58596116 -0.26698577
-0.531258 0.54710925 -0.6765121 -0.87625176 -0.5421969 -0.08280511 0.2783616 0.06008331
-0.7616092 -0.64867026 0.21785638 0.38242045 0.15013556 0.08042298 -0.6708399 0.085043155
-0.061706506 -0.24024318 -0.47743702 0.11686646 -0.19994283 -0.7230962 -0.1711477 -0.1962376
0.23158854 0.5738344 -0.17018159 -0.6888949 -0.5797355 -0.4193772 -0.3683865 -0.667488
-0.64596516 -0.052482843 0.35313332 -0.6178217

submodules.PCE_pred.3.weight f4 [1, 100]
00000000: 9b81 b43f a92d b3bf 9d09 6bbe 5404 43bf
00000010: a9da 283e ac16 e33e f1d2 7bbf d225 84bf
00000020: fa26 e3be 644a a5bf 0171 9f3e 6dd3 723e
00000030: 7b7c 3d3e 06ff e53e bba7 853e 1e27 f43e
00000040: c517 d0bf 836a 133f 6793 223f e33e 92bf
00000050: a809 2a3f 7b27 52c0 334e 5f3e 8fcf 1f40
00000060: 794f 82bf b9fe 133f 62c9 1e3f 245e 813f
00000070: 33e9 5c3e adaa 393f dbc7 1e3e 288d c53e
00000080: fa67 21bf 353a d6be 3e68 b73e b668 9d3e
00000090: f156 283f 3e61 023f bb8a 3c3e a14f 15bf
000000a0: 920e 973e 1f8c 8fbf c063 163f 2b52 bebf
000000b0: 6e04 523e dcd4 b93e 695b 17c0 dfe4 673e
000000c0: cb99 7b3e 15c1 f0bf 6cc7 a7bf bd84 b43e
000000d0: 2160 c5bd 8d6f 633e 2ab2 8f3e 9061 213f
000000e0: 1c09 373e f437 4b3e 6047 74c0 7d5b af3f
000000f0: 5b99 8d3f f3fe 1a3e 8dc8 823e e52f c9bf
00000100: 511f ccbf b6d7 543e b3a7 b0bf 805f 01bf
00000110: cec3 73be f307 d63e b6a9 5b3e 1364 c23f
00000120: e851 93bf a187 1ebf 9b77 9e3f f64b 553e
00000130: 9f3f 3b3e f82a 943f 9dbb 76bf c2ae 053e
00000140: d702 3f3f eadc 523e aa91 95bf 9f4e 4dc0
00000150: 809d 0cc0 88c8 03bf a311 61bf d546 3abf
00000160: 7890 983e fa9e 163e 8c1d 43c0 f594 b7bf
00000170: acdc 00bf c091 d1bf ab6b 873e feef 86c0
00000180: 1459 38be 515c 503e c282 9b3e e87e 27bf
1.4102052 -1.3998309 -0.22952886 -0.7617848 0.16489662 0.44353235 -0.98368746 -1.0324042
-0.44365674 -1.2913327 0.31140903 0.23713465 0.18504517 0.4492113 0.2610453 0.47686094
-1.6257254 0.575844 0.6350617 -1.1425442 0.66420984 -3.2836597 0.21807174 2.4970434
-1.0180503 0.5781055 0.62026036 1.0106854 0.21573333 0.72526056 0.15505926 0.38584256
-0.6304928 -0.41841283 0.35821718 0.3074395 0.6575766 0.5092963 0.18412296 -0.5832463
0.29503304 -1.1214637 0.58745956 -1.4868826 0.20509502 0.3629521 -2.3649542 0.22645901
0.24570386 -1.8808924 -1.3107734 0.3525752 -0.09637476 0.22210522 0.28065616 0.63039494
0.17874569 0.19845563 -3.8168564 1.3699795 1.1062425 0.15136318 0.25543633 -1.5717741
-1.5947057 0.20785412 -1.3801178 -0.50536346 -0.23805162 0.4180294 0.21451458 1.518679
-1.1509371 -0.61925703 1.2380251 0.20829758 0.18285988 1.1575613 -0.96380025 0.13054946
0.7461371 0.20592085 -1.1685078 -3.2079237 -2.197113 -0.5147786 -0.87917536 -0.7276433
0.2979772 0.14709082 -3.0486784 -1.4342333 -0.5033672 -1.6372604 0.26449332 -4.216796
-0.1800273 0.20347716 0.30373198 -0.6542802

submodules.latents_pred.0.weight f4 [12, 18]
00000000: 1621 863f c47d 6b3e 4804 c8be 99d7 98be
00000010: 8a0a 433e f93d fdbe c9da a23f 9dd1 17bf
00000020: 6c0d d63e d58f 80be 7743 cabd c072 03bf
00000030: 993d e1bf 409e 8ebf 7dc7 4c3d 11a2 d43e
00000040: a2ec 8c3f 1e6b b5be 7de3 7b3f 1060 d23e
00000050: 24cf c3be 9ffd 6bbe 44b0 cfbc 9ccd 18bf
00000060: 7562 143f dd4d 9cbe 8357 4a3e 9a13 d7bd
00000070: 4e90 4ebe 9f34 d5be 46bd b4bf 4dc2 35bf
00000080: 7126 e8be 6762 d93e aac6 6f3f a51f cebe
00000090: 1723 94bf 7f51 853e ace9 a93d 44fd 973e
000000a0: c040 d8be f19f 603d 55e6 f3bf 826e 0f3f
000000b0: e644 11bf 69b5 4a3e b732 06be 7b63 a63e
000000c0: aa30 d23f 21bc 8d3f d556 3d3e 1c84 10bf
000000d0: 3344 65bf 4d36 e03e 2d82 06bf 5e3c 573f
000000e0: cbb1 84bc 447c 1a3f 8002 c3be 2858 0e3e
000000f0: 6b4e b13f 37df 3c3e a744 703e 54c0 88bd
00000100: 3c6b a63f 27e4 8b3f 1a21 83bf 1b0f 983f
00000110: b8ef b23d c9fe 0ec0 8033 bfbe 2f54 d53e
00000120: 403c dabe 3bab 633f 8d8d d2bd 6a70 033f
00000130: 37f5 0cbf e652 d93d a7a7 803f 5d18 ee3d
00000140: e372 863e b9ef 26bd 9876 843f cd25 973f
00000150: b7bf 67bf ff92 923f 7be8 ec3c ea2d d9bf
00000160: 8891 7bbe 5018 ee3e 564b 413f 2f35 9abf
00000170: 99c4 e33e 2022 2cbf e880 9e3e 31bf 1ebe
00000180: 4665 cdbf bbfe a5be 5452 9c3d 0e8f 5f3d
00000190: dc35 2dbf 0f84 9bbf c5fb 1f3f e07b ecbf
000001a0: a962 263e 53e6 e73f b901 8a3e 3035 f2be
000001b0: 6e35 98bf e581 073e 206f b83d 0996 793e
000001c0: 12ab f2be 7e2c 493d 72e0 cebf 78a6 1b3f
000001d0: 8444 efbe fbcb 493e d6e3 38bd c529 983e
000001e0: 6ba1 0140 7212 8a3f 95bb c13e a639 0cbf
000001f0: 5b60 85bf 7b49 563e 1f6a 953d e0ff 4d3f
00000200: da41 463e ddf1 e43e 4241 80bf 5538 fcbf
00000210: 49e7 84be 9eb9 923f 50f0 69be 3097 f73e
00000220: 2f9b aebe f03b 993e c671 853f 841a 8d3f
00000230: 892c 18c0 5bf7 aa3e b98b 35bd 2841 e53d
00000240: d7b1 f73e 7d28 873f 4993 f43e dc13 c2bd
00000250: 7bd3 a93d 990b 8e3e 3fb0 2dbf 0179 bb3f
00000260: 3f2a 28bf 191f 60be 7878 31be b3f3 55bf
00000270: 16f5 ccbf 4905 9fbf 1240 a5bf 91a7 dabf
00000280: 0f30 1a3f 1ac0 fc3f 0978 85be 4222 b6bf
00000290: d56e 97be 46c6 143e dd9a 1dbf 6a0d 1f3d
000002a0: 25a4 1ebd fd08 06c0 ae22 713f 099b db3e
000002b0: c52a 793f 5f41 763f 974d 473f 0ef9 853f
000002c0: e96e ae3f b083 b13f 0fad fdbe f4d4 03c0
000002d0: ba33 7f3f 63ef 743f ee43 07be f02a 52be
000002e0: 8d96 7fbe 8c18 3d3f 0209 0d3f b41f 86bd
000002f0: fe45 0e3f a0cc e6be 5702 6c3f 95c0 b23e
00000300: 7e83 4bc0 bfc1 81bf ea96 973e dc5c debf
00000310: 2434 593f eaff 2c3f 326e e1be 6a04 95bf
00000320: 36ab e3be 29f5 0c3e d750 5bbe ef54 f5bd
00000330: 8267 183f 0df2 d5bf 2c9c 433f e344 8f3e
00000340: 6b53 b33e 4a65 833f bf45 af3f 5cc3 a73f
00000350: ea49 a23f 6ea9 e03f 6094 0fbf b507 f8bf
1.0478847 0.22997195 -0.39065766 -0.29851988 0.19046989 -0.49461344 1.2723018 -0.5930422
0.41807115 -0.25109735 -0.09876149 -0.5134697 -1.7596923 -1.1142044 0.049994934 0.41529897
1.1009715 -0.35433286 0.98393995 0.41088915 -0.38243973 -0.23045968 -0.025352605 -0.59688735
0.57962734 -0.30528155 0.19759946 -0.105017856 -0.20172235 -0.4164171 -1.4120262 -0.70999604
-0.45341828 0.42457888 0.9366251 -0.40258518 -1.1573209 0.2603874 0.082965225 0.29685414
-0.422369 0.054840032 -1.9054667 0.56027997 -0.56745756 0.19795765 -0.13105284 0.32497773
1.6421101 1.1073037 0.18490155 -0.5645158 -0.8955719 0.43791428 -0.5254238 0.8407649
-0.01619806 0.60345864 -0.38087845 0.13900816 1.3852056 0.18444525 0.23463689 -0.06677309
1.3001475 1.0929002 -1.0244477 1.187961 0.08737129 -2.2343009 -0.3734398 0.4166579
-0.42624092 0.8893315 -0.10280905 0.51343405 -0.5506167 0.10611515 1.0051163 0.11625741
0.26259527 -0.04075596 1.0348692 1.1808411 -0.9052691 1.145111 0.02891945 -1.6967137
-0.24567235 0.46502924 0.7550558 -1.204748 0.4448593 -0.6723957 0.30957723 -0.15502621
-1.6046531 -0.32420906 0.0763289 0.054579787 -0.6766031 -1.2149676 0.62493545 -1.8475304
0.16248573 1.8117164 0.2695444 -0.47306204 -1.1891305 0.13233145 0.090055704 0.2437364
-0.4739614 0.049114697 -1.6162245 0.60800886 -0.4673196 0.19706719 -0.045139156 0.29719368
2.0254772 1.0786879 0.37838426 -0.54775465 -1.042003 0.20926468 0.072956316 0.8046856
0.19361058 0.44715777 -1.0019915 -1.9704691 -0.25957707 1.1462896 -0.22845578 0.48357534
-0.3410277 0.2992854 1.0425346 1.1023717 -2.3777182 0.33391842 -0.044322703 0.11194068
0.4837787 1.0559231 0.4776862 -0.09476444 0.0829229 0.27743223 -0.67847055 1.4646302
-0.6568946 -0.21886863 -0.17331111 -0.8357498 -1.6012294 -1.2423488 -1.2910178 -1.7082387
0.6022958 1.9746125 -0.26068142 -1.4229205 -0.29576746 0.1452876 -0.6156443 0.038831152
-0.03873076 -2.0942986 0.9419354 0.4289172 0.97330886 0.961935 0.7785277 1.046663
1.3627597 1.3868313 -0.49546096 -2.0598726 0.99688303 0.95677775 -0.13209507 -0.20524192
-0.24959774 0.7386558 0.5509187 -0.06549016 0.5557555 -0.4507799 0.9219107 0.34912553
-3.1799006 -1.0137252 0.29607326 -1.7372088 0.84845185 0.67577994 -0.44029385 -1.1641972
-0.4446656 0.13765396 -0.21417557 -0.119790904 0.5953294 -1.6714493 0.76410174 0.27982244
0.3502458 1.0265286 1.369316 1.3106494 1.2678807 1.7551706 -0.5608578 -1.9377352

submodules.latents_pred.0.bias f4 [12]
00000000: b4a2 01be b3d6 00be 905b f73d f969 c0be
00000010: 003c d1be ec5a 403f 9561 0d3d 9580 13bc
00000020: 9442 eb3d 7136 353e 1a0d 94be fe38 90bd
-0.12659723 -0.12581901 0.12078011 -0.3758085 -0.4086609 0.75138736 0.03451689 -0.009002824
0.11487308 0.17696549 -0.28916246 -0.070421204

submodules.etm_pred.0.weight f4 [7, 18]
00000000: e53b 40c0 03d2 1dc1 6087 fdbf 9cb5 52c0
00000010: d4cc a9c0 090d 1ec0 0475 963f cc8b b540
00000020: 0941 06c1 6683 f8bf e6f6 2a40 22b9 4f40
00000030: a8de 84be 565e 0040 18a1 da3f 7d97 8b3e
00000040: a36c 8cbf 07d5 5140 8e35 ed3f 1d37 bebf
00000050: 6f07 f1bf b796 c0c0 57ec b040 fd81 0b40
00000060: 13d6 85c0 30a0 26c1 78fb 4840 df78 11c1
00000070: 6b38 13c0 90c7 e9be bcfa f240 6c44 a1c0
00000080: 6924 1bc1 1b3c d9c0 a498 8ebf 62f0 30bf
00000090: 54da e63e deb2 ec40 bf2d 79c0 f7d6 5dc0
000000a0: 7225 ef40 439c a9c0 b1e4 943f becb 3d3f
000000b0: f5be 7b40 ae41 4341 bee4 883f f00b ea3f
000000c0: c555 65c0 1900 f73f e71a 8d3f 8dc1 4b3f
000000d0: 4810 2ebe 971d 323f 8160 49c1 8159 873f
000000e0: 7281 873f 298e 0b41 e135 cabe a61c 3540
000000f0: 7a47 f73f 5d78 34bf 2c79 a4c0 4931 cb3f
00000100: ffd0 3e3f 1ae1 1041 21dd 94c0 5a82 30c1
00000110: 9b23 0fc0 503b 70c0 b218 ab40 ecb6 f4c0
00000120: 9b0e 5ec0 6cdc eb3f 4992 4c3f 9b61 ef3f
00000130: 5f8c 9cc0 3445 b1bf 0cf1 2e40 1d8e 2ac0
00000140: e3cd 5741 b71c f23f 7ede f6c0 ad71 08c1
00000150: 380f 03c1 7b8b 8abf 775d a9bf 6b5a bcbf
00000160: bff0 26c1 852b 993f 4600 d5c0 d830 413f
00000170: 718d 09c0 2f76 8240 9051 6dbf a0f7 3740
00000180: 1e89 99c0 c3bd e340 46cd 9140 87b2 3cc1
00000190: 6e97 5c41 848f 31c1 a2d5 b7bf 4cd9 9a40
000001a0: 4aa3 20c0 c7ed f240 49db 9140 3a31 423f
000001b0: 6d62 0941 cb4d d040 ec5a 0641 da02 8f3e
000001c0: 9e2d 81c0 c6f0 963f 1a73 17be dd48 a3be
000001d0: db61 9cc0 d23c 3340 2435 afc0 de52 08c0
000001e0: e7dd b33f ebf1 c440 bb55 e740 1b95 d23f
000001f0: 0e99 0041 6368 963e
-3.0036557 -9.863772 -1.9806938 -3.2923346 -5.3062534 -2.4695456 1.175446 5.673315
-8.390878 -1.94151 2.6713195 3.2456746 -0.25951123 2.0057578 1.7080412 0.27264014
-1.0970653 3.2786272 1.8531969 -1.4860569 -1.8830394 -6.018398 5.52885 2.1798089
-4.182382 -10.414108 3.1403484 -9.09201 -2.3003185 -0.45660067 7.593107 -5.0396023
-9.696389 -6.788587 -1.1140332 -0.69116795 0.45088446 7.3968344 -3.8934171 -3.4662454
7.473321 -5.300325 1.1632291 0.7413901 3.93353 12.203535 1.0694807 1.8284893
-3.58336 1.9296905 1.1023835 0.7959221 -0.16998398 0.695764 -12.586061 1.057419
1.0586379 8.722207 -0.3949423 2.8298736 1.9318688 -0.7049616 -5.1397915 1.5874416
0.7453765 9.054956 -4.6519933 -11.031824 -2.2365482 -3.7536201 5.3467646 -7.6473293
-3.4696414 1.8426642 0.79910713 1.8701662 -4.892135 -1.3849244 2.7334623 -2.664924
13.487765 1.8915013 -7.7146597 -8.527753 -8.1912155 -1.0823816 -1.3231648 -1.4715093
-10.433776 1.1966406 -6.6562834 0.75465155 -2.149258 4.0769267 -0.9270258 2.8744888
-4.797988 7.1169143 4.556308 -11.793586 13.78697 -11.097538 -1.436207 4.8390255
-2.5099664 7.5915256 4.558018 0.75856364 8.58653 6.509496 8.397198 0.27931863
-4.0368185 1.1792228 -0.14790002 -0.31891528 -4.8869452 2.8005872 -5.475237 -2.1300578
1.4052094 6.154531 7.229215 1.6451753 8.037367 0.29376516

submodules.etm_pred.0.bias f4 [7]
00000000: 1d6a 10c0 f54a 3740 4226 1940 b11d 65c0
00000010: 7480 273d de50 a83f d53d 7ebf
-2.2564766 2.86395 2.39296 -3.5799372 0.040893987 1.3149679 -0.993131

submodules.htm_pred.0.weight f4 [4, 18]
00000000: e417 1dc1 6527 ffbf 5021 9ebf e1e9 2bc1
00000010: a817 6a40 f9f1 15c0 1302 bb3f 0181 fcbf
00000020: 0f95 ae40 9ce0 2340 5851 0e40 a685 e340
00000030: 66f2 18bf 29b8 00c0 f1ef 593f 2560 05c0
00000040: 93e1 1341 dd3c cdbf 5859 0341 8bba 11c1
00000050: 037c f6c0 56dd 5340 d95c b840 8bae 74c0
00000060: 7ff3 5bc0 ac07 15be cf71 40bf d188 6d3f
00000070: 49a5 43bf 41c8 923f 86db c040 9ddc 853f
00000080: c2d5 e5bf 5479 9ac0 8c05 dec0 d27b f740
00000090: b064 b93f cc71 bb40 348b b640 2dea 86c0
000000a0: 3911 33c0 8096 1f3f cd9d 5740 1709 72c0
000000b0: 2578 13c1 e0ba 593f 374b 7440 c5ad acc0
000000c0: ffb4 d8c0 3450 2e40 037a 05bf f960 eb40
000000d0: 8511 0ec1 b3b1 11bf 6a51 4fbf 40a1 eb3f
000000e0: c422 6140 704c 3f41 bf1a 86c0 54bf 7f40
000000f0: 971e e8bf a344 8640 137a 1741 c778 82c0
00000100: 2628 95c0 c42b 48c0 eabe 1d3f aa56 3ac0
00000110: c9da ab3f 25d8 3fc0 b4ff 1741 0c22 87c0
-9.818333 -1.9933897 -1.2353916 -10.744599 3.6576939 -2.3428938 1.4610008 -1.9726869
5.4556956 2.560584 2.2237148 7.1100645 -0.5974487 -2.0112402 0.85131747 -2.0839932
9.242572 -1.6034199 8.209312 -9.108043 -7.702638 3.3103843 5.761334 -3.8231533
-3.4367368 -0.14553708 -0.7517366 0.9278689 -0.7642408 1.1467363 6.0267973 1.0457951
-1.7955859 -4.8273106 -6.938177 7.733865 1.4483852 5.857641 5.7044926 -4.216086
-2.7979262 0.6233902 3.3690064 -3.7818048 -9.216832 0.85050774 3.8170907 -5.396212
-6.7720942 2.7236452 -0.521393 7.3555875 -8.879277 -0.5691177 -0.80983603 1.8408585
3.517747 11.9561615 -4.190765 3.9960527 -1.8134335 4.1958785 9.467303 -4.0772433
-4.661151 -3.1276712 0.61619437 -2.9115396 1.3426143 -2.9975674 9.4999275 -4.222906

submodules.htm_pred.0.bias f4 [4]
00000000: b559 a13f 2806 44bd 7355 80bf b342 24bf
1.2605501 -0.047857434 -1.0026077 -0.64164275

exp_avg f4 [18, 23]
00000000: 3ec4 d33d 3613 8d3d f115 f0bd 8939 2abe
00000010: 1c58 14be de3f 4c3e 9bd0 d6bd 0299 08be
00000020: 8230 18be b925 383e 20b0 37bd 69be 1d3e
00000030: 2d1e c6bc e8bc a53d 2bbf e4bb 2bed 8e3c
00000040: e70a 783d c7f2 efbc 6adf 3abb 2876 4d3d
00000050: a66d 4abc b1d8 473d 3761 3b3c 275c 2abe
00000060: 4c32 05be d116 323e fb1d e3bd 6b23 b7bd
00000070: b91f 053e 5af9 303e 32e0 98bd 20bd 3abd
00000080: b665 6c3d 9229 1bbe 5ed0 353d 5b14 cf3c
00000090: e79f 62bd ad1d 1ebc 9d75 3f3b 33da 29bc
000000a0: 5f1e 08bd d53d fcbd 3ca3 c7bc 2a9c 54bc
000000b0: ff9e c8bc 4946 07be a669 95be d0bf 7ebe
000000c0: 153c a63e dec5 c6bd 4fb9 8bbd 45d2 f43d
000000d0: 3a23 a33e 43dd b3bd 53cb 81be fa4d 893e
000000e0: 6453 96be 9935 863e 8533 e03c 08d7 ab3d
000000f0: e226 c03d 27eb 39bb 0a98 3e3d 6570 c93c
00000100: 6824 24be 0163 2e3d 442b 1e3e fd05 a1bd
00000110: efd4 7bbc 7999 cbbd d378 b5bd eb37 e03d
00000120: 6b0d 03be 534d dabd 7b36 1b3e 5947 cb3d
00000130: 01f1 1fbe e11c 1dbe 1b44 2e3e 02ba 08be
00000140: fefe 233e 14c9 30bc 4c77 ba3d 0359 363d
00000150: 91d4 433b 3174 1dbd 32fe 5cbc 3a27 3b3b
00000160: e308 333d e92c a33d 1242 793d 325f bebd
00000170: 87bf 903d a8d3 153d 3af3 c1bd 3f85 9cbc
00000180: aad4 94bc bb74 f73c 29a3 9dbd 95b1 01be
00000190: 379d 5abd 0bd6 133d 2b9e 2c3d 6e7a 5a3d
000001a0: 4df2 343d 5dc4 f53d 0498 aeb9 c34c 24ba
000001b0: 6284 a63c d7d0 003e f32a cf3d 6dcb 113d
000001c0: 8d83 0f3e 5dd1 5dbd 5abe 813e 999b dfbe
000001d0: 9edc b4be 4b39 003f 3fad 8cbe c654 7abe
000001e0: cb82 9f3e 973e f33e 33f6 a1be 3661 44bd
000001f0: 79f2 b63d 4488 96be c8a8 563d 012d 663d
00000200: b239 b03d a89e 4a3d 8205 36bd 0795 a1bd
00000210: 9581 aabd 659b 2dbe 86fd dbbc 5d74 5c3e
00000220: 25b0 1b3c f94f cdbe acff 13be 8571 17be
00000230: a401 143e aa90 9abe a298 86be 1395 ac3e
00000240: 02ed 193e c4ee 84be 506d 68be 15e1 843e
00000250: 0bda 76be 1517 6f3e 12cc 5ebd 47de 78bb
00000260: 5015 c03a cbfa 993d 122c a53a a2cb b6bd
00000270: 4120 9fbe 4706 79bd 4124 b13b 9a0a 58bd
00000280: d14d 8bbe 099e f63d f182 a73d 58e8 13be
00000290: 7f83 903d 3c4c 6b3d 867c 6fbd 3dbd 08be
000002a0: 74c0 05bd e15d 313d 45fe 5dbd d3e9 063e
000002b0: ddf3 34bd 2754 cabb 0072 4b3d 03b3 92bc
000002c0: 28eb f7bb 4b9d a6bc e8e5 98bd e649 263d
000002d0: 0c9b 09bc 26de 963c 8600 4f3c 3336 8abd
000002e0: d095 a2bd c454 63bd 1e92 aa3d aba6 703e
000002f0: dbaf 623e 65a6 63be a14b a83d 47f6 eb3d
00000300: 608d 9f3b 34e1 d2bc c8fe 533d 7fe7 21bb
00000310: f3fc 183a e6d7 9abd d601 99bc 7cfd 703c
00000320: ea7a 4f3c d875 abbc 9efc c83c dea0 2fbd
00000330: 1976 31bd 4b6e 053c 0fda d63c 4e72 e53d
00000340: a11b e83d 11f4 fabd 9942 153d 7451 573c
00000350: 8f34 8fbd 5acd f2bd b3db 343e 72a6 d33d
00000360: 1b2f 04be e7a9 5c3d 7d3d e5bd 0349 083b
00000370: 5543 2dbd d884 04bd 9368 cc3c d136 c63c
00000380: bd22 443d 9fe0 473d a28e f5bc f450 6fbd
00000390: a47d 2dbd 5db7 443e 1848 7dbd 671c 25bd
000003a0: 2765 b03d c249 d73d af0b ea3d 1483 a2bd
000003b0: 8532 9b3d 2538 e83b 5536 d9bd 4df6 f13d
000003c0: 3fcc a5ba 223f dd3d 4aae 13bd 5ce2 a33d
000003d0: 49db 883d 1baf 013c d063 503d c4a4 513d
000003e0: ed0a c73c 63a3 b93c ab3f ae3d 7dcf 6d3c
000003f0: 85ee f43d 792a 8f3d 8900 c43d eee8 7abd
0.103401646 0.0688843 -0.11722935 -0.1662351 -0.14486736 0.19946238 -0.10489007 -0.13339618
-0.14862254 0.1798314 -0.0448457 0.15404667 -0.02418431 0.08092672 -0.006980797 0.017447075
0.060557272 -0.02929057 -0.0028514513 0.05016151 -0.012355244 0.048790637 0.011436752 -0.16636716
-0.13007468 0.17391516 -0.11089703 -0.08942302 0.13000382 0.1728262 -0.07464637 -0.04559052
0.057714187 -0.15152577 0.044388168 0.025278261 -0.055328276 -0.00965063 0.002921439 -0.010366964
-0.03323209 -0.12316481 -0.024369828 -0.012976686 -0.024489878 -0.13210405 -0.29182166 -0.24877858
0.32467714 -0.09705709 -0.06822454 0.11954168 0.31862813 -0.08782437 -0.25350437 0.26817304
-0.29360497 0.26212767 0.027368316 0.08390623 0.09382416 -0.0028368921 0.046531714 0.024589727
-0.16029513 0.042574886 0.15446192 -0.0786247 -0.015370592 -0.09941382 -0.08860936 0.109481655
-0.12798087 -0.1065928 0.15157501 0.09925718 -0.1561928 -0.15343048 0.17018168 -0.13352206
0.1601524 -0.010790128 0.09104785 0.044518482 0.0029881338 -0.038440887 -0.013488339 0.0028557316
0.043709647 0.0796755 0.060854025 -0.09295501 0.07067781 0.036578804 -0.0947022 -0.019106505
-0.018167812 0.030207029 -0.07697136 -0.12665398 -0.053372588 0.0360928 0.04214303 0.053339414
0.04417639 0.12000344 -0.00033301127 -0.0006267542 0.020326797 0.12579666 0.10115614 0.035594393
0.14015026 -0.054154743 0.2534054 -0.436734 -0.35324568 0.5008742 -0.27475926 -0.24446401
0.31154475 0.4750869 -0.31633148 -0.04794427 0.08932967 -0.29400837 0.052407056 0.056195263
0.086047545 0.049467713 -0.044438846 -0.07889753 -0.08325497 -0.1695381 -0.026854288 0.21528764
0.009502445 -0.40100077 -0.14453 -0.14789398 0.14453751 -0.30188495 -0.26288325 0.33707485
0.15031818 -0.25963414 -0.2269795 0.25952974 -0.24106614 0.23348649 -0.054393835 -0.0037974284
0.0014654789 0.07518538 0.0012601635 -0.089255586 -0.31079295 -0.060797002 0.005405933 -0.052744485
-0.27207807 0.120418616 0.08179272 -0.14444101 0.07056331 0.05744575 -0.058468364 -0.13353439
-0.03265424 0.04330242 -0.05419757 0.13175134 -0.04417788 -0.0061745825 0.049669266 -0.017907625
-0.0075658746 -0.020338675 -0.07465726 0.04059782 -0.008398782 0.018416476 0.012634402 -0.06748619
-0.07938731 -0.05550076 0.08328651 0.23501079 0.22137396 -0.22231443 0.0821755 0.11521583
0.004869148 -0.02574215 0.05175665 -0.0024704633 0.0005836032 -0.075607106 -0.018677633 0.014708873
0.012663582 -0.020930216 0.02453452 -0.042878024 -0.043325517 0.008143972 0.026227025 0.112034425
0.11333395 -0.12253583 0.036440466 0.0131419785 -0.06992447 -0.11855574 0.17661934 0.10334481
-0.12908594 0.05387297 -0.111933686 0.0020795472 -0.04230054 -0.032353252 0.024952209 0.02419606
0.04788469 0.0487982 -0.02997524 -0.058426812 -0.04235615 0.19210573 -0.061836332 -0.04031029
0.08613043 0.10512115 0.1142801 -0.079351574 0.07577995 0.007086771 -0.10606066 0.11814556
-0.0012649371 0.10803057 -0.036054887 0.08002159 0.0668245 0.007915284 0.05087644 0.051182523
0.024297202 0.022660917 0.085082375 0.014514801 0.119595565 0.06990523 0.095704146 -0.061257295

exp_avg_sq f4 [18, 23]
00000000: 5f95 0a3e f90f 9a3d d21a 323e e1da a33e
00000010: cd72 963e ebef b43e 79e7 1e3e f862 bd3e
00000020: 3a97 a93e 818e a63e f5c1 523e 6f10 a83e
00000030: 2c95 673d 3acf 593d a240 5a3d 6138 ab3c
00000040: a5e2 983c e58d ea3c 9fd4 aa3d c4bc 8b3d
00000050: cb69 a93d 33a5 e23c 5162 143e 9cc8 033e
00000060: a56f a53d 6d86 193e 434a 573e 3d23 373e
00000070: 1a99 803e 1014 113e f9f1 8e3e cf47 603e
00000080: 9b6c 543e 5b98 103e 5f23 5b3e 985b 073d
00000090: 3b2d 613d ee22 de3c 52d7 143c 2f26 de3c
000000a0: 8994 ac3c ef48 7b3d dec3 cf3c 41d7 a93d
000000b0: e560 463c b609 f63d acf4 6740 cf39 0340
000000c0: 129d 8140 94c4 823e e342 7a3e 304c 9b3e
000000d0: 55e6 7e40 5513 383f f8f5 7a3f 4750 533f
000000e0: fbf4 0540 cb2c 733f e259 413e 752d 2d3d
000000f0: f820 543d 7549 3c3d a787 ac3c 421f 233d
00000100: 66bc b63d a834 0d3d 4831 7e3e 7fe1 bf3c
00000110: e18d 393e a9ef 773e fef7 0d3e 97f8 913e
00000120: 1d14 943e 02da b53e 52af 553e 5abf 893e
00000130: 447e 373e 2f72 3a3e e4e4 373e 0102 a53e
00000140: 44f4 393e 73e4 783c 2cd3 4f3d 96a3 033d
00000150: 0104 a23b 3b9f ca3b d989 303c cff2 263d
00000160: ccea 833d 68c1 083d 7aa2 453c 393a 5b3d
00000170: 9504 4e3e e211 043e 5bd3 633e 9376 153f
00000180: 5912 123f 115a 173f 30c8 623e f810 023f
00000190: 96be a23f b4fa 8d3f 7891 093f 253e 9f3f
000001a0: 52a6 083d 53bc 943d 842f 963c 08cb 1c3d
000001b0: 8d44 863d 8731 373e ca05 743e c802 953c
000001c0: 427d b33d a81f ae3d 799a eb3e c198 593f
000001d0: b314 133f db50 853f 535b 3d3f abaf 1f3f
000001e0: 249b 7f3f 4a1c 733f ca70 2c40 e2bd 273f
000001f0: d808 383f 2c9c 103f c702 2c3f 6580 553e
00000200: 56ce 3c3d 559a 2a3d 0d0b 8b3d e391 b83c
00000210: cafc 8b3e 8e32 103f 6b7b 103c 2617 883e
00000220: d7f1 953d 6e82 6f3f 491c c83d 16c1 d83d
00000230: c57d cb3d c9f7 1d3f e9b3 ff3e a763 453f
00000240: 0a6c d73d 42e8 5e3f 3fe1 3d3f bf65 543f
00000250: a9bd 903e 0717 443f 33f6 763c c6c6 9d3d
00000260: c7b7 753d 9dd3 033e 586e db3c be43 9d3d
00000270: a9bc ea3e 90b2 c73d 33d7 883c c842 4f3d
00000280: d279 363f 2434 da3d 885a 8a3d f4bf fe3d
00000290: a9b0 553e 1f0f 593e 359d 4c3e 19ea ef3d
000002a0: 4b06 493e bc59 bb3d fdcc e53d 6190 073e
000002b0: 6909 c53d 88cb 3e3c 13d1 b73c 94e8 773c
000002c0: c6eb 8a3c 4ff5 4c3c 701e 1e3d bd29 113d
000002d0: 2532 833c 8ba0 de3c 48cc 943c 5a5c d73d
000002e0: 1a30 293e 246c e03d 0559 413e 3521 df3e
000002f0: 7a86 013f 6ac4 a43e 7198 393e 86c6 6c3e
00000300: 319d 6a3e 508a 5a3e 9ce1 ab3e 6a27 693e
00000310: 7481 603c 5248 e93c ef49 2d3c 67cc 883c
00000320: cfed ac3c 9e43 c73c 94ba 543d 39c5 7c3c
00000330: 9b9d 003d e327 4b3c b91c ec3d a1ee d53d
00000340: 3b03 863d 7e05 023e 0129 a23e d681 af3e
00000350: 3f8a 8e3e d4f0 ee3d 8c50 7d3e 3042 923e
00000360: fca6 8a3e f1b8 623e e08c 913e a9da 693c
00000370: d53b 5c3c 1ece 6f3d c50e 463c eca0 9f3c
00000380: f07d 7b3d f5c0 783d 1452 453d 7e51 f73c
00000390: 6414 363c 4545 223e 9192 673e d473 1c3e
000003a0: c3c8 863e 4f44 c13e d3e8 c83e 2035 bd3e
000003b0: 8cb6 7e3e ec13 213f 4127 793e c0d2 823e
000003c0: f366 893e 3ab2 7d3e 38c7 0f3d f00d 383d
000003d0: ab9f 3e3c e314 ad3c f885 fc3c 7254 bf3d
000003e0: 0366 f03d 87f9 253c cb3f a23d 1ba6 9f3c
000003f0: 7740 863e 2c22 3a3e f9ec 133e 8d35 5a3e
0.13533543 0.07522578 0.17393044 0.3200293 0.2938446 0.35339293 0.15517987 0.3698957
0.3312319 0.32530597 0.20581801 0.32825038 0.056538746 0.053176142 0.053284295 0.020900907
0.01866276 0.028632114 0.083413355 0.068231136 0.082721315 0.027666664 0.1449063 0.12869495
0.08077935 0.14992686 0.21024422 0.17884536 0.25116807 0.1416781 0.27918985 0.21902393
0.20744555 0.14120619 0.21400212 0.033046335 0.054974776 0.027116265 0.0090845395 0.027117817
0.02106692 0.06134885 0.025361951 0.082930095 0.012108062 0.12013571 3.6243086 2.0504034
4.0504236 0.25540602 0.24439578 0.30331564 3.9828084 0.719045 0.9803157 0.8254437
2.0930774 0.94990224 0.18881944 0.04227968 0.051789254 0.04596849 0.021060778 0.03982473
0.08922653 0.034474045 0.24823487 0.023422955 0.18120529 0.24212517 0.13864133 0.28509971
0.28921595 0.3551789 0.2086766 0.26903802 0.1791926 0.1820762 0.17958409 0.3222809
0.18159586 0.015191185 0.0507385 0.03213843 0.004944325 0.0061835325 0.010775053 0.040758904
0.06441268 0.03338757 0.012062663 0.053522322 0.20118935 0.12897447 0.22248594 0.58384055
0.57059246 0.59121805 0.22146678 0.5080714 1.2714412 1.1092134 0.5373759 1.244084
0.03336174 0.072624825 0.018333204 0.038279563 0.06556044 0.17889987 0.23830333 0.018189803
0.087641254 0.08502132 0.4601629 0.8499871 0.5745346 1.04153 0.73967475 0.62377423
0.998461 0.9496504 2.694384 0.65524113 0.71888494 0.564883 0.6719174 0.2084976
0.046095215 0.04165109 0.06789217 0.022530502 0.273413 0.5632714 0.008818488 0.2658016
0.07321518 0.93558395 0.0977102 0.10583703 0.09936098 0.61706215 0.49941948 0.7710518
0.10518654 0.8707315 0.74171823 0.8296775 0.282697 0.76597637 0.015073347 0.07703929
0.059989717 0.12873693 0.026786014 0.076789364 0.4584706 0.09750855 0.016704177 0.050600797
0.71279633 0.10654476 0.06755549 0.12438956 0.20868172 0.21197174 0.19981845 0.117145725
0.19631307 0.09147975 0.11220739 0.1323867 0.096209355 0.011645205 0.022438562 0.015131135
0.016958129 0.012509658 0.038603246 0.035440195 0.016015122 0.027176162 0.018163815 0.105156615
0.16522256 0.10958126 0.18881615 0.43580022 0.5059582 0.32181102 0.18124558 0.23122606
0.22911526 0.21341825 0.33570564 0.22768942 0.013702739 0.028476868 0.010576709 0.01669903
0.02110949 0.024324235 0.051935747 0.015427881 0.031400304 0.012399646 0.11528916 0.104459055
0.06543585 0.12697408 0.31671908 0.34278744 0.27839848 0.11667028 0.24737757 0.28566122
0.27080524 0.22140862 0.28427792 0.014273324 0.013441999 0.058546178 0.012088482 0.019485913
0.0613994 0.060730893 0.04817398 0.030190226 0.01111326 0.15846737 0.22614504 0.1527856
0.26325044 0.37747428 0.3924013 0.36954594 0.24874324 0.62921023 0.2433138 0.25551414
0.26836357 0.2477502 0.0351021 0.044935167 0.0116347475 0.021128124 0.0308256 0.093422785
0.11738207 0.010130293 0.07922324 0.019488385 0.26221058 0.18177098 0.14445867 0.2130949

exp_avg f4 [18]
00000000: a55e bf3d 7262 47be 6153 f93d ad54 973d
00000010: dd76 c83e 4af0 4fbe eb29 c2be 325b d8bc
00000020: 284f 54bd 0394 6e3d be15 753e 46b6 063e
00000030: df7d b53d dd36 573c 0cf1 433e 82ba 2dbe
00000040: 3cb9 8d3d f169 c93e
0.09344224 -0.19471148 0.121741064 0.073891975 0.39153185 -0.20306507 -0.37922606 -0.026410673
-0.0518333 0.058246624 0.23934075 0.1315547 0.08861899 0.013135639 0.19134921 -0.16965678
0.06920096 0.3933864

exp_avg_sq f4 [18]
00000000: dbfb b33e 506d 823e 0aaf 033f bf2f 2f3e
00000010: 64d5 2e3f a344 a93f 494d 653f 17da 323e
00000020: c514 3a3e 263d 753e fcc1 c93e 5125 fa3e
00000030: b82a f53e 4656 a53e 5f12 0a3f 6b30 0c3f
00000040: edfd 1e3e 755e 5b3f
0.35153088 0.25474024 0.51438963 0.17108057 0.6829436 1.3224071 0.8957105 0.17466007
0.18171985 0.23949108 0.3940581 0.48856595 0.47884154 0.32292384 0.5393428 0.5476138
0.15526552 0.85691005

exp_avg f4 [100, 18]
00000000: 8914 8cbb 34e8 c6ba 9658 c93c 75b1 9c3b
00000010: c60c 043c 8b75 21bc 4a85 9fbb 3dbd 89ba
00000020: 0586 bd3b bae5 6639 9380 ab3b c8ed 00bc
00000030: 7f08 8bbb 733f 74bb 3c40 8bbb f57d 423b
00000040: ad69 173c 96c2 b53b b4b0 9d3b 5599 21ba
00000050: 95e4 7ebc 583f 61bb 4a0a bcbb 680b 993b
00000060: 4925 bd3b cd8b dcb9 6355 74bb 62b4 aebb
00000070: 4a81 54bb ece9 573b df11 d93a 8530 0bb9
00000080: 4b4b 6cb9 23ef 9aba 3cd0 4bbb d841 53bb
00000090: f62b f639 bf4c c8b8 b465 b6ba 5d91 bbb9
000000a0: f70b f3b9 08b9 073a cf12 ce39 c50f 64b9
000000b0: eb0f aab9 9679 23ba fd7a c7b9 86b7 5a39
000000c0: 72bb 7439 fe6b 34b9 feff 1eb8 b2b3 a8b7
000000d0: a59e adb9 2f41 9db9 a55b 6639 5cda 9d3a
000000e0: f661 a5ba 30a4 663a c341 b8ba e9cb ae3a
000000f0: a3ec f43a bb78 1a3a 5bfb c037 a92b 99ba
00000100: 082e b539 1f2c 273a 0132 d0b9 2677 ad3a
00000110: 745f 103a 0721 9aba 136c 6339 2dc1 22ba
00000120: 53c5 d5ba 4250 eeba 779b 943b 31bc b0ba
00000130: d7d8 813b 59f9 77bb a084 38bb fc72 28bb
00000140: af2f d53a 895c d83a 76db 253b 3dba 94ba
00000150: d9ff 04ba de8f b5ba 3793 a8ba ca34 2c3a
00000160: 6775 0fb9 d7f5 333b d26c adba a9c7 1aba
00000170: 9b33 183c 5fd1 753a 933d 6b3b 2c1f 95bb
00000180: 8f0c 24bb 98ef 55ba 470f 973a eb95 313a
00000190: 89f3 263b 6fd8 18bb 81b7 26ba ddf8 aaba
000001a0: 2ff1 18bb 46ee 723a 73be 5e3b d6ec 303b
000001b0: 5d81 2939 95da 8b3a 56f5 75ba 92e3 923a
000001c0: 2ae7 d9ba 0d88 ce38 df70 f33a 1e6f 593a
000001d0: ea90 3839 bd69 a9ba a775 5c3a a5e9 493a
000001e0: 7b32 e2b9 8952 e13a 6e88 f637 3519 74ba
000001f0: 4399 1039 89fa 23ba 0826 243a 639e 353b
00000200: 9946 3fbb 583d c73a 3b77 1abb ea68 623b
00000210: 1982 a03b 5773 d23a 0c99 35ba 33dc e1ba
00000220: ef9b c939 9566 c53a a81a b8ba 5a3f 503b
00000230: 0f75 ee3a 4756 78bb a4b5 9438 d32c d1b8
00000240: e59d 823a 077b 8139 8591 023a f3d4 8d37
00000250: 4635 61ba 6390 57b9 a96c 0b3a 5974 5439
00000260: 02eb ea38 ee8a 95b9 d8ea e0b9 e6d6 53ba
00000270: a880 9ab9 4325 8839 5376 60b9 b7e8 153a
00000280: e242 9b39 541a 4bb9 1fae 1db9 c854 eb39
00000290: c7b1 f6b9 9d88 b839 e587 76ba 60d2 f738
000002a0: c287 1a3a 6915 0b3a d69a 82b9 6d7e 7cb9
000002b0: 45cc 0aba 8096 bc39 ac2d 09b6 a120 8db9
000002c0: 8d4c 22ba 3d71 a2b8 e697 8b39 3072 2dba
000002d0: 2b9d 0bbb 5c7e 9dbb 116f 703b aa6b 57bb
000002e0: be68 f13b 37bd a9bb 85ff c8bb d4b2 a6bb
000002f0: 6d26 073b 21d5 6d3b 2a6d 853b d42e 0cba
00000300: e5f6 1d3a 8109 d9ba 84b2 08b8 79e2 aa3a
00000310: d37d 03bb 21af 8a3b 37ef 30bb a41d 5abb
00000320: 3e20 a63b bb60 e9ba 6ec7 c23b e0f8 98bb
00000330: 3d3c b7bb c63a 61bb d716 f23a 93d5 613b
00000340: 9dbb 563b 2b7d 5dba 2f18 0237 1edf bcba
00000350: 92cf 9fb9 5366 973a 1a4a f2ba 2b9e 753b
00000360: 2d3d f5ba e3be 34bb 68fd bd3b 60d0 cfba
00000370: d265 b13b ae21 9bbb 8e79 84bb ac7b 67bb
00000380: 9e9a e43a de4c 313b b3c9 523b e82e 87ba
00000390: eb9b b2b9 37d3 bfba 1a49 4eba b618 473a
000003a0: 363e 34b9 60c7 5f3b 88f8 03ba 923f 4cba
000003b0: 44ba 193c 49a7 5f3a 074c 883b c1c2 81bb
000003c0: 23eb e7ba f4f9 02bb f3d8 f23a 3fb9 973a
000003d0: 85bd 3b3b 5dae 34bb 1885 caba b973 68ba
000003e0: 2d09 b6b9 7584 8b3a a66b 553b 8004 253b
000003f0: 0c2c 30bb 0fb8 44bb 939e c03b 31df a1ba
-0.004274909 -0.0015175403 0.024578374 0.0047818967 0.008059686 -0.009854685 -0.004868184 -0.0010508668
0.0057837986 0.00022020089 0.005233833 -0.0078691915 -0.004242956 -0.0037269264 -0.0042496007 0.0029677127
0.009241504 0.005546878 0.0048123244 -0.0006164511 -0.015557428 -0.0034370031 -0.0057385312 0.004670549
0.005772267 -0.0004206583 -0.003728234 -0.005331562 -0.0032425695 0.0032945825 0.0016561112 -0.00013274148
-0.00022534763 -0.0011820536 -0.003109946 -0.003223529 0.0004695353 -9.551038e-05 -0.0013915808 -0.00035775724
-0.00046357486 0.0005177413 0.00039305395 -0.00021749649 -0.00032436787 -0.0006236074 -0.0003804787 0.00020858468
0.00023339482 -0.00017206368 -3.7908547e-05 -2.0110838e-05 -0.0003311533 -0.0002999394 0.0002196865 0.0012043226
-0.0012617696 0.00087982696 -0.0014057684 0.0013335916 0.0018686246 0.0005892624 2.300523e-05 -0.0011685985
0.00034557306 0.0006377119 -0.00039710107 0.0013234362 0.00055073877 -0.001175911 0.00021688668 -0.0006208595
-0.0016309418 -0.0018181878 0.0045351344 -0.001348382 0.003962617 -0.0037837832 -0.0028155223 -0.0025703302
0.0016264821 0.001650707 0.002530781 -0.0011347007 -0.00050735247 -0.001385208 -0.0012861256 0.00065691455
-0.00013681279 0.0027459764 -0.0013231284 -0.00059043855 0.009289647 0.0009377207 0.0035894855 -0.004550835
-0.00250319 -0.00081610074 0.0011524939 0.00067743537 0.0025474748 -0.0023322364 -0.00063597417 -0.0013044138
-0.0023337116 0.0009267073 0.0033988028 0.0026996634 0.00016165288 0.0010670001 -0.0009382566 0.0011206737
-0.0016624678 9.848187e-05 0.0018573067 0.0008294451 0.00017601592 -0.0012925189 0.00084098655 0.0007702357
-0.0004314369 0.0017190735 2.9389015e-05 -0.00093116175 0.00013790005 -0.0006255289 0.00062617706 0.0027712814
-0.0029186367 0.0015200777 -0.0023569602 0.0034547397 0.0048983213 0.0016056102 -0.0006927408 -0.0017231762
0.00038453887 0.0015060479 -0.001404603 0.0031776042 0.0018192845 -0.0037893222 7.091023e-05 -9.974246e-05
0.0009965269 0.0002469646 0.00049807905 1.6907672e-05 -0.0008591007 -0.00020557786 0.0005318621 0.00020261238
0.00011201763 -0.00028523005 -0.00042899582 -0.00080810336 -0.00029469025 0.00025967704 -0.00021406384 0.0005718576
0.00029613735 -0.00019369397 -0.00015037552 0.0004488586 -0.0004705323 0.00035197 -0.0009404405 0.00011817063
0.0005894863 0.00053056196 -0.00024910894 -0.0002407969 -0.0005294721 0.00035970286 -2.0441175e-06 -0.00026917926
-0.00061912165 -7.745854e-05 0.0002662532 -0.00066164415 -0.0021303396 -0.004806323 0.0036687294 -0.003287057
0.0073672226 -0.005180027 -0.006133976 -0.005087236 0.0020622269 0.0036290365 0.0040718513 -0.0005347554
0.0006025865 -0.0016558619 -3.2591182e-05 0.0013037465 -0.002006401 0.004232303 -0.0026998052 -0.0033281827
0.0050697615 -0.0017805317 0.005944184 -0.00466834 -0.0055918978 -0.0034367307 0.0018469942 0.0034459576
0.0032765635 -0.00084491324 7.7542345e-06 -0.0014409756 -0.00030481495 0.0011550881 -0.0018485219 0.0037478309
-0.0018710248 -0.0027579598 0.0057980306 -0.0015854947 0.0054137493 -0.0047342395 -0.0040428108 -0.0035321517
0.0017441099 0.0027053873 0.003216368 -0.0010313662 -0.00034066974 -0.001463509 -0.00078691693 0.000759493
-0.00017189313 0.0034145936 -0.00050342875 -0.0007791455 0.009382788 0.00085317023 0.004159454 -0.003959984
-0.0017693978 -0.001998541 0.0018527791 0.0011575593 0.0028646898 -0.002756975 -0.0015451042 -0.00088673417
-0.00034720582 0.0010644334 0.0032565384 0.0025179684 -0.0026881723 -0.0030016934 0.0058782785 -0.0012349841
