runs/perovskite_multiscale_dataset_3/ae2_PCE_predictor_enc_l_18_l1_1em2_tanh_predictor_0_1_100_relu_decoder_linear_seed_0_lr_1em3_bs_100_e_1500_pass_latents_ae1_fold_0_ae2_fold_1_xavier_normal_gain_10/checkpoints/last.ckpt (torch, 54674 bytes, 33 tensors)

submodules.encoder.0.weight f4 [18, 23]
0.11841491 -0.0022835515 -0.005871463 0.0015875394 0.0022365684 -0.0012276794 -0.0027978006 -0.003076511
-0.0011552897 0.01809844 0.0597414 0.0012682056 0.00284963 -0.0032877962 8.002008e-05 0.0056033027
-0.00855033 -0.0023345165 0.11409589 -0.07973271 0.1680163 -0.0010363923 -0.00077011425 -0.0005970126
0.00466982 0.0015691672 0.0056211934 0.0029915264 -0.039800037 0.0011462036 0.008651701 0.02578732
-0.015248905 -0.0015799479 -0.0008192389 -0.15070003 0.00605811 0.06246865 0.0020584203 -0.006767604
-0.09390935 0.11566062 -0.0017204883 -0.15768498 0.0058183954 -0.0035514084 0.09742804 -0.31490353
-0.03166828 -0.0633554 -0.0022361397 0.0004137638 -0.0024108293 0.103686735 0.032262865 -0.024030043
-0.056768857 -0.010194295 -0.19643214 -0.00034462713 -0.007909572 0.00037827456 -0.0045891576 -0.0038378167
0.20552422 -0.05919785 -0.2138631 -0.0029667672 0.007356114 -0.060708575 -0.09356656 -0.002306591
-0.00039620016 -0.0020045708 -0.16742004 -0.15370697 -0.06250927 -0.0055239405 0.04636704 -0.14841934
0.005888529 -0.058154985 -0.08488591 0.0035588674 0.007620784 0.00091062416 0.0051867752 -0.0001908847
-0.045779806 -0.0016631058 -0.00017418766 0.32949993 -0.008625605 -0.11687538 0.002164931 0.11240887
0.0025805456 -0.0031174237 0.0034314056 -0.21620208 -0.0001757783 0.0003050469 -0.0017466749 0.00029129692
0.00087330746 0.000929794 0.004096257 -0.0046519428 -0.0009728926 -0.00078154606 -0.00024941727 0.0034904804
0.0005558408 -0.0012364866 -0.077620536 -0.0059054377 -0.042290717 0.0041947183 0.0035727492 0.005419121
-0.0028810604 0.045860596 -0.07213286 0.0027297353 0.0014827645 0.067596845 -0.0005214265 0.0018375327
0.006889596 -0.007362731 -0.00031951818 0.006380177 0.0013774459 -0.0024721336 -0.04021387 -0.10952862
0.0588968 0.033486694 0.004429101 0.003010499 -0.0448523 0.12732488 0.0023911875 -0.045480303
-0.12261057 0.0018229792 -0.07366198 -0.027911356 0.038358673 0.0007155194 0.0007561158 -0.016510362
0.0012056326 0.017858334 0.0018648352 -0.0036099935 0.00077289355 0.000807832 -0.002766827 0.0025914654
-0.00019140693 -0.0012235033 -0.00043656898 0.024952548 -0.0027467757 -0.0021236 0.003180361 0.0014524725
-0.00153901 0.11107542 -0.007185322 -0.00072119373 -0.0076841484 0.0030920443 -0.15914121 0.00026162472
0.0029814686 -0.0047239405 -0.0023256908 -0.00455198 -0.0051487465 0.0028614127 0.003358761 -0.0035336653
0.0018350941 0.015830008 0.0003536893 -0.001765203 0.03735162 0.017891964 -0.00080150826 0.0027356162
-0.0038188815 0.03585336 0.006878998 0.0061170496 -0.105790615 0.0015943946 -0.002886992 -0.00013273081
0.15380333 0.07221618 -0.004603482 -0.0012214654 -0.0007924832 -0.024892624 0.009989114 -0.002195068
-0.0024298183 0.01696758 0.0008097441 0.0009226536 0.02402884 0.037789784 0.00092743663 -0.0037546484
0.029583065 -0.003324595 0.004691417 0.028435849 0.0028691466 0.33714348 0.00040030005 -0.0027990185
-0.15957423 -0.002751374 3.0525058e-05 0.0013591418 -0.008398928 -0.0031938048 0.02874234 0.0073421006
-0.014861968 0.0005673462 0.028029269 0.0008376236 -0.008352695 0.005973191 0.0019505583 1.6080674e-05
0.0057562394 -0.0015768077 -0.0044897213 0.00020347197 0.0013318051 -0.0014099549 -0.16885845 0.09001852
-0.03824336 0.002667593 -0.0024090586 -0.0032238306 -0.073479794 -0.0029415844 -0.0012167067 0.1785309
00000000: 8483 f23d a3a7 15bb 6765 c0bb fc14 d03a
00000010: 6493 123b 16ea a0ba 4e5b 37bb 4a9f 49bb
00000020: 176d 97ba 2e43 943c 66b3 743d eb39 a63a
00000030: dcc0 3a3b 1178 57bb 74d0 a738 e99b b73b
00000040: af16 0cbc b0fe 18bb 1bab e93d e74a a3bd
00000050: 770c 2c3e 8ed7 87ba 7ee1 49ba d680 1cba
00000060: 4a05 993b 84ac cd3a fd31 b83b 7c0d 443b
00000070: 5d05 23bd 363c 963a ddbf 0d3c ee3f d33c
00000080: 8bd6 79bc 4116 cfba 31c2 56ba 1c51 1abe
00000090: 1c83 c63b 21df 7f3d 90e6 063b c7c2 ddbb
000000a0: 8c53 c0bd 7adf ec3d 0282 e1ba 2c78 21be
000000b0: 3da8 be3b bfbe 68bb 5a88 c73d 093b a1be
000000c0: 99b6 01bd 7ac0 81bd 338c 12bb 70ee d839
000000d0: 01ff 1dbb b659 d43d 1126 043d a7da c4bc
000000e0: 7686 68bd f905 27bc 8225 49be 12af b4b9
000000f0: 2697 01bc 2753 c639 a560 96bb e183 7bbb
00000100: f174 523e 7279 72bd eefe 5abe 186e 42bb
00000110: 8f0b f13b 8ea9 78bd d39f bfbd 2d2a 17bb
00000120: 16b9 cfb9 1e5f 03bb 2970 2bbe 5c65 1dbe
00000130: dc04 80bd 2c02 b5bb 5eeb 3d3d 3dfb 17be
00000140: 90f4 c03b ec33 6ebd aad8 adbd e33b 693b
00000150: c5b7 f93b f4b6 6e3a d3f5 a93b 3928 48b9
00000160: 9b83 3bbd 92fc d9ba 25a6 36b9 37b4 a83e
00000170: 6952 0dbc 5c5c efbd 84e1 0d3b 9f36 e63d
00000180: 5f1e 293b b14d 4cbb 6fe1 603b 1464 5dbe
00000190: 2151 38b9 b4ee 9f39 aff0 e4ba 36b9 9839
000001a0: acee 643a 6bbd 733a e539 863b 536f 98bb
000001b0: b809 7fba abe0 4cba 38c4 82b9 8bc0 643b
000001c0: d8b5 113a 9b11 a2ba 84f7 9ebd 6782 c1bb
000001d0: 0839 2dbd d973 893b c924 6a3b e292 b13b
000001e0: 2cd0 3cbb 52d8 3b3d 65ba 93bd 5ce5 323b
000001f0: 5259 c23a 3770 8a3d 57b0 08ba 5ed9 f03a
00000200: 1fc2 e13b 1043 f1bb 0185 a7b9 ce10 d13b
00000210: 6a8b b43a 8503 22bb 4db7 24bd 8b50 e0bd
00000220: c53d 713d 5829 093d fe21 913b cb4b 453b
00000230: 0cb7 37bd 7461 023e 78b5 1c3b 8e49 3abd
00000240: 401b fbbd 08f1 ee3a 18dc 96bd 5ba6 e4bc
00000250: fc1d 1d3d b291 3b3a 1336 463a bd40 87bc
00000260: 5106 9e3a a44b 923c 7c6d f43a a495 6cbb
00000270: 029c 4a3a b0c4 533a a753 35bb 93d5 293b
00000280: 68b4 48b9 f55d a0ba 4ce3 e4b9 4969 cc3c
00000290: 4003 34bb 192c 0bbb 9a6d 503b e460 be3a
000002a0: 9bb8 c9ba 837b e33d da72 ebbb 7e0e 3dba
000002b0: 4fcb fbbb e5a3 4a3b eaf5 22be ad2a 8939
000002c0: be64 433b 49cb 9abb 9e6a 18bb c728 95bb
000002d0: d1b6 a8bb 8a86 3b3b a91e 5c3b 1195 67bb
000002e0: 8a87 f03a efad 813c 606f b939 625e e7ba
000002f0: 03fe 183d 2b92 923c 4f1c 52ba 0648 333b
00000300: 3346 7abb f9da 123d 3869 e13b 8871 c83b
00000310: c0a8 d8bd 01fb d03a b033 3dbb a82d 0bb9
00000320: 9f7e 1d3e 14e6 933d ced8 96bb 9419 a0ba
00000330: a6be 4fba 9eeb cbbc 61a9 233c 21db 0fbb
00000340: 963d 1fbb 98ff 8a3c 0245 543a 3cde 713a
00000350: 21d8 c43c 76c9 1a3d 381f 733a 8c10 76bb
00000360: 2f58 f23c 73e1 59bb 75ba 993b 4cf2 e83c
00000370: 4b08 3c3b 129e ac3e 5ddf d139 bd6f 37bb
00000380: 6d67 23be 6550 34bb 0808 0038 3b25 b23a
00000390: a89b 09bc 274f 51bb 0e75 eb3c 0196 f03b
000003a0: 9d7f 73bc f5b9 143a a39d e53c f893 5b3a
000003b0: bed9 08bc c2ba c33b e0a9 ff3a fce4 8637
000003c0: d69e bc3b e3ac ceba 831e 93bb 175b 5539
000003d0: f78f ae3a 3cce b8ba 3be9 2cbe a15b b83d
000003e0: 12a5 1cbd c9d2 2e3b 4ce1 1dbb e746 53bb
000003f0: 937c 96bd 99c7 40bb e779 9fba ced0 363e

submodules.encoder.0.bias f4 [18]
0.01730414 0.060100954 -0.25950423 -0.10554496 -0.23912872 0.16716884 0.26312104 0.21174994
-0.16544485 -0.14101632 -0.115541436 0.104372926 -0.007939573 -0.007836572 -0.021680543 -0.04213616
0.0040245466 -0.15872025
00000000: 69c1 8d3c 6b2c 763d bddd 84be f527 d8bd
00000010: 29de 74be 4f2e 2b3e cdb7 863e fad4 583e
00000020: 606a 29be 9566 10be fda0 ecbd 79c1 d53d
00000030: fc14 02bc f764 00bc 659b b1bc f796 2cbd
00000040: 58e0 833b 9087 22be

submodules.PCE_pred.0.weight f4 [100, 18]
0.38986856 1.7624037 -0.82459515 -2.277198 0.041044537 -1.0796382 -0.5312661 -0.16745979
1.7160387 0.43701142 -0.080849 1.6168332 -0.35766962 0.6167106 -0.28774107 -0.37379444
0.5164164 0.9459355 1.7401348 -1.552151 0.41669476 -2.093112 0.51484865 -1.6085011
-0.8751563 -0.077167235 0.36546627 -1.134601 -1.5409839 0.6682496 -4.935757 -0.084092356
0.7281304 -1.2320648 -0.23974054 -1.5873914 0.97418994 -2.9052644 -0.8209283 -1.4790457
-2.0296824 -1.5171344 0.0066755083 -1.4178996 2.0183833 0.68683004 0.3725891 0.72513103
-0.56779575 1.2498451 0.79334044 2.3103805 -0.4782842 -0.13159026 2.0032074 -0.27723452
0.6496426 -1.6150495 -0.09397881 -0.860875 2.1119537 -0.4196459 3.2054932 0.054931633
2.8464596 2.1079695 1.7148023 0.75942343 -0.7310687 1.6020466 -0.43239692 -1.2255325
2.1881835 -0.6552011 -1.557024 -1.066777 -0.7614086 2.4876842 -0.6719594 0.21420847
-1.9131597 0.07102282 0.6209969 3.1203032 0.64087945 -0.5112079 -1.1158668 -0.8101662
0.8559488 -1.5424297 -0.17053914 -0.50342846 -1.4668528 0.051949657 1.0431082 -1.0713832
-0.64728856 0.5238942 -0.19020708 1.0968161 0.00802406 2.377845 -2.6540744 -1.6639061
-0.48721611 -2.009976 -0.5151915 -2.071211 -0.21275054 0.23309803 -0.4389851 1.7987907
1.3958434 2.00619 -0.99984276 -1.9852496 1.0924084 -0.35170123 2.8064659 -0.30209032
0.34635592 0.37930867 -1.5244161 -0.10170961 2.2083194 -2.1021044 -0.38411716 -0.85292697
1.8090318 -0.7649764 -0.8213672 -0.36434063 0.17715888 0.3646651 1.3013519 -0.7751774
0.38909167 0.96145725 0.22866742 2.1689403 -0.3786768 -2.2709992 0.47759336 -0.013589013
1.5503591 3.6015522 -0.21775521 -0.60745424 1.0158541 -0.7782209 -1.1055557 -0.2078068
-0.87789416 0.05969821 0.39473772 -2.198861 0.17043693 -1.0570972 -2.2735991 0.23313256
-0.5687792 -0.2280569 -0.77202946 0.7562945 0.35891187 1.0209892 1.1757315 -0.5501362
-0.14196235 -1.6338341 0.66095144 2.6542337 -1.1057028 1.7528526 1.1845648 -1.3278855
-0.98468727 -0.55205667 0.2410238 -0.94194734 -0.8286302 -0.8328051 0.7827333 2.018077
-0.6764274 0.90376264 1.2099687 -0.03583727 -1.3490075 0.31913254 -1.0681376 -1.0622056
-1.1013806 1.2782547 -0.02302333 1.0315729 0.079082064 -0.79309577 -0.5229721 -0.3980556
1.5361066 1.2751092 -2.3791792 -0.4942381 1.9942316 -2.5031655 -1.1929448 -1.7849076
-0.2622378 -2.3699248 -0.05691056 -0.24913785 0.96315825 -1.6922601 -0.00940044 -1.00614
1.9307414 -1.6372262 -2.6214685 -0.10158333 -1.3334283 1.0813487 -0.5392359 -1.2302399
-1.3928106 -0.35734823 -2.274869 0.11580893 1.8657088 2.3475468 -1.312005 -0.45289266
0.072824426 0.1535496 -3.0122476 1.3320912 -1.7048701 0.9321166 0.6760294 -0.40210843
0.5865022 -1.0964808 -0.833287 -0.60735565 0.83209175 -1.1261503 -1.3685172 0.74707466
0.7280599 2.7655437 0.008572433 -0.7879743 1.9709513 0.5086274 1.1797211 0.23349118
00000000: da9c c73e 7296 e13f ab18 53bf 9dbd 11c0
00000010: 511e 283d 9631 8abf 0e01 08bf 947a 2bbe
00000020: 28a7 db3f f6bf df3e 2994 a5bd 64f4 ce3f
00000030: 7920 b7be bfe0 1d3f cc52 93be fc61 bfbe
00000040: dd33 043f d428 723f bdbc de3f e2ac c6bf
00000050: 0459 d53e 8cf5 05c0 1fcd 033f 5de3 cdbf
00000060: 3e0a 60bf db09 9ebd 651e bb3e 9b3a 91bf
00000070: f63e c5bf 6812 2b3f b9f1 9dc0 9d38 acbd
00000080: c166 3a3f 4db4 9dbf 8b7e 75be a42f cbbf
00000090: 8364 793f daef 39c0 5b28 52bf 5f51 bdbf
000000a0: 51e6 01c0 7631 c2bf 39be da3b bc7d b5bf
000000b0: 312d 0140 18d4 2f3f 00c4 be3e 30a2 393f
000000c0: 105b 11bf edfa 9f3f 5c18 4b3f 46dd 1340
000000d0: abe1 f4be 99bf 06be 8d34 0040 aff1 8dbe
000000e0: fa4e 263f f1b9 cebf f677 c0bd 4e62 5cbf
000000f0: 402a 0740 d4db d6be cd26 4d40 feff 603d
00000100: 652c 3640 f9e8 0640 a47e db3f 9369 423f
00000110: 5127 3bbf dd0f cd3f 2163 ddbe 40de 9cbf
00000120: 330b 0c40 42bb 27bf 904c c7bf 268c 88bf
00000130: adeb 42bf 3836 1f40 8805 2cbf 7759 5b3e
00000140: 6be2 f4bf 6a74 913d a7f9 1e3f 0cb3 4740
00000150: ad10 243f 85de 02bf b9d4 8ebf 0d67 4fbf
00000160: 761f 5b3f 566e c5bf d0a1 2ebe b0e0 00bf
00000170: d5c1 bbbf 2ac9 543d 9284 853f 1623 89bf
00000180: b4b4 25bf ee1d 063f a5c5 42be 7864 8c3f
00000190: 5977 033c 9d2e 1840 5bdc 29c0 e0fa d4bf
000001a0: 6474 f9be 72a3 00c0 97e3 03bf b98e 04c0
000001b0: 47db 59be 40b1 6e3e a8c2 e0be c63e e63f
000001c0: ffaa b23f 6b65 0040 b2f5 7fbf a91c febf
000001d0: 0ad4 8b3f 2f12 b4be 239d 3340 95ab 9abe
000001e0: 9055 b13e bf34 c23e 1120 c3bf 214d d0bd
000001f0: 1b55 0d40 e188 06c0 01ab c4be 6c59 5abf
00000200: 5b8e e73f 7ed5 43bf 1f45 52bf db8a babe
00000210: 2369 353e 62b5 ba3e b392 a63f 0772 46bf
00000220: 0637 c73e 1022 763f cb27 6a3e ebcf 0a40
00000230: ede1 c1be 0d58 11c0 1e87 f43e 74a4 5ebc
00000240: 2b72 c63f d57f 6640 39fb 5ebe 1f82 1bbf
00000250: 8207 823f 7c39 47bf d982 8dbf 4ecb 54be
00000260: acbd 60bf 1c86 743d 101b ca3e 23ba 0cc0
00000270: 0587 2e3e f64e 87bf a682 11c0 4dba 6e3e
00000280: 839b 11bf bf87 69be b9a3 45bf 849c 413f
00000290: 4cc3 b73e c6af 823f 5f7e 963f bad5 0cbf
000002a0: 945e 11be 7a21 d1bf 1d34 293f f7de 2940
000002b0: ab87 8dbf 795d e03f d29f 973f 27f8 a9bf
000002c0: 7714 7cbf 9653 0dbf f1ce 763e 7623 71bf
000002d0: 1c21 54bf b732 55bf 3661 483f 2c28 0140
000002e0: 592a 2dbf fd5c 673f 41e0 9a3f 1aca 12bd
000002f0: 47ac acbf 5765 a33e bcb8 88bf 5af6 87bf
00000300: 0afa 8cbf da9d a33f 6c9b bcbc 950a 843f
00000310: c7f5 a13d 5308 4bbf 80e1 05bf f2cd cbbe
00000320: 249f c43f c736 a33f 7944 18c0 c70c fdbe
00000330: fb42 ff3f dd33 20c0 6ab2 98bf da77 e4bf
00000340: 0844 86be d9ac 17c0 0c1b 69bd fe1d 7fbe
00000350: 8a91 763f fb9b d8bf 4e04 1abc 32c9 80bf
00000360: 8922 f73f a190 d1bf 24c6 27c0 ec0a d0bd
00000370: c7ad aabf a269 8a3f 5d0b 0abf 8078 9dbf
00000380: 9e47 b2bf 59f6 b6be 7497 11c0 3b2d ed3d
00000390: 8ccf ee3f 353e 1640 c8ef a7bf 8ce1 e7be
000003a0: f924 953d 1b3c 1d3e aac8 40c0 f781 aa3f
000003b0: 2f39 dabf 329f 6e3f 4310 2d3f 28e1 cdbe
000003c0: 0225 163f 7c59 8cbf 4c52 55bf a97b 1bbf
000003d0: f703 553f b125 90bf 922b afbf 4940 3f3f
000003e0: 2262 3a3f abfe 3040 6473 0c3c afb8 49bf
000003f0: 2248 fc3f 6835 023f 1a01 973f 5018 6f3e

submodules.PCE_pred.0.bias f4 [100]
-0.02803852 -0.4860111 -0.42122975 -0.578418 0.6316899 -0.0059158616 -0.61622024 -0.72770506
-0.34565836 -0.70322645 -0.019486392 0.38075957 0.3576829 0.07590346 -0.04028461 0.21694048
0.4150787 0.19807138 0.24766256 -0.5640321 0.14869599 -0.44110727 0.67416257 -0.15969864
-0.5020874 -0.1001865 0.22881915 0.27277353 0.48191002 0.2364379 0.19599403 0.51796055
-0.09300061 -0.5635133 0.3340362 -0.12923884 0.1690434 -0.006147249 0.2975944 -0.56798136
0.57846373 -0.10109477 0.0044765784 -0.46621382 0.18238479 -0.4533706 -0.45767012 0.12658429
0.19292986 -0.75920576 -0.74140507 0.30630994 -0.5427492 0.3041504 0.5851036 0.36580476
0.2867702 -0.016704997 -0.5417881 -0.023185275 0.17595746 0.72242033 0.6432672 -0.21656276
-0.5345321 0.61648905 -0.5720065 -0.9084327 -0.54201 -0.028225379 0.30439845 -0.10137063
-0.6330947 -0.39239332 0.3792045 0.35061416 0.18512441 0.0905665 -0.5713686 -0.07278385
-0.09058309 -0.32151157 -0.48017958 -0.5417575 -0.28675228 -0.650686 -0.2790013 -0.3518649
0.15300545 0.6124559 -0.41404012 -0.626386 -0.66688937 -0.5018822 -0.461913 -0.6696725
-0.86748445 0.018156486 0.20235446 -0.73571575
00000000: 0ab1 e5bc 72d6 f8be 6dab d7be 3413 14bf
00000010: 6eb6 213f d8d9 c1bb 9cc0 1dbf e14a 3abf
00000020: 22fa b0be a606 34bf eda1 9fbc ebf2 c23e
00000030: 3722 b73e 4673 9b3d 7a01 25bd a525 5e3e
00000040: 3285 d43e 39d3 4a3e 419b 7d3e 6864 10bf
00000050: c343 183e d0d8 e1be eb95 2c3f 0a88 23be
00000060: cd88 00bf 942e cdbd 914f 6a3e f9a8 8b3e
00000070: e9bc f63e c71c 723e a9b2 483e 1099 043f
00000080: 1b77 bebd 6842 10bf cb06 ab3e 3057 04be
00000090: b719 2d3e dd6e c9bb 4b5e 983e 3a67 11bf
000000a0: 3316 143f c60a cfbd 43b0 923b 94b3 eebe
000000b0: 14c3 3a3e 3120 e8be bd53 eabe 509f 013e
000000c0: 688f 453e 4f5b 42bf b9cc 3dbf a8d4 9c3e
000000d0: 9df1 0abf 9ab9 9b3e 59c9 153f c34a bb3e
000000e0: 8bd3 923e ebd8 88bc a0b2 0abf 0cef bdbc
000000f0: 312e 343e 8af0 383f 29ad 243f a1c2 5dbe
00000100: 19d7 08bf 3ad2 1d3f 056f 12bf 0c8f 68bf
00000110: 2bc1 0abf e938 e7bc 1dda 9b3e 689b cfbd
00000120: 7f12 22bf c7e7 c8be 1827 c23e b383 b33e
00000130: 4191 3d3e ee7a b93d 3645 12bf b30f 95bd
00000140: a183 b9bd 2a9d a4be 19da f5be 9fb0 0abf
00000150: 32d1 92be 5c93 26bf 42d9 8ebe a327 b4be
00000160: 76ad 1c3e e9c9 1c3f 11fd d3be d55a 20bf
00000170: 43b9 2abf 5a7b 00bf dc7f ecbe a86f 2bbf
00000180: 7613 5ebf e9bc 943c 0236 4f3e de57 3cbf

submodules.PCE_pred.3.weight f4 [1, 100]
1.9303386 -1.2167821 -0.38443223 -1.2496041 0.17394216 0.38475007 -0.9116535 -1.1339252
-0.28985912 -0.4800591 0.28654018 0.17666554 0.19011103 0.3741042 0.25655076 0.3208556
0.29303303 0.9315719 0.7108916 -1.1570948 0.7096034 -3.0934987 0.19734557 1.9522146
-1.2454079 0.4374288 0.49644595 0.78507036 0.23154135 0.8432333 0.16593465 0.44555855
-0.52467304 -0.5055525 0.33196336 0.47441748 0.65871674 0.49596864 0.18412086 -1.0129801
0.46018156 -1.6217464 0.4304782 -1.388787 0.25122064 -0.6265298 -1.8004806 0.31628412
0.22017343 -1.3000469 -2.425582 0.30283603 -0.45372602 0.22948046 0.2569741 0.34234345
0.1995463 0.16112648 -3.041304 0.67172384 1.299791 0.1590608 0.22429603 -1.1514764
-1.316313 0.21648623 -0.9162721 -0.25106516 -0.3176581 0.35918134 0.22848253 1.3747993
-1.6535577 -0.7201343 0.5450547 0.22849965 0.19685712 1.3990201 -1.5347521 0.464902
0.6802526 0.20887084 -0.67958176 -2.141564 -3.0917315 -0.6136594 -1.8266493 -0.35758576
0.33438426 0.13646114 -2.6476443 -1.277764 -0.45734015 -2.5611627 -1.0155495 -3.2404852
-1.1186597 0.22083434 0.29688546 -0.2766993
00000000: 5615 f73f 84bf 9bbf 4dd4 c4be 07f3 9fbf
00000010: e51d 323e f6fd c43e 2062 69bf 7624 91bf
00000020: 6a68 94be 4eca f5be 65b5 923e d0e7 343e
00000030: 77ac 423e 968a bf3e 9f5a 833e 2f47 a43e
00000040: 6d08 963e 7f7b 6e3f fefc 353f af1b 94bf
00000050: 92a8 353f e2fb 45c0 f514 4a3e 2be2 f93f
00000060: 8769 9fbf abf6 df3e 2a2e fe3e 5ffa 483f
00000070: 2d19 6d3e 23de 573f c6ea 293e 4020 e43e
00000080: f950 06bf e36b 01bf 1af7 a93e d9e6 f23e
00000090: a9a1 283f 9aef fd3e 2e8a 3c3e 55a9 81bf
000000a0: eb9c eb3e 6395 cfbf a367 dc3e c6c3 b1bf
000000b0: fe9f 803e 4264 20bf 2676 e6bf feef a13e
000000c0: 2575 613e f067 a6bf bc3c 1bc0 530d 9b3e
000000d0: c74e e8be edfc 6a3e 1c92 833e a447 af3e
000000e0: de55 4c3e 57fe 243e baa4 42c0 18f6 2b3f
000000f0: 8d5f a63f d6e0 223e dcad 653e 9463 93bf
00000100: f27c a8bf 91ae 5d3e cf90 6abf 9d8b 80be
00000110: 15a4 a2be 9ee6 b73e 53f7 693e 6cf9 af3f
00000120: c7a7 d3bf b95a 38bf b488 0b3f d0fb 693e
00000130: ea94 493e 1713 b33f c272 c4bf a307 ee3e
00000140: 0925 2e3f 3de2 553e 12f9 2dbf 620f 09c0
00000150: eede 45c0 c818 1dbf a5cf e9bf 7b15 b7be
00000160: 6a34 ab3e 78bc 0b3e 0173 29c0 c58d a3bf
00000170: 7d28 eabe 17ea 23c0 87fd 81bf 1c64 4fc0
00000180: 3e30 8fbf 6622 623e 5f01 983e 88ab 8dbe

submodules.latents_pred.0.weight f4 [12, 18]
1.2016872 0.58276045 -0.47426426 -0.45603812 -0.03334912 -0.29354998 0.9979119 -0.84135807
0.53521 -0.22128695 0.16655548 -0.63676286 -1.6570193 -0.59477 -0.110208794 1.0308973
0.92070144 -0.4120743 0.8510382 0.8668829 -0.55363786 -0.26223776 -0.3252256 -0.52424574
0.47844234 -0.62848634 0.2922088 -0.2857628 0.115094684 -0.6127441 -1.1359073 -0.45499533
-0.51826173 0.96770215 0.6977036 -0.1126232 -1.4784502 -0.30226874 0.23989417 0.41362932
-0.62579423 0.3239975 -1.1772734 0.76996166 -0.34374416 -0.050285667 -0.13633657 0.89185184
1.1085786 0.80721205 0.6358629 -0.90664196 -0.705175 1.0160362 0.061078895 0.5851114
-0.4254606 0.5219905 0.8994608 0.89500797 1.581155 0.07923943 0.43625942 -0.16794723
0.93622756 1.0765105 -0.6487915 1.3390589 -1.6507277 -2.1375647 -0.66149074 0.29338714
0.12432742 0.5110838 -0.36754832 0.39655468 0.76214564 0.7613145 1.2571237 0.13936965
0.62016064 -0.2072648 0.76493466 1.0894734 -0.5066798 1.2553437 -1.5727603 -1.7569441
-0.44721097 0.30839625 0.753765 -1.460972 0.9844774 -0.9778027 -0.571883 -0.2645318
-2.1501505 0.1028085 0.25815114 0.4437082 -0.73699176 -0.7177738 0.13704754 -1.3546201
1.3534791 1.5912338 0.8405926 -1.0678606 -1.4677039 -0.32210544 0.18389635 0.4495992
-0.5669617 0.18879522 -1.040829 0.7837297 -0.36594123 0.0033147847 -0.13953504 0.9307917
1.4993248 0.85453373 0.70009685 -0.86436605 -0.85753393 0.7419584 -0.37307987 0.92978245
0.17508724 0.38749883 -1.0630918 -1.6684413 -0.2776569 0.44443414 0.034209486 -0.30569875
0.27018854 0.29822484 0.7760609 0.566773 -3.130477 -0.33956888 -0.47846192 0.68270475
0.26935428 1.0718522 0.39828032 -0.28270683 0.37492356 0.9059023 -0.64644086 1.6473595
-0.6884718 -0.39581168 0.21153975 -1.4284006 -1.9319818 -1.2975363 -1.2941462 -1.3969781
0.3485939 1.6432703 0.038541373 -1.2823262 -0.43651584 0.38809332 -0.42689204 -0.058662597
-0.12837583 -2.7172282 0.85218567 0.6625917 0.16820852 1.617744 0.9463279 1.532314
0.94353527 1.3147001 -0.24440804 -1.6734885 1.5382714 0.5795108 -0.41864324 -0.65514743
0.6038674 1.6871634 0.6450739 0.22570734 1.4648505 -0.46155858 0.75958794 0.30892855
-3.121156 0.034448832 -0.31943175 -1.1577914 1.0076871 0.3312997 -0.22259912 -1.1925051
-0.36602688 0.28500035 -0.33560026 -0.7782732 0.6790651 -1.8347278 0.83088183 0.42735553
-0.20083874 1.5553377 1.8112867 1.3989325 1.2773281 1.4380283 -0.26348332 -1.6244769
00000000: e3d0 993f ca2f 153f c4d2 f2be d47d e9be
00000010: 1699 08bd 2f4c 96be 2777 7f3f 3e63 57bf
00000020: 8603 093f 0c99 62be 858d 2a3e e402 23bf
00000030: 3519 d4bf d942 18bf 26b5 e1bd 71f4 833f
00000040: 17b3 6b3f 67fb d2be a4dd 593f 0aec 5d3f
00000050: 36bb 0dbf 0744 86be f883 a6be f834 06bf
00000060: 65f6 f43e 7be4 20bf 649c 953e 804f 92be
00000070: c3b6 eb3d ccdc 1cbf 6965 91bf 26f5 e8be
00000080: cdac 04bf 54bb 773f b49c 323f fea6 e6bd
00000090: db3d bdbf f8c2 9abe d1a6 753e 39c7 d33e
000000a0: 0d34 20bf 00e3 a53e e5b0 96bf 351c 453f
000000b0: 3cff afbe 58f8 4dbd d09b 0bbe 6750 643f
000000c0: e7e5 8d3f 73a5 4e3f e9c7 223f b019 68bf
000000d0: 5986 34bf 790d 823f dd2d 7a3d dcc9 153f
000000e0: f9d5 d9be 2ba1 053f 1043 663f 3e1f 653f
000000f0: 4963 ca3f 4848 a23d 655d df3e 5cfa 2bbe
00000100: 9cac 6f3f 19cb 893f 3317 26bf 4866 ab3f
00000110: 0c4b d3bf dccd 08c0 7557 29bf d736 963e
00000120: 609f fe3d 63d6 023f 4b2f bcbe 3709 cb3e
00000130: fa1b 433f 82e5 423f 6ee9 a03f ebb6 0e3e
00000140: d9c2 1e3f 393d 54be c2d2 433f dd73 8b3f
00000150: c4b5 01bf 1aaf a03f 3650 c9bf 8be3 e0bf
00000160: d6f8 e4be 1de6 9d3e bef6 403f 2101 bbbf
00000170: b606 7c3f 4751 7abf ed66 12bf b670 87be
00000180: 119c 09c0 438d d23d 632c 843e b92d e33e
00000190: 7eab 3cbf 06c0 37bf 3156 0c3e 3164 adbf
000001a0: ce3e ad3f 8dad cb3f 1431 573f a8af 88bf
000001b0: b9dd bbbf 01eb a4be 534f 3c3e de31 e63e
000001c0: 6724 11bf 8953 413e e239 85bf 82a2 483f
000001d0: a65c bbbe dc3c 593b 46e2 0ebe 5d48 6e3f
000001e0: e0e9 bf3f b9c2 5a3f 8c39 333f 1847 5dbf
000001f0: 5887 5bbf fcf0 3d3f 5304 bfbe 3906 6e3f
00000200: 124a 333e 3f66 c63e 6413 88bf 7c8f d5bf
00000210: 0c29 8ebe df8c e33e 3f1f 0c3d 8c84 9cbe
00000220: 2756 8a3e edb0 983e edab 463f 0918 113f
00000230: bc59 48c0 f9db adbe f6f8 f4be bdc5 2e3f
00000240: cee8 893e 7432 893f 66eb cb3e f3be 90be
00000250: fbf5 bf3e 37e9 673f 267d 25bf addc d23f
00000260: b03f 30bf d4a7 cabe e09d 583e d5d5 b6bf
00000270: 2e4b f7bf ab15 a6bf 95a6 a5bf 2ed0 b2bf
00000280: e67a b23e ae56 d23f 8fdd 1d3d 4423 a4bf
00000290: 017f dfbe 2bb4 c63e 9891 dabe 3148 70bd
000002a0: f474 03be 11e7 2dc0 d728 5a3f 9c9f 293f
000002b0: db3e 2c3e 3c12 cf3f 8c42 723f dd22 c43f
000002c0: 878b 713f 1848 a83f 1a46 7abe df34 d6bf
000002d0: 14e6 c43f d25a 143f 6858 d6be beb7 27bf
000002e0: 0e97 1a3f f8f4 d73f 9023 253f d31f 673e
000002f0: 3980 bb3f 6851 ecbe 5b74 423f e22b 9e3e
00000300: 05c1 47c0 381a 0d3d 8f8c a3be 8232 94bf
00000310: e4fb 803f 1da0 a93e 06f1 63be 02a4 98bf
00000320: e067 bbbe 91eb 913e ccd3 abbe ea3c 47bf
00000330: 36d7 2d3f 5cd8 eabf acb4 543f 58ce da3e
00000340: aca8 4dbe 4e15 c73f 3ed8 e73f 3810 b33f
00000350: 7d7f a33f 5011 b83f 49e7 86be dcee cfbf

submodules.latents_pred.0.bias f4 [12]
-0.17296539 -0.1339436 0.10872447 -0.36467466 -0.300932 0.5827824 0.04154188 0.059087858
0.04857703 0.23147327 -0.24125148 -0.004746715
00000000: d71d 31be 8328 09be efaa de3d a3b6 babe
00000010: c213 9abe 3a31 153f d227 2a3d 1c06 723d
00000020: b5f8 463d 5407 6d3e a10a 77be 558a 9bbb

submodules.etm_pred.0.weight f4 [7, 18]
-3.4408398 -13.043131 -4.0379834 -2.6846826 0.59064007 3.1271782 0.7568232 5.632343
-8.237591 -2.3373024 0.867765 1.2934817 -1.8362523 5.48613 -4.5270395 2.1176267
-0.7400875 3.4914267 0.33562988 1.7127522 0.116551176 -7.5135684 -1.7156312 -1.7130266
-2.2723641 -13.017959 0.75267184 -5.797403 0.03738803 0.44825596 10.035189 -9.51813
-0.021878218 -9.650231 -0.24174054 -1.2962443 -0.42708844 10.072343 -3.847645 -1.6996763
3.5014145 -9.76727 -0.42333317 2.544309 0.010295692 14.061426 1.9222518 1.1677163
-3.8623543 1.3244166 0.9582465 0.8356042 -0.0024677434 0.23865297 -3.4626207 4.211409
2.4340208 9.461617 -0.7039233 0.27557233 2.6410809 5.8695292 -5.2622533 -1.4520249
1.1845071 15.161642 -9.437899 -15.631657 -3.0117812 0.044042703 11.636678 -4.8804398
-3.8919458 4.606924 -0.34199864 3.3270624 -1.986916 -1.1780545 2.670417 -0.2220371
16.741156 0.42209613 -10.289389 -7.6834927 -10.231237 -3.4975646 -2.8066056 -0.81515497
-12.798424 0.34503672 -3.237978 -11.56399 0.5219681 6.241418 0.33212852 5.910809
-3.403387 5.4410043 6.808752 -13.08045 17.46504 -11.825426 -1.2897643 4.531808
-1.2157344 5.1283917 5.334787 -3.5730965 9.52669 11.917837 10.308899 -0.99091226
-3.6327493 2.5012174 -0.0863785 0.78512657 -6.7658668 -1.7208961 -6.2092113 -0.91492677
1.5518289 12.417643 8.4965105 4.907701 5.26938 -1.5578455
00000000: b836 5cc0 aab0 50c1 2937 81c0 d7d1 2bc0
00000010: 3034 173f b023 4840 2abf 413f 273c b440
00000020: 2ccd 03c1 5d96 15c0 d925 5e3f cf90 a53f
00000030: 510a ebbf 618e af40 82dd 90c0 3287 0740
00000040: 6076 3dbf 8973 5f40 aed7 ab3e 773b db3f
00000050: 62b2 ee3d 276f f0c0 ce99 dbbf 7544 dbbf
00000060: 6a6e 11c0 8f49 50c1 1aaf 403f 5384 b9c0
00000070: 3124 193d ce81 e53e 2290 2041 434a 18c1
00000080: f339 b3bc 5967 1ac1 d58a 77be 55eb a5bf
00000090: 56ab dabe 5128 2141 d13f 76c0 fe8e d9bf
000000a0: 2d17 6040 bd46 1cc1 20bf d8be f5d5 2240
000000b0: 43af 283c 9afb 6041 590c f63f ba77 953f
000000c0: d030 77c0 7c86 a93f a54f 753f 28ea 553f
000000d0: ddb9 21bb 7261 743e 949b 5dc0 ddc3 8640
000000e0: ffc6 1b40 c962 1741 5134 34bf d117 8d3e
000000f0: 7807 2940 2fd3 bb40 6164 a8c0 f4db b9bf
00000100: ee9d 973f 1696 7241 a201 17c1 441b 7ac1
00000110: 06c1 40c0 1f66 343d d52f 3a41 902c 9cc0
00000120: a415 79c0 ec6b 9340 721a afbe 97ee 5440
00000130: 4353 febf 7dca 96bf 1de8 2a40 b25d 63be
00000140: e3ed 8541 fc1c d83e 56a1 24c1 2cdf f5c0
00000150: 26b3 23c1 19d8 5fc0 6d9f 33c0 ffad 50bf
00000160: 58c6 4cc1 a7a8 b03e 083b 4fc0 1a06 39c1
00000170: b49f 053f b2b9 c740 c00c aa3e 5925 bd40
00000180: 18d1 59c0 b51c ae40 4ce1 d940 8649 51c1
00000190: 67b8 8b41 f234 3dc1 ff16 a5bf 9204 9140
000001a0: 2f9d 9bbf c91b a440 93b6 aa40 9dad 64c0
000001b0: 526d 1841 76af 3e41 40f1 2441 6dac 7dbf
000001c0: f77e 68c0 f213 2040 36e7 b0bd 0efe 483f
000001d0: fb81 d8c0 5346 dcbf dcb1 c6c0 a438 6abf
000001e0: 54a2 c63f aaae 4641 b5f1 0741 e30b 9d40
000001f0: c39e a840 7b67 c7bf

submodules.etm_pred.0.bias f4 [7]
-2.778474 2.1959205 2.9019487 -5.1432967 -0.17497109 1.9814005 -0.34407037
00000000: 85d2 31c0 f689 0c40 87b9 3940 e395 a4c0
00000010: 9f2b 33be 889e fd3f fe29 b0be

submodules.htm_pred.0.weight f4 [4, 18]
-12.230814 4.6609583 -2.3111646 -9.886326 2.667767 -4.634974 1.2983938 -3.1273122
3.5789506 3.7552612 3.870219 5.139306 -2.3607082 -0.35254234 1.4073215 -1.4082979
10.2543745 -3.67338 8.742736 -13.18815 -5.885951 0.3516538 1.6174629 -7.9862576
-3.328459 -2.4759636 -2.617629 5.2383986 -2.582737 -3.184376 7.041854 -0.9238922
1.4669893 -5.328072 -6.134682 10.199134 -0.30646813 6.110707 5.107124 -7.081666
2.6174834 6.1573396 2.170271 -1.1222783 -8.098419 -2.3187273 4.847253 -0.13962024
-6.183442 2.3187466 -6.2774124 8.883025 -13.130317 1.6157368 4.311336 3.6108158
4.4323373 11.874782 -5.72821 2.9895623 0.22646134 3.5525286 8.660328 -5.2409644
-4.7761555 -1.5918193 -0.87569594 -2.643337 3.9372473 -2.8045247 10.034934 -4.5562882
00000000: 6ab1 43c1 9226 9540 1fea 13c0 642e 1ec1
00000010: b2bc 2a40 b551 94c0 c531 a63f e225 48c0
00000020: 870d 6540 3356 7040 abb1 7740 3275 a440
00000030: d815 17c0 6e80 b4be 1c23 b43f 1b43 b4bf
00000040: eb11 2441 a818 6bc0 3fe2 0b41 aa02 53c1
00000050: b659 bcc0 f80b b43e 0609 cf3f 6c8f ffc0
00000060: 7905 55c0 3076 1ec0 3c87 27c0 f6a0 a740
00000070: 904b 25c0 d1cc 4bc0 de56 e140 3384 6cbf
00000080: 4ec6 bb3f 917f aac0 514f c4c0 a72f 2341
00000090: 64e9 9cbe e98a c340 8f6d a340 029d e2c0
000000a0: d984 2740 ed08 c540 b8e5 0a40 d1a6 8fbf
000000b0: 2093 01c1 0766 14c0 b21c 9b40 9cf8 0ebe
000000c0: c2de c5c0 5866 1440 90e0 c8c0 df20 0e41
000000d0: c715 52c1 77d0 ce3f 77f6 8940 9b17 6740
000000e0: b5d5 8d40 1bff 3d41 7f4d b7c0 fd54 3f40
000000f0: 7be5 673e a15c 6340 b490 0a41 fbb5 a7c0
00000100: 44d6 98c0 bcc0 cbbf 9c2d 60bf 6f2c 29c0
00000110: dcfb 7b40 557d 33c0 178f 2041 1dcd 91c0

submodules.htm_pred.0.bias f4 [4]
1.31265 0.06728845 -0.79359883 -1.3381207
00000000: ea04 a83f 87ce 893d 4b29 4bbf 8a47 abbf

exp_avg f4 [18, 23]
0.063065 0.06680051 -0.06215842 0.2202208 0.20232789 -0.24085563 -0.06738119 0.21452051
0.10531874 -0.12112954 0.1239017 -0.104604736 0.100128785 0.026216522 -0.052395448 0.04764509
0.086338714 0.013255012 -0.10466767 -0.057080474 0.12953149 -0.0072533293 0.035806622 -0.06440391
-0.09692549 0.04672291 -0.18941121 -0.15982571 0.23407805 0.057507824 -0.29753008 -0.061065435
0.10068497 -0.0644525 0.0665336 -0.123421945 -0.029615628 0.027225 -0.007298745 -0.0023888866
0.035990875 -0.024046738 0.027145598 -0.16181837 -0.012577456 -0.0036533508 -0.010010453 -0.0550693
0.016158596 0.116007656 0.11776908 -0.12036591 0.007524012 -0.11885088 0.06733938 -0.07071079
0.11986565 -0.06376023 0.018563602 -0.0127226915 -0.069646 -0.00025130168 0.022296732 -0.04253748
-0.20123757 -0.06648539 0.012634616 0.029488267 -0.25029513 -0.14541313 -0.10181753 0.14741543
0.09795775 0.08738227 -0.10130817 0.13447882 0.09142881 0.028009305 -0.021411704 -0.0482648
-0.027283868 0.013226791 0.0051853 -0.09370127 -0.007940735 0.018813668 0.061324954 -0.033802655
-0.11490656 0.026261162 0.0022129652 0.03204505 0.012633588 0.026367357 -0.005620625 0.101599015
0.09147336 -0.11786101 -0.009845355 0.09879845 -0.008546514 -0.008387203 0.016461488 0.0063714166
0.042158727 -0.02183791 -0.03540457 0.0016653594 0.08135101 -0.10198534 0.21475387 -0.043092765
0.02361274 -0.00082208 0.18745083 -0.052961305 -0.011579364 0.04909693 0.04154596 0.050300345
-0.043709837 0.058852933 0.25570044 -0.09636461 0.1422051 -0.12077952 0.09901425 -0.11943828
-0.07040131 -0.053210553 -0.06936809 0.055636536 0.07946679 0.17765962 -0.04961123 -0.210034
0.0038065782 0.24587543 -0.0048491457 -0.0027177664 0.00683534 -0.10777029 -0.083692186 0.13538007
0.00930324 -0.022081189 -0.09770151 0.14265274 -0.068568364 0.09794858 0.010726591 -0.013333889
0.03304035 -0.047645796 0.096071295 0.12801826 -0.0873844 0.016763572 0.0038081305 -0.0005754815
0.07743848 0.06541478 0.031345785 -0.07114263 -0.10721098 -0.09147626 0.13122718 -0.06792292
-0.16745028 -0.091214195 0.09842226 -0.0013815342 0.0923207 -0.094614275 -0.00016924727 -0.0034192095
-0.019817267 0.0014500988 0.05607041 0.031361803 -0.002868675 -0.09470538 -0.006103994 0.07556941
-0.045356717 -0.036336537 0.06317381 -0.032916464 -0.026966855 0.01788772 0.048647523 -0.010745773
-0.043157432 0.049572855 -0.054305065 0.043946408 0.04528964 0.032228973 0.024633793 -0.014302792
0.0033726036 -0.024676558 0.005729071 0.020503934 0.082802586 -0.008989557 -0.01576707 0.040256962
0.007265343 -0.04467754 -1.7253883e-06 0.005935103 0.031489428 -0.04123382 -0.15986383 -0.07493963
0.07018451 0.044250287 0.07569931 -0.0049676076 -0.0147694 0.04642516 0.017010396 0.024390142
0.0038366644 0.035035774 0.03883113 -0.02289138 -0.0038819963 0.09078965 -0.05413517 -0.05224343
0.052857373 -0.023583837 -0.03418527 0.016495649 0.05909942 -0.08528772 -0.07956066 0.05712088
-0.072071284 0.07239802 0.054552805 0.00013570162 0.020705117 0.0071685594 -0.030994415 -0.010566543
-0.010797594 0.005513399 0.072871156 0.010008482 -0.06104346 0.04059943 0.0043924516 -0.041762087
00000000: 3928 813d b5ce 883d d499 7ebd 9081 613e
00000010: 0b2f 4f3e dca2 76be 26ff 89bd 44ab 5b3e
00000020: 5ab1 d73d c412 f8bd 2dc0 fd3d 023b d6bd
00000030: 5210 cd3d 08c4 d63c 9c9c 56bd 7f27 433d
00000040: 5ad2 b03d 8d2b 593c 015c d6bd 37cd 69bd
00000050: e7a3 043e 56ad edbb f7a9 123d 32e6 83bd
00000060: df80 c6bd 8660 3f3d 03f5 41be 5aa9 23be
00000070: 28b2 6f3e 538d 6b3d dd55 98be c01f 7abd
00000080: ec33 ce3d acff 83bd c542 883d a5c4 fcbd
00000090: 799c f2bc f706 df3c 502a efbb de8e 1cbb
000000a0: 2b6b 133d aafd c4bc 7260 de3c b7b3 25be
000000b0: ad11 4ebc 0e6d 6fbb e202 24bc 5990 61bd
000000c0: 085f 843c 6c95 ed3d ea30 f13d 6782 f6bd
000000d0: fd8b f63b 1768 f3bd 3be9 893d d2d0 90bd
000000e0: 1f7c f53d b994 82bd b212 983c d672 50bc
000000f0: 90a2 8ebd 24c1 83b9 a3a7 b63c c83b 2ebd
00000100: 3911 4ebe 7e29 88bd 6c01 4f3c 6191 f13c
00000110: af26 80be 2ee7 14be b685 d0bd 12f4 163e
00000120: 139e c83d 7af5 b23d a87a cfbd d1b4 093e
00000130: 073f bb3d c573 e53c 9967 afbc 50b1 45bd
00000140: 6b82 dfbc 2fb5 583c 73e9 a93b 74e6 bfbd
00000150: db19 02bc 1f1f 9a3c e02f 7b3d a774 0abd
00000160: 2154 ebbd a621 d73c 6507 113b ac41 033d
00000170: 1cfd 4e3c 5b00 d83c 382d b8bb 2513 d03d
00000180: 6356 bb3d 1d61 f1bd 694e 21bc d756 ca3d
00000190: ae06 0cbc 7b6a 09bc 3eda 863c 51c7 d03b
000001a0: a1ae 2c3d 6be5 b2bc 6204 11bd 3048 da3a
000001b0: 5c9b a63d b1dd d0bd 70e8 5b3e 0a82 30bd
000001c0: 816f c13c db80 57ba 1cf3 3f3e f4ed 58bd
000001d0: 5fb7 3dbc dd19 493d 192c 2a3d bc07 4e3d
000001e0: 1609 33bd c60f 713d 2beb 823e cf5a c5bd
000001f0: 379e 113e 415b f7bd fcc7 ca3d 0f9c f4bd
00000200: 902e 90bd 4ff3 59bd db10 8ebd 23e3 633d
00000210: 7cbf a23d 67ec 353e 2535 4bbd 2713 57be
00000220: c977 793b c5c6 7b3e 95e5 9ebb 8e1c 32bb
00000230: fdfa df3b abb6 dcbd cf66 abbd 13a1 0a3e
00000240: 9e6c 183c 9ce3 b4bc bb17 c8bd 8f13 123e
00000250: 926d 8cbd 4499 c83d 95be 2f3c 6276 5abc
00000260: 5155 073d 3d28 43bd 07c1 c43d 3817 033e
00000270: 98f6 b2bd c253 893c d491 793b e9db 16ba
00000280: 1198 9e3d 2ff8 853d 7064 003d 3ab3 91bd
00000290: 6e91 dbbd e857 bbbd 6b60 063e 2c1b 8bbd
000002a0: 1678 2bbe 82ce babd 9c91 c93d 9814 b5ba
000002b0: a312 bd3d 21c5 c1bd f877 31b9 d114 60bb
000002c0: d257 a2bc 3e11 be3a 16aa 653d 3c75 003d
000002d0: 6100 3cbb e5f4 c1bd 0304 c8bb 23c4 9a3d
000002e0: f7c7 39bd 9fd5 14bd 4561 813d 6ad3 06bd
000002f0: 98e9 dcbc 4589 923c a042 473d 0a0f 30bc
00000300: d9c5 30bd e80c 4b3d fd6e 5ebd 2601 343d
00000310: a181 393d 8702 043d cfcc c93c 4256 6abc
00000320: e606 5d3b 7e26 cabc eeba bb3b def7 a73c
00000330: 6794 a93d ef48 13bc f129 81bc 7ce4 243d
00000340: 1d12 ee3b ccff 36bd e493 e7b5 417b c23b
00000350: 0ffb 003d cbe4 28bd 58b3 23be f379 99bd
00000360: e5bc 8f3d ca3f 353d 3d08 9b3d 50c7 a2bb
00000370: 5afb 71bc 4f28 3e3d 6359 8b3c d6cd c73c
00000380: 8c70 7b3b ac81 0f3d 640d 1f3d b486 bbbc
00000390: 1769 7ebb edef b93d d7bc 5dbd 35fd 55bd
000003a0: f980 583d e432 c1bc db05 0cbd e221 873c
000003b0: 3c12 723d 54ab aebd b3f0 a2bd 95f7 693d
000003c0: 1c9a 93bd 6a45 943d c372 5f3d 204b 0e39
000003d0: c79d a93c 3ce6 ea3b 00e8 fdbc 4b1f 2dbc
000003e0: 64e8 30bc bea9 b43b 793d 953d 9efa 233c
000003f0: b508 7abd 974b 263d 8eee 8f3b b90e 2bbd

exp_avg_sq f4 [18, 23]
0.12308187 0.08123791 0.16101025 0.31271103 0.28489935 0.35166138 0.14140882 0.4915312
0.45295575 0.42283577 0.20210001 0.4472466 0.04726061 0.046564832 0.05316212 0.017553978
0.020529259 0.039223254 0.10763166 0.059716746 0.06490492 0.035797417 0.1838796 0.13815857
0.093581855 0.16190836 0.33316377 0.3905091 0.2665181 0.1531575 0.26190752 0.220652
0.21564233 0.26885006 0.2188618 0.029606514 0.031063104 0.018959811 0.010811993 0.023738941
0.025258305 0.036524978 0.014185961 0.0604499 0.016326815 0.09539132 3.8895702 2.1872542
4.3627334 0.37806123 0.3654911 0.4388741 4.2709255 0.88677907 1.2112033 0.9773208
2.1975756 1.1634235 0.20405118 0.050320175 0.06078197 0.04592896 0.011323404 0.035800222
0.1663074 0.04558053 0.2777646 0.021123245 0.26179984 2.1863914 1.2461383 2.4624252
0.52331626 0.6349415 0.3945113 2.397823 0.4478837 0.30810764 0.32939476 1.4353641
0.3137058 0.117045835 0.058667876 0.068730146 0.01419337 0.024210183 0.031422324 0.0592959
0.079459466 0.1686551 0.0128877945 0.13834026 0.4030419 0.23632456 0.46698964 0.53658134
0.46708113 0.6186949 0.44276723 0.5410627 0.7136614 0.6729129 0.40473434 0.7061693
0.031440213 0.057510447 0.026733056 0.0393213 0.0715274 0.09925095 0.2725126 0.029856257
0.06817551 0.07245342 0.47045052 0.3110369 0.22376145 0.38046753 0.37648487 0.32624984
0.4756277 0.34649214 1.1828649 0.4633422 0.49860954 0.28657487 0.47313738 0.079134
0.0264033 0.031399462 0.05285608 0.015860602 0.08505936 0.32880226 0.008349765 0.11650668
0.0825733 0.46573815 0.16372389 0.1539217 0.17111556 0.539003 0.43047753 0.68548447
0.17908007 0.92176116 0.8591239 0.9152117 0.336631 0.87322676 0.02298198 0.042358138
0.04593826 0.061471518 0.042103957 0.1511023 0.35339442 0.06472546 0.022296427 0.037110426
0.7024201 0.15067092 0.09839382 0.17251693 0.29897943 0.35424796 0.23101433 0.16546355
0.24051288 0.095942415 0.1186991 0.25012118 0.10094484 0.020738518 0.021200614 0.010117641
0.014427046 0.015219663 0.022084584 0.05097143 0.015631046 0.032937683 0.0105131855 0.11485775
0.13916683 0.09042771 0.16640781 0.33101735 0.40974027 0.23040994 0.15686321 0.19385396
0.21315296 0.18904501 0.30571842 0.20693512 0.014220402 0.015122271 0.010552152 0.008380858
0.010771128 0.023375219 0.046650197 0.0062719965 0.029498404 0.010593422 0.08560958 0.11448085
0.071671724 0.13942854 0.2778093 0.3080106 0.23594934 0.12864716 0.22589037 0.2537973
0.2431628 0.231119 0.2521535 0.015306603 0.0063166274 0.031533394 0.012176098 0.010078423
0.027034463 0.101413704 0.020899462 0.029047323 0.0103570325 0.15343598 0.11106016 0.0789298
0.12953787 0.24424817 0.26805392 0.21983947 0.121571645 0.35239443 0.220455 0.22366865
0.18644893 0.22137848 0.0144161 0.018042 0.014439615 0.016712703 0.0309145 0.04021985
0.08590323 0.016472606 0.03004092 0.01912867 0.17483121 0.091438055 0.09505581 0.11079759
00000000: 5912 fc3d 1060 a63d dfdf 243e a91b a03e
00000010: 54de 913e f60c b43e 79cd 103e faa9 fb3e
00000020: d1e9 e73e ee7d d83e 4ef3 4e3e 82fd e43e
00000030: 5794 413d c4ba 3e3d 86c0 593d 5ccd 8f3c
00000040: fa2c a83c 90a8 203d fd6d dc3d 8c99 743d
00000050: dfec 843d 50a0 123d ef4a 3c3e 7179 0d3e
00000060: d8a7 bf3d 4ecb 253e 7194 aa3e cff0 c73e
00000070: 0f75 883e 52d5 1c3e be18 863e 99f2 613e
00000080: 58d1 5c3e b7a6 893e 4f1d 603e 5c89 f23c
00000090: 0d78 fe3c 9b51 9b3c c924 313c 2b78 c23c
000000a0: 81ea ce3c 379b 153d 3c6c 683c 509a 773d
000000b0: d0bf 853c 865c c33d b8ee 7840 f9fb 0b40
000000c0: 839b 8b40 3e91 c13e a621 bb3e 1bb4 e03e
000000d0: 6cab 8840 f403 633f b608 9b3f b231 7a3f
000000e0: 14a5 0c40 10eb 943f cbf2 503e 871c 4e3d
000000f0: 84f6 783d 0120 3c3d cc85 393c 41a3 123d
00000100: 7d4c 2a3e a6b2 3a3d 2937 8e3e a80a ad3c
00000110: a10a 863e d6ed 0b40 7681 9f3f 6098 1d40
00000120: 0ef8 053f 878b 223f 63fd c93e ef75 1940
00000130: 0351 e53e 49c0 9d3e 6ea6 a83e 03ba b73f
00000140: 0c9e a03e bab5 ef3d ba4d 703d 64c2 8c3d
00000150: 4f8b 683c 6f54 c63c b2b4 003d 42e0 723d
00000160: a5bb a23d ecb3 2c3e 5427 533c 12a9 0d3e
00000170: 825b ce3e 11ff 713e 4419 ef3e 655d 093f
00000180: 4225 ef3e ca62 1e3f 63b2 e23e 1683 0a3f
00000190: 83b2 363f 0544 2c3f 5739 cf3e 83c7 343f
000001a0: 74c7 003d 1390 6b3d 48ff da3c 5f0f 213d
000001b0: f57c 923d 1544 cb3d c686 8b3e 1c95 f43c
000001c0: 9a9f 8b3d 7562 943d e4de f03e 3b40 9f3e
000001d0: b921 653e a4cc c23e a0c2 c03e 380a a73e
000001e0: 7985 f33e 6b67 b13e 1e68 973f 303b ed3e
000001f0: c049 ff3e f1b9 923e 103f f23e 0211 a23d
00000200: bc4b d83c b99c 003d 9e7f 583d 18ee 813c
00000210: 9a33 ae3d c558 a83e 74cd 083c 0e9b ee3d
00000220: 311c a93d 3b75 ee3e 3ca7 273e a69d 1d3e
00000230: eb38 2f3e 1afc 093f 8d67 dc3e e97b 2f3f
00000240: c460 373e 8af8 6b3f 8bef 5b3f 504b 6a3f
00000250: e65a ac3e ca8b 5f3f b544 bc3c ba7f 2d3d
00000260: c229 3c3d 8fc9 7b3d 3375 2c3d 90ba 1a3e
00000270: 1df0 b43e c88e 843d ffa6 b63c 1a01 183d
00000280: ced1 333f 7a49 1a3e b382 c93d 47a8 303e
00000290: d513 993e fd5f b53e 058f 6c3e 476f 293e
000002a0: 0249 763e 757d c43d 8418 f33d e20f 803e
000002b0: 2bbc ce3d d3e3 a93c e9ac ad3c 76c4 253c
000002c0: 6b5f 6c3c e55b 793c bbea b43c 6bc7 503d
000002d0: ae0c 803c aae9 063d 7f3f 2c3c 8a3a eb3d
000002e0: c081 0e3e 2a32 b93d cf66 2a3e 1b7b a93e
000002f0: 7ac9 d13e 95f0 6b3e c0a0 203e a781 463e
00000300: c544 5a3e 0495 413e 2087 9c3e cde6 533e
00000310: b0fc 683c 67c3 773c efe2 2c3c de4f 093c
00000320: 6379 303c 637d bf3c 4714 3f3d 5285 cd3b
00000330: a3a6 f13c 0890 2d3c 1354 af3d f074 ea3d
00000340: a0c8 923d 5bc6 0e3e 053d 8e3e 91b3 9d3e
00000350: b49c 713e 15bc 033e ce4f 673e b8f1 813e
00000360: abff 783e 76aa 6c3e 431a 813e 8cc8 7a3c
00000370: b6fb ce3b 2929 013d 427e 473c f81f 253c
00000380: 6177 dd3c fdb1 cf3d 5935 ab3c a7f4 ed3c
00000390: 8bb0 293c 521e 1d3e 8273 e33d f2a5 a13d
000003a0: 93a5 043e 311c 7a3e 5d3e 893e 991d 613e
000003b0: 8efa f83d 0b6d b43e f5be 613e 6509 653e
000003c0: 78ec 3e3e 0ab1 623e 8231 6c3c d1cc 933c
000003d0: 2394 6c3c 14e9 883c 6840 fd3c 92bd 243d
000003e0: 08ee af3d 8ff1 863c 6018 f63c bbb3 9c3c
000003f0: f406 333e e043 bb3d 9fac c23d d9e9 e23d

exp_avg f4 [18]
0.10573106 -0.13355625 -0.25901532 -0.044744294 0.16683641 -0.009963222 0.10153304 -0.018366387
0.073277004 0.10760175 0.0432984 0.119225256 0.01822156 0.058954436 -0.11074621 -0.002197197
-0.15939936 0.15386876
00000000: 8789 d83d f8c2 08be a89d 84be cb45 37bd
00000010: 2ad7 2a3e c83c 23bc 8ef0 cf3d 1b75 96bc
00000020: 4112 963d 4e5e dc3d aa59 313d 5f2c f43d
00000030: 6245 953c 357a 713d e9ce e2bd d9fe 0fbb
00000040: 9639 23be c68f 1d3e

exp_avg_sq f4 [18]
0.3613177 0.18335941 0.6069527 0.37948617 0.692654 0.6688509 0.8505426 0.17204624
0.1362594 0.20420367 0.22904687 0.53029925 0.5461222 0.19631702 0.35653844 0.7737126
0.26441535 0.8178587
00000000: a2fe b83e 92c2 3b3e 4161 1b3f 034c c23e
00000010: c651 313f d039 2b3f 29bd 593f e42c 303e
00000020: 9687 0b3e c41a 513e 438b 6a3e b1c1 073f
00000030: aace 0b3f 5407 493e 358c b63e 0712 463f
00000040: 7361 873e 305f 513f

exp_avg f4 [100, 18]
-0.0075470502 0.0046343748 0.006721481 -0.0010263973 0.003353903 0.0024859481 -0.009150549 -0.0011095973
0.002174986 0.009811226 -0.0019351946 -0.001469822 -0.00091820006 -0.007604861 0.009826526 0.007466242
0.0038333088 -0.008937997 -4.755386e-05 -0.0006294051 2.457353e-05 0.001784943 0.0017102697 -0.00046587156
0.00029136345 -0.0023375356 0.0016639641 0.00072101265 0.0005650171 0.0014678048 0.00013543462 0.0011817082
0.0001707263 0.0014984253 -0.0016002429 -0.0012016355 0.000563317 -0.000734647 -0.00087423547 -0.0014112149
0.00072080723 -0.000258534 3.4945854e-06 0.00032267248 -0.0008654928 -8.729895e-05 0.0008919985 -0.0001607053
8.309123e-05 -2.4264282e-05 0.00022374709 -0.00066407927 0.00031230316 0.0014226031 -0.0011954677 -0.0013152945
-9.375237e-05 -0.0026883124 0.0031197057 -0.0002675008 -0.002543091 -0.00029971535 0.00039020536 0.0008821299
0.001219986 -0.00032971715 -0.00032386975 -0.0025220115 0.0014559836 8.7667846e-05 -0.0008785884 0.002211998
-0.0012322637 -0.0003632024 0.00083609554 -0.0005174578 0.0005503908 -0.00036312462 -0.0015198604 -0.0004956013
0.0006872298 0.00041301356 0.0008154666 -0.00047025486 6.356941e-05 -0.00095366687 0.00019201289 0.0005552014
0.0004869534 -0.0001158594 -0.00026816878 2.6078686e-05 -0.001187356 0.0025138373 -0.0009642522 0.0020516473
0.0005564793 -0.00037924378 0.0013570625 -0.0006753832 -0.0012433144 -0.0016552788 -0.000757997 -0.0018376019
0.0028360744 0.0033959514 0.00058446964 -0.006224256 -0.00051103055 -0.00017827071 0.0009884002 -0.00053677615
-0.0008565419 -0.00095395016 -0.0013241441 -0.00039303664 -0.00011412477 0.0007714704 -0.00020792031 4.8432183e-05
0.0002060958 -0.00077755266 -0.00043196068 0.0010580887 7.324213e-05 0.00012093449 0.00058038795 -6.712164e-05
0.0003698356 -0.0004981944 -0.00073105167 -0.0019127817 0.00052772154 -0.0023398744 0.0011816318 0.00064695504
0.00094282214 -0.0011142346 -0.00017854714 -0.0013752757 -0.0006131689 0.0028582152 0.0005168949 -0.0021191873
-2.6270223e-05 -4.3652923e-05 -2.4486797e-05 0.00023702088 -4.6823345e-05 -9.150009e-05 0.00012973616 -0.00026230107
7.777519e-05 0.00020446922 6.80681e-05 0.00030430354 0.00012029724 0.00020120223 -9.645654e-05 0.00033984226
-0.00023691182 -0.00023697397 0.0002943599 0.00018702599 -0.00026961725 -1.5629823e-05 0.00045580318 0.00016888384
0.00038138477 -9.2035276e-05 0.0001424341 6.1036415e-05 8.60878e-05 -0.00014534296 -0.00012345365 -0.000118568176
0.00041880753 -3.929947e-05 5.357442e-05 -0.00014693994 -0.0018822248 -0.0008313308 0.0011167995 0.00022814832
0.00049336196 -0.0007961925 -0.0018948135 -0.0013881879 0.001396528 0.00031843613 0.0012884447 -5.0136405e-05
0.00049387093 -0.00044378033 -0.0002268948 0.0010119671 0.0005925754 -0.00060573855 -0.0003741263 -0.00036246216
0.0002852578 0.0010853043 -0.0002779021 0.0002105207 -0.0005901522 -0.00043486443 0.0008997085 -0.00045756937
-0.0002840644 -0.0001785003 7.5526375e-05 -0.0003320474 0.00040678203 0.0008151379 -0.0001793481 -0.0010932335
-0.00028242308 -0.0006481259 -0.0008907631 -0.0003560135 -0.0010059988 -0.00012304877 0.00019985702 -0.00014421002
0.00014425225 -0.00040777662 0.00036882394 -0.00045376207 0.0001279914 -0.00030569642 -0.0003836152 0.0006383785
0.0004690178 -0.00097465224 -0.0002941938 -0.00085711986 -0.0032594241 0.0011472823 -0.003576813 0.0004544973
0.0025823924 0.0011793732 -0.00010873376 -0.0015342619 -0.00037848082 -0.000119430784 0.00014355998 -0.00010799139
-0.0018511988 -0.00014406382 0.0007071178 -0.0019348898 -0.001512202 -0.0012398863 0.0001032596 -7.246446e-05
00000000: 3f4d f7bb f4db 973b df3f dc3b 2e88 86ba
00000010: 28cd 5b3b 4aeb 223b 2fec 15bc e86f 91ba
00000020: 368a 0e3b 44bf 203c 5ba6 fdba 0ba7 c0ba
00000030: 5db3 70ba 3332 f9bb 70ff 203c 61a7 f43b
00000040: 4038 7b3b ad70 12bc 9274 47b8 a9fe 24ba
00000050: 4123 ce37 c0f4 e93a 212b e03a 3940 f4b9
00000060: 24c2 9839 5731 19bb 5f19 da3a 5702 3d3a
00000070: a81d 143a 5b63 c03a 7403 0e39 8ce3 9a3a
00000080: fe04 3339 cf66 c43a 3ebf d1ba 3280 9dba
00000090: 90ab 133a 5395 40ba f32c 65ba 84f8 b8ba
000000a0: 8ef4 3c3a d98b 87b9 8584 6a36 5e2c a939
000000b0: 3de2 62ba 4414 b7b8 02d5 693a 0083 28b9
000000c0: 4441 ae38 268b cbb7 a79d 6a39 9b15 2eba
000000d0: 9fbc a339 a476 ba3a 3db1 9cba f665 acba
000000e0: ec9c c4b8 662e 30bb fa73 4c3b 5a3f 8cb9
000000f0: fda9 26bb 1d23 9db9 7a94 cc39 bc3e 673a
00000100: f0e7 9f3a e3dd acb9 10cd a9b9 5548 25bb
00000110: b4d6 be3a 51da b738 1251 66ba 2bf7 103b
00000120: e983 a1ba 336c beb9 6c2d 5b3a 01a6 07ba
00000130: 1a48 103a c361 beb9 0d36 c7ba 3eeb 01ba
00000140: 3627 343a be89 d839 0ac5 553a 8a8c f6b9
00000150: 9150 8538 80ff 79ba 1157 4939 ef8a 113a
00000160: c74d ff39 8bf9 f2b8 0199 8cb9 8dc3 da37
00000170: 0ea1 9bba 31bf 243b dfc5 7cba ee74 063b
00000180: b2e0 113a 3dd5 c6b9 76df b13a 330c 31ba
00000190: b5f6 a2ba f1f5 d8ba 51b4 46ba b0db f0ba
000001a0: 6fdd 393b 9c8e 5e3b 1837 193a d8f4 cbbb
000001b0: aef6 05ba 2eee 3ab9 358d 813a 70b6 0cba
000001c0: 8e89 60ba 8312 7aba e78e adba 7c10 ceb9
000001d0: 4556 efb8 813c 4a3a 2f05 5ab9 a923 4b38
000001e0: 6c1b 5839 add4 4bba c878 e2b9 91af 8a3a
000001f0: 9299 9938 369e fd38 2d25 183a a8c3 8cb8
00000200: 7ee6 c139 4399 02ba 0ca4 3fba 4eb6 faba
00000210: cb56 0a3a 9458 19bb fce0 9a3a 6b98 293a
00000220: b927 773a 820b 92ba 6238 3bb9 9842 b4ba
00000230: 11bd 20ba e550 3b3b 3b80 073a 10e2 0abb
00000240: e05e dcb7 f817 37b8 ff68 cdb7 cf88 7839
00000250: 2f64 44b8 bde3 bfb8 c909 0839 7485 89b9
00000260: 3d1b a338 ca66 5639 c8bf 8e38 ee8a 9f39
00000270: 1748 fc38 d0f9 5239 b648 cab8 db2c b239
00000280: 886b 78b9 377c 78b9 5154 9a39 681c 4439
00000290: 6a5b 8db9 ca1c 83b7 def8 ee39 6916 3139
000002a0: 99f4 c739 1003 c1b8 5d5a 1539 ad00 8038
000002b0: 098a b438 3467 18b9 5673 01b9 cea7 f8b8
000002c0: 6593 db39 7cd5 24b8 18b5 6038 e413 1ab9
000002d0: fcb4 f6ba aaed 59ba 9361 923a 193b 6f39
000002e0: f654 013a 93b7 50ba 645b f8ba dbf3 b5ba
000002f0: b40b b73a c6f3 a639 08e1 a83a 8e49 52b8
00000300: 1e77 013a 30ab e8b9 9cea 6db9 fba3 843a
00000310: 1057 1b3a 6dca 1eba 6226 c4b9 d908 beb9
00000320: a78e 9539 c540 8e3a 63b3 91b9 38bf 5c39
00000330: 72b4 1aba 84fe e3b9 6ada 6b3a ece5 efb9
00000340: 7aee 94b9 cf2b 3bb9 ea63 9e38 a616 aeb9
00000350: 5c45 d539 faae 553a 640f 3cb9 d44a 8fba
00000360: 2f12 94b9 fee6 29ba 1a82 69ba 53a7 bab9
00000370: b8db 83ba a706 01b9 b690 5139 1537 17b9
00000380: 6b42 1739 daca d5b9 b65e c139 eae6 edb9
00000390: 6e35 0639 e145 a0b9 f61f c9b9 db58 273a
000003a0: 81e6 f539 ce7f 7fba 063e 9ab9 57b0 60ba
000003b0: 109c 55bb 6860 963a f768 6abb 9849 ee39
000003c0: 5b3d 293b 3395 9a3a fe07 e4b8 4919 c9ba
000003d0: d66e c6b9 ea76 fab8 9788 1639 7079 e2b8
000003e0: eda3 f2ba d60f 17b9 df5d 393a 219c fdba
000003f0: 1435 c6ba ae83 a2ba 138d d838 10f8 97b8
