runs/perovskite_multiscale_dataset_3/ae2_PCE_predictor_enc_l_18_l1_1em2_tanh_predictor_0_1_100_relu_decoder_linear_seed_0_lr_1em3_bs_100_e_1500_pass_latents_ae1_fold_0_ae2_fold_1_xavier_normal_gain_10/submodule_params/htm_pred_params.pt (torch, 1415 bytes, 2 tensors)

0.weight f4 [4, 18]
000000 6a b1 43 c1 92 26 95 40 1f ea 13 c0 64 2e 1e c1
       -12.230814 4.6609583 -2.3111646 -9.886326
000010 b2 bc 2a 40 b5 51 94 c0 c5 31 a6 3f e2 25 48 c0
       2.667767 -4.634974 1.2983938 -3.1273122
000020 87 0d 65 40 33 56 70 40 ab b1 77 40 32 75 a4 40
       3.5789506 3.7552612 3.870219 5.139306
000030 d8 15 17 c0 6e 80 b4 be 1c 23 b4 3f 1b 43 b4 bf
       -2.3607082 -0.35254234 1.4073215 -1.4082979
000040 eb 11 24 41 a8 18 6b c0 3f e2 0b 41 aa 02 53 c1
       10.2543745 -3.67338 8.742736 -13.18815
000050 b6 59 bc c0 f8 0b b4 3e 06 09 cf 3f 6c 8f ff c0
       -5.885951 0.3516538 1.6174629 -7.9862576
000060 79 05 55 c0 30 76 1e c0 3c 87 27 c0 f6 a0 a7 40
       -3.328459 -2.4759636 -2.617629 5.2383986
000070 90 4b 25 c0 d1 cc 4b c0 de 56 e1 40 33 84 6c bf
       -2.582737 -3.184376 7.041854 -0.9238922
000080 4e c6 bb 3f 91 7f aa c0 51 4f c4 c0 a7 2f 23 41
       1.4669893 -5.328072 -6.134682 10.199134
000090 64 e9 9c be e9 8a c3 40 8f 6d a3 40 02 9d e2 c0
       -0.30646813 6.110707 5.107124 -7.081666
0000a0 d9 84 27 40 ed 08 c5 40 b8 e5 0a 40 d1 a6 8f bf
       2.6174834 6.1573396 2.170271 -1.1222783
0000b0 20 93 01 c1 07 66 14 c0 b2 1c 9b 40 9c f8 0e be
       -8.098419 -2.3187273 4.847253 -0.13962024
0000c0 c2 de c5 c0 58 66 14 40 90 e0 c8 c0 df 20 0e 41
       -6.183442 2.3187466 -6.2774124 8.883025
0000d0 c7 15 52 c1 77 d0 ce 3f 77 f6 89 40 9b 17 67 40
       -13.130317 1.6157368 4.311336 3.6108158
0000e0 b5 d5 8d 40 1b ff 3d 41 7f 4d b7 c0 fd 54 3f 40
       4.4323373 11.874782 -5.72821 2.9895623
0000f0 7b e5 67 3e a1 5c 63 40 b4 90 0a 41 fb b5 a7 c0
       0.22646134 3.5525286 8.660328 -5.2409644
000100 44 d6 98 c0 bc c0 cb bf 9c 2d 60 bf 6f 2c 29 c0
       -4.7761555 -1.5918193 -0.87569594 -2.643337
000110 dc fb 7b 40 55 7d 33 c0 17 8f 20 41 1d cd 91 c0
       3.9372473 -2.8045247 10.034934 -4.5562882

0.bias f4 [4]
000000 ea 04 a8 3f 87 ce 89 3d 4b 29 4b bf 8a 47 ab bf
       1.31265 0.06728845 -0.79359883 -1.3381207
