runs/perovskite_multiscale_dataset_3/ae2_PCE_predictor_enc_l_18_l1_1em2_tanh_predictor_0_1_100_relu_decoder_linear_seed_0_lr_1em3_bs_100_e_1500_pass_latents_ae1_fold_0_ae2_fold_1_xavier_normal_gain_10/submodule_params/latents_pred_params.pt (torch, 2007 bytes, 2 tensors)

0.weight f4 [12, 18]
0	0x3f99d0e3	1.2016872
1	0x3f152fca	0.58276045
2	0xbef2d2c4	-0.47426426
3	0xbee97dd4	-0.45603812
4	0xbd089916	-0.03334912
5	0xbe964c2f	-0.29354998
6	0x3f7f7727	0.9979119
7	0xbf57633e	-0.84135807
8	0x3f090386	0.53521
9	0xbe62990c	-0.22128695
10	0x3e2a8d85	0.16655548
11	0xbf2302e4	-0.63676286
12	0xbfd41935	-1.6570193
13	0xbf1842d9	-0.59477
14	0xbde1b526	-0.110208794
15	0x3f83f471	1.0308973
16	0x3f6bb317	0.92070144
17	0xbed2fb67	-0.4120743
18	0x3f59dda4	0.8510382
19	0x3f5dec0a	0.8668829
20	0xbf0dbb36	-0.55363786
21	0xbe864407	-0.26223776
22	0xbea683f8	-0.3252256
23	0xbf0634f8	-0.52424574
24	0x3ef4f665	0.47844234
25	0xbf20e47b	-0.62848634
26	0x3e959c64	0.2922088
27	0xbe924f80	-0.2857628
28	0x3debb6c3	0.115094684
29	0xbf1cdccc	-0.6127441
30	0xbf916569	-1.1359073
31	0xbee8f526	-0.45499533
32	0xbf04accd	-0.51826173
33	0x3f77bb54	0.96770215
34	0x3f329cb4	0.6977036
35	0xbde6a6fe	-0.1126232
36	0xbfbd3ddb	-1.4784502
37	0xbe9ac2f8	-0.30226874
38	0x3e75a6d1	0.23989417
39	0x3ed3c739	0.41362932
40	0xbf20340d	-0.62579423
41	0x3ea5e300	0.3239975
42	0xbf96b0e5	-1.1772734
43	0x3f451c35	0.76996166
44	0xbeafff3c	-0.34374416
45	0xbd4df858	-0.050285667
46	0xbe0b9bd0	-0.13633657
47	0x3f645067	0.89185184
48	0x3f8de5e7	1.1085786
49	0x3f4ea573	0.80721205
50	0x3f22c7e9	0.6358629
51	0xbf6819b0	-0.90664196
52	0xbf348659	-0.705175
53	0x3f820d79	1.0160362
54	0x3d7a2ddd	0.061078895
55	0x3f15c9dc	0.5851114
56	0xbed9d5f9	-0.4254606
57	0x3f05a12b	0.5219905
58	0x3f664310	0.8994608
59	0x3f651f3e	0.89500797
60	0x3fca6349	1.581155
61	0x3da24848	0.07923943
62	0x3edf5d65	0.43625942
63	0xbe2bfa5c	-0.16794723
64	0x3f6fac9c	0.93622756
65	0x3f89cb19	1.0765105
66	0xbf261733	-0.6487915
67	0x3fab6648	1.3390589
68	0xbfd34b0c	-1.6507277
69	0xc008cddc	-2.1375647
70	0xbf295775	-0.66149074
71	0x3e9636d7	0.29338714
72	0x3dfe9f60	0.12432742
73	0x3f02d663	0.5110838
74	0xbebc2f4b	-0.36754832
75	0x3ecb0937	0.39655468
76	0x3f431bfa	0.76214564
77	0x3f42e582	0.7613145
78	0x3fa0e96e	1.2571237
79	0x3e0eb6eb	0.13936965
80	0x3f1ec2d9	0.62016064
81	0xbe543d39	-0.2072648
82	0x3f43d2c2	0.76493466
83	0x3f8b73dd	1.0894734
84	0xbf01b5c4	-0.5066798
85	0x3fa0af1a	1.2553437
86	0xbfc95036	-1.5727603
87	0xbfe0e38b	-1.7569441
88	0xbee4f8d6	-0.44721097
89	0x3e9de61d	0.30839625
90	0x3f40f6be	0.753765
91	0xbfbb0121	-1.460972
92	0x3f7c06b6	0.9844774
93	0xbf7a5147	-0.9778027
94	0xbf1266ed	-0.571883
95	0xbe8770b6	-0.2645318
96	0xc0099c11	-2.1501505
97	0x3dd28d43	0.1028085
98	0x3e842c63	0.25815114
99	0x3ee32db9	0.4437082
100	0xbf3cab7e	-0.73699176
101	0xbf37c006	-0.7177738
102	0x3e0c5631	0.13704754
103	0xbfad6431	-1.3546201
104	0x3fad3ece	1.3534791
105	0x3fcbad8d	1.5912338
106	0x3f573114	0.8405926
107	0xbf88afa8	-1.0678606
108	0xbfbbddb9	-1.4677039
109	0xbea4eb01	-0.32210544
110	0x3e3c4f53	0.18389635
111	0x3ee631de	0.4495992
112	0xbf112467	-0.5669617
113	0x3e415389	0.18879522
114	0xbf8539e2	-1.040829
115	0x3f48a282	0.7837297
116	0xbebb5ca6	-0.36594123
117	0x3b593cdc	0.0033147847
118	0xbe0ee246	-0.13953504
119	0x3f6e485d	0.9307917
120	0x3fbfe9e0	1.4993248
121	0x3f5ac2b9	0.85453373
122	0x3f33398c	0.70009685
123	0xbf5d4718	-0.86436605
124	0xbf5b8758	-0.85753393
125	0x3f3df0fc	0.7419584
126	0xbebf0453	-0.37307987
127	0x3f6e0639	0.92978245
128	0x3e334a12	0.17508724
129	0x3ec6663f	0.38749883
130	0xbf881364	-1.0630918
131	0xbfd58f7c	-1.6684413
132	0xbe8e290c	-0.2776569
133	0x3ee38cdf	0.44443414
134	0x3d0c1f3f	0.034209486
135	0xbe9c848c	-0.30569875
136	0x3e8a5627	0.27018854
137	0x3e98b0ed	0.29822484
138	0x3f46abed	0.7760609
139	0x3f111809	0.566773
140	0xc04859bc	-3.130477
141	0xbeaddbf9	-0.33956888
142	0xbef4f8f6	-0.47846192
143	0x3f2ec5bd	0.68270475
144	0x3e89e8ce	0.26935428
145	0x3f893274	1.0718522
146	0x3ecbeb66	0.39828032
147	0xbe90bef3	-0.28270683
148	0x3ebff5fb	0.37492356
149	0x3f67e937	0.9059023
150	0xbf257d26	-0.64644086
151	0x3fd2dcad	1.6473595
152	0xbf303fb0	-0.6884718
153	0xbecaa7d4	-0.39581168
154	0x3e589de0	0.21153975
155	0xbfb6d5d5	-1.4284006
156	0xbff74b2e	-1.9319818
157	0xbfa615ab	-1.2975363
158	0xbfa5a695	-1.2941462
159	0xbfb2d02e	-1.3969781
160	0x3eb27ae6	0.3485939
161	0x3fd256ae	1.6432703
162	0x3d1ddd8f	0.038541373
163	0xbfa42344	-1.2823262
164	0xbedf7f01	-0.43651584
165	0x3ec6b42b	0.38809332
166	0xbeda9198	-0.42689204
167	0xbd704831	-0.058662597
168	0xbe0374f4	-0.12837583
169	0xc02de711	-2.7172282
170	0x3f5a28d7	0.85218567
171	0x3f299f9c	0.6625917
172	0x3e2c3edb	0.16820852
173	0x3fcf123c	1.617744
174	0x3f72428c	0.9463279
175	0x3fc422dd	1.532314
176	0x3f718b87	0.94353527
177	0x3fa84818	1.3147001
178	0xbe7a461a	-0.24440804
179	0xbfd634df	-1.6734885
180	0x3fc4e614	1.5382714
181	0x3f145ad2	0.5795108
182	0xbed65868	-0.41864324
183	0xbf27b7be	-0.65514743
184	0x3f1a970e	0.6038674
185	0x3fd7f4f8	1.6871634
186	0x3f252390	0.6450739
187	0x3e671fd3	0.22570734
188	0x3fbb8039	1.4648505
189	0xbeec5168	-0.46155858
190	0x3f42745b	0.75958794
191	0x3e9e2be2	0.30892855
192	0xc047c105	-3.121156
193	0x3d0d1a38	0.034448832
194	0xbea38c8f	-0.31943175
195	0xbf943282	-1.1577914
196	0x3f80fbe4	1.0076871
197	0x3ea9a01d	0.3312997
198	0xbe63f106	-0.22259912
199	0xbf98a402	-1.1925051
200	0xbebb67e0	-0.36602688
201	0x3e91eb91	0.28500035
202	0xbeabd3cc	-0.33560026
203	0xbf473cea	-0.7782732
204	0x3f2dd736	0.6790651
205	0xbfead85c	-1.8347278
206	0x3f54b4ac	0.83088183
207	0x3edace58	0.42735553
208	0xbe4da8ac	-0.20083874
209	0x3fc7154e	1.5553377
210	0x3fe7d83e	1.8112867
211	0x3fb31038	1.3989325
212	0x3fa37f7d	1.2773281
213	0x3fb81150	1.4380283
214	0xbe86e749	-0.26348332
215	0xbfcfeedc	-1.6244769

0.bias f4 [12]
0	0xbe311dd7	-0.17296539
1	0xbe092883	-0.1339436
2	0x3ddeaaef	0.10872447
3	0xbebab6a3	-0.36467466
4	0xbe9a13c2	-0.300932
5	0x3f15313a	0.5827824
6	0x3d2a27d2	0.04154188
7	0x3d72061c	0.059087858
8	0x3d46f8b5	0.04857703
9	0x3e6d0754	0.23147327
10	0xbe770aa1	-0.24125148
11	0xbb9b8a55	-0.004746715
