runs/perovskite_multiscale_dataset_runs/ae2_PCE_predictor_enc_l_18_l1_1em2_tanh_predictor_0_1_100_relu_decoder_linear_seed_0_lr_1em3_bs_100_e_1500_pass_latents_ae1_fold_0_ae2_fold_2_xavier_normal_gain_10/checkpoints/epoch=1098-total_val_loss=2.41.ckpt (torch, 54674 bytes, 33 tensors)

submodules.encoder.0.weight f4 [18, 23]
0.15089633 0.003970751 -0.08483843 0.0026793424 0.0096411435 -0.003492459 -0.009786402 -0.029950306
-0.0025323087 0.039651837 0.010773733 0.0031223735 -0.0001546084 0.0009541219 0.0014422046 -0.06702631
4.509333e-05 -0.0014838295 0.21243 -0.11673326 0.15844338 0.008275315 0.0017024009 0.00068732613
0.001513198 -0.000971204 0.02772437 0.00088623713 -0.07074399 -0.00095687073 -0.0021561221 0.084242076
-0.023539227 0.003825514 -0.004769326 -0.06155798 -0.055684756 0.001422411 0.0013992107 -0.0018133894
-0.0029057127 0.07942818 -0.010285024 -0.07137015 0.014424111 0.00059637194 0.13880679 -0.4246071
-0.016784376 -0.099553026 -0.0019085079 0.0012277325 -0.0012208734 0.14395848 0.048806705 -0.004783586
-0.04730384 -0.011765554 -0.19314453 -0.006012895 0.006761534 0.0022811033 -0.0007674514 -0.00050485774
0.27156508 -0.09859672 -0.49522012 0.0004865338 0.007854668 -0.098852634 -0.12415112 -0.0013279265
0.0022135614 0.0026402082 -0.1462932 -0.20762539 -0.00032067773 -0.0064400034 0.034620263 -0.104734965
0.0071471543 -0.009310014 -0.055916958 0.00050049264 -0.002194293 0.07837416 0.010149963 -0.00021701174
-0.004340605 0.002609185 -0.018017607 0.35886514 -0.035934605 -0.062313467 -0.0022238002 0.012840343
0.001072196 -0.0034385794 -0.00060301187 -0.25515097 0.021652028 -0.0035992647 -0.088715136 -0.014711434
-0.0014416217 -0.00023967455 0.018224297 -0.00095536537 -0.0021770361 0.00058658904 -0.0006986797 0.00011972453
0.003387302 -0.06620693 -0.14600228 -0.050026722 -0.01376695 -0.10249567 0.011842765 -0.00015593861
-0.026036378 0.19306755 -0.11972066 0.0038995717 -0.032582413 0.12670158 -0.002293738 -0.11074456
-0.00037031563 -0.023280587 -0.00084626995 0.010766691 0.088283256 0.03677915 -0.009295185 -0.065844454
0.006065802 0.09885527 0.003329794 0.0024318076 -0.048845775 0.14419013 -0.0008680347 -0.016108891
-0.12066772 0.0018777214 -0.110794686 -0.042478405 -0.0006542666 0.0016285506 -0.005042921 -0.008563246
0.0029128096 -0.00014872744 0.003614975 -0.04013308 0.0035046497 -0.0019356622 -0.0023287358 0.114743665
-0.007786633 -0.0003034369 0.00054200186 0.0035907775 0.00039840184 -0.010888064 -0.0030585893 0.00032012464
0.031141277 0.06446914 -0.01659898 -0.0032419646 -0.0068474244 0.088313125 -0.17326091 -0.00036460796
0.002999261 -0.15289731 0.0019335289 -0.015441978 -0.0021318698 -0.0006744042 -0.001118628 0.028442843
0.0026288251 0.0019554065 -0.002806695 0.0013459763 0.0054387758 0.0008533101 -0.0025119944 -0.0013849792
-0.0065828906 0.005579698 0.002384385 0.0065938537 -0.24953137 -0.0011704222 0.17601117 -0.0022761736
0.07994483 0.064845204 -0.12049458 0.016436988 -0.0037122304 -0.011511023 0.04010475 -0.004685341
-0.0043103783 0.031484943 -0.0052812607 -0.004189966 0.021599421 0.07660916 -0.002368045 0.0041181343
0.02991399 -0.0012122567 -0.0062725563 0.13033772 -0.022298418 0.2444351 -0.004801199 0.046737812
-0.23542239 0.052093517 0.04655575 -0.0014952614 -0.0032705532 -0.0013219055 0.002987225 0.000771428
-0.0044607893 0.0008216377 0.06289712 4.1311545e-05 -0.003421713 0.0057456684 0.0011238758 0.111634366
0.030797081 -0.0005703283 0.060140006 -0.0041512265 0.0061305384 0.0034620336 -0.1838319 0.080606684
-0.15772757 -0.004831516 0.0033935423 0.0046636844 -0.12122658 -0.054518428 -0.0010724362 0.08966158
00000000: 9184 1a3e 131d 823b c5bf adbd e897 2f3b
00000010: e3f5 1d3c bde1 64bb 2557 20bc 585a f5bc
00000020: 17f5 25bb f769 223d 5084 303c bca0 4c3b
00000030: 601e 22b9 091e 7a3a 5b08 bd3a 1745 89bd
00000040: 9822 3d38 0e7d c2ba 4087 593e d911 efbd
00000050: fb3e 223e 3095 073c 1823 df3a ad2d 343a
00000060: 8056 c63a 6698 7eba 381e e33c 5e52 683a
00000070: 3ae2 90bd 82d6 7aba ba4d 0dbb 1c87 ac3d
00000080: 56d5 c0bc 7ab5 7a3b 0248 9cbb 3824 7cbd
00000090: b315 64bd 3170 ba3a b865 b73a 40af edba
000000a0: c56d 3ebb 3eab a23d 8482 28bc 832a 92bd
000000b0: 1b53 6c3c d855 1c3a 5e23 0e3e 1a66 d9be
000000c0: 637f 89bc 75e2 cbbd e626 faba deeb a03a
000000d0: b705 a0ba da69 133e 8ae9 473d a1bf 9cbb
000000e0: acc1 41bd 4fc4 40bc aec7 45be d207 c5bb
000000f0: dc8f dd3b 907e 153b cb2e 49ba 6e58 04ba
00000100: 940a 8b3e 14ed c9bd 7e8d fdbe 7615 ff39
00000110: deb0 003c 4073 cabd f142 febd d20d aeba
00000120: 6611 113b 5807 2d3b e2cd 15be c09b 54be
00000130: a320 a8b9 aa06 d3bb facd 0d3d 497f d6bd
00000140: ad32 ea3b 0789 18bc 2e09 65bd 7e33 033a
00000150: 21ce 0fbb a282 a03d 084c 263c a58d 63b9
00000160: a23b 8ebb dcfe 2a3b a999 93bc 2cbd b73e
00000170: 2a30 13bd 683c 7fbd 2dbd 11bb 4d60 523c
00000180: ee88 8c3a ca59 61bb 7113 1eba 26a3 82be
00000190: 985f b13c a4e1 6bbb 48b0 b5bd 3a08 71bc
000001a0: ccf4 bcba 2651 7bb9 1f4b 953c 7c71 7aba
000001b0: 9bac 0ebb 53c5 193a 9a27 37ba 9e14 fb38
000001c0: 7ffd 5d3b 8097 87bd 9f81 15be d2e8 4cbd
000001d0: c68e 61bc 40e9 d1bd 2808 423c 7483 23b9
000001e0: 3e4a d5bc 80b3 453e 1b30 f5bd f58f 7f3b
000001f0: 2375 05bd 0fbe 013e 8a52 16bb 0bce e2bd
00000200: ec26 c2b9 eeb6 bebc 37d8 5dba c666 303c
00000210: dacd b43d bca5 163d d54a 18bc 75d9 86bd
00000220: a3c3 c63b a274 ca3d ac38 5a3b f65e 1f3b
00000230: 8212 48bd 94a6 133e d38c 63ba cbf6 83bc
00000240: a320 f7bd e01d f63a 53e8 e2bd d6fd 2dbd
00000250: 1783 2bba 1775 d53a 163f a5bb db4c 0cbc
00000260: d6e4 3e3b b8f3 1bb9 37e9 6c3b 9662 24bd
00000270: 44ae 653b 0cb6 fdba b49d 18bb bafe ea3d
00000280: 0327 ffbb 9c16 9fb9 2115 0e3a 4053 6b3b
00000290: 97e0 d039 da63 32bc 9d72 48bb 67d6 a739
000002a0: fe1b ff3c 6508 843d 96fa 87bc 2477 54bb
000002b0: 5c60 e0bb 83dd b43d 4f6b 31be da28 bfb9
000002c0: 408f 443b 1d91 1cbe 776e fd3a 5a00 7dbc
000002d0: d7b6 0bbb 80ca 30ba ed9e 92ba f700 e93c
000002e0: 5e48 2c3b 4726 003b 87f0 37bb 786b b03a
000002f0: c237 b23b acb0 5f3a 46a0 24bb 3188 b5ba
00000300: 4ab5 d7bb e6d5 b63b 5843 1c3b 4111 d83b
00000310: 2785 7fbe da68 99ba 463c 343e db2b 15bb
00000320: 1dba a33d 90cd 843d ddc5 f6bd dda6 863c
00000330: e448 73bb bb98 3cbc e144 243d 7d87 99bb
00000340: 133e 8dbb 5bf6 003d 6d0e adbb fb4b 89bb
00000350: 45f1 b03c 43e5 9c3d 3431 1bbb 6af1 863b
00000360: 2f0e f53c 96e4 9eba 048a cdbb 4077 053e
00000370: 2cab b6bc 324d 7a3e 6053 9dbb 2670 3f3d
00000380: 9112 71be 0360 553d 3eb1 3e3d a6fc c3ba
00000390: c756 56bb ca43 adba 52c5 433b a839 4a3a
000003a0: d02b 92bb 2c63 573a 35d0 803d ef45 2d38
000003b0: d13e 60bb 2946 bc3b 044f 933a 8fa0 e43d
000003c0: 294a fc3c 1682 15ba 5e55 763d 0307 88bb
000003d0: afe2 c83b 49e3 623b 6e3e 3cbe 1e15 a53d
000003e0: 5683 21be b251 9ebb 3166 5e3b d2d1 983b
000003f0: a445 f8bd b74e 5fbd fd90 8cba 7ea0 b73d

submodules.encoder.0.bias f4 [18]
-0.0046780803 0.06914171 -0.29140458 -0.114806026 -0.31801185 0.1762619 0.23251383 0.23093787
-0.13611943 -0.08505053 -0.14205529 0.09931018 -0.0052447473 0.01300835 0.008622203 -0.041570384
0.0031121736 -0.12593707
00000000: 954a 99bb 2b9a 8d3d fb32 95be 6c1f ebbd
00000010: 73d2 a2be 007e 343e 1b18 6e3e fa7a 6c3e
00000020: e462 0bbe f92e aebd f176 11be 2363 cb3d
00000030: 21dc abbb f920 553c 2444 0d3c b545 2abd
00000040: 9cf5 4b3b a6f5 00be

submodules.PCE_pred.0.weight f4 [100, 18]
0.3784916 1.7623457 -0.65814006 -2.0174677 0.1731488 -1.4628929 -0.678417 -0.35052857
1.4067414 0.49439523 -0.103697345 1.5236204 -0.06675089 0.39879906 0.3015824 -0.52213055
0.3529946 0.9891296 1.845401 -1.8906965 0.15289812 -1.9677743 0.9600582 -1.7105541
-1.0296886 -0.2873821 0.40435234 -1.1115906 -1.6462462 0.73898804 -4.6029487 -0.5260967
0.5824889 -1.7579455 -0.37876707 -1.5021672 1.0367935 -2.774651 -0.507546 -1.5558299
-2.651706 -1.3089732 0.4629194 -1.7829348 1.6162746 -0.33563566 1.4690487 -0.7866991
-0.40311593 0.5702363 -0.45791793 1.8150337 -0.1859841 -0.10681221 2.1163402 -0.14837955
0.91195256 -1.416753 -0.66204673 -0.4877219 2.3177583 -0.06459562 2.2918134 -0.29298377
3.0958135 1.5927845 0.44719642 1.0564244 -0.64532185 1.1932359 -0.7331526 -0.58524114
2.2164896 -0.6187762 -1.5936601 -1.1921189 -0.7765319 2.525566 -0.80406284 0.1224357
-2.1161973 0.28131017 0.3186511 3.005952 0.67858744 -0.80076975 -0.70227534 -0.99262553
0.56660753 -1.3712707 -0.002239641 -0.64359057 -1.6108569 0.15405095 1.2961899 -1.1561087
-0.5021876 0.5979918 -0.38156915 1.0667169 0.045404702 2.1926897 -2.8348024 -1.4686939
-0.120638736 -2.072117 -0.61904085 -2.0297012 -0.004821303 0.742272 -0.5023704 2.0021505
1.051715 2.1198685 -0.7993191 -1.9832402 0.93830204 -0.4971532 2.532115 0.050575618
0.36794007 0.4203954 -1.4552627 -0.17472275 1.494684 -2.069257 -0.027640484 -1.0721836
1.3098887 -0.89754665 -0.99386454 -0.52681553 0.34430197 0.34161213 0.93277234 -1.3088589
0.69480914 0.46515372 -0.07201657 1.9925972 -0.86317647 -2.5186615 0.89484996 0.22738315
0.6831514 3.4886909 -0.3521106 -0.3800607 1.2086583 -0.8945888 -0.8795033 -0.24701522
-0.8499204 0.06290715 0.764363 -2.3927085 0.115436584 -1.4317536 -3.2257621 -0.22986688
-0.77080613 -0.07666736 -0.659467 1.1078733 0.3150747 0.6311389 0.48319742 -1.194204
0.023893965 -1.500129 0.46230584 2.0081105 -0.8748211 1.4300765 1.0459652 -2.2303054
-1.6970117 0.029457714 1.1355561 -1.7637421 -0.88941866 -1.0372376 0.4593334 1.948677
-0.74766445 0.8689291 1.1661292 -0.16703118 -0.9851382 0.05945809 -1.1007117 -1.111785
-0.777441 1.2001988 -0.25538552 1.1747395 0.04331759 -1.1744556 -0.5154602 -0.5216521
1.8635446 1.295046 -2.4945707 -0.6592642 1.6948651 -2.4489589 -0.99355704 -1.8017957
-0.6084158 -2.9791791 0.022190318 -0.41506228 0.7820381 -1.2936548 -0.010376301 -1.2899251
1.75051 -1.6599087 -2.776286 0.02436496 -1.2970299 0.97610897 -0.5683975 -1.1213969
-1.2525128 -0.040269025 -2.4665997 -0.14684944 1.803164 2.3002644 -0.97833925 -0.4141212
-0.2204104 0.24948303 -3.031174 1.7317814 -1.9672759 0.72576904 0.74589336 -0.45164594
0.5694268 -0.5936683 -1.101955 -0.38441435 0.4833102 -1.1630683 -2.4694536 0.7261011
0.8701595 2.4341521 -0.42937922 -0.5923242 2.0345666 0.48182082 1.4339972 0.0556162
00000000: a7c9 c13e 8b94 e13f de7b 28bf 311e 01c0
00000010: eb4d 313e 1340 bbbf bdac 2dbf 7b78 b3be
00000020: 1a10 b43f 5f21 fd3e 465f d4bd fe05 c33f
00000030: b1b4 88bd 642f cc3e 0269 9a3e 59aa 05bf
00000040: b5bb b43e 9937 7d3f 1a36 ec3f 5802 f2bf
00000050: 5391 1c3e 07e0 fbbf 60c6 753f 70f3 dabf
00000060: d6cc 83bf bf23 93be 4507 cf3e 9a48 8ebf
00000070: 32b8 d2bf 522e 3d3f 5b4b 93c0 46ae 06bf
00000080: fe1d 153f 5c04 e1bf c2ed c1be 0447 c0bf
00000090: a6b5 843f e293 31c0 89ee 01bf 6f25 c7bf
000000a0: 8db5 29c0 6f8c a7bf c603 ed3e 3537 e4bf
000000b0: 16e2 ce3f 70d8 abbe ca09 bc3f 1d65 49bf
000000c0: 3665 cebe 02fb 113f 3874 eabe 0653 e83f
000000d0: 9e72 3ebe 5cc0 dabd 1e72 0740 cff0 17be
000000e0: b975 693f 2a58 b5bf e57b 29bf afb6 f9be
000000f0: 2756 1440 b54a 84bd 12ad 1240 f801 96be
00000100: cf21 4640 5de0 cb3f eef6 e43e ea38 873f
00000110: d033 25bf f4bb 983f e4af 3bbf 5dd2 15bf
00000120: f7da 0d40 1e68 1ebf 0efd cbbf 5a97 98bf
00000130: cbca 46bf e0a2 2140 10d7 4dbf 91bf fa3d
00000140: c76f 07c0 e307 903e 3d26 a33e 8461 4040
00000150: e8b7 2d3f 3fff 4cbf 51c8 33bf b51c 7ebf
00000160: 310d 113f cc85 afbf f1c6 12bb 5ac2 24bf
00000170: 8f30 cebf 88bf 1d3e 8de9 a53f 5ffb 93bf
00000180: 5e8f 00bf fe15 193f 085d c3be 2e8a 883f
00000190: 48fa 393d 0755 0c40 676d 35c0 29fe bbbf
000001a0: 7111 f7bd 919d 04c0 7679 1ebf a0e6 01c0
000001b0: 05fc 9dbb 8a05 3e3f 599b 00bf 3c23 0040
000001c0: 999e 863f edab 0740 2da0 4cbf d1da fdbf
000001d0: 9034 703f dd8a febe 2c0e 2240 6128 4f3d
000001e0: a462 bc3e 113e d73e 0c46 babf 85ea 32be
000001f0: ce51 bf3f b56e 04c0 4c6e e2bc 503d 89bf
00000200: 6faa a73f 9ec5 65bf e86d 7ebf 62dd 06bf
00000210: 5948 b03e c9e7 ae3e 2bca 6e3f b088 a7bf
00000220: 03df 313f a128 ee3e 6c7d 93bd 6d0d ff3f
00000230: 22f9 5cbf c031 21c0 e314 653f 21d7 683e
00000240: 03e3 2e3f b646 5f40 d747 b4be 5197 c2be
00000250: 51b5 9a3f c603 65bf 2127 61bf 8ff1 7cbe
00000260: 6294 59bf 77d5 803d 4bad 433f 2322 19c0
00000270: 046a ec3d b443 b7bf e372 4ec0 3962 6bbe
00000280: 8d53 45bf c703 9dbd d4d2 28bf cbce 8d3f
00000290: 7951 a13e 5292 213f a765 f73e addb 98bf
000002a0: 47bd c33c 3a04 c0bf 5ab3 ec3e e284 0040
000002b0: 47f4 5fbf bf0c b73f 30e2 853f 53bd 0ec0
000002c0: ae37 d9bf 4e51 f13c e759 913f 4dc2 e1bf
000002d0: f1b0 63bf 34c4 84bf bf2d eb3e 3f6e f93f
000002e0: f066 3fbf 2372 5e3f b943 953f 390a 2bbe
000002f0: 0432 7cbf 548a 733d 1fe4 8cbf f94e 8ebf
00000300: 6006 47bf 1da0 993f e4c1 82be dd5d 963f
00000310: c96d 313d 9054 96bf 33f5 03bf fe8a 05bf
00000320: a188 ee3f 11c4 a53f 0ca7 1fc0 8ac5 28bf
00000330: 57f1 d83f bebb 1cc0 c159 7ebf 3ea1 e6bf
00000340: 23c1 1bbf dfaa 3ec0 78c8 b53c 0b83 d4be
00000350: a633 483f 7b96 a5bf 5c01 2abc 441c a5bf
00000360: b610 e03f e377 d4bf abae 31c0 0699 c73c
00000370: 1305 a6bf 47e2 793f 8082 11bf ef89 8fbf
00000380: 5752 a0bf 22f1 24bd c5dc 1dc0 b35f 16be
00000390: 14ce e63f 8837 1340 7174 7abf b207 d4be
000003a0: 44b3 61be 7b78 7f3e c1fe 41c0 03ab dd3f
000003b0: b2cf fbbf 00cc 393f def2 3e3f 233e e7be
000003c0: f4c5 113f a5fa 17bf dd0c 8dbf f5d1 c4be
000003d0: 6f74 f73e 6cdf 94bf 870b 1ec0 c3e1 393f
000003e0: c6c2 5e3f 26c9 1b40 98d7 dbbe 8fa2 17bf
000003f0: 5736 0240 38b1 f63e 388d b73f d0cd 633d

submodules.PCE_pred.0.bias f4 [100]
-0.12993678 -0.39732775 -0.60852796 -0.78411835 0.6016386 -0.0011020602 -0.5522886 -0.7292431
-0.40646207 -0.590902 0.009699994 0.25549313 0.35583338 0.17689107 -0.18573564 0.05288631
0.5583338 0.2522099 0.21172452 -0.5717189 0.15307409 -0.59356624 0.703065 -0.14872487
-0.65444005 -0.118123636 0.298784 0.08395917 0.36311105 -0.0055036065 0.008068281 0.42871168
-0.20418896 -0.43873075 0.24066445 -0.2727963 -0.12166678 -0.07643163 -0.1221656 -0.2889459
0.5635224 -0.2573263 -0.13137989 -0.65534157 0.031496536 0.13484077 -0.3717728 0.19441223
0.16816053 -0.4637167 -0.6496936 0.111291215 -0.573456 0.3068388 0.36078116 0.21101442
0.17245007 0.1320848 -0.54835874 -0.089853875 0.11995171 0.52959037 0.5340048 -0.25368422
-0.6155297 0.41662344 -0.59821993 -0.8625688 -0.620509 -0.25561714 0.27393243 -0.005173857
-0.73978615 -0.44230768 0.14325221 0.2731686 0.13715701 -0.02479979 -0.5480855 -0.14080805
-0.06865418 -0.28329733 -0.62249976 -0.47545248 -0.35715902 -0.68482226 -0.23515935 -0.26497877
-0.043673422 0.67510176 -0.39630434 -0.6963081 -0.60855305 -0.54066336 -0.48394394 -0.49540332
-0.6950612 -0.021304773 0.111030236 -0.55471647
00000000: 260e 05be 8b6e cbbe 7dc8 1bbf fbbb 48bf
00000010: fd04 1a3f 0173 90ba c962 0dbf adaf 3abf
00000020: cc1b d0be 5a45 17bf b9ec 1e3c ffcf 823e
00000030: cb2f b63e ef22 353e 7c31 3ebe 519f 583d
00000040: f7ee 0e3f a821 813e 50ce 583e 2b5c 12bf
00000050: 74bf 1c3e f5f3 17bf 11fc 333f 554b 18be
00000060: 6289 27bf ceea f1bd 37fa 983e c9f2 ab3d
00000070: b1e9 b93e 9957 b4bb d330 043c 1980 db3e
00000080: e916 51be 51a1 e0be be70 763e f5ab 8bbe
00000090: 6f2c f9bd 3088 9cbd f531 fabd b8f0 93be
000000a0: 0143 103f 46c0 83be 7388 06be 77c4 27bf
000000b0: 8302 013d b313 0a3e 0159 bebe 0014 473e
000000c0: 4632 2c3e 466c edbe 5252 26bf a6ec e33d
000000d0: 03ce 12bf fa19 9d3e 4fb8 b83e 2a14 583e
000000e0: c096 303e 3d41 073e 3d61 0cbf 4f05 b8bd
000000f0: 3ea9 f53d 3c93 073f 8ab4 083f e6e2 81be
00000100: 5b93 1dbf ab4f d53e f124 19bf 4fd1 5cbf
00000110: aed9 1ebf 40e0 82be df40 8c3e 7589 a9bb
00000120: a062 3dbf 2776 e2be b5b0 123e c1dc 8b3e
00000130: e372 0c3e ee28 cbbc 554f 0cbf fc2f 10be
00000140: 909a 8cbd 590c 91be 255c 1fbf 826e f3be
00000150: 8cdd b6be 8350 2fbf 9dcd 70be 4cab 87be
00000160: e7e2 32bd 78d3 2c3f 67e8 cabe 3f41 32bf
00000170: 22ca 1bbf ea68 0abf 80c7 f7be 81a5 fdbe
00000180: 88ef 31bf 5987 aebc d263 e33d e601 0ebf

submodules.PCE_pred.3.weight f4 [1, 100]
1.3781092 -1.3983814 0.13585626 -0.48515323 0.16916932 0.4131107 -0.75310504 -1.6052696
-0.8287124 -0.99286705 0.26631784 0.25778162 0.1838265 0.5481756 0.31929964 0.416417
0.26876974 0.7018133 0.48526025 -0.90718216 0.73066866 -2.661486 0.19974612 2.784027
-1.0720595 0.64980626 0.70397145 0.9426511 0.22208534 0.6346508 0.19150543 0.4246189
-0.64957404 -0.19047025 0.3710413 0.4344198 0.8229616 0.52207065 0.1515022 -1.1680591
0.32180104 -1.7348703 0.52877045 -1.3354342 0.26512876 0.3099486 -1.7195792 0.33090088
0.24671999 -1.819523 -1.3768876 0.3896258 -0.26198137 0.22008698 0.33587968 0.3682572
0.1648506 0.19907999 -2.3843772 0.91482764 1.1509444 0.17322251 0.35773194 -1.5083787
-1.4656779 0.21057653 -1.730868 -0.585759 -0.31159833 0.32789013 0.21595933 1.2706009
-0.8079716 -0.47593492 1.0304813 0.2100657 0.19404304 0.5723615 -1.418144 0.16963457
0.63018316 0.20114069 -1.0715975 -2.256321 -2.1277213 -0.39098847 -1.7907128 -0.55430245
0.42860958 0.14483261 -2.2886138 -2.4108267 -0.72608066 -2.0774543 -0.8431921 -3.8728545
-0.6084607 0.21926051 0.33241847 -0.4857213
00000000: e265 b03f 29fe b2bf e71d 0b3e 0166 f8be
00000010: b93a 2d3e 3f83 d33e 7ecb 40bf 7979 cdbf
00000020: 7f26 54bf 892c 7ebf d05a 883e f4fb 833e
00000030: 043d 3c3e 3c55 0c3f 3e7b a33e 9c34 d53e
00000040: 309c 893e 09aa 333f 0874 f83e 173d 68bf
00000050: 1a0d 3b3f c955 2ac0 3f8a 4c3e 802d 3240
00000060: 3f39 89bf b459 263f 7937 343f 9551 713f
00000070: 576a 633e 7a78 223f 001a 443e a667 d93e
00000080: 7c4a 26bf a20a 43be 20f9 bd3e 466c de3e
00000090: 9dad 523f 6ca6 053f 6523 1b3e f682 95bf
000000a0: 1bc3 a43e 3b10 debf 805d 073f 82ef aabf
000000b0: f5be 873e 95b1 9e3e 2c1b dcbf d76b a93e
000000c0: 2aa4 7c3e 21e6 e8bf da3d b0bf 087d c73e
000000d0: 6c22 86be 7b5e 613e 6cf8 ab3e 358c bc3e
000000e0: 98ce 283e a0db 4b3e a399 18c0 2532 6a3f
000000f0: 2552 933f 3e61 313e a428 b73e 8e12 c1bf
00000100: 559b bbbf 60a1 573e 158d ddbf 4df4 15bf
00000110: d189 9fbe 37e1 a73e 7124 5d3e 0da3 a23f
00000120: 3ad7 4ebf bead f3be d0e6 833f 761b 573e
00000130: 38b3 463e 4986 123f be85 b5bf afb4 2d3e
00000140: af53 213f d3f7 4d3e 1b2a 89bf 9067 10c0
00000150: 962c 08c0 a42f c8be 1436 e5bf c4e6 0dbf
00000160: b772 db3e 004f 143e a678 12c0 fc4a 1ac0
00000170: 6ce0 39bf 03f5 04c0 70db 57bf d9dc 77c0
00000180: 15c4 1bbf d485 603e c132 aa3e 76b0 f8be

submodules.latents_pred.0.weight f4 [12, 18]
1.3836062 0.61078787 -0.39034072 -0.14403586 0.05683756 -0.45718163 0.7029657 -0.14721604
0.2658168 -0.2794024 0.32800138 -0.6693259 -1.3651081 -0.6758488 -0.5727932 0.76227474
1.2443633 -0.28956434 1.1548271 0.73737025 -0.39756715 -0.12438122 -0.11833579 -0.5664918
0.13495553 0.10859931 0.24051377 -0.20045441 0.055206344 -0.40306792 -0.9800263 -0.31094864
-0.9016835 0.74811643 0.8299296 -0.3338354 -1.479478 -0.677481 0.45764834 0.03825747
-0.2212107 0.35202467 -0.861898 0.20414558 -0.25165886 0.2128365 -0.43502167 0.7519807
1.2924093 0.6533069 0.66112274 -0.85345703 -1.2516685 0.4064359 -0.036678202 0.8462722
0.059686255 0.69679075 -0.25630814 0.19401942 1.5792148 -0.23865966 -0.070073664 -0.24836332
0.9864292 1.4570783 -1.3551768 1.0180777 -0.20569248 -1.8636745 -0.11305591 0.5244309
-0.009700135 0.649052 0.03789926 0.6032941 -0.27554876 0.19302891 1.3468474 -0.13216925
-0.056353446 -0.19664018 0.7420442 1.4484539 -1.1649983 0.9539745 -0.3226054 -1.44856
-0.11036507 0.5338028 0.15493017 -1.407151 0.45124 -0.90556943 -0.06760027 -0.5963152
-1.7179697 -0.035926957 0.24116664 0.02148067 -0.6479051 -1.4545369 0.7014914 -1.3852023
0.78711706 1.4948176 0.33901778 -0.3025379 -1.598744 -0.6936451 0.4125996 0.12969202
-0.23669349 0.33692834 -0.6036476 0.06244224 -0.24388278 0.23640668 -0.40132406 0.6605706
1.5917121 0.6557924 0.82688814 -0.7048172 -1.238779 0.395673 -0.26296222 1.2541147
0.12093899 0.5236214 -1.2051541 -1.830431 -0.49779972 1.0529008 0.3209072 0.07538759
-0.35906965 0.48114258 1.0781486 0.92702615 -2.004504 0.06236225 -0.8427226 0.17920703
0.42970526 1.2324809 0.5135225 -0.93852603 -0.035176694 0.29948208 -0.5392963 1.5179307
0.046108823 -0.062946945 -0.16914147 -0.6077915 -1.3903826 -1.6108917 -1.023508 -1.6243718
0.18515012 1.0522314 0.25728443 -1.9112422 -0.22507001 0.86808336 -0.42933947 0.1846625
-0.33383295 -1.9530175 -0.15939747 0.3780817 0.94193214 1.1142603 0.22541298 1.7825968
0.83436376 1.4471457 -0.20756246 -1.2214247 1.2832983 0.55006063 0.012213212 -0.44012648
-0.11690514 0.851125 0.87912875 0.030201593 -4.5917433e-05 -0.2121396 0.85420007 0.20983416
-2.8276439 -0.7765656 -0.32261172 -1.1635389 1.0433261 0.47415102 -0.2574174 -1.5667877
-0.44812423 0.9537396 0.022882326 -0.10700197 0.52080137 -1.5217351 -0.0701439 0.12606402
0.27631402 0.83155555 1.0822147 1.7248636 0.8892143 1.6088462 -0.17504127 -1.0510081
00000000: 021a b13f 985c 1c3f bdda c7be 237e 13be
00000010: 80ce 683d b613 eabe 8ff5 333f cdbf 16be
00000020: 2419 883e d50d 8fbe ccef a73e f158 2bbf
00000030: ddbb aebf 6d04 2dbf 93a2 12bf 7024 433f
00000040: 4c47 9f3f c741 94be 60d1 933f 4cc4 3c3f
00000050: ec8d cbbe 95bb febd 095a f2bd 9b05 11bf
00000060: c831 0a3e 5169 de3d 3e49 763e ec43 4dbe
00000070: 0c20 623d eb5e cebe 01e3 7abf a934 9fbe
00000080: bbd4 66bf 8f84 3f3f 4476 543f 79ec aabe
00000090: 895f bdbf 656f 2dbf e250 ea3e ddb3 1c3d
000000a0: 0f85 62be 943c b43e 59a5 5cbf 8a0b 513e
000000b0: 6ed9 80be d0f1 593e 29bb debe cf81 403f
000000c0: ab6d a53f 1f3f 273f 573f 293f 297c 5abf
000000d0: ac36 a0bf 5e18 d03e e23b 16bd 4ba5 583f
000000e0: 9379 743d e160 323f d23a 83be 07ad 463e
000000f0: b623 ca3f 3363 74be c882 8fbd f452 7ebe
00000100: a086 7c3f 8b81 ba3f 6f76 adbf 5f50 823f
00000110: 0da1 52be e38c eebf db89 e7bd 1a41 063f
00000120: 51ed 1ebc 4628 263f 413c 1b3d 7b71 1a3f
00000130: ba14 8dbe 5fa9 453e 7f65 ac3f 6057 07be
00000140: dfd2 66bd 0b5c 49be 9cf6 3d3f f066 b93f
00000150: aa1e 95bf ac37 743f 892c a5be 6a6a b9bf
00000160: 1507 e2bd 4da7 083f 04a6 1e3e 861d b4bf
00000170: ee08 e73e 66d3 67bf 0372 8abd 1da8 18bf
00000180: 6ee6 dbbf 2528 13bd 63f4 763e 3bf8 af3c
00000190: 1cdd 25bf 442e babf f194 333f 4f4e b1bf
000001a0: 8180 493f 2f56 bf3f bd93 ad3e 3fe6 9abe
000001b0: a5a3 ccbf ba92 31bf 4140 d33e fccd 043e
000001c0: c75f 72be df81 ac3e a688 1abf 6fc3 7f3d
000001d0: 68bc 79be 9814 723e 597a cdbe 281b 293f
000001e0: 39bd cb3f 03e2 273f f1ae 533f e66e 34bf
000001f0: 4f90 9ebf a795 ca3e fca2 86be d586 a03f
00000200: dcae f73d 0d0c 063f 7d42 9abf 904b eabf
00000210: 9bdf febe 74c5 863f f34d a43e cf64 9a3d
00000220: fad7 b7be 5258 f63e c600 8a3f 9651 6d3f
00000230: cb49 00c0 8f6f 7f3d abbc 57bf 0c82 373e
00000240: 5402 dc3e efc1 9d3f 3676 033f 3e43 70bf
00000250: 7015 10bd b755 993e 530f 0abf 8e4b c23f
00000260: 9bdc 3c3d 54ea 80bd 6c33 2dbe 3998 1bbf
00000270: 0ff8 b1bf b331 cebf 4f02 83bf 6aeb cfbf
00000280: fe97 3d3e 85af 863f c9ba 833e 96a3 f4bf
00000290: c178 66be b63a 5e3f 62d2 dbbe 2b18 3d3e
000002a0: 27ec aabe 7afc f9bf 1739 23be ed93 c13e
000002b0: 7722 713f 15a0 8e3f a9d2 663e 222c e43f
000002c0: dd98 553f 123c b93f 418b 54be a557 9cbf
000002d0: 1e43 a43f c6d0 0c3f ed19 483c 4258 e1be
000002e0: f66b efbd 54e3 593f 950e 613f 5569 f73c
000002f0: 7897 40b8 203b 59be dbac 5a3f c4de 563e
00000300: 1ef8 34c0 01cd 46bf 5d2d a5be d8ee 94bf
00000310: b68b 853f ecc3 f23e 37cc 83be 808c c8bf
00000320: 8a70 e5be 4728 743f b773 bb3c d923 dbbd
00000330: 3d53 053f 37c8 c2bf 9ba7 8fbd ed16 013e
00000340: 0879 8d3e d3e0 543f 0386 8a3f 55c8 dc3f
00000350: 8ca3 633f acee cd3f 053e 33be 6f87 86bf

submodules.latents_pred.0.bias f4 [12]
-0.06689215 -0.08988728 0.0873859 -0.40828773 -0.42628372 0.74732834 0.04748162 -0.19691008
-0.029739015 0.26385057 -0.28811157 0.028950121
00000000: c0fe 88bd d216 b8bd 61f7 b23d 170b d1be
00000010: dc41 dabe e950 3f3f 167c 423d cca2 49be
00000020: 3c9f f3bc 6c17 873e 5c83 93be ce28 ed3c

submodules.etm_pred.0.weight f4 [7, 18]
-2.8115153 -2.9911153 -3.0685945 -1.5859699 -0.9399972 -5.1053033 0.07445272 7.450618
-9.598145 1.4465194 4.576194 1.10342 -1.5159528 1.2194011 1.2870142 -0.63277185
-0.62160206 3.0799086 -0.27208385 -8.752627 -0.5246169 -7.052579 0.9812117 1.7299018
-1.792724 -9.635418 -0.26020524 -5.7058682 -0.8084366 2.2971888 7.8128223 -4.1029453
-10.443763 -5.367083 0.076301254 1.3910785 0.08515447 4.5989647 -2.8956041 -5.2914624
3.3255663 -4.592118 0.536543 2.44505 12.173201 8.657499 0.86830246 0.9507083
-0.2238975 5.17261 0.74038595 0.63371104 0.1628786 -0.11054463 -8.744105 1.253854
2.2644956 5.3709707 -1.1941807 -2.3268442 1.8255204 1.92364 -3.8714828 -3.4593296
1.8490443 8.124356 -3.077012 -11.2071295 1.8710395 -3.652378 6.172703 -9.839319
-1.671576 1.2132772 -0.68364716 6.265453 -1.9565197 -1.317234 2.6756496 -8.915479
8.469085 5.070669 -5.9293256 -4.6797924 -7.723124 -4.2369323 -0.26878437 0.07067161
-7.8056893 0.49315053 -2.995381 0.011485231 0.17146991 3.6992698 -1.3314201 7.295361
-5.675527 7.2443304 7.464566 -10.996311 11.005357 -9.01356 0.04682369 4.737215
0.034180585 5.6208954 -4.59667 1.0540551 6.891621 4.325515 7.5358286 -2.454356
-1.7392528 2.8491788 0.3300034 -0.07359807 -5.952553 1.7281811 -5.442822 -1.5854453
1.7568356 7.2024217 5.814755 1.8592521 5.134509 0.9778551
00000000: deef 33c0 6f6e 3fc0 da63 44c0 1001 cbbf
00000010: a8a3 70bf a55e a3c0 ab7a 983d 766b ee40
00000020: 0092 19c1 8c27 b93f 2e70 9240 de3c 8d3f
00000030: be0a c2bf 5615 9c3f e2bc a43f 56fd 21bf
00000040: 5021 1fbf 391d 4540 934e 8bbe c30a 0cc1
00000050: 4b4d 06bf baae e1c0 b130 7b3f 6c6d dd3f
00000060: fb77 e5bf ac2a 1ac1 9f39 85be 7996 b6c0
00000070: b3f5 4ebf 2405 1340 a402 fa40 544b 83c0
00000080: a719 27c1 25bf abc0 d543 9c3d dc0e b23f
00000090: 7765 ae3d b82a 9340 9451 39c0 a953 a9c0
000000a0: 14d6 5440 a1f2 92c0 e25a 093f b37b 1c40
000000b0: 6ec5 4241 1e85 0a41 1249 5e3f 9f61 733f
000000c0: 6345 65be 0586 a540 ef89 3d3f e33a 223f
000000d0: a6c9 263e 3965 e2bd dbe7 0bc1 4a7e a03f
000000e0: 7fed 1040 fede ab40 eada 98bf 04eb 14c0
000000f0: a7aa e93f d639 f63f 60c6 77c0 a865 5dc0
00000100: 7cad ec3f 5dfd 0141 c4ed 44c0 6750 33c1
00000110: 397e ef3f 90c0 69c0 c886 c540 da6d 1dc1
00000120: 34f6 d5bf ab4c 9b3f 8003 2fbf 977e c840
00000130: 3d6f fabf 209b a8bf d83d 2b40 cda5 0ec1
00000140: 5f81 0741 ec42 a240 09bd bdc0 dcc0 95c0
00000150: d523 f7c0 f394 87c0 1b9e 89be 47bc 903d
00000160: 35c8 f9c0 3a7e fc3e 53b4 3fc0 8d2c 3c3c
00000170: cf95 2f3e d6c0 6c40 f96b aabf 9973 e940
00000180: eb9d b5c0 8ed1 e740 badd ee40 e4f0 2fc1
00000190: f115 3041 8b37 10c1 33ca 3f3d 4497 9740
000001a0: f100 0c3d 60de b340 ec17 93c0 47eb 863f
000001b0: 2988 dc40 9e6a 8a40 8225 f140 2b14 1dc0
000001c0: d69f debf f258 3640 35f6 a83e 96ba 96bd
000001d0: 507b bec0 0a35 dd3f 992b aec0 dfef cabf
000001e0: fddf e03f 3d7a e640 7912 ba40 f9fb ed3f
000001f0: e64d a440 b654 7a3f

submodules.etm_pred.0.bias f4 [7]
-2.1223133 2.4355686 1.8896114 -3.2618442 -0.15685228 1.1238878 -0.87529933
00000000: fbd3 07c0 5be0 1b40 c9de f13f 0ec2 50c0
00000010: e29d 20be 8edb 8f3f 9e13 60bf

submodules.htm_pred.0.weight f4 [4, 18]
-10.190733 0.16859397 -1.1168578 -7.8537254 3.6819167 -1.2489281 1.4436222 -3.775783
0.6911539 4.2550955 2.9391868 4.4826326 -3.858247 -0.01571846 -2.4099846 0.8413464
11.92904 -2.6780608 5.869037 -6.3873744 -6.6537275 -0.30520436 3.355533 -5.068909
-4.062039 0.341763 -0.9459037 2.7676308 -0.8786478 -0.12656195 5.6451597 0.4218738
-1.2421393 -5.1578884 -4.8690314 7.396545 0.6144448 4.8156857 4.884521 -8.453535
-0.7067386 1.0831656 4.0332327 -1.1338449 -4.7960324 0.3993278 2.9785373 -1.3681501
-6.010438 2.926791 -1.4976954 5.262758 -9.800572 -1.4751452 1.6102585 0.1956522
3.7972348 9.394707 -4.5614977 3.7397861 -2.1888514 1.8911948 5.4413023 -4.9640045
-3.1456883 -1.6257889 1.3547475 -3.688976 3.9396381 -0.9075183 6.0143104 -3.7476714
00000000: 3e0d 23c1 e6a3 2c3e 32f5 8ebf b851 fbc0
00000010: 86a4 6b40 e0dc 9fbf 9dc8 b83f 6ea6 71c0
00000020: 76ef 303f be29 8840 a31b 3c40 ba71 8f40
00000030: 85ed 76c0 00c4 80bc 303d 1ac0 7a62 573f
00000040: 59dd 3e41 5965 2bc0 27cf bb40 5f65 ccc0
00000050: 56eb d4c0 bf43 9cbe 0dc1 5640 8134 a2c0
00000060: 39fc 81c0 8ffb ae3e bf26 72bf dd20 3140
00000070: 10ef 60bf 7599 01be 26a5 b440 d8ff d73e
00000080: 6cfe 9ebf 6c0d a5c0 1bcf 9bc0 7fb0 ec40
00000090: 414c 1d3f 191a 9a40 ff4d 9c40 ae41 07c1
000000a0: d2ec 34bf 2ca5 8a3f 3e10 8140 d421 91bf
000000b0: 1979 99c0 b274 cc3e 5ba0 3e40 8b1f afbf
000000c0: 8255 c0c0 8b50 3b40 7cb4 bfbf 8368 a840
000000d0: 25cf 1cc1 8fd1 bcbf f31c ce3f 0d59 483e
000000e0: e505 7340 b850 1641 caf7 91c0 a858 6f40
000000f0: 2416 0cc0 ac12 f23f 261f ae40 20d9 9ec0
00000100: f552 49c0 da19 d0bf 5e68 ad3f 2f18 6cc0
00000110: 0823 7c40 1f53 68bf 3b75 c040 d9d9 6fc0

submodules.htm_pred.0.bias f4 [4]
1.1716073 -0.5755367 -0.3621705 -0.9252605
00000000: 3af7 953f 6056 13bf 696e b9be dfdd 6cbf

exp_avg f4 [18, 23]
-0.019844867 0.005976481 0.034512077 -0.012322382 -0.019269513 0.0029928484 0.027566927 0.04454564
-0.02289176 0.0027430796 -0.051606294 0.016726598 0.10340117 0.01426772 0.01194561 -0.00028168832
0.020526178 0.022193342 0.02235984 0.040239617 0.088205025 -0.0063326713 0.08640453 0.092498146
0.0454159 -0.102532536 -0.07630945 -0.04374087 0.118410796 -0.09559282 -0.19071206 -0.07651425
0.08719265 0.060865507 0.08018189 0.000813416 0.0014081314 0.0015539996 -0.043302223 0.069499664
0.026242252 0.021430718 -0.00598451 0.02368177 -0.021866387 0.08472525 0.22033587 0.13368212
-0.20870775 -0.15918119 -0.15148343 0.18621677 -0.21565765 -0.24840571 0.10548699 -0.077335104
0.17761403 -0.09793542 -0.06752972 0.023808768 0.03693361 -0.04437664 -0.02659276 0.051606957
-0.07757768 0.00868876 -0.03177452 0.018549232 -0.10451088 0.15474805 0.15589584 -0.1548745
0.032346737 0.0030808852 -0.06458998 -0.17840552 0.18056904 0.18678421 -0.21792331 0.1108257
-0.19733413 -0.108374745 0.022569478 0.012398479 0.011692236 -0.070403144 -0.027921988 0.046033513
-0.01543183 -0.063015796 -0.0051379157 -0.043744534 0.075412355 0.011006233 -0.09617878 -0.46300748
-0.43895763 0.50313056 -0.07696002 -0.52711403 -0.2475952 0.31495488 -0.14335023 0.26084128
0.051201954 0.018794682 0.035744667 -0.10190044 0.12960465 0.060990736 0.11524901 0.007741797
0.09292993 -0.004790152 0.21565886 0.26211533 0.20221536 -0.3001461 0.033973698 0.01647286
-0.033297233 -0.2743865 0.009025849 0.046171773 -0.058624435 0.19577157 -0.051715255 -0.1601287
-0.01707027 0.013511112 -0.02342745 0.023848012 -0.0149505325 0.06366267 -0.02223083 -0.130703
0.014573676 0.031321384 -0.11942791 -0.050319195 0.1405416 0.26318407 0.2450815 -0.27826107
0.12427548 0.3877115 0.17412102 -0.21961217 0.012220255 -0.1805873 0.034249052 -0.031515554
-0.0003406796 0.0063251993 -0.039498396 -0.010077533 0.07451771 -0.028678639 0.0325091 -0.023950858
0.035523128 -0.101764135 -0.07059837 0.10614682 0.06433063 0.057881307 -0.057096533 0.10487606
0.050231915 0.00880344 -0.0046934015 -0.036440942 -0.0054256795 0.017190944 -0.010984167 -0.021606304
0.02336697 0.05296524 0.0056461585 0.032494936 -0.00146589 -0.025025757 0.00093927287 0.11409713
0.041726455 0.032793228 -0.045677505 -0.03568663 -0.03458095 0.04771045 -0.041264184 -0.025524598
-0.066911325 0.07462747 -0.015432119 0.06729032 -0.004500094 -0.00076493854 -0.0029274214 -0.02625905
0.018473476 -0.0027777744 0.0013138189 0.0005262377 0.0020354884 -0.015038105 0.0044585643 -0.07545827
-0.08794154 0.067915365 0.086969964 0.10419261 -0.051201623 0.07232491 -0.08611978 -0.006413527
0.0449172 0.05528027 0.016945733 -0.026827207 -0.025194414 0.006460383 -0.033267364 -0.110054255
0.060235716 0.028060054 -0.005517112 -0.059508707 -0.012730428 -0.051220987 -0.13981426 -0.13026538
0.14501552 -0.024384445 -0.035333592 0.011605709 0.14992657 -0.055686478 -0.1379876 0.16681874
-0.15035708 0.14152373 0.039359022 -0.015957313 0.014106266 -0.045691818 -0.032812763 0.03467539
-0.0511036 -0.0066905855 0.034187373 -0.019152323 -0.06737916 -0.06777738 -0.087740295 0.056843106
00000000: b491 a2bc 5bd6 c33b 895c 0d3d d1e3 49bc
00000010: 19db 9dbc aa23 443b 09d4 e13c 7d75 363d
00000020: 8087 bbbc 3dc5 333b 1f61 53bd 3806 893c
00000030: fec3 d33d 28c3 693c 85b7 433c 91af 93b9
00000040: 8426 a83c d0ce b53c fc2b b73c 4cd2 243d
00000050: d6a4 b43d 4c82 cfbb dcf4 b03d ab6f bd3d
00000060: 0606 3a3d 94fc d1bd 2148 9cbd a029 33bd
00000070: 5c81 f23d 2bc6 c3bd 064a 43be 81b3 9cbd
00000080: 0f92 b23d 1c4e 793d 6736 a43d 6c3b 553a
00000090: 0d91 b83a 93af cb3a ac5d 31bd d755 8e3d
000000a0: fef9 d63c 798f af3c b519 c4bb 4500 c23c
000000b0: 2321 b3bc 6f84 ad3d ba9f 613e f7e3 083e
000000c0: 7cb7 55be 6500 23be 791e 1bbe 9caf 3e3e
000000d0: 5cd5 5cbe 115e 7ebe 9009 d83d de61 9ebd
000000e0: 74e0 353e 5e92 c8bd 064d 8abd 9b0a c33c
000000f0: b247 173d 48c4 35bd 0fd9 d9bc d161 533d
00000100: 0ce1 9ebd 4d5b 0e3c 0026 02bd 8ff4 973c
00000110: cd09 d6bd 4676 1e3e 29a3 1f3e 6c97 1ebe
00000120: 037e 043d ade8 493b c047 84bd f0af 36be
00000130: 17e7 383e 5c44 3f3e 4a27 5fbe 96f8 e23d
00000140: f511 4abe 94f3 ddbd a0e3 b83c fd22 4b3c
00000150: cb90 3f3c 862f 90bd a7bc e4bc a38d 3c3d
00000160: c9d5 7cbc 6d0e 81bd f65b a8bb 782d 33bd
00000170: cb71 9a3d 7d53 343c 61f9 c4bd 510f edbe
00000180: 0ebf e0be 2acd 003f 379d 9dbd f2f0 06bf
00000190: 9989 7dbe c441 a13e 67ca 12be fd8c 853e
000001a0: 24b9 513d 4ef7 993c 0069 123d 2eb1 d0bd
000001b0: 15b7 043e 6cd1 793d ac07 ec3d e6ae fd3b
000001c0: 0c52 be3d b5f6 9cbb add5 5c3e fb33 863e
000001d0: 8b11 4f3e c0ac 99be 0128 0b3d 17f2 863c
000001e0: ae62 08bd 637c 8cbe 28e1 133c 9d1e 3d3d
000001f0: 2d20 70bd 5878 483e 60d3 53bd c7f8 23be
00000200: f3d6 8bbc b65d 5d3c ecea bfbc e85c c33c
00000210: 14f3 74bc 9361 823d 6e1d b6bc 02d7 05be
00000220: 6dc6 6e3c da4a 003d 9f96 f4bd 801b 4ebd
00000230: 23ea 0f3e 10c0 863e a5f6 7a3e 3c78 8ebe
00000240: 2584 fe3d 1f82 c63e c84c 323e 03e2 60be
00000250: 7737 483c e1eb 38be bc48 0c3d 7416 01bd
00000260: 3e9d b2b9 9e43 cf3b 12c9 21bd 3d1c 25bc
00000270: be9c 983d 77ef eabc 4328 053d 9734 c4bc
00000280: b380 113d b769 d0bd e195 90bd 8163 d93d
00000290: c7bf 833d f314 6d3d 0ede 69bd 42c9 d63d
000002a0: fbbf 4d3d 4e3c 103c 1bcb 99bb 1943 15bd
000002b0: e6c9 b1bb 06d4 8c3c f0f6 33bc b4ff b0bc
000002c0: 166c bf3c 14f2 583d 6903 b93b 6919 053d
000002d0: 1b23 c0ba d102 cdbc 8939 763a c2ab e93d
000002e0: 5ce9 2a3d 3152 063d 5618 3bbd 252c 12bd
000002f0: c1a4 0dbd 086c 433d a204 29bd f618 d1bc
00000300: ce08 89bd 49d6 983d 00d7 7cbc 82cf 893d
00000310: 8675 93bb 2886 48ba fbd9 3fbb 381d d7bc
00000320: b055 973c 520b 36bb 7234 ac3a 37f3 093a
00000330: d465 053b 6262 76bc 2619 923b de89 9abd
00000340: b21a b4bd 3617 8b3d 4f1d b23d ef62 d53d
00000350: cbb8 51bd 151f 943d 915f b0bd 9028 d2bb
00000360: 19fb 373d 906d 623d c7d1 8a3c bbc4 dbbc
00000370: 8464 cebc 9fb1 d33b 5c43 08bd 2064 e1bd
00000380: bab9 763d 33de e53c e4c8 b4bb 67bf 73bd
00000390: 4993 50bc 19cd 51bd 782b 0fbe 4a64 05be
000003a0: f37e 143e e3c1 c7bc f5b9 10bd df25 3e3c
000003b0: 5a86 193e 8117 64bd 9f4c 0dbe 88d2 2a3e
000003c0: 35f7 19be 99eb 103e ed36 213d e9b8 82bc
000003d0: f81d 673c 5827 3bbd ad66 06bd c807 0e3d
000003e0: 0252 51bd b33c dbbb 0f08 0c3d 55e5 9cbc
000003f0: 16fe 89bd dece 8abd 2fb1 b3bd 51d4 683d

exp_avg_sq f4 [18, 23]
0.13137402 0.08314843 0.16423997 0.32324487 0.2859334 0.36615923 0.15080045 0.35911092
0.32364652 0.35908324 0.1996648 0.33305427 0.057759237 0.025392246 0.06567105 0.009407976
0.010996914 0.025467742 0.16969675 0.071565814 0.06378954 0.024152623 0.2260038 0.15580648
0.09924385 0.1805337 0.24825446 0.2661382 0.22909908 0.17121783 0.24766377 0.11903353
0.13602318 0.17907666 0.12420767 0.020222066 0.019800052 0.010847901 0.01444529 0.017785454
0.03397809 0.04845367 0.014202194 0.03458839 0.011500947 0.11145333 4.5851164 2.5839744
5.1134953 0.29997605 0.2931656 0.34915075 5.0205 0.7735478 0.53267485 0.5014104
2.4474068 0.5237382 0.2302949 0.043047767 0.060610786 0.04361893 0.018614758 0.0179491
0.09849016 0.042475015 0.2991192 0.018947309 0.17500381 1.196715 0.6818123 1.338509
0.3528342 0.4277116 0.2670677 1.3096585 0.27765894 0.15981102 0.18145736 0.82446504
0.16289528 0.058609508 0.028936224 0.058819924 0.01185162 0.018079339 0.014878403 0.02205474
0.05941647 0.09071928 0.006989633 0.06501807 0.697019 0.41745478 0.7805777 0.7152717
0.70517766 0.73744464 0.7559979 0.6706425 1.1210132 1.0624386 0.7051623 1.1198773
0.05075905 0.12681833 0.044185225 0.04889835 0.06949319 0.1736291 0.28682074 0.05826613
0.15368393 0.078478836 0.5148816 0.7213972 0.44300598 0.8553768 0.31062794 0.2593298
0.41827616 0.80192184 1.0750545 0.4489812 0.4597083 0.44987056 0.4523923 0.1687106
0.035828188 0.039002046 0.046183225 0.01626605 0.048289433 0.27949664 0.039265122 0.1911427
0.09362183 0.3207166 0.13980182 0.113148086 0.15204805 0.3701235 0.30710593 0.4552455
0.15461832 0.62458783 0.73902947 0.7450946 0.26932248 0.7480835 0.03010864 0.057476774
0.07515669 0.04026386 0.03389531 0.03768231 0.26648676 0.11719252 0.022570435 0.06805692
0.3545968 0.13843693 0.086765066 0.15573625 0.22177485 0.25859252 0.17292704 0.15157549
0.1518059 0.10917373 0.11724553 0.20814992 0.11047539 0.011195039 0.02288579 0.010348802
0.00995963 0.010618174 0.012477739 0.032219198 0.015436903 0.03030438 0.008440378 0.064899854
0.14005443 0.08631327 0.15634026 0.20110454 0.2370901 0.15459861 0.15394634 0.14167339
0.23071377 0.19745848 0.22983843 0.22382572 0.009157561 0.019940194 0.017930213 0.005886022
0.014475795 0.01488711 0.02830575 0.010140798 0.035310213 0.009949936 0.05839847 0.15383695
0.099119164 0.18127848 0.4207929 0.4486884 0.3834555 0.17121693 0.3630977 0.5031112
0.46588466 0.34312335 0.49565297 0.023103308 0.031505533 0.06059563 0.048523687 0.013188585
0.121205576 0.095199585 0.06369267 0.046732318 0.014477362 0.27241123 0.1758851 0.118224025
0.20308587 0.3536105 0.38413352 0.3186896 0.1928747 0.3511082 0.16912805 0.19283107
0.25897732 0.1735679 0.026375983 0.03235057 0.010302241 0.01149887 0.031806227 0.03155511
0.1369193 0.011443777 0.055518877 0.017824829 0.20946528 0.11405885 0.099747494 0.13054791
00000000: e986 063e b949 aa3d 862e 283e 5a80 a53e
00000010: dd65 923e 3979 bb3e 6f6b 1a3e 63dd b73e
00000020: ffb4 a53e c2d9 b73e ee74 4c3e 1786 aa3e
00000030: f394 6c3d 6603 d03c 8b7e 863d e923 1a3c
00000040: 662c 343c baa1 d03c fcc4 2d3e 1991 923d
00000050: 17a4 823d b9db c53c 8a6d 673e bc8b 1f3e
00000060: 5c40 cb3d d4dd 383e 6b36 7e3e 4443 883e
00000070: f398 6a3e ba53 2f3e 929b 7d3e dac7 f33d
00000080: a949 0b3e df5f 373e 9760 fe3d bfa8 a53c
00000090: b833 a23c 65bb 313c f0ab 6c3c cdb2 913c
000000a0: 9c2c 0b3d 5b77 463d 52b0 683c 8eac 0d3d
000000b0: 786e 3c3c a541 e43d 46b9 9240 d65f 2540
000000c0: c1a1 a340 7696 993e cd19 963e e3c3 b23e
000000d0: f0a7 a040 3b07 463f 615d 083f 6f5c 003f
000000e0: 50a2 1c40 b513 063f 6dd2 6b3e db52 303d
000000f0: 0443 783d c3a9 323d fa7d 983c fe09 933c
00000100: 36b5 c93d 48fa 2d3d 2726 993e 6337 9b3c
00000110: 3334 333e f52d 993f 408b 2e3f 4354 ab3f
00000120: afa6 b43e 04fd da3e 19bd 883e e4a2 a73f
00000130: 5029 8e3e 80a5 233e f5cf 393e 2410 533f
00000140: 05ce 263e 8610 703d a90b ed3c 29ed 703d
00000150: 4c2d 423c 1f1b 943c 8cc4 733c 24ac b43c
00000160: af5e 733d 08cb b93d 4b09 e53b 3228 853d
00000170: d66f 323f a2bc d53e f1d3 473f 0c1c 373f
00000180: 8686 343f 2cc9 3c3f 1489 413f 3aaf 2b3f
00000190: 5c7d 8f3f fdfd 873f 8485 343f 2458 8f3f
000001a0: b9e8 4f3d aadc 013e 91fb 343d a349 483d
000001b0: 7252 8e3d d4cb 313e 2bda 923e 77a8 6e3d
000001c0: 525f 1d3e 83b9 a03d 48cf 033f 7dad 383f
000001d0: aed1 e23e f9f9 5a3f a00a 9f3e e0c6 843e
000001e0: 4b28 d63e c04a 4d3f 639b 893f dde0 e53e
000001f0: e35e eb3e 6f55 e63e f79f e73e 79c2 2c3e
00000200: 94c0 123d 9cc0 1f3d 9f2a 3d3d 6140 853c
00000210: 24cb 453d 2f1a 8f3e 77d4 203d e9ba 433e
00000220: cdbc bf3d f734 a43e 3528 0f3e 2fba e73d
00000230: 7cb2 1b3e d480 bd3e fd3c 9d3e f015 e93e
00000240: 4454 1e3e fde4 1f3f 0931 3d3f 85be 3e3f
00000250: a3e4 893e 6682 3f3f 65a6 f63c c46c 6b3d
00000260: c0eb 993d b8eb 243d cfd5 0a3d c458 1a3d
00000270: f470 883e a202 f03d a2e5 b83c 6d61 8b3d
00000280: b68d b53e 69c2 0d3e e2b1 b13d 5379 1f3e
00000290: f218 633e 3d66 843e c913 313e 9b36 1b3e
000002a0: 0173 1b3e 7a96 df3d 6d1e f03d 4125 553e
000002b0: ec40 e23d 666b 373c fb7a bb3c 068e 293c
000002c0: b72d 233c daf7 2d3c 6e6f 4c3c 47f8 033d
000002d0: 10eb 7c3c e440 f83c 8349 0a3c 37ea 843d
000002e0: 6e6a 0f3e 03c5 b03d a917 203e 59ee 4d3e
000002f0: bfc7 723e 194f 1e3e 1ca4 1d3e d412 113e
00000300: 3b40 6c3e 8e32 4a3e c45a 6b3e 9232 653e
00000310: 9809 163c 9e59 a33c 62e2 923c 88df c03b
00000320: e32b 6d3c 11e9 733c 76e1 e73c 9725 263c
00000330: 71a1 103d 0e05 233c 3c33 6f3d 6f87 1d3e
00000340: fdfe ca3d 11a1 393e 2b72 d73e 7cba e53e
00000350: 4754 c43e 7e53 2f3e f1e7 b93e e5cb 003f
00000360: 6f88 ee3e ddad af3e 3ac6 fd3e 2643 bd3c
00000370: f20b 013d 2033 783d c6c0 463d ef14 583c
00000380: a13a f83d 00f8 c23d 4d71 823d 636a 3f3d
00000390: 7532 6d3c 7c79 8b3e 391b 343e 701f f23d
000003a0: bef5 4f3e 6f0c b53e 26ad c43e 492b a33e
000003b0: f280 453e 74c4 b33e e72f 2d3e 8275 453e
000003c0: ad98 843e c9bb 313e 7212 d83c 0882 043d
000003d0: bbca 283c c265 3c3c 3f47 023d ee3f 013d
000003e0: 9334 0c3e ae7e 3b3c c367 633d 6005 923c
000003f0: 117e 563e b097 e93d 6a48 cc3d 5aae 053e

exp_avg f4 [18]
0.18977979 0.08182537 -0.10904117 -0.12732968 0.31833783 -0.107038796 0.03540185 0.103816845
-0.008018369 -0.11058709 -0.058099847 -0.03356074 0.082527466 0.042080097 0.20339423 -0.14765915
-0.11340113 0.072032094
00000000: a255 423e 0f94 a73d fa50 dfbd b662 02be
00000010: 2dfd a23e 2837 dbbd 8801 113d ed9d d43d
00000020: 7a5f 03bc 7c7b e2bd 1bfa 6dbd fd76 09bd
00000030: 2904 a93d 2e5c 2c3d 9446 503e f633 17be
00000040: da3e e8bd 9085 933d

exp_avg_sq f4 [18]
0.42096797 0.1805227 0.5461242 0.22080311 0.8611821 0.6170659 0.55674726 0.11970438
0.114174075 0.41142705 0.29287037 0.5188784 0.7398511 0.18677513 0.3594319 0.8889656
0.15153852 0.7220504
00000000: 1d89 d73e f1da 383e ccce 0b3f 361a 623e
00000010: 6e76 5c3f 08f8 1d3f fd86 0e3f 9227 f53d
00000020: 19d4 e93d 91a6 d23e 1bf3 953e 37d5 043f
00000030: e266 3d3f fb41 3f3e 7507 b83e 4093 633f
00000040: ea2c 1b3e 4cd8 383f

exp_avg f4 [100, 18]
-0.0027927808 0.00054838 -0.0010025832 0.004487335 0.00026744997 0.001920311 4.012141e-05 0.0007807032
-0.0022293741 0.0015296516 0.0027584762 0.0051134084 0.0015253735 0.0036757002 0.0032843733 -0.0042304373
-0.0031822121 0.0033207878 0.0056773922 -0.0026193266 -0.018837387 0.003275633 -0.0102985175 0.008786611
0.0065180557 0.005978852 -0.0064215683 -0.00041177403 -0.013625214 -0.0016462157 -0.0036849456 -0.006172801
0.0063930876 0.0021531428 -0.003072813 -0.006190296 -0.00025841844 0.00037239274 0.0010011941 0.00031821078
-6.565617e-05 -5.798367e-06 -0.00012889231 -0.00019964816 0.00041302782 -0.000108842694 -7.358005e-05 -7.8953315e-05
-0.00010833164 8.84982e-05 -0.00034170572 -8.792574e-05 -1.2668977e-05 0.00011695113 -0.00021113896 6.348086e-05
-6.4092405e-05 0.00021182392 -0.00093704654 -0.00014000705 0.00030783986 0.00038851023 5.314113e-05 -0.00015351108
-0.0003149417 -0.00014590287 0.0001454053 -8.08812e-06 -0.0007360721 0.00039258387 -5.399945e-05 -0.00050979323
-0.00043611953 0.001931749 0.0016808385 0.0013030992 -0.0023005793 0.00044582563 0.0008566948 0.001090509
-0.0004903037 1.8999226e-05 -0.001051509 0.0005925928 7.8472716e-05 0.0008941131 -0.0012255439 -0.0014091901
0.00072070246 0.0004108309 -0.0025551901 0.0018015607 0.0046861856 0.0013061583 0.0010964896 0.0001055372
-0.0015125887 0.00036824518 0.00025591202 -0.00016422958 0.0024384488 0.0018792374 0.0005578783 0.0008211043
-0.00055523525 -0.0019808852 0.00067410764 0.0013909297 0.0004518719 0.0002916079 -0.0003775532 0.0010612431
-0.0010760553 0.0004963956 0.00077663304 0.00032518795 -0.00031464596 -0.00039160723 -0.00058738055 6.0194e-05
0.00020983716 0.0004945636 -4.2792533e-05 -9.599799e-05 0.0001289423 -0.0005168581 -0.0006624772 -0.0022140655
0.00076730934 0.0030195538 -0.0012593134 -0.00133631 -0.00027093614 -0.0006140532 0.00011353006 0.00040662405
-0.0005949258 0.0014739773 0.0029848109 0.001859278 -0.000103294675 0.0020650735 -0.001807153 -0.0016789845
0.0002583289 0.00064164976 0.00044353443 -0.0008869954 0.000275044 0.0012987546 -0.00089489785 0.0006545803
-0.00012474954 -0.00022599543 -0.0010076937 -0.0005632302 -0.00049327867 -0.0010345419 0.00065516145 -0.00045391452
0.00039659362 0.0007220075 9.860125e-05 -0.0003078337 0.00047422742 -0.0004773487 0.0011818616 -0.00027322545
-0.0005706032 -0.0005701576 0.00018286044 0.00027079674 0.00045895818 -0.00030035982 -1.1512473e-05 0.00013790936
0.0004009189 0.00019034276 -0.0001984192 0.00051116006 -0.0005753673 0.0029881014 0.0015339425 0.0007591059
-0.0040965676 -0.0006778397 0.0013873266 0.002112384 -0.0011944539 -0.00015297525 -0.0013100686 0.0007252651
0.00026552178 0.00087314594 -0.0034669 -0.0026292452 0.0013885635 0.0011492536 -0.0012315889 0.0026558032
0.0019382713 0.00019817227 -0.0029387556 -0.0016912882 0.00097029796 0.0012018798 -0.00022114775 0.00015089312
-9.079411e-05 0.00060053647 8.936154e-06 0.0010739918 -0.0038240496 -0.0024259523 0.00043011786 0.0018036366
-0.0019852684 0.0015097491 0.002187344 0.0007214752 -0.0010647144 -0.0006984971 -0.00027109063 0.0005537743
-3.096553e-05 0.0004196236 0.0006827223 0.0013613843 0.0005982561 0.0011321119 -0.0018513151 -0.0018107003
9.345777e-06 0.0014286939 -0.0028184925 0.004690234 0.008421262 0.0005580163 0.00086656155 -0.0014405148
-0.0012096989 -0.00088926416 0.0018955191 0.00017342457 0.0024235663 0.00030088096 -0.0006375327 0.0019428352
-0.004043121 -0.004231514 0.001621377 0.0041378485 -0.00035061003 0.0026004422 -0.0016331481 0.0019145131
00000000: 1607 37bb 29c1 0f3a 1c69 83ba 7f0a 933b
00000010: 8738 8c39 f2b2 fb3a 0948 2838 1ba8 4c3a
00000020: b11a 12bb 977e c83a 8dc7 343b 618e a73b
00000030: 0bef c73a 04e4 703b a43e 573b 7b9f 8abb
00000040: a98c 50bb 93a1 593b 6b09 ba3b 02a9 2bbb
00000050: dd50 9abc 01ac 563b 1dbb 28bc b8f5 0f3c
00000060: 6a95 d53b 3fea c33b 056c d2bb 60e3 d7b9
00000070: 4a3c 5fbc d5c5 d7ba 217f 71bb 3545 cabb
00000080: 1b7d d13b be1b 0d3b 3f61 49bb f7d7 cabb
00000090: 567c 87b9 b53d c339 803a 833a 87d5 a639
000000a0: e3b0 89b8 988f c2b6 4427 07b9 a558 51b9
000000b0: a88b d839 7a42 e4b8 fd4e 9ab8 bd93 a5b8
000000c0: 1b30 e3b8 1c98 b938 f726 b3b9 c664 b8b8
000000d0: d88c 54b7 a943 f538 2f65 5db9 0721 8538
000000e0: 5969 86b8 0d1d 5e39 21a4 75ba dbce 12b9
000000f0: 9165 a139 f6b0 cb39 dbe3 5e38 d1f7 20b9
00000100: c21e a5b9 81fd 18b9 f077 1839 36b2 07b7
00000110: f6f4 40ba b7d3 cd39 787d 62b8 a5a3 05ba
00000120: f9a6 e4b9 be32 fd3a 954f dc3a c1cc aa3a
00000130: 51c5 16bb b4bd e939 d193 603a 69ef 8e3a
00000140: b987 00ba 8760 9f37 cad2 89ba 3b58 1b3a
00000150: b891 a438 ea62 6a3a 6ea2 a0ba 93b4 b8ba
00000160: 86ed 3c3a ca64 d739 fa74 27bb 5922 ec3a
00000170: 938e 993b 6633 ab3a 16b8 8f3a da53 dd38
00000180: 0e42 c6ba 0811 c139 ee2b 8639 0b35 2cb9
00000190: 62ce 1f3b be50 f63a 943e 123a 603f 573a
000001a0: 358d 11ba bdd1 01bb 99b6 303a db4f b63a
000001b0: 38e9 ec39 f3e2 9839 55f2 c5b9 6919 8b3a
000001c0: 6d0a 8dba 8b20 023a f696 4b3a fd7d aa39
000001d0: 11f7 a4b9 a250 cdb9 71fa 19ba d178 7c38
000001e0: bc07 5c39 9aa5 013a 227c 33b8 8752 c9b8
000001f0: af34 0739 c37d 07ba 18aa 2dba db19 11bb
00000200: 4225 493a b5e3 453b 8c0f a5ba 1f27 afba
00000210: 6f0c 8eb9 6af8 20ba fd16 ee38 2830 d539
00000220: cbf4 1bba 7932 c13a d19c 433b 04b3 f33a
00000230: e89f d8b8 2f56 073b fedd ecba 5f11 dcba
00000240: 5170 8739 6334 283a 2f8a e839 4185 68ba
00000250: c833 9039 f93a aa3a 9497 6aba 2498 2b3a
00000260: 33cf 02b9 30f9 6cb9 9714 84ba bda5 13ba
00000270: 5f4f 01ba 7799 87ba 24bf 2b3a 60fb edb9
00000280: e5ed cf39 1a45 3d3a 25c8 ce38 bd64 a1b9
00000290: baa1 f839 a844 fab9 b2e8 9a3a b33f 8fb9
000002a0: 8894 15ba a176 15ba 3abe 3f39 b9f9 8d39
000002b0: 53a0 f039 9d79 9db9 b225 41b7 c39b 1039
000002c0: 6d32 d239 bf96 4739 c00e 50b9 5fff 053a
000002d0: 3fd4 16ba 06d4 433b 920e c93a bcfe 463a
000002e0: 803c 86bb 0db1 31ba f5d6 b53a ec6f 0a3b
000002f0: 398f 9cba fb67 20b9 9cb6 abba b81f 3e3a
00000300: bb35 8b39 d5e3 643a ee34 63bb 6a4f 2cbb
00000310: 7600 b63a 8da2 963a 446d a1ba fc0c 2e3b
00000320: 980d fe3a 77cc 4f39 2398 40bb 37ae ddba
00000330: 985b 7e3a 6588 9d3a e6e3 67b9 1039 1e39
00000340: b768 beb8 526d 1d3a 7dec 1537 2fc5 8c3a
00000350: e89c 7abb bafc 1ebb 7181 e139 0068 ec3a
00000360: 471b 02bb c6e2 c53a 8b59 0f3b 6221 3d3a
00000370: e38d 8bba 591b 37ba 2b21 8eb9 2a2b 113a
00000380: fce0 01b8 ed00 dc39 b8f8 323a 7a70 b23a
00000390: 4ad4 1c3a 5f63 943a d4a7 f2ba 0555 edba
000003a0: cecb 1c37 0343 bb3a 75b6 38bb 89b0 993b
000003b0: 55f9 093c d747 123a f629 633a a8cf bcba
000003c0: c28e 9eba 821d 69ba 1173 f83a 4ed9 3539
000003d0: b2d4 1e3b 8fbf 9d39 1820 27ba bba6 fe3a
000003e0: 287c 84bb 83a8 8abb 6284 d43a ca96 873b
000003f0: 15d2 b7b9 2e6c 2a3b 5b0f d6ba 66f0 fa3a
