runs/perovskite_multiscale_dataset_runs/ae2_PCE_predictor_enc_l_2_l1_1em2_tanh_predictor_0_1_100_relu_decoder_linear_seed_0_lr_1em3_bs_100_e_1500_pass_latents_ae1_fold_0_ae2_fold_2_xavier_normal_gain_10/submodule_params/encoder_params.pt (torch, 1283 bytes, 2 tensors)

0.weight f4 [2, 23]
000000 25 f9 57 3c a4 4e 82 3e e1 3b a8 3e 8f 58 56 bb
       0.013181959 0.25450623 0.32858184 -0.0032706594
000010 e5 e7 02 be 18 1f 8e 3b e9 e3 25 bc 12 e8 9b 3b
       -0.12783773 0.0043372028 -0.010125139 0.0047578895
000020 74 88 66 bc 80 bd 83 bd bb 94 84 3e 7d ea 76 3e
       -0.014070619 -0.06432629 0.25894722 0.24112888
000030 68 ec f3 3e 4d 50 ba ba 4a 64 ca 3e 93 93 07 bf
       0.476413 -0.0014214605 0.3952964 -0.52959555
000040 37 6a 7d be be d9 a3 3e 14 a2 33 bf 41 c2 83 3e
       -0.24747549 0.32002062 -0.70169187 0.2573414
000050 23 85 52 bb aa 6d bb 3d 10 67 d4 be b3 39 85 3e
       -0.0032122813 0.09151776 -0.4148488 0.26020584
000060 4b f9 73 3d 9b dd 6b bb a0 03 09 bb b3 bf 58 bd
       0.059563916 -0.0035990241 -0.0020906702 -0.052917194
000070 51 53 15 be 5d 13 95 bb de 4e d2 3a 2b c8 0b be
       -0.14582564 -0.0045494274 0.0016045233 -0.13650577
000080 e7 27 d4 bd 41 23 af bd 9e e3 fb 3b 5c 52 e3 be
       -0.10359173 -0.08551646 0.007687046 -0.44398773
000090 bf f7 96 ba d4 35 49 3a 77 b9 e1 3d a7 40 41 3f
       -0.0011517926 0.00076755625 0.11021703 0.75489277
0000a0 76 55 3f 3f 0d 0c 10 bf a4 7d 03 bd 25 27 2d bf
       0.7473978 -0.5626839 -0.032102242 -0.67637855
0000b0 a2 cb 95 3a e0 13 e1 3d
       0.0011428485 0.10990119

0.bias f4 [2]
000000 a0 78 f4 3d 44 46 d2 bd
       0.1193707 -0.10267308
