runs/perovskite_multiscale_dataset_runs/ae2_PCE_predictor_enc_l_2_l1_1em2_tanh_predictor_0_1_100_relu_decoder_linear_seed_0_lr_1em3_bs_100_e_1500_pass_latents_ae1_fold_0_ae2_fold_2_xavier_normal_gain_10/submodule_params/PCE_pred_params.pt (torch, 3279 bytes, 3 tensors)

0.weight f4 [100, 2]
0	0xbff7e95f	-1.9368094
1	0xbe987b47	-0.29781553
2	0xbeea78ce	-0.45795292
3	0xbf968ec9	-1.1762325
4	0x3ea59b5b	0.3234509
5	0x3e360231	0.17774273
6	0x3b1bf133	0.002379489
7	0x40049c45	2.072038
8	0x3f2fed39	0.6872135
9	0xbdbf1bbd	-0.093314625
10	0x3ebef86a	0.372989
11	0xbf882999	-1.0637695
12	0x3fb555c0	1.4166794
13	0x3f45cf22	0.77269185
14	0x3fc78407	1.5587167
15	0xbe72a693	-0.23696356
16	0xbf2078ca	-0.6268431
17	0xbfce1b3f	-1.6102065
18	0x3eff12b9	0.49818972
19	0xbfc95ad4	-1.5730844
20	0xc032a50a	-2.7913232
21	0x3f0456da	0.51695025
22	0xbec45470	-0.3834567
23	0xbf7d158c	-0.98861
24	0xbe0f6cdd	-0.14006372
25	0x3df6b8fc	0.12047002
26	0x3f68a072	0.9086982
27	0x408421c1	4.1291203
28	0xc009c64b	-2.1527278
29	0xbf74510c	-0.9543617
30	0xbf24caf7	-0.643722
31	0x3e3bb734	0.18331605
32	0x3fa11795	1.2585322
33	0x3f941a7a	1.157058
34	0x3f23e127	0.6401543
35	0xbdb40dd0	-0.08791697
36	0xbf16912d	-0.5881527
37	0xbf1753d4	-0.59112287
38	0xc001696b	-2.0220592
39	0x3e47dc48	0.19517624
40	0x3cdbf9b2	0.026852462
41	0xbcb672fe	-0.02227163
42	0x40365a03	2.8492439
43	0xbedc76f6	-0.4305951
44	0x3d8d73fe	0.069068894
45	0x3d00e7cc	0.03147106
46	0x4038060f	2.8753698
47	0x3f0c19d4	0.5472691
48	0xbf9bc19a	-1.2168458
49	0x3ef66656	0.4812495
50	0xbec370b9	-0.38171938
51	0x3f154b43	0.58317965
52	0x3eacb832	0.3373428
53	0xbe1f264d	-0.15541954
54	0x3f7df74b	0.99205464
55	0xbf98acb3	-1.1927704
56	0x3f3b8366	0.73247373
57	0x3e056d62	0.13030007
58	0xbdaaa65f	-0.08332514
59	0xbc726f6d	-0.014797074
60	0xbfe52d38	-1.7904425
61	0x3f228275	0.6348031
62	0x4041752f	3.0227773
63	0x3f18f046	0.5974163
64	0xbfb62a6b	-1.4231695
65	0xbed85d2e	-0.4225859
66	0xbd89fed5	-0.067380585
67	0xbe0a2cf9	-0.13493718
68	0xbf9da21c	-1.2315097
69	0x3ea7b517	0.32755348
70	0x3f8d5a8b	1.1043257
71	0xbea4b45b	-0.3216885
72	0xbf1ff08e	-0.6247643
73	0x3ec934e9	0.3929818
74	0xbd1e0176	-0.038575612
75	0xbe81b930	-0.253366
76	0xc06b2a92	-3.6744733
77	0xbec2d5cd	-0.38053742
78	0x3d176d57	0.03696951
79	0x3ddf0de7	0.108913235
80	0x3f54c880	0.8311844
81	0x3ede88a8	0.43463635
82	0xbf6ef9d8	-0.9334998
83	0x3f182bd7	0.59441894
84	0x3fca3718	1.5798063
85	0x3e983f0f	0.2973561
86	0xbeaa9e53	-0.33323917
87	0xbf5bf205	-0.8591617
88	0x3cbab5b6	0.022791725
89	0x3d3ee11e	0.046601407
90	0x401c62cc	2.44353
91	0x3f47cb97	0.7804503
92	0xbedd392b	-0.43207678
93	0x3ea448a2	0.32086664
94	0x401e89d7	2.477163
95	0xc04cce21	-3.200081
96	0x3f548a3b	0.8302342
97	0x3e22a4e2	0.1588321
98	0xbf8c4a25	-1.0960127
99	0x3f5ada31	0.85489184
100	0xbed32c10	-0.41244555
101	0xbf87e343	-1.061623
102	0x3ec05050	0.37561274
103	0xbf782dfd	-0.9694517
104	0xbec12998	-0.37727046
105	0xbe4d143c	-0.2002725
106	0xbee9d7f3	-0.4567257
107	0xbf96d9c8	-1.1785212
108	0x3d81ba05	0.063343085
109	0x3fe9b6df	1.8258933
110	0xbf06188a	-0.52381194
111	0xbfabb53f	-1.3414687
112	0xbee5539f	-0.4479036
113	0xbf9187c7	-1.1369561
114	0xbe19f7b3	-0.15035896
115	0xbe74ec8e	-0.23918363
116	0xbef0e2bc	-0.47047985
117	0x3e6abe8d	0.22924252
118	0x3eddc515	0.43314424
119	0x3fa63e63	1.2987789
120	0xbeed2d1a	-0.46323472
121	0xbf98c604	-1.193543
122	0x3e95f4f1	0.29288438
123	0xc02c37f0	-2.6909142
124	0x3f4cc951	0.79994684
125	0x3e119532	0.1421707
126	0xbe8eb736	-0.27874154
127	0x3f8f2a52	1.118479
128	0x3faa6080	1.33107
129	0x3e80752b	0.25089392
130	0xbf755354	-0.95830274
131	0xbf019872	-0.5062324
132	0xbf26b9ac	-0.6512706
133	0x3edfd34c	0.43715894
134	0x3fc9ec8b	1.5775312
135	0x3f770383	0.96489733
136	0xbefe1561	-0.49625686
137	0x3eaa5d2d	0.33274212
138	0x3e59c582	0.2126675
139	0xbfdf7a16	-1.7459133
140	0x3fbedf5d	1.4911915
141	0xbe5ec954	-0.21756488
142	0x40230f0f	2.547794
143	0x3efcdbfe	0.4938659
144	0x3ea99d50	0.33127832
145	0xbf8de094	-1.1084161
146	0x4013a877	2.3071573
147	0x3eb78db2	0.35850292
148	0x3f875986	1.0574195
149	0x3d888e18	0.06667727
150	0x3f55f278	0.835731
151	0x401f37fe	2.4877925
152	0x3dd7acc9	0.10531003
153	0x3d03b34e	0.03215342
154	0xbf0bf6f3	-0.5467369
155	0x3f0559d4	0.5209019
156	0xbfd91c10	-1.6961689
157	0x3f05c777	0.52257484
158	0xbf064fc1	-0.52465445
159	0xbf79f4e7	-0.97639316
160	0xbf6bfa6e	-0.92179
161	0x3f22ffa9	0.63671356
162	0x3e6b2d7e	0.22966573
163	0xbfe304e9	-1.7735873
164	0xbfd48b91	-1.6605092
165	0x3ea11ee4	0.3146888
166	0x3e67b41d	0.22627302
167	0xbfe94649	-1.8224574
168	0x3f729e5b	0.9477288
169	0x3e2aa0c6	0.16662893
170	0x3fa176e8	1.2614412
171	0x3e710f9a	0.23541108
172	0x3e2186cd	0.15774079
173	0xbfa03c9c	-1.2518497
174	0xbf85f7f7	-1.0466298
175	0x3f2cee7a	0.67551386
176	0x3f70b12a	0.9402033
177	0x3f5ed8ad	0.8704937
178	0x3f02d259	0.51102215
179	0xbfa1f22b	-1.2652029
180	0xbe678d28	-0.2261244
181	0xbc988d8d	-0.018622184
182	0xc00d4b4e	-2.2077212
183	0x3f1e6b4d	0.6188248
184	0x3f47132f	0.77763647
185	0x3e0332d0	0.12812352
186	0x3ea0a093	0.31372508
187	0xc0375548	-2.8645802
188	0x3ceb2be8	0.02870746
189	0x3d0691b9	0.032853816
190	0xbf84341d	-1.0328404
191	0x3f94911f	1.1606787
192	0xbeb38879	-0.35065058
193	0xbf6635e2	-0.8992597
194	0xbe68a6b9	-0.2271985
195	0x3f2e974a	0.681996
196	0x3fa47227	1.2847337
197	0x3f97da90	1.1863575
198	0xbf153773	-0.58287734
199	0xbfbf6bef	-1.4954814

0.bias f4 [100]
0	0x3f150915	0.58216983
1	0xbf54710a	-0.82984984
2	0x3f4819e3	0.781645
3	0xbf560973	-0.8360817
4	0xbda83297	-0.08212774
5	0x3eb74540	0.3579502
6	0xbf0673d6	-0.525205
7	0xbe2c9911	-0.16855265
8	0xbf9117cf	-1.1335391
9	0x3f0bcb81	0.546074
10	0x3eab23c4	0.33425725
11	0xbf317354	-0.693166
12	0x3e3798c3	0.17929368
13	0xbd355d53	-0.044278454
14	0xbe8bbe7f	-0.27293774
15	0xbe78c951	-0.24295546
16	0xbf4ee728	-0.80821466
17	0xbd9453bd	-0.07242534
18	0xbe9b8ef2	-0.30382496
19	0xbfc19d77	-1.512618
20	0xbde69107	-0.112581305
21	0xbe981e74	-0.29710734
22	0x3f04a921	0.5182057
23	0xbf3a9cc6	-0.7289547
24	0x3f838288	1.027421
25	0xbeea5651	-0.4576898
26	0xbed36884	-0.41290677
27	0xbf389f72	-0.72118294
28	0xbed5b185	-0.41737
29	0x3ebb7c3b	0.36618218
30	0xbf27e9be	-0.6559104
31	0xbf45c70f	-0.77256864
32	0x3f61446b	0.8799502
33	0x3f14cd85	0.581261
34	0xbf061eb2	-0.5239059
35	0xbf4eff63	-0.8085844
36	0xbd5d5292	-0.054033823
37	0x3f6d5437	0.92706627
38	0x3f81f82d	1.0153862
39	0x3f034f4b	0.51292866
40	0xbe98dc9e	-0.29855818
41	0xbd76c44d	-0.0602458
42	0xbed926bc	-0.42412364
43	0xbf1a4d55	-0.6027425
44	0x3e9a07f8	0.30084205
45	0xbfa584a6	-1.2931106
46	0xbe8e0e4f	-0.27745292
47	0xbfa539ab	-1.2908224
48	0xbef59ad8	-0.479697
49	0x3c1a951b	0.009434964
50	0xbf3edf21	-0.7455922
51	0xbf2313ac	-0.6370189
52	0x3f5b1e2e	0.85592926
53	0xbf5385df	-0.82626146
54	0xbfaad71e	-1.3346899
55	0xbf72698b	-0.94692296
56	0xbf4c0dbf	-0.79708475
57	0xbd9730ae	-0.07382332
58	0x3ee063a2	0.43826014
59	0xbf218a17	-0.63101333
60	0xbf55cb8d	-0.8351372
61	0xbfa5a230	-1.2940121
62	0xbeee0263	-0.46486196
63	0x3f93b7ec	1.1540504
64	0xbf409288	-0.7522359
65	0xbf743073	-0.9538643
66	0xbeaec749	-0.34136418
67	0x3e61b3d3	0.22041254
68	0x3f0dad94	0.55342984
69	0xbf56ae1b	-0.83859414
70	0xbe2ba842	-0.16763404
71	0xbf25a475	-0.64704067
72	0x3ec12d52	0.3772989
73	0xbfb06435	-1.3780581
74	0xbe5a4cd8	-0.21318376
75	0xbf8ddb8b	-1.1082624
76	0x3ee7bd58	0.45261645
77	0x3f427d2f	0.75972265
78	0x3efc5974	0.49286997
79	0xbf4ae9d6	-0.79263055
80	0x3f84a457	1.0362653
81	0xbf5dd30e	-0.8665017
82	0x3e4c25cb	0.19936292
83	0xbf63d3d2	-0.8899509
84	0xbf0723a4	-0.5278876
85	0xbf3b8471	-0.73248965
86	0xbf1c32cf	-0.6101503
87	0xbf0f2829	-0.55920655
88	0xbf1bdc9b	-0.6088349
89	0xbf4f481b	-0.809694
90	0x3f2b447f	0.6690139
91	0x3e7e10b1	0.24811055
92	0xbedca406	-0.4309389
93	0xbfb21a91	-1.3914357
94	0x3e9bf52d	0.30460492
95	0xbe9bb141	-0.30408671
96	0xbf21a275	-0.63138515
97	0x3f3fd23a	0.74930155
98	0xbf51ff7a	-0.8203045
99	0xbf85dbf8	-1.0457754

3.weight f4 [1, 100]
0	0x3e8237da	0.25433236
1	0xc051b7a1	-3.2768328
2	0x3f1b99ca	0.6078154
3	0x3f51cf0e	0.81956565
4	0x3fb2fc61	1.398327
5	0x3f0b84fe	0.54499805
6	0xbfb05736	-1.3776615
7	0x3f09ae9d	0.53782064
8	0xbfcf411e	-1.6191747
9	0x3eb9fc93	0.3632551
10	0x3e4ee8d8	0.2020601
11	0xc02e33c3	-2.7219093
12	0x3fe4bd61	1.7870294
13	0x3e4ed97f	0.20200156
14	0x3e934e1f	0.2877054
15	0xbf504919	-0.8136154
16	0xbfb18957	-1.3870038
17	0x3f9fbb8b	1.2479109
18	0x3fd91016	1.6958034
19	0xc084700f	-4.138679
20	0xbf360939	-0.7110782
21	0x3e97eccb	0.29672846
22	0x3f66da99	0.90177304
23	0x3f3956bb	0.72397965
24	0x3e9d1ca1	0.30685905
25	0xbf7cfd93	-0.98824424
26	0xbfaac201	-1.3340455
27	0xbde1b5fd	-0.1102104
28	0xbf726f7c	-0.9470136
29	0x3f8a2dec	1.0795264
30	0xbeade1fc	-0.33961475
31	0x3f4546df	0.77061266
32	0x3e84496f	0.25837275
33	0x3f3042c3	0.6885187
34	0xbf2be16c	-0.6714084
35	0x409157c9	4.541966
36	0x3f9652f6	1.1744068
37	0x3ede8b3c	0.43465602
38	0x3e098b29	0.13431992
39	0x3f590b5e	0.8478297
40	0xbf8a17fc	-1.078857
41	0x3f2100f4	0.6289208
42	0x3fcff862	1.6247675
43	0xc01a2909	-2.4087546
44	0x3fc3767f	1.5270537
45	0xbf7f9fa0	-0.99852943
46	0xbf563487	-0.836739
47	0xbcad8dd5	-0.021185795
48	0xbfa425ce	-1.2824037
49	0x3ede22cb	0.4338592
50	0xc0011689	-2.0170004
51	0xbfc52f34	-1.540503
52	0x3ee1119c	0.43958747
53	0xc008432e	-2.1291003
54	0xbff34adc	-1.900722
55	0xc02e8750	-2.7270088
56	0xc0023ec1	-2.0350802
57	0x4071414b	3.7696102
58	0x3f3a698b	0.72817296
59	0x4066779e	3.6010509
60	0xbfc1981e	-1.5124547
61	0xbe6090fa	-0.21930304
62	0xbfc61623	-1.5475506
63	0x3e93c810	0.28863573
64	0xbfa87b2d	-1.316259
65	0xbfeefede	-1.8671529
66	0xbef91a74	-0.48652995
67	0x3f26a35d	0.6509302
68	0x3f16a635	0.5884736
69	0xbeba3e6e	-0.36375755
70	0x3f2de54f	0.6792802
71	0x3f84ca36	1.037421
72	0x3f0c84c2	0.5489007
73	0xc036f0e6	-2.8584533
74	0x3fa1de30	1.2645931
75	0x3f8aff75	1.0859209
76	0x3f803f7d	1.0019375
77	0x3eecfba0	0.46285725
78	0x3e936e38	0.28795028
79	0xbfbd63bc	-1.4796062
80	0x3ea25fed	0.3171381
81	0xbeb0a5f7	-0.3450162
82	0x3eb76346	0.35817927
83	0xbee03856	-0.4379298
84	0xbf82d055	-1.0219828
85	0xbfb3c0a2	-1.4043162
86	0xbf015645	-0.5052226
87	0xbecf3bb7	-0.40475246
88	0xbf931710	-1.1491413
89	0xbf14f7e2	-0.5819074
90	0x3f23b67e	0.63950336
91	0x3e696db0	0.22795749
92	0xbf9b3732	-1.2126219
93	0xbe89d878	-0.26922965
94	0x3fc328a7	1.5246781
95	0x3f4bb82b	0.79577893
96	0xc02da38e	-2.7131076
97	0x3ee2bf15	0.4428641
98	0xbfa5d13a	-1.2954476
99	0xbfc16cc1	-1.5111314
