runs/perovskite_multiscale_dataset_3/ae2_PCE_predictor_enc_l_18_l1_1em2_tanh_predictor_0_1_100_relu_decoder_linear_seed_0_lr_1em3_bs_100_e_1500_pass_latents_ae1_fold_0_ae2_fold_4_xavier_normal_gain_10/checkpoints/last.ckpt (torch, 54674 bytes, 33 tensors)

submodules.encoder.0.weight f4 [18, 23]
0	0x3e3f40dc	0.18677086
1	0xb9504556	-0.00019862255
2	0xba05a20f	-0.0005097696
3	0x3a38d7a7	0.00070511777
4	0x3a100a66	0.00054947136
5	0xba9e0f9a	-0.0012059093
6	0xbb4826af	-0.0030540635
7	0xbc8e4a25	-0.01736934
8	0xb9c4ea9d	-0.00037558834
9	0x3ab60137	0.001388586
10	0x3bf76afe	0.0075505963
11	0x39d9dfea	0.00041556294
12	0xbbb4c938	-0.005517151
13	0x3b6ff030	0.0036611669
14	0x3bc0d387	0.005884591
15	0x39af273e	0.0003340784
16	0x391a94bc	0.00014741992
17	0xbbd928f6	-0.0066271974
18	0x3daece64	0.0853546
19	0xbd935da7	-0.07195597
20	0x3e5b5ff0	0.21423316
21	0xb9ce70cb	-0.0003937542
22	0xbab4c8fd	-0.0013792809
23	0x3d53df4c	0.051726624
24	0x3c8ef65b	0.017451456
25	0xbbb2ec7d	-0.0054603205
26	0x3cc62fca	0.02419271
27	0xba82ed08	-0.0009988854
28	0xbd35615d	-0.044282306
29	0xbbfcae1d	-0.0077111856
30	0x3d6c05c5	0.05762269
31	0x3ce38917	0.02777533
32	0x392f931e	0.00016744106
33	0x3c4c27bd	0.012460646
34	0xbb30cded	-0.002697821
35	0xbc11831f	-0.008881359
36	0x3b681d3a	0.003541781
37	0x3d0264ac	0.03183429
38	0xb9fbb498	-0.00048009004
39	0xbb3c5c50	-0.0028741546
40	0xbad435ba	-0.0016190328
41	0x3d8f5d12	0.07000174
42	0x3aa8daf8	0.0012882641
43	0xba6d47fa	-0.0009051558
44	0x3c0bd968	0.00853572
45	0xbcda7cb3	-0.02667079
46	0x3dd5c070	0.10437095
47	0xbecf2cba	-0.4046381
48	0xbd491bf7	-0.049098935
49	0xbd2e5485	-0.042561073
50	0xbbb4c764	-0.0055169333
51	0x3b2764de	0.00255423
52	0xba067aad	-0.00051299745
53	0x3d8c2c2c	0.068443626
54	0x3d637cec	0.055539057
55	0xbc835a45	-0.016034255
56	0xbd6903a8	-0.056888252
57	0xbca53914	-0.020168819
58	0xbd37e3c2	-0.04489494
59	0x3b84a17c	0.0040475708
60	0x3bc16aeb	0.005902638
61	0x3aabebde	0.0013116559
62	0xbb28e605	-0.0025771868
63	0xbbad3963	-0.005286382
64	0x3ec2488d	0.37945977
65	0x3b8921f4	0.0041849557
66	0xbee4cc8a	-0.446873
67	0xbb9dc428	-0.0048146434
68	0x3ba01ab5	0.004885996
69	0xbc9cb9ee	-0.019131627
70	0xbab487ea	-0.0013773416
71	0xb8b32524	-8.542303e-05
72	0x3a74b274	0.0009334453
73	0x385ba008	5.236271e-05
74	0xbe0bf18f	-0.13666366
75	0xbd8409db	-0.06447192
76	0xbafa90f0	-0.0019116681
77	0xbc0ae615	-0.008477707
78	0x3b1cbb42	0.0023915325
79	0xbde12bc7	-0.10994678
80	0x3baab8e8	0.005210031
81	0xbe5affc0	-0.21386623
82	0xbda16ba8	-0.07881862
83	0x3b9688ff	0.004593968
84	0xba84d4a9	-0.0010134178
85	0x3ab21e64	0.0013589379
86	0x3b436070	0.002981212
87	0x3acd9031	0.0015683231
88	0xbdd934df	-0.106057875
89	0x3a715924	0.00092067034
90	0xbb90976a	-0.004412581
91	0x3ea9770a	0.33098632
92	0xbdbb9980	-0.09160137
93	0xbdaf6287	-0.085637145
94	0x3b099f16	0.0020999364
95	0x3d9e89ef	0.077411525
96	0xba6d87c2	-0.0009061062
97	0xbabc1ff0	-0.001435278
98	0x3ccc9bd2	0.024976645
99	0xbe890fb5	-0.26769796
100	0x398ec573	0.00027231462
101	0xb9d7e953	-0.00041181836
102	0x384ad6b4	4.836051e-05
103	0xb9b347aa	-0.00034194934
104	0xbbb0aee0	-0.0053919405
105	0x3bc875f4	0.0061175767
106	0x3cbdf600	0.023188591
107	0xbb7818b2	-0.0037856516
108	0xbb75ee7b	-0.0037526179
109	0xb92a01d6	-0.00016213147
110	0x3b2c12ad	0.0026256249
111	0x396693b8	0.00021989539
112	0x3c07ad02	0.008280994
113	0x3b02e072	0.0019970206
114	0xbd1d66b4	-0.038428023
115	0x3acfb4f9	0.0015846781
116	0x39b94b7c	0.0003534219
117	0xbc274672	-0.010209667
118	0x3c48127d	0.012211439
119	0x3a299440	0.00064689294
120	0xbc646e5f	-0.01394233
121	0x3d5f574d	0.054526616
122	0xbd7b3201	-0.061326984
123	0x3b1c785b	0.0023875448
124	0xbb609da9	-0.003427366
125	0x3e111b0d	0.14170475
126	0xbb1434a3	-0.0022614382
127	0xbc8088ac	-0.01569017
128	0xbb577f30	-0.0032882206
129	0x3c2b84b0	0.010468647
130	0xbb62df06	-0.0034617796
131	0x3a270719	0.0006371602
132	0x3d9d28ef	0.07673823
133	0xbb7e6746	-0.003881888
134	0xbb3461a2	-0.0027524014
135	0xbe1cbd2f	-0.15306543
136	0x3cee642c	0.0291005
137	0xba80a2f4	-0.0009814189
138	0xbada6e58	-0.0016664965
139	0xbb03b7ad	-0.0020098493
140	0xbd2ccb6c	-0.042186186
141	0x3db6e051	0.08929504
142	0x3a9c7e85	0.0011939561
143	0xbce0ef9a	-0.027458
144	0xbdc71f00	-0.0972271
145	0x3b14c777	0.0022701898
146	0xbd3c7d6d	-0.046018053
147	0x3a85e1cf	0.0010214391
148	0xbb8096df	-0.0039242352
149	0x3b74eed6	0.0037373803
150	0x3c43c885	0.011949663
151	0x3a3fca2b	0.0007316197
152	0xbb73bae9	-0.0037190265
153	0xba1698c6	-0.0005744811
154	0x3b20e4a9	0.0024550355
155	0xbe04ab0d	-0.12955876
156	0x3ac7302d	0.0015196853
157	0x3ad7d8e6	0.0016467839
158	0x3b539a95	0.0032288183
159	0x3da782e0	0.08179259
160	0xbc63f04a	-0.01391227
161	0xbb877e87	-0.0041349563
162	0xbcb01a63	-0.021496957
163	0x3c63a7e3	0.013895008
164	0xbad7b766	-0.0016457855
165	0xbb86f7b3	-0.0041188835
166	0x3b057be5	0.0020368036
167	0x3b845f13	0.004039654
168	0xbb91e4f8	-0.004452344
169	0x3dbd14d0	0.09232485
170	0xbbb2a334	-0.0054515842
171	0xba898b2b	-0.0010493746
172	0xbbf62891	-0.00751216
173	0x3de20a84	0.11037162
174	0xbe0f7726	-0.14010295
175	0xbb76f20f	-0.00376809
176	0xbb1b322e	-0.0023681032
177	0xba1438c4	-0.00056542107
178	0x3be66165	0.0070306533
179	0x39d2b08a	0.00040185853
180	0xba955265	-0.0011392353
181	0x399687e4	0.00028711476
182	0xba76bcf6	-0.00094123126
183	0x3b2f6303	0.0026761896
184	0x3a84f291	0.0010143091
185	0x3c1e39c7	0.00965733
186	0x3aa6cd18	0.0012725918
187	0x3a68a282	0.0008874313
188	0x3c9f9acd	0.019482994
189	0x3aef243e	0.0018245054
190	0xb9ad7e76	-0.00033091352
191	0xb9c7a355	-0.0003807793
192	0xbb0918cd	-0.0020919323
193	0x3c9b807a	0.01898216
194	0x3b4eef4a	0.0031575733
195	0x3b918b39	0.0044416455
196	0xbd7638af	-0.06011265
197	0xbb8085fe	-0.003922223
198	0x3d70d61e	0.058797948
199	0xb906ac46	-0.00012843413
200	0x3d931fc2	0.07183792
201	0xbad91e1f	-0.0016564763
202	0xbdde7db5	-0.108638205
203	0x3e1c522e	0.15265724
204	0xbcbb68d8	-0.022877142
205	0xbb07fba8	-0.0020749364
206	0x3d7f7eb5	0.062376697
207	0xbb2f26ea	-0.0026726075
208	0xbb2d360b	-0.0026429917
209	0x3b415862	0.0029502143
210	0xbaf7d72f	-0.0018908734
211	0xba43e56a	-0.0007472845
212	0x3d6a0590	0.05713421
213	0x3cac02b3	0.02099738
214	0xbab532f5	-0.001382439
215	0x3acace90	0.0015472937
216	0xba27d73a	-0.00064026157
217	0xba895cad	-0.001047989
218	0xbae2a30d	-0.0017291025
219	0x3cb104c1	0.021608712
220	0x3b335351	0.0027362893
221	0x3e95bd80	0.2924614
222	0x38b496f7	8.611188e-05
223	0x3cf7f999	0.030270385
224	0xbe4aca57	-0.19803749
225	0xbbb783fa	-0.0056004496
226	0x3bafc72f	0.0053643207
227	0x3804bbf0	3.1646283e-05
228	0x3b623186	0.0034514382
229	0xbb15c3a0	-0.0022852197
230	0x3b265b42	0.0025383984
231	0x3a70c300	0.00091843307
232	0xbb872a80	-0.0041249394
233	0x3b4ff11d	0.0031729408
234	0x3cea5a94	0.028607644
235	0xbb6e3a26	-0.0036350577
236	0xbb4b35ca	-0.0031007403
237	0x3ac39405	0.0014921433
238	0xbb779fd8	-0.0037784483
239	0x3d8848ec	0.06654534
240	0x3a9962af	0.0011702384
241	0x3b97702e	0.004621527
242	0x3b137daa	0.0022505322
243	0x3bb19f2c	0.005420586
244	0x3a1c1cf0	0.000595524
245	0xba3b7ac4	-0.00071517774
246	0xbe3a6d66	-0.18205795
247	0xba8e0aa9	-0.0010836917
248	0xbdd6b0fa	-0.10482974
249	0x3a7890f9	0.0009482052
250	0x3b7af939	0.003829552
251	0x3b00357c	0.001956313
252	0xbd36467b	-0.04450081
253	0x3a4927a9	0.00076734513
254	0x3a4d6233	0.0007834762
255	0x3df354f0	0.11881435

submodules.encoder.0.bias f4 [18]
0	0x3d40d88e	0.047081523
1	0x3c15b397	0.009137056
2	0xbea4fde2	-0.32224947
3	0xbd5cf53c	-0.05394481
4	0xbeab522b	-0.33461127
5	0x3e6295b5	0.22127421
6	0x3e40e0e6	0.18835792
7	0x3e23beb2	0.15990713
8	0xbdd3fd5e	-0.1035106
9	0xbdc22d1d	-0.09481261
10	0xbe2c8bdb	-0.16850226
11	0x3dbcd149	0.092196055
12	0x3ae7650e	0.0017654018
13	0xbca9f5e7	-0.020747138
14	0x3cbbfece	0.022948649
15	0xbd83896c	-0.064226955
16	0x3a8c2be2	0.001069423
17	0xbe1b70c2	-0.15179732

submodules.PCE_pred.0.weight f4 [100, 18]
0	0x3eee244a	0.4651206
1	0x3fe2d630	1.7721615
2	0xbf088db5	-0.5334123
3	0xc0047967	-2.0699098
4	0xbd965d3d	-0.073420025
5	0xbf6bb28c	-0.92069316
6	0xbf48ada8	-0.7838998
7	0xbece5d7e	-0.40305704
8	0x4005406a	2.0820565
9	0x3dcc5f65	0.099791326
10	0xbe2b3846	-0.16720685
11	0x3f88b0ec	1.0678992
12	0xbe03d5e9	-0.12874569
13	0x3e2a1fe0	0.16613722
14	0x3ed51b0b	0.41622195
15	0xbf2fe00c	-0.68701243
16	0x3f11710c	0.5681312
17	0x3f8f2c84	1.118546
18	0x3f843164	1.0327573
19	0xbfd4edf2	-1.6635115
20	0x3f5881a1	0.845728
21	0xc008f888	-2.1401691
22	0x3ed3c1b2	0.41358715
23	0xbfe6b364	-1.8023496
24	0xbe623d0c	-0.220936
25	0xbf2eb73e	-0.68248355
26	0x3f208382	0.62700665
27	0xbec0147d	-0.3751563
28	0xbfda0018	-1.7031279
29	0x3f0aa539	0.5415836
30	0xc0952087	-4.6602206
31	0xbebf0c5f	-0.37314126
32	0x3f40817c	0.7519758
33	0xbfa70af5	-1.3050219
34	0xbe67c5b2	-0.22634009
35	0xbffb8479	-1.9649802
36	0x3f45df15	0.7729352
37	0xc02b3204	-2.6749277
38	0xbeecc682	-0.462452
39	0xbfbc4d1c	-1.4711032
40	0xc022d663	-2.5443351
41	0xbfb5f8b7	-1.4216527
42	0x3e162985	0.14664276
43	0xbfd94295	-1.6973444
44	0x3ffde145	1.9834372
45	0x3e4e805b	0.20166151
46	0x3fd3261a	1.6496003
47	0xbf30a54c	-0.69002223
48	0xbf13bedf	-0.5771312
49	0x3f633813	0.8875744
50	0xbf65cfb0	-0.8977003
51	0x3fed0b38	1.8519049
52	0xbeb9a102	-0.36255652
53	0x3d9ea3d9	0.07746095
54	0x3fe3aa51	1.7786351
55	0xbf51c013	-0.81933707
56	0x3f3c30cc	0.7351196
57	0xbfdea1b9	-1.7393104
58	0x3e65ad1c	0.22429317
59	0xbf82f9dc	-1.0232501
60	0x3fe76411	1.8077413
61	0x3e8a6ed8	0.27037692
62	0x401ed171	2.4815333
63	0x3e1dfa75	0.15427573
64	0x404867d8	3.1313381
65	0x3fbcce90	1.4750538
66	0xbdae2ad4	-0.085042626
67	0x3e51e436	0.20497212
68	0xbf037fae	-0.513667
69	0x3fe8fb9c	1.8201785
70	0xbe65ae09	-0.2242967
71	0xbf2b57af	-0.6693067
72	0x400d4e84	2.2079172
73	0xbf11c80b	-0.56945866
74	0xbfc8f636	-1.5700138
75	0xbf5461d3	-0.8296177
76	0xbf720847	-0.9454388
77	0x402caf48	2.6981983
78	0xbf43d7fb	-0.76501435
79	0x3e20c3c7	0.15699683
80	0xbfe73a4e	-1.8064668
81	0xbe1669af	-0.14688753
82	0x3ed849a8	0.42243695
83	0x4039e465	2.904565
84	0x3f267d37	0.6503481
85	0xbed64bfe	-0.41854852
86	0xbf1afc7d	-0.60541517
87	0xbf9262f3	-1.1436447
88	0x3e919d69	0.28440407
89	0xbfc289e8	-1.5198336
90	0xbe748b1a	-0.23881188
91	0xbf2c6c5b	-0.6735284
92	0xbfe1cbfc	-1.7640376
93	0xbc68ef66	-0.014217233
94	0x3f7f44cc	0.9971435
95	0xbf64640a	-0.8921515
96	0xbf35053e	-0.70711124
97	0x3f45f479	0.7732616
98	0x3d9d1429	0.07669861
99	0x3f4c8072	0.7988349
100	0x3e7f8eb8	0.24956787
101	0x400150d0	2.0205574
102	0xc02b4153	-2.675862
103	0xbfc4e8dd	-1.5383564
104	0xbf262fcd	-0.6491669
105	0xc00a4c7d	-2.1609185
106	0xbf301b2a	-0.6879145
107	0xbfede01c	-1.8584018
108	0xbe95a75e	-0.29229254
109	0x3f3fde30	0.74948406
110	0xbe98930e	-0.29799694
111	0x4008bdb1	2.1365778
112	0x3f9dd6b3	1.2331146
113	0x4001596d	2.021083
114	0xbf395387	-0.7239308
115	0xbff1fc7b	-1.8905176
116	0x3f4c51f9	0.7981258
117	0xbecaf60c	-0.39640844
118	0x401ce9b6	2.4517646
119	0x3f01dc38	0.5072665
120	0x3f04b23b	0.5183446
121	0x3e132e7a	0.14373198
122	0xbfcf26a0	-1.6183662
123	0xbe416da2	-0.18889478
124	0x3fff41cc	1.9941955
125	0xc005f173	-2.092862
126	0xbf3d6767	-0.73985904
127	0xbfdd9b67	-1.731305
128	0x3feb3ca0	1.8377876
129	0xbf58f842	-0.8475381
130	0xbe852d91	-0.26011327
131	0xbeddf122	-0.43348032
132	0xbedbec99	-0.42953947
133	0x3ec3a5f8	0.38212562
134	0x3f949716	1.1608608
135	0xbe5ac57c	-0.21364397
136	0x3eb1b9c8	0.34712052
137	0x3f20c407	0.62799114
138	0x3d9e1173	0.07718172
139	0x3fd7fb69	1.6873599
140	0xbf3764ad	-0.71637994
141	0xbfee600d	-1.8623062
142	0x3eff21de	0.49830526
143	0x3e12506b	0.1428849
144	0x3f3a2f72	0.72728646
145	0x40637106	3.5537734
146	0x3e2d5ddb	0.16930334
147	0xbf7a381d	-0.9774187
148	0x3f951e7b	1.1649927
149	0xbf30a8fc	-0.6900785
150	0xbf640f8d	-0.8908623
151	0x3d26aea4	0.040693894
152	0xbf5c472f	-0.8604612
153	0x3f0b9646	0.54526174
154	0x3f43f8e4	0.7655165
155	0xc031031b	-2.7658145
156	0xbe2450f0	-0.160465
157	0xbfda4648	-1.7052698
158	0xc00327cd	-2.0493042
159	0xbedff160	-0.43738842
160	0xbe9d5039	-0.30725268
161	0x3eb32d9d	0.34995738
162	0x3e0d9d7a	0.13829604
163	0x3f81be02	1.0136111
164	0xbe1b10c0	-0.15143108
165	0x3f179116	0.5920576
166	0x3f3925a3	0.72323054
167	0xbf842b67	-1.0325745
168	0x3edced8c	0.43149984
169	0xbfcec0cd	-1.6152588
170	0x3c7011a0	0.01465264
171	0x401de70c	2.467227
172	0xbf4a568c	-0.7903831
173	0x3fc594db	1.5436052
174	0x3f4cf2ca	0.80057967
175	0xbfd7c64f	-1.6857394
176	0xbfb510d0	-1.4145756
177	0x3c8b4a94	0.017003335
178	0x3f99c9e4	1.2014737
179	0xbfaf0a9b	-1.3675112
180	0xbf560bd5	-0.83611804
181	0xbf798aff	-0.97477716
182	0x3f067d93	0.5253536
183	0x40021c71	2.032986
184	0xbf14678a	-0.5797049
185	0x3f804f85	1.0024267
186	0x3fab9e36	1.3407657
187	0xbe1f7e0d	-0.15575428
188	0xbf9043b3	-1.127066
189	0x3f0160f2	0.5053855
190	0xbf79c2c3	-0.9756281
191	0xbf29c8c4	-0.6632197
192	0xbf923c2d	-1.1424614
193	0x3fd1f264	1.6402097
194	0x3da1340e	0.07871257
195	0x3f6dff24	0.9296744
196	0xbdea8104	-0.11450389
197	0xbf6e99c0	-0.93203354
198	0xbf1e4fa2	-0.6184026
199	0xbf18ce23	-0.5968954
200	0x3fbfa5c7	1.4972466
201	0x3fb0a663	1.3800777
202	0xc0210c8a	-2.5163903
203	0xbf4cfb66	-0.80071104
204	0x3fdf4c40	1.7445145
205	0xc02d7a1e	-2.7105784
206	0xbf15d276	-0.5852426
207	0xbfc4a69b	-1.5363344
208	0xbeb16191	-0.3464475
209	0xc00d9bc8	-2.2126331
210	0x3e96e28e	0.29469723
211	0xbe4a37bc	-0.19747823
212	0x3f5842f1	0.84477144
213	0xbfae4b14	-1.3616662
214	0x3f02b18b	0.5105216
215	0xbfcb4053	-1.5879005
216	0x3fed41e7	1.8535737
217	0xbfc4edc8	-1.5385065
218	0xc02105c9	-2.515978
219	0xbe00dc22	-0.12583974
220	0xbfac1055	-1.3442484
221	0x3f9432cb	1.1578001
222	0xbf03c95a	-0.51479113
223	0xbf8846d1	-1.0646611
224	0xbfae9222	-1.3638346
225	0xbeaab396	-0.33340138
226	0xc01b58e6	-2.427301
227	0xbdbe638b	-0.0929633
228	0x3fcccaec	1.5999427
229	0x4019e15c	2.4043798
230	0xbf952376	-1.1651447
231	0xbf2721d2	-0.6528598
232	0xbe7f07c6	-0.24905309
233	0x3ec7bd28	0.39011502
234	0xc04e4e36	-3.2235236
235	0x3fb6cbf3	1.428099
236	0xbfe91bc3	-1.8211597
237	0x3f6f959a	0.9358765
238	0x3f312b10	0.69206333
239	0xbeb43466	-0.35196227
240	0x3f00eb1f	0.50358766
241	0xbecc92f2	-0.3995586
242	0xbfafa467	-1.3722047
243	0xbeb06901	-0.34455112
244	0x3eea857a	0.4580496
245	0xbf89e659	-1.0773422
246	0xbff8e62f	-1.9445246
247	0x3f73d5fb	0.95248383
248	0x3f9d2bb9	1.2278968
249	0x40245cbf	2.5681608
250	0xbf00eddb	-0.5036294
251	0xbf058419	-0.5215469
252	0x400296d8	2.0404568
253	0x3f16a07a	0.5883862
254	0x3f764446	0.96197927
255	0xbe62bdaa	-0.22142664

submodules.PCE_pred.0.bias f4 [100]
0	0xbe4c446a	-0.19947973
1	0xbf1df36b	-0.6169955
2	0xbf458d93	-0.7716915
3	0xbf42c4a7	-0.7608132
4	0x3f2a6385	0.66558105
5	0x3dd5db55	0.10442225
6	0xbf346c01	-0.704773
7	0xbf449cdd	-0.76801854
8	0xbeaa8ed1	-0.33312085
9	0xbf09c53d	-0.53816587
10	0x3c1b50b7	0.009479693
11	0x3e8c68ab	0.27423605
12	0x3e8be42a	0.27322513
13	0x3e55c144	0.20874506
14	0xbce2319e	-0.02761155
15	0x3e50eccc	0.20402831
16	0xbef77c79	-0.48337153
17	0x3e1c10cd	0.15240784
18	0x3e964472	0.29349095
19	0xbf424f86	-0.75902593
20	0x3d91b13c	0.07113883
21	0xbf146564	-0.5796721
22	0x3f267771	0.65026003
23	0xbdef5dda	-0.11687823
24	0xbede9d7f	-0.43479535
25	0xbde0eda4	-0.10982826
26	0x3ea28080	0.31738663
27	0x3e4542a5	0.19263704
28	0x3ebf9dc9	0.37425068
29	0xbd627c8f	-0.05529457
30	0x3da7b69a	0.08189125
31	0x3f2c18f5	0.6722558
32	0xbe824c94	-0.2544905
33	0xbef52a28	-0.47883725
34	0x3e8235d8	0.25431705
35	0x3eade1ef	0.33961436
36	0x3e12ce00	0.14336395
37	0xbd68cc1a	-0.05683527
38	0x3c8f5770	0.017497748
39	0xbf0c5f94	-0.5483334
40	0x3ece22a6	0.4026081
41	0xbe22755a	-0.15865079
42	0x3d6974df	0.056996223
43	0xbf1ee8a4	-0.6207373
44	0x3e73ba2c	0.23801488
45	0x3ecb7e1e	0.39744657
46	0xbed1b01d	-0.40954676
47	0x3ded4f8c	0.11587438
48	0x3ea318f6	0.3185498
49	0xbef4c31f	-0.47805116
50	0xbf226e37	-0.63449425
51	0x3dc11c1a	0.09429188
52	0xbe92bcb6	-0.286596
53	0x3e7b1737	0.24520575
54	0x3f0ed842	0.55798733
55	0x3e28179a	0.16415253
56	0x3e23eac5	0.16007526
57	0x3e611b5d	0.21983095
58	0xbecf2390	-0.4045682
59	0x3e04e3f2	0.12977579
60	0x3d6c3b3d	0.05767368
61	0x3f60ca13	0.8780834
62	0x3f1653ac	0.58721423
63	0xbe9b05bd	-0.30277815
64	0xbf1bb138	-0.6081729
65	0x3f16bfd1	0.5888644
66	0xbf0ff25e	-0.562292
67	0xbf58de7d	-0.8471449
68	0xbf343d63	-0.7040617
69	0xbd018042	-0.031616457
70	0x3eaa3c79	0.33249262
71	0x3c01d8cd	0.0079252245
72	0xbf425f5c	-0.75926757
73	0xbf225f13	-0.6342632
74	0x3e19b5a9	0.15010704
75	0x3e9b2b4d	0.30306473
76	0xbdf03a38	-0.11729854
77	0xbb28227a	-0.0025655315
78	0xbf113e60	-0.567358
79	0x3f037172	0.5134498
80	0xbdc3f964	-0.09569052
81	0xbed17406	-0.4090883
82	0xbf012aeb	-0.5045611
83	0xbf134342	-0.575245
84	0xbf026df6	-0.5094904
85	0xbdf33028	-0.118744195
86	0xbe710a4c	-0.23539084
87	0xbe20d874	-0.1570757
88	0xbc9f32cc	-0.019433402
89	0x3f369a3d	0.713291
90	0xbe8a459d	-0.27006236
91	0xbf24c473	-0.6436226
92	0xbf1a6619	-0.6031204
93	0xbeb4b8ef	-0.35297343
94	0xbf0949f2	-0.53628457
95	0xbefde253	-0.49586734
96	0xbf4c2718	-0.7974715
97	0xba1778a3	-0.0005778169
98	0x3ea85bd0	0.32882547
99	0xbef1d3d2	-0.4723192

submodules.PCE_pred.3.weight f4 [1, 100]
0	0x3fbc8c61	1.473034
1	0xbfa72986	-1.3059547
2	0x3e875c61	0.26437667
3	0xbe8332d5	-0.2562472
4	0x3e0a8792	0.13528278
5	0x3e89513b	0.26819786
6	0xbf84e3ab	-1.0381979
7	0xbf30b260	-0.6902218
8	0xbf09e8ed	-0.5387104
9	0xbebb6829	-0.36602905
10	0x3e9de27f	0.30836865
11	0x3e5bc2bb	0.21461003
12	0x3e244588	0.16042149
13	0x3f087695	0.5330594
14	0x3e965892	0.2936445
15	0x3ea5423b	0.32277092
16	0xbfa9e474	-1.3272843
17	0x3f6a6815	0.91565067
18	0x3ec8d96b	0.39228377
19	0xbf91d01e	-1.1391637
20	0x3f3c6645	0.7359355
21	0xc031f5bf	-2.7806242
22	0x3e56a45d	0.20961137
23	0x403f2f7a	2.9872727
24	0xbf47e124	-0.7807791
25	0x3efe7de6	0.49705428
26	0x3f847d8b	1.0350813
27	0x3f29c216	0.66311777
28	0x3e821e5b	0.25413784
29	0x3f0fece8	0.56220865
30	0x3e37122e	0.17878029
31	0x3e5469f0	0.20743537
32	0xbfb4f06e	-1.4135873
33	0xbee1ab51	-0.44076017
34	0x3ec19e92	0.37816292
35	0x3e6dc8d4	0.23221141
36	0x3ee57d4c	0.44822156
37	0x3eeb9b69	0.46017006
38	0x3e793c65	0.24339445
39	0xbee52fd0	-0.4476304
40	0x3ef269e7	0.47346422
41	0xc011c374	-2.2775545
42	0x3ecf2a2c	0.40461862
43	0xbf900289	-1.1250774
44	0x3e840c5b	0.25790676
45	0x3eb68bfc	0.35653675
46	0xc013ec33	-2.3112915
47	0x3eb05ae4	0.34444344
48	0x3e515fa7	0.20446645
49	0xbfaa9c1f	-1.3328894
50	0xbfdc71e1	-1.7222253
51	0x3f09d2c1	0.5383721
52	0x3f14a60a	0.58065856
53	0x3e892254	0.26784003
54	0x3ea78532	0.32718807
55	0x3eb428b3	0.351873
56	0x3e24f30c	0.1610834
57	0x3e488f66	0.19585952
58	0xc0514704	-3.2699594
59	0x3f359636	0.7093233
60	0x3fa56562	1.2921565
61	0x3e2cd9bc	0.16879934
62	0x3eab8709	0.3350146
63	0xbfd13a43	-1.6345905
64	0xbf957a92	-1.167803
65	0x3e3fb936	0.18722996
66	0xbf81de6f	-1.0146006
67	0xbf375789	-0.71617943
68	0xbe8e1de3	-0.27757177
69	0x3ec5b9c9	0.38618305
70	0x3e5cd6bf	0.21566294
71	0x3f6ab51a	0.9168259
72	0xbf3ed914	-0.74549985
73	0xbed4ba3a	-0.4154833
74	0x3f8d8ae2	1.1058009
75	0x3e7866af	0.2425792
76	0x3e2af576	0.16695198
77	0x3f30d8b3	0.69080657
78	0xbfe035d4	-1.7516427
79	0x3e82a722	0.25518137
80	0x3f573ec3	0.8408014
81	0x3e4ea430	0.2017982
82	0xbfad3c7c	-1.3534083
83	0xbffacd2d	-1.9593865
84	0xc03d1138	-2.954176
85	0x3e80f6b8	0.2518823
86	0xbfa29788	-1.2702494
87	0xbef89303	-0.4854966
88	0x3ea1be4d	0.315905
89	0x3e2dbc45	0.1696635
90	0xbfb9601a	-1.4482453
91	0xc000fd7a	-2.015471
92	0xbf0383ad	-0.51372796
93	0xbfbb3174	-1.4624467
94	0xbfbf07a3	-1.4924206
95	0xc02f0fbd	-2.7353356
96	0xbf654d39	-0.8957096
97	0x3e6d3ae8	0.23167002
98	0x3e5db57d	0.21651264
99	0xbec9378f	-0.393002

submodules.latents_pred.0.weight f4 [12, 18]
0	0x3faf7e4d	1.3710419
1	0x3f9382b1	1.1524259
2	0xbdcfa2bd	-0.10138462
3	0xbec76ce8	-0.38950276
4	0xbeca5502	-0.3951798
5	0x3eb476bd	0.3524684
6	0x3f438398	0.7637267
7	0xbf2186e8	-0.63096476
8	0x3f0e3e3c	0.5556371
9	0xbee9e001	-0.45678714
10	0x3e838bcb	0.2569259
11	0xbf57ad33	-0.84248656
12	0xbfca7f15	-1.5820032
13	0xbf33e2f0	-0.70268154
14	0x3dc59f7f	0.09649562
15	0x3f4bcdd9	0.79610974
16	0x3f853479	1.0406638
17	0xbf1a86f8	-0.60362196
18	0x3f6bc25e	0.92093456
19	0x3f8817ef	1.0632304
20	0xbdd1c34e	-0.102423295
21	0xbe9ee537	-0.31034252
22	0xbf3c3e5c	-0.7353265
23	0x3e8ad672	0.27116734
24	0x3ebe3ee7	0.37157366
25	0xbee84bed	-0.45370427
26	0x3eacccbf	0.3374996
27	0xbe8d5c9e	-0.27609724
28	0xbca440b3	-0.020050382
29	0xbf0f8c79	-0.5607372
30	0xbf793de2	-0.9736005
31	0xbeece59a	-0.46268922
32	0xbe5b5e35	-0.21422656
33	0x3f324cb4	0.6964829
34	0x3f58c322	0.8467275
35	0xbede75a5	-0.4344913
36	0xbfc2336b	-1.5171942
37	0xbf8408ab	-1.0315145
38	0x3aea4178	0.0017872294
39	0x3e84ad0b	0.2591327
40	0xbe042b46	-0.12907133
41	0xbe2b109f	-0.16705559
42	0xbf92775e	-1.1442678
43	0x3e17d257	0.14826332
44	0xbf2a9736	-0.6663698
45	0x3f0ec970	0.5577612
46	0xbf1f9dc5	-0.6235011
47	0x3fa2107c	1.2661281
48	0x3f8748a9	1.0569049
49	0x3f3ea4d6	0.7447027
50	0x3edb6876	0.42853135
51	0xbf3ba9f0	-0.7330618
52	0xbfa4acd6	-1.2865245
53	0x3f73dc8d	0.9525841
54	0xbef6a527	-0.48172876
55	0x3f624e3d	0.8840063
56	0xbebc8a79	-0.36824396
57	0x3f34f96b	0.7069308
58	0x3e57ece5	0.21086462
59	0x3ecd39a8	0.4008305
60	0x3fc0a12a	1.5049183
61	0x3e028bd2	0.1274865
62	0x3f4abe56	0.7919668
63	0xbf1fa7f4	-0.6236565
64	0x3f1c4ee2	0.61057866
65	0x3e7c807c	0.24658388
66	0xbd870394	-0.06592479
67	0x3fce4caa	1.6117146
68	0xbe8faec2	-0.28063017
69	0xc024d49e	-2.5754771
70	0xbf2ae9b8	-0.66762877
71	0x3ed0223a	0.40651113
72	0xbef9acc7	-0.4876463
73	0x3f36b52a	0.71370184
74	0xbeafa72e	-0.34307235
75	0x3f1de165	0.6167205
76	0xbca13750	-0.019679695
77	0x3edf68c6	0.43634623
78	0x3fa646d4	1.2990365
79	0x3c638d20	0.013888627
80	0x3f3ea0d8	0.7446418
81	0xbf082267	-0.53177494
82	0x3ec57643	0.3856679
83	0x3ec3b8ab	0.38226828
84	0xbcb19759	-0.021678613
85	0x3fc00c37	1.5003728
86	0xbe51849b	-0.20460741
87	0xc00146da	-2.0199494
88	0xbf14237f	-0.5786666
89	0x3f10e464	0.56598496
90	0x3f65a945	0.8971141
91	0xbf8359e5	-1.0261809
92	0x3f211126	0.6291679
93	0xbf55153f	-0.83235544
94	0x3cd3ba74	0.025845744
95	0xbf5a5fdb	-0.85302514
96	0xbfd60d2f	-1.6722773
97	0xbe176208	-0.1478349
98	0xbf117545	-0.56819564
99	0x3f0c2870	0.547492
100	0xbea9a941	-0.33136943
101	0xbecf9afc	-0.4054793
102	0xbeabe07f	-0.33569714
103	0xbff3573a	-1.9010994
104	0x3e0dea33	0.13858871
105	0x402505b4	2.578473
106	0x3f11ccd5	0.56953174
107	0xbf0bb790	-0.5457697
108	0xbfb1dbac	-1.3895164
109	0xbf6fcb05	-0.9366916
110	0x3cbaf1fc	0.022820465
111	0x3e94e2bc	0.29079235
112	0xbd5e1780	-0.05422163
113	0xbe8c204c	-0.2736839
114	0xbf91ab84	-1.1380467
115	0x3ec631f1	0.38709977
116	0xbf01933a	-0.50615275
117	0x3f062c96	0.5241178
118	0xbeeba89a	-0.4602707
119	0x3f94dbc4	1.1629567
120	0x3fb8d07f	1.4438628
121	0x3f43dbc8	0.76507235
122	0x3f01fef0	0.5077963
123	0xbf41b36a	-0.7566439
124	0xbfb7fef5	-1.4374682
125	0x3f0f3ea7	0.55954975
126	0xbf2d09cc	-0.67593074
127	0x3f91f954	1.1404214
128	0x3e1de782	0.15420344
129	0x3eb4868e	0.35258907
130	0xbff8299c	-1.9387698
131	0xbf8c26d3	-1.0949348
132	0xbe7724de	-0.24135157
133	0x3effc1f3	0.4995266
134	0x3f5568a6	0.83362806
135	0xbe8d8048	-0.27636933
136	0xbe40379b	-0.18771212
137	0x3f0f78cb	0.5604369
138	0x3f987efa	1.191375
139	0x3f93cd74	1.1547074
140	0xbffa2787	-1.9543313
141	0xbee90fe5	-0.4551994
142	0xbec03d92	-0.37546974
143	0x3f0847a3	0.5323431
144	0x3f745d0b	0.9545447
145	0x3f474e20	0.77853584
146	0x3f1896a1	0.5960484
147	0xbf081de5	-0.53170615
148	0x3c476ebe	0.012172399
149	0x3f0cf1d4	0.550565
150	0xbe27a296	-0.16370615
151	0x3f7964a7	0.9741921
152	0xbed6d3b1	-0.41958383
153	0xbdd07fd6	-0.10180633
154	0xbee5abc7	-0.44857618
155	0x3e5f33cc	0.21797103
156	0xbfb64fbc	-1.4243083
157	0xbff1ec61	-1.8900262
158	0xbfc2b18b	-1.5210432
159	0xbfe3d6b0	-1.7799892
160	0x3f2347af	0.63781255
161	0x3fc15a16	1.5105617
162	0xbf54810b	-0.83009404
163	0xbfd05c25	-1.627812
164	0xbf0e7012	-0.55639756
165	0x3f0486d7	0.5176825
166	0xbef49c3c	-0.47775447
167	0xbed2f4fe	-0.4120254
168	0xbc94a9a6	-0.0181473
169	0xbfba652b	-1.4562124
170	0x3eb7deb7	0.35912105
171	0x3ea6489c	0.32477272
172	0x3f461313	0.77372855
173	0xbe774ba6	-0.24149951
174	0x3f921665	1.1413084
175	0x400b3031	2.1748164
176	0x3ff7b5de	1.9352376
177	0x3fbb52bb	1.4634622
178	0xbf8c7825	-1.0974165
179	0xbfd8c3e2	-1.6934779
180	0x3faa7211	1.331606
181	0x3f76b27a	0.96366084
182	0xbd917bb4	-0.071036726
183	0xbe8fd8b3	-0.28095016
184	0x3dbd699f	0.09248661
185	0x3fa65bbe	1.2996747
186	0x3f88d23f	1.0689162
187	0xbe2bafb7	-0.16766249
188	0x3ecf5ab8	0.404989
189	0xbeed4ace	-0.46346134
190	0x3e322ebf	0.17400645
191	0xbe621c07	-0.22081004
192	0xbff0563f	-1.877632
193	0xbf27baa6	-0.6551918
194	0x3e48953a	0.19588175
195	0xbfadae02	-1.3568728
196	0x3ef2dc70	0.47433805
197	0x3eb1c19c	0.34718025
198	0xbf7caa70	-0.98697567
199	0xbf8c3779	-1.0954429
200	0xbf1f5395	-0.6223691
201	0x3f13bce6	0.5771011
202	0xbddb66b3	-0.10712948
203	0xbec60aaa	-0.3868001
204	0x3e93ad02	0.28842932
205	0xbf8eb3aa	-1.1148579
206	0x3eeb0796	0.45904225
207	0x3e036ffe	0.1283569
208	0x3eea5b2b	0.4577268
209	0xbe2466b8	-0.16054809
210	0x3fb3d579	1.4049522
211	0x40050f2e	2.0790515
212	0x3fcb98ba	1.5905983
213	0x3fed519b	1.8540529
214	0xbf20efe6	-0.62866056
215	0xbfaeca35	-1.3655459

submodules.latents_pred.0.bias f4 [12]
0	0xbe705fe2	-0.23474076
1	0xbe9c8efe	-0.30577844
2	0x3dc3d7fa	0.09562679
3	0xbebc09e6	-0.36726302
4	0xbed055af	-0.4069037
5	0x3f2a4854	0.66516614
6	0x3d76407d	0.060120095
7	0xbeab858c	-0.33500326
8	0xbd9913b7	-0.074744634
9	0x3ca7a73b	0.020465484
10	0xbef84b5d	-0.48494998
11	0x3cfcf9fd	0.030880922

submodules.etm_pred.0.weight f4 [7, 18]
0	0xc08fe88b	-4.4971366
1	0xc0089225	-2.13392
2	0xbfdb29bf	-1.7122115
3	0xc130b3d9	-11.043908
4	0xc054f7a5	-3.327615
5	0xc07fe922	-3.9986043
6	0x40a73a59	5.2258725
7	0x4122fd6e	10.1868725
8	0xc109e229	-8.617715
9	0xc01bb703	-2.4330451
10	0x40afdb53	5.495523
11	0x3e9099c7	0.28242323
12	0xbfc2b60f	-1.521181
13	0x4101e317	8.117942
14	0x40aa0244	5.3127766
15	0x3f1fe882	0.62464154
16	0xbfcb00f7	-1.585967
17	0x404825b1	3.1273005
18	0x3f53a804	0.82678246
19	0xc0b3659a	-5.6061525
20	0xc033ba3d	-2.808242
21	0xc0a26571	-5.074883
22	0x3fbac432	1.4591124
23	0xc04636e4	-3.0971003
24	0xc00af27e	-2.1710505
25	0xc14e3d20	-12.889923
26	0x3fc638f3	1.548613
27	0xc1047995	-8.279683
28	0x4026a53f	2.6038358
29	0x3f9dd630	1.233099
30	0x41267f8d	10.40614
31	0xc116bfa3	-9.421786
32	0xc0dd6dc0	-6.919647
33	0xc10e4f69	-8.894387
34	0x404d7bd1	3.2106822
35	0x3f6afbce	0.91790473
36	0x3f6a462a	0.9151331
37	0x40dd6bde	6.9194174
38	0xc072d1a4	-3.7940454
39	0xbdac18a4	-0.08403137
40	0x40c5e119	6.1837277
41	0xbfa19840	-1.2624588
42	0xbf7b49dc	-0.98159575
43	0xbf4dd4a4	-0.8040259
44	0x4147a8be	12.478697
45	0x4182573e	16.292599
46	0x3fbc070b	1.4689649
47	0x4080bf5a	4.0233583
48	0xc09a05a9	-4.813191
49	0x40836438	4.1059837
50	0xc0c9e50a	-6.309209
51	0x3f816af6	1.0110767
52	0x3f93b290	1.1538868
53	0xbdfe035e	-0.12402986
54	0xc1071c38	-8.444389
55	0xbec72cd1	-0.3890138
56	0xbfc662fc	-1.5498958
57	0x41171add	9.444058
58	0x3f66365a	0.89926684
59	0xc0074270	-2.11343
60	0x40c17b44	6.046297
61	0x401e3a7a	2.4723191
62	0xc0f3b258	-7.6155205
63	0x4007990a	2.1187158
64	0x40a64ce0	5.196884
65	0x4167bd9d	14.483792
66	0xc132d54b	-11.1770735
67	0xc112451c	-9.141872
68	0xc09027f6	-4.504878
69	0xbfe344d3	-1.7755378
70	0x4121758e	10.0912
71	0xc129ab97	-10.604392
72	0xc0646e63	-3.5692375
73	0xbfaa149c	-1.328754
74	0xbf6e4feb	-0.93090695
75	0x40b3c278	5.617489
76	0xc063201e	-3.5488353
77	0xc0a5a0d4	-5.1758823
78	0x407f185d	3.985862
79	0xc0ba5342	-5.8226633
80	0x41556f73	13.339709
81	0x405a678a	3.4125695
82	0xc11c3eeb	-9.765361
83	0xc16f6243	-14.96149
84	0xc104eb83	-8.307498
85	0xc07d1eeb	-3.955012
86	0xbe4ed011	-0.20196559
87	0xbf1dfea6	-0.6171669
88	0xc14bd247	-12.738837
89	0x3e8e220e	0.27760357
90	0xbe44325b	-0.19159834
91	0xc019b6cb	-2.4017818
92	0xc06c1063	-3.6885002
93	0x40cbf814	6.374033
94	0x3e6cba8d	0.23118038
95	0x4119b4c1	9.606629
96	0xc14d8a2b	-12.846232
97	0x40e29f54	7.081949
98	0x406e11c0	3.7198334
99	0xc17df16f	-15.871444
100	0x4150b84b	13.044993
101	0xc10aede7	-8.683082
102	0xc0bc0826	-5.8759947
103	0x4076c531	3.8557856
104	0xc04e8504	-3.2268686
105	0x40e1dcd6	7.0582075
106	0xc02a12d8	-2.6574001
107	0x402d7ecb	2.7108638
108	0x40f6d2b5	7.713221
109	0x40d8fb39	6.780667
110	0x4141843b	12.094783
111	0x3f77bc54	0.9677174
112	0xc06824ea	-3.627253
113	0x407d9604	3.9622812
114	0xc001254a	-2.017901
115	0xc01e0273	-2.4688995
116	0xc11e586b	-9.896586
117	0x3ff50db1	1.9144803
118	0xc0f94e45	-7.7908044
119	0xbff6cd53	-1.928141
120	0x3f5bef68	0.8591218
121	0x410ca059	8.789147
122	0x410172b4	8.090504
123	0x40660ce4	3.5945368
124	0x40b15c8e	5.542548
125	0x3e92b16b	0.28650984

submodules.etm_pred.0.bias f4 [7]
0	0xc0221c07	-2.5329607
1	0x3fff485f	1.9943961
2	0x4044b264	3.073388
3	0xc0418bca	-3.024157
4	0xbfa29b0c	-1.2703567
5	0x3fbf25b6	1.4933383
6	0x3e9a3a05	0.3012239

submodules.htm_pred.0.weight f4 [4, 18]
0	0xc15254e2	-13.145723
1	0x405a51df	3.411247
2	0x3fb4d85d	1.4128529
3	0xc151b1a2	-13.105867
4	0xc0283224	-2.6280603
5	0xbfd923eb	-1.6964086
6	0xbe0f1147	-0.13971435
7	0xc03fe3ae	-2.9982715
8	0x416a2c3e	14.635801
9	0x4017260d	2.3616974
10	0x3fa9869a	1.3244202
11	0x3f1a7551	0.6033526
12	0xbefe4d23	-0.49668226
13	0x3f71d2fc	0.9446256
14	0x40063830	2.0971794
15	0xc04daf50	-3.2138252
16	0x412a6d6a	10.651712
17	0xc04cc94f	-3.199787
18	0x40f1e210	7.5588455
19	0xc07c0e85	-3.9383862
20	0xc1004ef4	-8.019276
21	0xc006ef0f	-2.108341
22	0x407824ab	3.877238
23	0xc13069a2	-11.025789
24	0xc0045394	-2.0676012
25	0x3fd0438c	1.6270614
26	0xc1002ae6	-8.010473
27	0x40721905	3.782777
28	0x3f28da75	0.6595834
29	0x40543354	3.3156328
30	0x40d87c94	6.7652073
31	0x4029f493	2.6555526
32	0xbca135c5	-0.01967896
33	0xc0491b9a	-3.1423097
34	0x4007e856	2.1235557
35	0x40fe1199	7.939648
36	0x4071b35f	3.776573
37	0x400375aa	2.0540566
38	0x4086e6b1	4.2156606
39	0xc0fe433e	-7.9457083
40	0x402a1045	2.657243
41	0x409f4898	4.9776115
42	0x40b23197	5.5685534
43	0xc08b4293	-4.3518767
44	0xc1215ff2	-10.085924
45	0x3f6d7ff6	0.9277338
46	0x4065b686	3.5892653
47	0xbfddf083	-1.7339023
48	0xc0dfaec9	-6.990086
49	0x3fc60b37	1.5472172
50	0xc1311b30	-11.069138
51	0x40b3c024	5.6172047
52	0xc164f8a4	-14.310703
53	0xc01682ff	-2.3517454
54	0x40018a40	2.024063
55	0xbf2cef9b	-0.6755311
56	0x40516612	3.2718549
57	0x415efdd0	13.936966
58	0xc04e951b	-3.2278507
59	0x402736d4	2.6127214
60	0xc07898b9	-3.8843215
61	0x4057c0b6	3.3711371
62	0x40a7b90a	5.241338
63	0xc09f3228	-4.9748726
64	0xc05c418a	-3.4415002
65	0xbff94e5c	-1.9477038
66	0xbf8436f4	-1.032927
67	0xc084bda5	-4.14815
68	0x40d0ccf5	6.525019
69	0xbeeaf6fe	-0.45891565
70	0x4107e081	8.492311
71	0xc033a5f6	-2.8070045

submodules.htm_pred.0.bias f4 [4]
0	0x3f987615	1.1911036
1	0xbf7ed116	-0.9953779
2	0xbde9ebf5	-0.11421958
3	0xbf778ae3	-0.966963

exp_avg f4 [18, 23]
0	0x3e0153b6	0.1262959
1	0x3d343845	0.043998975
2	0xbe1c82de	-0.15284297
3	0xbe944d9b	-0.28965458
4	0xbe879f38	-0.26488662
5	0x3ea76250	0.32692194
6	0xbe0a0828	-0.13479674
7	0xbebc533f	-0.36782262
8	0xbe083e89	-0.13305105
9	0x3e1b6507	0.15175258
10	0xbc1fe6d9	-0.009759628
11	0x3e09bb07	0.13450252
12	0xbdf14061	-0.117798574
13	0x3d923c58	0.07140416
14	0xbc15bfc7	-0.009139962
15	0xbccf487e	-0.025303122
16	0xbd879dc3	-0.066218875
17	0xbb77530b	-0.0037738706
18	0xbb301c99	-0.0026872514
19	0xbdd7acb9	-0.10530991
20	0x3d2bf05e	0.04197728
21	0xbd4216f0	-0.047385156
22	0xbd5d5eea	-0.054045595
23	0x3c3b542e	0.011433644
24	0x3c5d7387	0.013516313
25	0xbc50926b	-0.012730221
26	0x3d900d8f	0.07033836
27	0x3d3677ac	0.04454772
28	0xbdb897ba	-0.090133145
29	0xbc7b990a	-0.015356312
30	0x3d7eb502	0.06218434
31	0x3de55ac5	0.111989535
32	0xbe035014	-0.12823516
33	0x3d6e0e90	0.058119357
34	0xbdf35288	-0.11880976
35	0x3be93ae1	0.0071176146
36	0xbe158a73	-0.14603595
37	0xb897e038	-7.242005e-05
38	0x3d8fba64	0.07017973
39	0xbd8718cc	-0.065965265
40	0x3c2f2105	0.010689025
41	0xbc43be6d	-0.0119472565
42	0x3cd58e6d	0.02606889
43	0xbe2655ce	-0.1624367
44	0x3cc75892	0.024334226
45	0xbc6f9167	-0.014622069
46	0xbf5399ba	-0.82656443
47	0xbf292226	-0.6606773
48	0x3f5e0899	0.8673187
49	0x3d038771	0.03211159
50	0x3d75d6dc	0.06001936
51	0xbc291470	-0.010319814
52	0x3f5d532e	0.8645505
53	0x3da02d76	0.07821171
54	0xbe68a627	-0.22719632
55	0x3e95bbc3	0.29244813
56	0xbf168e4b	-0.5881087
57	0x3e7bc87a	0.24588194
58	0x3d9dd78d	0.07707129
59	0x3da65b25	0.08122853
60	0x3d0ba507	0.03409293
61	0x3cb48d62	0.022040073
62	0xbd1b6ac5	-0.03794362
63	0x3da343ca	0.07971914
64	0xbc85ce89	-0.016333835
65	0xbd846360	-0.06464267
66	0x3e802c45	0.25033775
67	0xbc94f739	-0.018184291
68	0x3d7597ae	0.059959106
69	0xbeb873c8	-0.36025834
70	0xbe9cca5a	-0.30623132
71	0x3ebb7404	0.3661195
72	0x3c7e49ca	0.015520522
73	0x3d6b0982	0.057382114
74	0x3d3bb6fd	0.045828808
75	0x3eb3e463	0.35135183
76	0xbdbc9b70	-0.09209335
77	0xbd688314	-0.05676563
78	0x3db93e80	0.09045124
79	0xbe332e8b	-0.17498223
80	0x3d8370ff	0.06418037
81	0x3b9970b9	0.004682627
82	0x3d5f61c7	0.054536607
83	0x3c8e5792	0.017375741
84	0xbd570643	-0.052496206
85	0xbd066ba9	-0.032817516
86	0xbd0d58fc	-0.03450869
87	0x3c878976	0.016545039
88	0xbd8cd8cd	-0.06877289
89	0x3e15d5cd	0.1463234
90	0xbc0aaef7	-0.008464566
91	0xbdcfb3fe	-0.10141753
92	0x3df8e3d3	0.12152829
93	0x3d952451	0.072823174
94	0xbe08b836	-0.13351521
95	0xbe7047f7	-0.23464952
96	0xbe49a478	-0.19691646
97	0x3e954372	0.2915302
98	0xbdeafabf	-0.11473607
99	0xbe7928f7	-0.24332033
100	0xbebf4849	-0.37359837
101	0x3eccb3e3	0.39980993
102	0xbde16f13	-0.11007514
103	0x3ec2aee6	0.38024062
104	0xbdaa02e0	-0.083013296
105	0x3e20f065	0.15716703
106	0x3ca77d6c	0.020445548
107	0x3e26694b	0.16251104
108	0xbcf0f00d	-0.02941134
109	0x3e285fa2	0.16442731
110	0x3cf9774a	0.03045239
111	0xbdc38f0f	-0.09548771
112	0x3e3587d4	0.17727596
113	0xbc843202	-0.016137127
114	0x3eb64f06	0.35607165
115	0x3ea6b976	0.3256337
116	0x3e9730c8	0.29529405
117	0xbea051e6	-0.31312484
118	0x3cab1c13	0.02088741
119	0x3cbda715	0.02315096
120	0xbd159877	-0.036522355
121	0xbe9bd6d6	-0.30437344
122	0x3e3e421f	0.1857991
123	0x3c77e7f0	0.015130982
124	0xbd007150	-0.031358063
125	0x3e1dff41	0.15429403
126	0xbcbbe9a3	-0.022938555
127	0xbcd30672	-0.02575991
128	0x3b94a584	0.0045363326
129	0x3cbc5467	0.022989465
130	0x3d8c54bd	0.068521
131	0x3d200f07	0.03907683
132	0xbda0685b	-0.07832404
133	0x3da5d9bf	0.080981724
134	0x3ca43718	0.020045802
135	0xbc7a9802	-0.015295031
136	0x3deff1a3	0.117160104
137	0xbc958c53	-0.018255388
138	0x3e0ba1d0	0.13635945
139	0x3dcf19ed	0.10112367
140	0xbe1eb0e1	-0.15497161
141	0xbdba5e25	-0.09099988
142	0xbdbf0055	-0.09326235
143	0x3dcc434c	0.09973773
144	0xbe16e743	-0.14736657
145	0xbc419725	-0.011815821
146	0xbd108bfd	-0.035289753
147	0x3d3ef1db	0.04661737
148	0x3c8dd750	0.017314583
149	0x3d1c3b10	0.038142264
150	0xb9b0e446	-0.00033739413
151	0x3a3e1a80	0.00072518736
152	0xbcdec22a	-0.027192194
153	0xbd0480b9	-0.032349322
154	0xbc01e8d8	-0.007929049
155	0x3cd0eb30	0.025502771
156	0xba3fc510	-0.00073154364
157	0x3ce2fd7d	0.027708763
158	0xbd217660	-0.03941953
159	0x3d5cd35c	0.053912506
160	0xbdaa0776	-0.08302204
161	0xbd349e15	-0.04409607
162	0xbbff8636	-0.0077979816
163	0x3d510f12	0.051039763
164	0xbd81070a	-0.06300171
165	0xbd8e0305	-0.0693417
166	0x3d0e529f	0.034746762
167	0x3d566135	0.052338798
168	0x3de3fab1	0.111318
169	0xbda316a5	-0.079633035
170	0x3db12d07	0.086511664
171	0xbe1161e1	-0.14197494
172	0x3da47c85	0.08031563
173	0x3d60e982	0.05491019
174	0xbd9b2210	-0.07574856
175	0xbbe3535d	-0.006937428
176	0x3cbf5aa5	0.023358652
177	0x3ced76d4	0.028987326
178	0x3cc79f39	0.024367915
179	0x3c8d7661	0.017268362
180	0x3c2e6c76	0.010645976
181	0xbd2877b2	-0.041129775
182	0xbc385502	-0.011250736
183	0x3ddbcc66	0.10732345
184	0xbd604826	-0.054756306
185	0xbc90af7f	-0.017661808
186	0x3d930455	0.07178561
187	0x3e013e4f	0.12621425
188	0x3dbfc41d	0.093635775
189	0xbe2c83fe	-0.16847226
190	0x3d783797	0.06059989
191	0x3e2e2054	0.1700452
192	0xbd63fce8	-0.055661112
193	0x3d10c79b	0.03534661
194	0xbd8cf2de	-0.06882261
195	0x3d553839	0.05205557
196	0x3e1d062a	0.15334383
197	0xbd18d381	-0.03731108
198	0x3d8a9eb1	0.06768549
199	0x3d1241fc	0.03570746
200	0xbce14ab5	-0.027501443
201	0x3cadabae	0.021200027
202	0x3d8ccbc9	0.068748064
203	0x3e42f05f	0.19037007
204	0xbbb37c60	-0.005477473
205	0x3b431d3d	0.0029772066
206	0x3dccb24f	0.09994947
207	0x3ddcf347	0.10788589
208	0x3d995f49	0.07488877
209	0xbde60cb4	-0.11232892
210	0xbdf60ab3	-0.120137595
211	0xbdee855d	-0.11646531
212	0x3e02c15d	0.12769075
213	0xbdd82628	-0.10554153
214	0xbe029e6d	-0.12755747
215	0xbe295f8d	-0.16540356
216	0x3e475026	0.19464168
217	0xbcc6a805	-0.02425004
218	0x3e31e93f	0.17374133
219	0x3b54c4ab	0.0032465856
220	0xbc5ffa04	-0.013670448
221	0xbc0ddaf3	-0.008658159
222	0x3c8eebc7	0.017446412
223	0x3d098098	0.033569902
224	0x3dd5a116	0.10431115
225	0xbc9d1372	-0.019174311
226	0xbc02528b	-0.00795425
227	0xbcfb678c	-0.030689023
228	0xbbb67ec1	-0.0055693095
229	0x3e1c9214	0.152901
230	0xbdf6f3fd	-0.12058256
231	0xbe080186	-0.13281831
232	0x3df0f923	0.11766269
233	0xbda3d3ea	-0.07999404
234	0xbd80788a	-0.06272991
235	0x3de4d5ab	0.111735664
236	0x3e001d48	0.1251117
237	0xbe52238c	-0.20521373
238	0xbdfd5269	-0.12369234
239	0x3e0860f4	0.13318235
240	0xbdba63a7	-0.091010384
241	0x3e0090fb	0.12555306
242	0x3c9347e3	0.017978614
243	0x3ddf6473	0.10907831
244	0xbc963f34	-0.018340684
245	0x3ae6e102	0.0017614665
246	0xbd6773cc	-0.056506917
247	0x3ca7c28b	0.020478508
248	0xbc2c5beb	-0.010519962
249	0xbd1d5ebe	-0.03842043
250	0x3e0a7679	0.13521756
251	0xbc9f8752	-0.019473705
252	0x3ba51d61	0.0050389026
253	0x3c2a8c9a	0.010409499
254	0xbd2f3b7f	-0.04278135
255	0xbc8d44d8	-0.017244741

exp_avg_sq f4 [18, 23]
0	0x3e20f2ad	0.15717573
1	0x3db2f88c	0.08738813
2	0x3e4f5118	0.20245779
3	0x3e7c57b4	0.24642831
4	0x3e67d391	0.226393
5	0x3e8c0831	0.2735
6	0x3e3a6a3e	0.1820459
7	0x3eaa69e6	0.3328392
8	0x3e8671bb	0.26258644
9	0x3e8b9f1c	0.27269828
10	0x3e4460f8	0.19177616
11	0x3e885153	0.26624545
12	0x3d6eb1c6	0.058275007
13	0x3d5e5637	0.05428144
14	0x3d314b9e	0.043285005
15	0x3c553350	0.013012722
16	0x3c49baa4	0.012312565
17	0x3ca93b97	0.020658297
18	0x3da9aa4f	0.08284437
19	0x3d665a2c	0.05623834
20	0x3dbd6056	0.0924689
21	0x3cc4c425	0.02401931
22	0x3e05cec6	0.13067159
23	0x3de0d4ef	0.10978114
24	0x3d8651b6	0.06558554
25	0x3e02e5a7	0.12782918
26	0x3e4894f9	0.19588079
27	0x3e4a8454	0.19777042
28	0x3e4aef93	0.19817953
29	0x3df74a20	0.12074685
30	0x3e5a0255	0.21289952
31	0x3e934768	0.28765416
32	0x3e808071	0.25097993
33	0x3e224ae1	0.15848877
34	0x3e8e1b31	0.2775512
35	0x3c7a1738	0.015264325
36	0x3d530454	0.0515178
37	0x3d24028f	0.040041503
38	0x3c76d198	0.0150646195
39	0x3c3f49cc	0.011675309
40	0x3c9eb920	0.019375384
41	0x3d49e00d	0.049285937
42	0x3d8c87b0	0.06861818
43	0x3d0b9e53	0.034086537
44	0x3c927d48	0.017882004
45	0x3dc416bb	0.09574648
46	0x40cdfabf	6.4368587
47	0x4068aa41	3.6353915
48	0x40e5b51c	7.178358
49	0x3ebc1b9d	0.36739817
50	0x3eb6604b	0.3562034
51	0x3edfa99c	0.4368409
52	0x40e210be	7.0645437
53	0x3f62a6d8	0.88535833
54	0x3fedc65b	1.8576158
55	0x3fb32ebb	1.3998636
56	0x406a9d93	3.6658676
57	0x3fdeff8d	1.7421738
58	0x3e87d0b1	0.26526406
59	0x3d82a1ac	0.06378493
60	0x3d6bead5	0.057597
61	0x3ce78e53	0.028266108
62	0x3c5ace22	0.01335481
63	0x3d5123c3	0.051059496
64	0x3e0ade2f	0.13561319
65	0x3ca826e8	0.020526364
66	0x3ed61c17	0.41818306
67	0x3c49e971	0.012323723
68	0x3e631f68	0.2217995
69	0x3f84f116	1.0386074
70	0x3f19b95a	0.6004845
71	0x3f9602a7	1.171956
72	0x3ed6e78c	0.4197353
73	0x3f039d6b	0.51412076
74	0x3ea07a65	0.3134338
75	0x3f91b8ab	1.1384481
76	0x3e9cdce6	0.30637282
77	0x3e9788ad	0.29596463
78	0x3e8fd565	0.28092495
79	0x3f49020a	0.78518736
80	0x3e94fd55	0.29099527
81	0x3d3c3f1a	0.045958616
82	0x3d8a34f3	0.067483805
83	0x3cf4ab29	0.029866772
84	0x3c214439	0.009842926
85	0x3c7365bc	0.014855798
86	0x3cdc34d0	0.026880652
87	0x3d69e30c	0.057101294
88	0x3d82982f	0.06376683
89	0x3dafa059	0.08575506
90	0x3be5cfb2	0.0070132846
91	0x3de2d227	0.1107524
92	0x3e698d1a	0.22807732
93	0x3e04bea2	0.12963346
94	0x3e857f6d	0.2607378
95	0x3f3a9703	0.72886676
96	0x3f252ecd	0.6452454
97	0x3f51792e	0.8182553
98	0x3e7bb258	0.24579751
99	0x3f297282	0.6619035
100	0x3f28b9fb	0.65908784
101	0x3f315393	0.6926815
102	0x3eb2b42e	0.3490309
103	0x3f2aa1f8	0.66653395
104	0x3cc90f67	0.024543477
105	0x3e4d5ffd	0.20056148
106	0x3d257f8f	0.040404852
107	0x3d7ed92b	0.062218826
108	0x3d72cb50	0.059275925
109	0x3e294e0c	0.16533679
110	0x3e9eb763	0.30999288
111	0x3e00d02f	0.12579416
112	0x3de081ed	0.109622814
113	0x3d84427c	0.064579934
114	0x3f11a948	0.5689893
115	0x3f04ece3	0.5192396
116	0x3eb09898	0.3449142
117	0x3f1c6b49	0.61101204
118	0x3f104525	0.56355506
119	0x3ee89885	0.45428863
120	0x3f3f7cbd	0.7479971
121	0x3f12ef4e	0.573964
122	0x3fb24b6a	1.3929265
123	0x3f5f29d2	0.8717319
124	0x3f4f246b	0.80914944
125	0x3ef2f7d3	0.474547
126	0x3f5bbe3a	0.8583714
127	0x3e0af94b	0.1357166
128	0x3d22f357	0.03978285
129	0x3d2816e4	0.041037455
130	0x3d242090	0.040070117
131	0x3c8c1bef	0.017103164
132	0x3d60d714	0.054892614
133	0x3f050d1f	0.51973146
134	0x3c512ba4	0.012766752
135	0x3e495a6d	0.19663401
136	0x3e04e434	0.12977678
137	0x3f07cd49	0.53047615
138	0x3e0e91d7	0.13922821
139	0x3deebf2c	0.11657557
140	0x3e1c5f95	0.15270837
141	0x3f0334a3	0.5125219
142	0x3ee4d54f	0.44693992
143	0x3f186cc8	0.59540987
144	0x3e1bb7a6	0.15206775
145	0x3f2cc63c	0.6748998
146	0x3ee22f52	0.44176728
147	0x3f07fc2c	0.5311916
148	0x3e85ac8a	0.261082
149	0x3eeda31b	0.46413502
150	0x3d1a4d5b	0.03767143
151	0x3d26e439	0.040744994
152	0x3db7992e	0.089647636
153	0x3ca5abc4	0.020223506
154	0x3cf7cda0	0.030249417
155	0x3d07a5d9	0.03311715
156	0x3ea92f3b	0.33043846
157	0x3de0acf3	0.109704874
158	0x3ce19578	0.027537093
159	0x3da1ece1	0.07906509
160	0x3ecb66b7	0.39726803
161	0x3e5757e6	0.21029624
162	0x3e053d29	0.13011612
163	0x3e77fdbd	0.24217887
164	0x3e9626a7	0.29326364
165	0x3e97e941	0.29670146
166	0x3e8f0432	0.27932888
167	0x3e6f0b4d	0.23344155
168	0x3e82f318	0.2557609
169	0x3e78d6b1	0.24300648
170	0x3e7996eb	0.24373977
171	0x3e870675	0.26372114
172	0x3e7a1925	0.24423654
173	0x3c911808	0.017711654
174	0x3cebd3ff	0.028787611
175	0x3c6598da	0.014013493
176	0x3bdac31c	0.006676091
177	0x3c2f5f37	0.010703853
178	0x3d0adbba	0.033900954
179	0x3dc085da	0.0940053
180	0x3c8fd599	0.017557906
181	0x3d36e682	0.044653423
182	0x3ca00506	0.019533645
183	0x3e0d383a	0.1379098
184	0x3e006237	0.12537466
185	0x3da6838c	0.08130559
186	0x3e12dcd1	0.14342047
187	0x3e4a5e69	0.19762577
188	0x3e3b69e0	0.18302107
189	0x3e5f1774	0.2178629
190	0x3e0ccfe5	0.1375118
191	0x3e885de9	0.26634148
192	0x3e81468c	0.25249135
193	0x3e6a2273	0.22864704
194	0x3e227ddc	0.15868324
195	0x3e793e3d	0.24340148
196	0x3ca850b1	0.02054629
197	0x3d4afea0	0.049559236
198	0x3cba5427	0.022745205
199	0x3cac1c40	0.021009564
200	0x3c9431ea	0.018090207
201	0x3ca9be7d	0.020720715
202	0x3d361f35	0.044463355
203	0x3d103c7c	0.035213932
204	0x3d6bd749	0.05757836
205	0x3c353c51	0.011061744
206	0x3dd6439f	0.104621165
207	0x3e58308d	0.2111227
208	0x3e10aed9	0.14129199
209	0x3e6e1e00	0.23253632
210	0x3ea507d9	0.3223255
211	0x3ea5a34c	0.32351148
212	0x3ea5e214	0.32399046
213	0x3e6f984b	0.23397939
214	0x3eb94cdf	0.3619146
215	0x3f44cab0	0.76871777
216	0x3f22d7ac	0.6361034
217	0x3ec8c0e2	0.39209658
218	0x3f3cc8eb	0.73744076
219	0x3cabcffd	0.0209732
220	0x3c047608	0.0080847815
221	0x3cc45fc4	0.023971446
222	0x3d110cf0	0.03541273
223	0x3c63c37a	0.013901586
224	0x3d87ea04	0.06636432
225	0x3e2c5a48	0.16831315
226	0x3cc0edd1	0.0235509
227	0x3ce5c184	0.028046377
228	0x3c96a9fc	0.018391602
229	0x3e8e69d5	0.27815118
230	0x3de255d8	0.1105153
231	0x3d8cede9	0.06881315
232	0x3e0770e7	0.13226663
233	0x3e81b40f	0.25332686
234	0x3e77bfdd	0.24194284
235	0x3e8c3f55	0.27392069
236	0x3dfcbf65	0.12341193
237	0x3e98965a	0.2980221
238	0x3e24bc87	0.16087542
239	0x3e40a26f	0.18811963
240	0x3e139f4f	0.1441624
241	0x3e2aaea5	0.16668184
242	0x3c9eccc8	0.019384757
243	0x3d35c0ce	0.044373326
244	0x3cbbd00e	0.022926357
245	0x3d22dc24	0.039760724
246	0x3cecb63b	0.028895488
247	0x3cd38e8f	0.025824813
248	0x3d9506b3	0.072766684
249	0x3c91a11d	0.01777702
250	0x3d7ef85a	0.062248565
251	0x3c2455a2	0.010030182
252	0x3e2fd3b9	0.1717061
253	0x3da9362d	0.08262286
254	0x3d97b9f1	0.074085124
255	0x3dc443ac	0.0958322

exp_avg f4 [18]
0	0xbe148c4f	-0.14506648
1	0xbdfe6d34	-0.124231726
2	0x3e69858a	0.22804847
3	0xbced2227	-0.02894695
4	0x3ed741ff	0.4204254
5	0x3df17193	0.11789241
6	0xbd57c4a9	-0.052677784
7	0x3da2fc91	0.079583295
8	0x3e935d0d	0.2878193
9	0x3dc0a331	0.09406126
10	0x3da323df	0.07965826
11	0x3d0b0e9b	0.033949476
12	0x3ea07d21	0.31345466
13	0x3c0e1a0d	0.008673203
14	0xbde7452f	-0.112924926
15	0xbea0ebed	-0.31429997
16	0xbdd7f944	-0.105455905
17	0x3e6b2ff7	0.22967516

exp_avg_sq f4 [18]
0	0x3ea73af9	0.3266218
1	0x3e5d4433	0.21608047
2	0x3f285143	0.65748996
3	0x3e92ccbc	0.28671825
4	0x3f5fbc97	0.8739714
5	0x3f5ded7e	0.8669051
6	0x3f1dcfdb	0.6164529
7	0x3e615bd6	0.22007689
8	0x3e55a873	0.2086504
9	0x3eaf8328	0.34279752
10	0x3e803492	0.25040108
11	0x3ef7927d	0.4835395
12	0x3f08d5d2	0.53451264
13	0x3ea405b5	0.32035604
14	0x3eb25603	0.34831247
15	0x3f4fa5a9	0.8111215
16	0x3e4e98e9	0.20175518
17	0x3f343cbc	0.70405173
