runs/perovskite_multiscale_dataset_runs/ae1_bg_predictor_enc_l_12_l1_1em2_tanh_pred_p_0_1_100_relu_dec_15_linear_seed_0_lr_1em3_bs_10_1500_epochs_mae_mtl_k_fold_4_xavier_normal/checkpoints/last.ckpt (torch, 36546 bytes, 21 tensors)

submodules.encoder.0.weight f4 [12, 15]
000000 52 d4 01 3b e4 d4 0b ba 85 44 b5 ba d5 3c a3 3a
       0.001981039 -0.00053341524 -0.0013829625 0.0012454042
000010 04 d0 c1 3a 24 45 9c 3d 21 76 1a 3e e3 ab 61 ba
       0.0014786725 0.07630375 0.15084125 -0.0008608682
000020 86 8f 55 ba c6 38 16 3a 2d 7c f3 b9 9e ed 4b ba
       -0.0008146692 0.0005730506 -0.0004644109 -0.0007779243
000030 55 d9 2d 3a 04 d3 26 3a 59 19 01 3a a0 cb 4e 3c
       0.0006631811 0.0006363841 0.00049247366 0.01262179
000040 38 b6 22 bb 4d 54 e2 ba 98 7a d9 3a 6a 35 d0 3a
       -0.002482785 -0.0017267555 0.0016592322 0.0015885059
000050 fd 4a 4d be ae eb 06 3e 55 c8 28 be ef c9 95 be
       -0.20048137 0.13175842 -0.1648267 -0.29255626
000060 ee 04 1c bb 20 b3 0b bb 45 96 79 3a b1 56 6f 3a
       -0.002380665 -0.0021316484 0.0009520988 0.00091300445
000070 84 f7 f3 39 7c 7f 00 3b e0 55 6c b8 ca 63 5a ba
       0.00046532985 0.0019607237 -5.6346762e-05 -0.000833091
000080 87 cf f7 b9 46 22 36 3a e8 9a f4 39 2a 33 89 3d
       -0.0004726613 0.0006947856 0.0004665472 0.06699212
000090 ba 59 0c bd ee 54 26 3c 2e d6 23 bd ea 56 fe bd
       -0.034265257 0.010152085 -0.03999918 -0.12418921
0000a0 e2 55 f5 39 5d 8d 9a 3a a9 ba 5c ba d4 7f 74 ba
       0.0004679403 0.0011791397 -0.00084201485 -0.0009326909
0000b0 6c 2c 0e ba 4d 68 22 3b b3 d0 59 39 e9 ba dc ba
       -0.00054234895 0.0024781406 0.00020772479 -0.0016840372
0000c0 0e 1f 92 3a 62 bf d2 3a e0 f0 72 b9 17 65 94 b9
       0.0011148171 0.0016078765 -0.00023168651 -0.00028304078
0000d0 df 86 43 39 80 57 9f b8 4c 2b 2f b9 e1 83 ab 3a
       0.00018646893 -7.598009e-05 -0.0001670543 0.0013085568
0000e0 a2 75 b8 3a 23 2d c3 ba d6 72 be ba 54 10 cd ba
       0.0014073143 -0.0014890771 -0.0014530073 -0.0015645125
0000f0 49 a9 15 ba 8e 9d 75 bc 8a e0 d3 3a 25 a6 81 bd
       -0.00057091244 -0.014991177 0.001616494 -0.06330518
000100 3c 3d 8d ba 5e 84 7a ba 38 50 df 39 e1 a3 19 38
       -0.0010775696 -0.00095564674 0.00042593642 3.6630667e-05
000110 06 c7 65 3a 58 27 33 3a d5 03 40 ba 4e 25 6f ba
       0.00087653135 0.0006834171 -0.000732479 -0.00091226853
000120 24 e9 55 3a b8 5a 6c 3a 8a d7 3f 3a 29 12 ee 3a
       0.0008160046 0.00090162037 0.00073181896 0.0018163371
000130 2c 43 a8 38 e3 bf 5b bb dd 44 94 3e e7 1d de 3c
       8.023376e-05 -0.0033531121 0.2895879 0.027113868
000140 e4 eb a5 b9 be 61 62 ba 6b b2 55 ba 29 f0 5f ba
       -0.00031647005 -0.00086357805 -0.00081518915 -0.00085425616
000150 51 bb 7e ba cb 48 12 ba f4 ef a9 b9 7b 3d ea 39
       -0.00097172434 -0.0005580305 -0.0003241297 0.00044677765
000160 d8 13 b5 39 ba ad 03 3a 85 10 cd ba 29 73 28 b9
       0.00034537795 0.00050231407 -0.0015645182 -0.00016064629
000170 e6 c5 2b 3a 49 4d 07 ba 90 46 3a ba 8a 1a 99 ba
       0.00065526215 -0.00051613577 -0.00071058515 -0.0011680883
000180 dd 33 88 b9 63 b4 49 3e e6 20 99 3a 8a cc 3a 3a
       -0.00025978583 0.19697718 0.0011682778 0.00071258156
000190 88 e8 b9 39 05 c6 23 39 4b df 43 b9 13 b4 ff b8
       0.000354592 0.0001561866 -0.00018679832 -0.00012192889
0001a0 f4 66 af b9 49 51 8d 3e 04 81 22 39 06 41 87 b8
       -0.00033455307 0.27601078 0.00015497586 -6.449413e-05
0001b0 31 c9 06 ba 53 7b 26 b9 98 e4 0b bb 4f 1f 04 3b
       -0.0005141674 -0.00015876936 -0.002134597 0.0020160263
0001c0 4b 28 97 b9 6e 58 38 3a 8e 5a aa 3a 43 1a b4 ba
       -0.00028830985 0.000703222 0.0012996958 -0.0013740737
0001d0 1a d6 ca ba 0f 79 bf 3a 1a 06 b6 3a c6 8f bd 3a
       -0.0015475184 0.0014608222 0.0013887316 0.0014462403
0001e0 1d 01 0c 3a e9 10 0e 3b 50 63 b0 b9 3a 6f cc 39
       0.0005340742 0.002167756 -0.0003364333 0.00038992782
0001f0 9e 1e 4a 39 24 07 28 bb 50 43 c2 ba 33 3a 0e ba
       0.00019275627 -0.0025639022 -0.0014821086 -0.00054255425
000200 58 05 4e b9 15 4a 2e ba ec a4 12 bb 7d 66 4a be
       -0.00019647682 -0.00066486123 -0.0022376133 -0.19765659
000210 c7 2e a6 3d 05 e1 5a 3b b4 c6 16 3b bc 3f 08 39
       0.08114391 0.0033398282 0.002300662 0.00012993714
000220 e7 8a 36 3b 0f 9a 81 3a 33 52 af ba 39 a0 75 ba
       0.0027853788 0.0009887832 -0.0013375938 -0.00093698833
000230 ed 5b e6 3a f0 03 4c 38 a3 df e4 3a ff a0 96 3a
       0.0017575003 4.8641057e-05 0.0017461668 0.0011492072
000240 fd 5b 9c 3a b5 2f 97 3e 5b 57 cf b9 9c c8 da b9
       0.001192927 0.29528585 -0.00039547202 -0.00041729666
000250 2c ed f6 b8 9f f8 b3 ba ee 94 46 ba 45 ae 49 3e
       -0.00011774371 -0.0013730711 -0.0007575293 0.19695385
000260 8a 5b bb b9 2f 2c 39 3a b0 eb 62 39 a4 79 93 ba
       -0.0003573562 0.0007063774 0.0002164084 -0.0011251462
000270 e5 a7 a0 ba f2 13 ea 3a e0 58 96 3a 93 2a 50 3a
       -0.0012257068 0.0017858727 0.0011470579 0.00079409144
000280 5e d0 ae b9 c3 68 ca 39 70 21 8f b7 e4 9d e8 b8
       -0.00033343112 0.00038606496 -1.7062499e-05 -0.000110920315
000290 7a 4b 95 39 1c 84 c6 39 15 5b 98 b9 47 6a 25 ba
       0.0002847573 0.00037863932 -0.0002905956 -0.0006310087
0002a0 62 7c 11 3a 4c 7a 23 3a f6 cb a8 3a 5f b1 fd 3a
       0.00055498455 0.000623618 0.0012878168 0.0019355229
0002b0 3d b3 71 b9 22 a4 38 39 f0 95 30 3a 9c 2d b3 39
       -0.00023050322 0.00017608752 0.00067362096 0.00034175522
0002c0 92 65 57 3c b0 f6 dd b9 a1 a8 a6 b9 a1 f0 e9 b9
       0.013146775 -0.000423362 -0.00031787626 -0.00044620506

submodules.encoder.0.bias f4 [12]
000000 0a 6c 06 3d ee 62 de 3d 3f 6b 9a 3c 7c eb a7 3b
       0.032817878 0.10858713 0.018849967 0.0051245075
000010 c2 6e 1b bd 56 d9 8f bd 26 a0 bd 3c d8 d2 d5 bc
       -0.037947424 -0.070238754 0.023147654 -0.026101515
000020 3e 45 30 be ae 6b 7d bd b0 59 b5 bd b5 4e f2 3c
       -0.17213914 -0.06187027 -0.08854997 0.029578546

submodules.bg_pred.0.weight f4 [100, 12]
000000 b9 60 5c 3d db c4 bd 3e 02 29 c7 3d 8d b4 79 be
       0.05380318 0.3706425 0.097246185 -0.24385281
000010 a6 6d ac bd d8 bd ef bb 51 d4 ac be 7f d3 d3 3d
       -0.08419351 -0.0073163323 -0.33755735 0.10343074
000020 5a e8 e6 bd d3 d5 a9 be d1 01 0a 3e 99 68 62 be
       -0.11274786 -0.33170947 0.13477255 -0.22110213
000030 ad 5a 49 be d2 5b af be b0 64 84 3d b0 c3 e4 3d
       -0.19663496 -0.3424974 0.06464517 0.11170137
000040 36 8a b9 3e 65 78 aa be 11 e9 92 3e 17 3d cc be
       0.3623826 -0.3329498 0.2869344 -0.39890358
000050 80 d5 b8 3d 1b 12 bc bd 32 2c 9a 3e cb bd c3 be
       0.09025097 -0.09183141 0.30111843 -0.38230738
000060 ec e7 34 3b 9b 91 04 3e ac a0 d4 3e 05 ba 6a bd
       0.0027604057 0.12946169 0.41528833 -0.05730631
000070 08 53 85 3d f0 c2 7e be 5f ae e0 3d e0 14 f5 3e
       0.065099776 -0.2487905 0.10970759 0.4786749
000080 6c a2 61 be ef 07 65 3d 80 3c bf 3e 3c c2 12 3e
       -0.22034615 0.05591577 0.37350845 0.14331907
000090 15 ff 60 be 5f 33 1a bf 33 d0 15 3f ef 28 15 bd
       -0.21972306 -0.60234636 0.5852081 -0.03641599
0000a0 93 81 d7 be 5c fb 83 bd 31 3e 0d 3e 26 49 d9 be
       -0.42091045 -0.06444427 0.13793255 -0.4243862
0000b0 21 d0 f0 3d 66 b6 f5 3c 7a 5d 67 3e 34 03 99 bd
       0.117584474 0.0299942 0.22594252 -0.07471314
0000c0 c3 44 58 3f 62 28 1c 3e b1 9f 44 3e e1 c2 1f bd
       0.8447992 0.1524978 0.19201542 -0.03900421
0000d0 2b 3a af bd 70 32 c7 3d 82 5d 04 be 2b c2 eb bd
       -0.085560165 0.09726417 -0.12926295 -0.11511644
0000e0 0c 7c a0 bd d1 62 b0 bd 48 f1 be be 59 81 dc 3d
       -0.0783616 -0.08612598 -0.37293458 0.107668586
0000f0 03 e2 10 3e e5 0d 4b 3e a2 ef 7b bc 24 e2 12 be
       0.14148717 0.19829519 -0.015376957 -0.14344078
000100 66 0a 3d 3f 24 55 14 3d c3 58 75 3e db 91 1b 3e
       0.7384399 0.03621401 0.23959641 0.15192358
000110 ca 0c 0f 3d 09 05 9d be 2d 23 26 bf 53 22 9b bd
       0.034924306 -0.30667904 -0.64897424 -0.07574906
000120 b4 0c a2 3d 76 ba c3 3d 66 e0 d2 3e cf 2c 8d 3e
       0.07912579 0.09557049 0.41186827 0.2757325
000130 3e 03 04 3f 38 b3 a1 bd 49 57 02 3c de f9 74 3e
       0.5156745 -0.078955114 0.007955381 0.23923442
000140 e8 b0 5a 3e 4f bd 12 bf ab a8 ec bb 0c 0e bb 3d
       0.21356547 -0.5732011 -0.007222255 0.091335386
000150 1c 7d c3 bd 99 b0 ba 3e a8 e8 e7 3e 2f fe 67 bd
       -0.09545347 0.36462858 0.4529469 -0.056638893
000160 e4 8e 2d 3d 0f 3e 97 3e 35 d9 a1 bc 0b 73 7d be
       0.0423726 0.29539534 -0.019756893 -0.24750917
000170 58 31 08 be ef 18 2d be 2d 40 23 3e 1c 57 62 3c
       -0.13300073 -0.16904043 0.1594245 0.013814714
000180 28 aa b8 3d 0b 75 f9 3e 6b a5 1a 3d 54 73 f3 3d
       0.0901683 0.4872211 0.03775541 0.118872315
000190 9c 2a 55 be df 11 14 3e 27 e1 10 3d 3a b4 35 be
       -0.20817035 0.14459942 0.035370972 -0.17744532
0001a0 e8 d0 89 bd 1b b2 ef bd 08 a2 bc 3d 07 1d c8 3d
       -0.06729299 -0.11703893 0.092105925 0.097711615
0001b0 d1 d9 ba bd 9a c8 a3 3e ce 5b ef be 3a cf c8 be
       -0.091235764 0.31988984 -0.4674973 -0.392206
0001c0 8a a3 d3 3d cd b8 0c 3c 71 37 8d be 39 64 3e 3d
       0.10333927 0.008588982 -0.2758136 0.0464823
0001d0 65 b0 c2 3e 9d 7c b5 be 5e 08 b1 3e 92 58 6c be
       0.38025203 -0.35446635 0.34576696 -0.23080662
0001e0 8e 73 22 be 8d 40 c6 3e 9b ea a4 3c 7a 14 e5 bd
       -0.15864393 0.38721123 0.0201314 -0.11185546
0001f0 64 72 78 3e 1c 5f 83 bd 91 49 1a bd 1c 11 44 3c
       0.24262387 -0.06414625 -0.037667815 0.01196697
000200 4e 13 20 3e a6 63 cb be 46 f0 bb be 00 7f 17 be
       0.15632364 -0.39724463 -0.36706752 -0.1479454
000210 d7 34 cf bd e6 41 97 3e 12 86 b6 3e ff ed a4 3d
       -0.101175 0.29542464 0.35649163 0.08053207
000220 71 30 80 be 60 07 40 3e 47 d4 60 bd b2 1a 59 be
       -0.25036958 0.18752813 -0.054889943 -0.2120159
000230 3a ff 6a be 17 8a 8a be 0a a6 57 3e 56 96 e0 3d
       -0.22948924 -0.2705848 0.21059433 0.10966174
000240 ec a7 39 bf 13 78 a0 3e c9 c4 72 3e bd 7d 5b be
       -0.72521853 0.3134161 0.2370788 -0.21434684
000250 6b 5d a1 bd c9 be 30 3d bd bd 1e bd cd 02 74 be
       -0.07879146 0.043150697 -0.038755167 -0.23829193
000260 8f 93 19 3d 68 27 38 3e 79 4e c0 3e fa 5e a7 3d
       0.03749424 0.17983782 0.3755987 0.08172412
000270 78 c0 e8 be d8 9a 69 3e 30 39 64 3e b8 b1 6c 3c
       -0.45459342 0.22812974 0.2228744 0.014446668
000280 71 17 b1 bd ba f4 d9 bb 88 6c 0f 3c 17 aa 9f 3e
       -0.08647049 -0.006651488 0.008753903 0.31184456
000290 3f 3a 1a be ad c6 c6 bd 6e 5a 9f 3d fd 9f b3 bd
       -0.15061282 -0.09705863 0.0778092 -0.0877075
0002a0 c8 a0 5c 3e a5 99 12 3f 86 65 60 bd 83 28 be bd
       0.21545708 0.5726569 -0.05478432 -0.09285071
0002b0 c8 2c 15 bd 5d a4 06 3e d8 e1 20 be d5 cd 84 be
       -0.03641966 0.13148637 -0.15711153 -0.25938287
0002c0 9e 93 80 bd d4 2e 8d bd 37 86 ff 3d 0c cd b3 3d
       -0.06278156 -0.068936974 0.12476771 0.08779344
0002d0 8d 2c 1e be 6c 86 b7 be ed 5c cf be cb b2 ea 3d
       -0.15446682 -0.35844743 -0.40500584 0.11459883
0002e0 e6 2f 4b 3e 75 17 1c be 1b 90 8e bc cb 32 ec be
       0.1984249 -0.15243323 -0.0174027 -0.46132502
0002f0 20 f2 d9 bd 35 94 5d bc 24 0d 8e 3c b7 c3 46 3e
       -0.10641885 -0.013524105 0.01734025 0.19410597
000300 1e 13 83 3e b2 c3 26 3f 00 1f 94 be 3f 3a eb 3d
       0.25600523 0.6514236 -0.289299 0.11485719
000310 f5 48 9a bd 56 0c 04 3e 07 f8 69 bd 08 84 f4 be
       -0.07533447 0.12895331 -0.057121303 -0.47756982
000320 0d f8 4d 3e bb b2 72 bd 19 e1 5b 3e 87 1a c7 be
       0.20114155 -0.059252482 0.21472587 -0.38887426
000330 c1 14 3d 3e cc 25 12 3f 22 48 ee 3c 31 96 a5 3d
       0.18464948 0.57088923 0.02908713 0.08085287
000340 73 17 6e be 23 f2 a5 3d 1c 4c 98 bc f1 24 4b be
       -0.23251133 0.081028245 -0.01859098 -0.19838311
000350 e3 91 81 3d 75 b0 f7 3b 41 62 80 3d df ba 4d 3e
       0.06326654 0.007558877 0.062687404 0.20090817
000360 ba 9f 53 3d ee d3 b1 3e bc 0f 04 bf 28 db 87 3e
       0.051666 0.34732002 -0.5158651 0.2653439
000370 1c 2b 7f 3e b6 fa de bd fb 69 2b be c9 64 ce 3e
       0.24918789 -0.10887663 -0.16739647 0.40311268
000380 39 85 9e 3c b8 3d 20 bf a4 a3 78 3e 7d 3c 26 bd
       0.019350635 -0.62594175 0.24281174 -0.04058503
000390 05 77 86 be ed 01 aa 3e 5d 13 68 3e 25 9b 9e 3d
       -0.2626268 0.33204594 0.22663637 0.07744435
0003a0 3c 2c 36 3d a7 54 f8 3d e0 2d 3c 3e 14 e9 61 bd
       0.04447578 0.12125521 0.18376875 -0.05515392
0003b0 59 05 5d be 67 02 89 be 57 fe e9 3d c8 4e 46 3e
       -0.21584071 -0.26759645 0.114254646 0.1936599
0003c0 4f 2b bd 3e 2f 44 9a bd a0 f7 9d bd 6b 74 be bd
       0.36947104 -0.07532536 -0.07713246 -0.09299549
0003d0 2b e4 18 be 66 8a 14 3e 2a 1f c0 3e c0 18 ea 3e
       -0.14930789 0.1450592 0.37523776 0.45722008
0003e0 1d 2d c9 3e a7 60 a2 be 84 2d c8 bd 58 23 02 be
       0.3929223 -0.31714365 -0.097743064 -0.12708795
0003f0 6c c0 cc be 6e c6 c0 3e be 8f dd 3e 80 73 84 bd
       -0.39990556 0.3765139 0.4327373 -0.064673424

submodules.bg_pred.0.bias f4 [100]
000000 73 00 1c 3e 75 cb 0e be a8 ae 7e 3b a4 0a 51 bd
       0.15234546 -0.139448 0.0038861427 -0.05103554
000010 08 6e eb bd 6f 85 85 bd 9f 7a 44 3d b0 aa 85 3d
       -0.11495596 -0.06519591 0.047968503 0.06526697
000020 1d 46 fc 3c fe db c6 bd 8d 97 3f 3d ab f1 1f 3d
       0.030795151 -0.09709929 0.04677539 0.039048832
000030 44 40 52 bb 80 9b 9d 3d 6f 4f aa 3d 98 b2 0c be
       -0.0032081762 0.07695675 0.08315932 -0.13740003
000040 ee 0b 23 3d 64 f1 c0 3d 7d ac ec bd b3 6d b5 3c
       0.0398063 0.094210416 -0.11556337 0.022147035
000050 19 e7 c4 bd c3 d1 a8 be e3 fa fb bd ce 25 0c be
       -0.09614391 -0.32972535 -0.12303712 -0.13686296
000060 1d c7 0a 3d c0 04 3c 3e 4e ab 55 be 67 fc df 3d
       0.033881295 0.18361187 -0.20866129 0.10936814
000070 3f cb 39 3e bd 5e 42 be 1c 36 39 bd fa ac f9 bd
       0.18143938 -0.18981452 -0.04521762 -0.12191196
000080 84 80 b3 be 48 4a 54 3d 1d 57 5d be c8 a0 91 3d
       -0.35058987 0.051828653 -0.21615262 0.07110745
000090 60 8e 6b be 62 1b 1e 3d 79 6c f6 3d d8 97 b7 3d
       -0.2300353 0.038600333 0.12032408 0.08964509
0000a0 a1 6a 8a bd 37 3f 7e be 2e 39 1e 3e c8 4a cc be
       -0.06758619 -0.24828802 0.154515 -0.39900804
0000b0 26 15 03 3e d7 85 3c 3d 78 51 f5 bc 7e da 0d 3e
       0.12801036 0.046026077 -0.029946074 0.1385288
0000c0 ea f5 b5 bd ac a5 f5 3d c7 d6 37 be f2 18 13 3e
       -0.08884795 0.1199449 -0.17953025 0.14364985
0000d0 65 1a 24 3e 52 c8 95 bd d8 7d e5 bd 32 40 db bd
       0.16025694 -0.07313599 -0.112056434 -0.10705604
0000e0 57 4c 01 3e 26 7c c4 be c5 f8 01 be 81 67 4b 3e
       0.12626778 -0.38375968 -0.12692554 0.19863702
0000f0 de 7b 29 3d 01 d3 36 bd 20 89 f9 bd 70 41 0b 3e
       0.041377895 -0.044634823 -0.12184358 0.13599181
000100 d5 c2 9d 3d 3d 83 db bc 89 47 2d bc 89 6e 3c 3c
       0.07703177 -0.026795978 -0.010576137 0.011500963
000110 f3 70 50 3d a7 f8 94 3d dd 60 4c 3e b0 4c 55 be
       0.050888967 0.07273989 0.19958825 -0.20830035
000120 55 dd 91 3a 32 44 06 be 38 5a 0c 3e 72 e0 13 be
       0.0011128584 -0.13111952 0.1370629 -0.14441088
000130 fa 3d 83 be 45 d0 f7 bd 6f 1e 1b 3e ba 07 37 be
       -0.25633222 -0.12100271 0.15148328 -0.17874041
000140 eb c4 a3 3d b3 20 27 be fe 97 04 3d 71 66 98 be
       0.079965435 -0.16321068 0.032371514 -0.29765657
000150 39 95 d1 be de 48 f2 bd e2 57 bf bc 6e a6 9a 3d
       -0.4093416 -0.118303046 -0.023357335 0.07551275
000160 45 ea aa be 3f b8 b5 bd 89 17 32 be 61 43 ae 3d
       -0.33381858 -0.08873033 -0.1739179 0.08508945
000170 97 48 fd bd 5e 96 8f 3d f9 bb 39 be 05 96 30 3d
       -0.12367361 0.07011102 -0.18138112 0.04311182
000180 96 90 0e 3d be 93 a6 3d a3 52 ad 3c 96 c8 09 be
       0.034805857 0.08133648 0.021157568 -0.13455424

submodules.bg_pred.3.weight f4 [1, 100]
000000 af d0 d4 3d cc 87 97 be d3 50 18 3e ef 45 e2 be
       0.10391366 -0.29595792 0.14874582 -0.4419398
000010 2b 41 50 3e 56 d8 45 3e d7 84 0e 3e f6 aa 10 3e
       0.2033736 0.19320807 0.13917862 0.14127716
000020 29 6d 38 3e 90 75 eb 3e c3 4c 11 3e eb 89 1e 3e
       0.18010391 0.4598813 0.14189439 0.15482299
000030 78 e5 49 3e 0d c1 07 3e c4 e1 0b 3e ea 4c a3 be
       0.19716442 0.13257237 0.13660342 -0.31894618
000040 d6 48 41 3e a1 e3 14 3e 9f cc e8 3e 87 e0 5f 3e
       0.18875441 0.14539959 0.45468614 0.21862994
000050 11 b2 33 3e 86 23 47 bf 06 18 24 3f 73 de 6e 3e
       0.17548396 -0.7778858 0.64099157 0.23327045
000060 8d 34 2a 3e 2c ff ea 3d d0 50 22 bf 64 c0 df 3d
       0.16621609 0.114744514 -0.6340456 0.109253675
000070 b8 d6 df 3d 2d 2e bb be a3 c7 8f 3e a5 83 91 be
       0.10929626 -0.36558667 0.28081998 -0.2842075
000080 ec c1 4b bf 82 72 0b 3e 70 a1 0f bf c2 9e 44 3e
       -0.79592776 0.136179 -0.5610571 0.19201186
000090 d5 eb 45 3f cc 2b 2f 3e 5d e7 c3 3d e0 49 ec 3d
       0.77312976 0.17106551 0.095656134 0.11537528
0000a0 17 6d 7a 3e 04 bd e7 be d0 9c e4 3d 8f 21 b2 bf
       0.24455677 -0.45261395 0.11162722 -1.3916491
0000b0 5b 3f e3 3d b9 8b 2b 3e bb e1 ce be 0a e0 d2 3d
       0.110960685 0.16752519 -0.40406594 0.10296638
0000c0 05 bf ce 3e 59 26 da 3d 5e be 29 bf ca 77 ca 3d
       0.4038011 0.106518455 -0.663061 0.09886129
0000d0 04 81 fe 3d a5 ad 8a be fa 9d a1 3d 41 be b7 bd
       0.124269515 -0.27085605 0.0789146 -0.08971835
0000e0 91 ef df 3d 43 bd ce bf 7a 2f 49 bf 8e 64 bb 3d
       0.109343655 -1.6151508 -0.7858807 0.09150039
0000f0 74 6f 16 3e 99 ee 4e 3e fb c6 9c be 43 cc c4 3d
       0.14690953 0.20208205 -0.3062056 0.09609272
000100 32 74 d5 3d c2 c9 6c be 76 0f 6c 3e 3e ee 2c 3e
       0.10422553 -0.2312384 0.23052773 0.16887757
000110 1b 2d 25 3e ed ef 0b 3e 1d 83 c5 3d 77 5f a4 be
       0.16130488 0.13665743 0.096441485 -0.32104084
000120 f3 75 58 3e c0 b3 d0 be 4e b4 0c 3e 78 d6 94 3e
       0.21138744 -0.40762138 0.13740656 0.29069877
000130 2e ee 32 bf a6 e4 ab be 1d 36 ff 3d d4 39 ce be
       -0.69894683 -0.33572882 0.12461493 -0.40278494
000140 36 8b 0b 3e 86 ea 08 bf bc 41 f7 3d 18 55 07 c0
       0.13627324 -0.53482854 0.12073085 -2.1145687
000150 fd 35 85 bf bb bb a6 be d0 03 6c 3e 39 ac 11 3e
       -1.0407101 -0.32565102 0.2304833 0.14225854
000160 c5 62 11 bf 1a 98 39 be 93 ad c7 be df 24 ff 3d
       -0.56791335 -0.18124428 -0.38999614 0.124582045
000170 23 93 51 be 92 13 23 3e 78 80 81 be 1d a4 fa 3d
       -0.20466284 0.15925434 -0.25293326 0.122383334
000180 ec 34 8b 3e e5 8e 04 3e 99 bb 1e 3e c3 14 c7 be
       0.27188814 0.12945135 0.1550125 -0.38883027

submodules.decoder.0.weight f4 [15, 12]
000000 be c7 83 bc f9 1c fb 3b 25 83 a1 3c e6 c4 b4 3d
       -0.016086455 0.007663366 0.019715855 0.08826618
000010 3b 7d ed 3e 03 1a 49 bd 7f f6 25 3a 6a e0 7b 40
       0.46384606 -0.049097072 0.0006330981 3.9355721
000020 6f 7c 0e bb fb dc 21 bc 0b 7b 72 3b bc 34 bb 3d
       -0.0021741649 -0.009879346 0.003699961 0.09140918
000030 02 31 b7 3c aa 71 9f bc 7e f3 d8 bb be 49 78 bd
       0.022362236 -0.019463379 -0.0066208234 -0.0606172
000040 d3 e8 4a c0 1f b5 4c bf 12 86 58 bd 74 7c e2 3d
       -3.1704605 -0.7996387 -0.052862234 0.11058894
000050 ab d9 01 3e fa f1 2e 3d 8d e8 9c 40 03 84 10 3f
       0.1268069 0.042711236 4.9033875 0.56451434
000060 a9 63 a4 3c 37 11 fd bb 6b 42 0c 3b 94 12 0e bd
       0.020067053 -0.0077229994 0.0021401893 -0.034685686
000070 38 8c 93 3f 36 af 1c c0 51 8d 4f bc be f6 5f bf
       1.1527166 -2.448194 -0.01266797 -0.87485874
000080 fa b8 42 3c fa 6f 2c 3c 91 4c 4b be f8 80 01 be
       0.011884922 0.010524744 -0.19853427 -0.12646854
000090 4f a6 74 bc f6 27 21 3c d7 f1 f5 bb b4 3f a1 3b
       -0.014932229 0.009836188 -0.007505636 0.004920924
0000a0 c9 5b ca bf 5d 4b 42 40 75 bb a8 3c 08 43 0b be
       -1.5809261 3.0358498 0.020597199 -0.13599789
0000b0 52 19 62 3a b2 58 6d 3b 2e d5 f8 bd 90 da 78 3e
       0.0008624989 0.0036216197 -0.12150036 0.24302125
0000c0 49 ef c0 bc e1 29 00 3c c0 7d 12 3a cf 5d 7c 3d
       -0.0235516 0.007822485 0.0005588196 0.0616129
0000d0 8b 89 0a bf 6e 81 14 40 64 77 30 3c 11 05 77 3f
       -0.54116124 2.3203998 0.010770652 0.96492106
0000e0 23 94 b8 bb 03 f8 a7 bb b0 b2 4e be a7 74 42 3e
       -0.0056328936 -0.005126001 -0.20185351 0.18989812
0000f0 fb 59 85 40 f5 99 07 c0 0b 01 87 40 29 98 e9 bc
       4.167234 -2.1187718 4.2188773 -0.028514938
000100 11 15 b9 3d 67 75 1d 3d 0e f9 e8 bf 65 b9 bd 3d
       0.09037221 0.03844204 -1.8201005 0.09263877
000110 61 40 32 bd 1f 65 a5 bc 84 b9 1d 3c c1 1a c9 3b
       -0.043518428 -0.02018982 0.00962675 0.0061372225
000120 a7 c2 99 40 f9 94 94 3f 52 ef 0c c0 a2 f0 21 3d
       4.8050113 1.1607963 -2.202107 0.039536126
000130 cc 74 df be 6f 6b f6 bd ba e2 80 3f bf c0 7d bd
       -0.43643796 -0.1203221 1.0069191 -0.061951395
000140 ad 25 94 bc 0a 1a 43 bc f0 b6 20 bd 2f fd 51 be
       -0.018084371 -0.011908064 -0.039236963 -0.20506738
000150 91 70 95 3c db ff 2d bd c8 49 97 bc 58 ff a6 bd
       0.018242152 -0.04248033 -0.018467799 -0.08154172
000160 3e 1f 84 be 3a ce 54 bd d0 26 a5 40 54 37 d4 3c
       -0.25805086 -0.051954485 5.160988 0.025905289
000170 4c 63 4b 3b 9d 81 22 3c 2b ce dd bc 27 eb dc bd
       0.0031034527 0.0099185975 -0.027075848 -0.10787039
000180 17 ee 42 bf 08 35 c0 bf 01 e3 74 c0 b2 3d 4a 3d
       -0.76144546 -1.5016184 -3.8263552 0.049375243
000190 fd ad ea be 74 a9 d7 bd 7a 8d 77 bf a8 fb 9e 3d
       -0.45835868 -0.105303675 -0.9670025 0.07762843
0001a0 28 1b 7a bd 92 38 69 bd c8 ce 6a bd 72 43 88 3e
       -0.061061054 -0.056938715 -0.05732611 0.26613957
0001b0 55 c6 97 3f f3 33 7f bf 37 74 84 c0 e2 91 e2 3c
       1.1857401 -0.99688643 -4.1391864 0.027657453
0001c0 0a e2 01 bf 70 4f b7 bd a2 ed 33 bf b1 60 06 3d
       -0.50735533 -0.089506984 -0.70284474 0.032807056
0001d0 bb 0b ef 3c c7 f6 69 3c 3c 4b 38 bc a4 a3 09 3f
       0.029180398 0.014280028 -0.011248406 0.5376532
0001e0 50 c2 2e 3c c7 b1 d5 3b 64 96 83 bb eb aa ab 3d
       0.010666445 0.006521437 -0.0040157307 0.083822094
0001f0 c6 42 9c be 26 70 62 bd 8d 62 70 3c 31 f0 9f 3c
       -0.30519694 -0.055282734 0.014671934 0.019523712
000200 f6 ba c5 be 07 7f 4a 40 58 f6 b7 bc ab 45 03 3e
       -0.38619202 3.1640031 -0.022456333 0.12819545
000210 97 12 e7 3c fd 35 fd bc 44 bd a3 3b 9a b1 2c bd
       0.028207107 -0.030909533 0.0049969275 -0.04216156
000220 76 03 08 be 49 7f 9b bc ad e2 42 bd 7f 2c 6a 3c
       -0.1328257 -0.018981593 -0.047579456 0.014292835
000230 54 70 4b c0 ab e0 ec 3e 99 35 91 bc e8 83 da 3f
       -3.178731 0.46265158 -0.017725753 1.7071505
000240 72 11 89 bc d6 5f c5 3b 70 71 12 bb 7e c6 eb 3b
       -0.016731951 0.0060233874 -0.0022345446 0.007195293
000250 af fe 53 3e a7 33 1c 3d e6 51 71 3c f6 64 51 bc
       0.20702623 0.038135197 0.014728999 -0.012780419
000260 59 9b 07 40 0f ac c2 bf b6 62 a0 3c b0 7c 06 bf
       2.1188567 -1.5208758 0.019578319 -0.5253401
000270 19 80 fd bc 01 14 a2 3c 4b 1c 13 3c cd 7d 81 3c
       -0.03094487 0.01978493 0.008978914 0.015807057
000280 0a 81 11 3e ce 34 e8 3c 46 9c 30 3d b1 a6 b2 bc
       0.14209381 0.028345492 0.043117784 -0.021808
000290 d7 31 21 40 4b 2f 90 bf 41 f0 17 3c 47 78 56 bf
       2.518667 -1.1264433 0.00927359 -0.8377728
0002a0 94 f7 4e bc bf ac 93 3b 44 f1 e7 3b cd 73 c3 bd
       -0.012632269 0.004506677 0.0070783217 -0.095435716
0002b0 92 06 80 3e 15 68 36 3d 72 74 dc 3b 39 5c 92 bc
       0.25005013 0.044532854 0.0067277486 -0.01786624
0002c0 24 1f 64 3f d7 0e 2d c0 35 47 84 3c 82 6d f6 3d
       0.89110017 -2.7040308 0.016147235 0.12032606

submodules.decoder.0.bias f4 [15]
000000 18 8a f7 3d 50 1c 87 3e f9 55 1e be 89 44 f3 3d
       0.12086886 0.26388788 -0.15462483 0.118783064
000010 a6 9f 0d 3e aa 53 41 3d f4 27 94 be 99 fa 09 be
       0.13830432 0.04719893 -0.28936732 -0.13474502
000020 b8 c5 58 3e a0 ec e5 3d 84 ab c1 3d 4b e9 07 bf
       0.21169174 0.11226773 0.09456542 -0.5309035
000030 cd c0 8c 3e ae f3 b9 3e 02 f6 d0 b9
       0.27490845 0.36318725 -0.00039856142

exp_avg f4 [12, 15]
000000 8f 57 c3 bc e8 b9 c7 3d ed 76 bb 3c 17 85 e5 bc
       -0.023845462 0.09752256 0.022883857 -0.028017564
000010 00 95 ee bc 1b 22 0a 3d 63 96 3f 3d 17 2f 04 bc
       -0.029123783 0.03372393 0.04677428 -0.008067868
000020 c8 25 1b bc a7 2b 77 3c e7 49 8b 3d 70 c6 86 3d
       -0.009469457 0.015086091 0.06801205 0.06580818
000030 33 3b 8a bd fc 32 87 bd 34 71 8a bd 63 b9 4e be
       -0.067495726 -0.066015214 -0.06759873 -0.20187907
000040 d4 1c ae 3e 67 34 6c 3e 16 c5 7b be da 5d 7b be
       0.3400637 0.23066865 -0.24586901 -0.2454752
000050 91 d0 65 be cd 39 8a 3d 1f 53 b0 3e b2 e8 bd 3e
       -0.22442843 0.06749306 0.34438416 0.37091595
000060 a1 06 b0 3e dd 13 8d 3e 35 5f 97 3e 2f 8a 94 be
       0.34380057 0.27554217 0.29564825 -0.29011676
000070 16 45 90 be dd db 8d be de 9b c2 bd 31 af 25 bd
       -0.28177708 -0.27706805 -0.095023856 -0.04045028
000080 6a b1 d3 3d 15 94 c2 bd 6b 2b bf bd 1d 5b 89 3c
       0.103365734 -0.09500901 -0.09334453 0.016767079
000090 a2 ad 10 3d b3 a3 4d bc 3b 01 0c bc fa 31 96 3b
       0.03532184 -0.012551236 -0.008545215 0.0045835944
0000a0 0e 24 30 bd 15 eb 09 bd ab 42 1d 3d c8 9a 16 3d
       -0.043003134 -0.033671457 0.038393658 0.036768705
0000b0 43 c7 24 3d 1e 34 48 ba b1 46 de bb 7f c3 8e bb
       0.040229093 -0.00076371606 -0.0067833294 -0.004356801
0000c0 52 d5 bb 3b c5 4f 70 3b 41 67 b9 3c 44 e4 32 ba
       0.005732217 0.003666864 0.022632243 -0.00068241754
0000d0 8e 2f 6f bc 91 b6 97 bc 5e 6e 79 bc 58 40 07 bc
       -0.01459874 -0.018519672 -0.0152240675 -0.008255087
0000e0 c1 82 1e bc 09 34 16 3c 72 51 15 3c 74 f1 0b 3c
       -0.009674729 0.00916768 0.009113656 0.008541454
0000f0 d5 8e b8 3c d7 19 04 bd 4a a5 14 bd 40 e8 2b 3d
       0.022529045 -0.032251205 -0.036290444 0.041969538
000100 69 95 0c 3d 3c 65 60 bd b5 8c 60 bd de 75 1e 3c
       0.034322176 -0.054784045 -0.05482169 0.009671656
000110 26 c9 ff 3c 45 f7 17 3c 93 22 ce 3c bc 18 99 3c
       0.031223845 0.009275262 0.02516297 0.018688552
000120 e0 af b7 bc c0 7d ac bc 81 4a c9 bc d9 bb ef bd
       -0.02242273 -0.021056056 -0.024571659 -0.11705751
000130 40 9f 94 3d 80 d3 cc 3d f4 9e c2 bd c1 c7 cd bd
       0.07256937 0.10001278 -0.09502974 -0.10047866
000140 69 e1 4b bd 80 33 1a 3c f1 5f b4 ba 78 e3 aa 3c
       -0.049775515 0.009411693 -0.0013761503 0.020860419
000150 e3 24 8e 3c 1b ea 88 bd 6a 9c 79 bd ca 5f 80 3d
       0.017351573 -0.06685277 -0.060940184 0.0626827
000160 cc 46 87 3d 35 24 88 3d e0 fb d7 bc 51 47 a2 bd
       0.066053 0.06647531 -0.02636522 -0.07923759
000170 3e dd 62 3a 0e 65 93 3c 24 a5 6f 3b f7 4b 4c bc
       0.00086541835 0.017992523 0.0036566937 -0.012469283
000180 37 d1 a7 bd 5a a1 96 bd 33 d3 5a bd 0d 94 99 bd
       -0.081942014 -0.07354994 -0.05342407 -0.074989416
000190 07 4e d2 bc 28 27 11 bd 2e e6 05 3d d6 97 0c 3d
       -0.025671972 -0.035437733 0.03269022 0.03432449
0001a0 2e 6b d8 3c 68 73 03 bc 12 7c 38 3e f0 ce 80 3d
       0.026418295 -0.00802312 0.18016079 0.0628947
0001b0 a7 b8 b2 bd a2 57 90 bd d3 15 17 bd 96 5e d0 bc
       -0.08726626 -0.07047965 -0.036886048 -0.025435727
0001c0 28 f5 92 bb e6 31 bb 3c c4 de 1a 3c f8 1d a0 bd
       -0.0044847913 0.022850942 0.0094525255 -0.07818216
0001d0 cd 59 90 bd d6 0a 95 3d 27 47 a0 3d 5c c3 9f 3d
       -0.07048378 0.072774574 0.07826071 0.07800934
0001e0 b7 9f c8 bd 69 58 f8 bc 19 b4 31 3d d1 24 ab bc
       -0.09796088 -0.030315595 0.043384645 -0.020891579
0001f0 b3 d9 32 bd 80 52 5a 3c 1c 71 92 bb 01 57 b8 bc
       -0.043664645 0.013325334 -0.00446905 -0.022502424
000200 3f fa ed bb db b2 aa bb 31 d4 67 bd 9a 79 4b bd
       -0.0072624977 -0.0052093095 -0.056598846 -0.049676515
000210 f9 b8 57 3d 96 21 61 3d 1d b3 66 3d 20 b2 05 3e
       0.052666638 0.05496367 0.05632316 0.1305623
000220 bc 9d 9b 3d d1 44 a0 bd c3 67 58 3d a2 46 8a 3d
       0.07598445 -0.07825626 0.05283333 0.067517534
000230 07 a3 d8 bc cf 3d 86 bd 98 0e 3a bd dd 9b 1f bd
       -0.026444925 -0.06554758 -0.045424074 -0.038967002
000240 fa f8 6e bd 73 5c 45 bd e0 08 77 bd cc 69 59 3d
       -0.05834291 -0.04818387 -0.0603112 0.05307941
000250 cb f7 65 3d 7e ad 44 3d 7a e2 aa 3c fc 70 ea bc
       0.056144517 0.048017018 0.020859946 -0.028618328
000260 1b 1e 00 3c 18 0b 85 bc 64 a4 76 bb 7f cf c2 3d
       0.007819678 -0.016240641 -0.0037634606 0.09512233
000270 6e 15 82 3d d1 9f d1 3a 31 4a 15 bd 6d ee fd bb
       0.06351744 0.0015993064 -0.036447708 -0.00774937
000280 5e f8 59 3d 76 1e 78 3d 25 90 76 bd 23 09 7a bd
       0.053215377 0.060575925 -0.06019606 -0.06104387
000290 1c 5b 74 bd e8 74 10 3d e4 d1 36 3d 1b 98 80 3b
       -0.0596572 0.03526774 0.04463376 0.0039243824
0002a0 1f 17 99 bc 43 2a ac bb 9b b5 94 3b db 57 89 3b
       -0.018687783 -0.0052540614 0.0045382506 0.0041913814
0002b0 7d a4 22 bc 36 44 af bb d6 29 bd bb d7 de 2d 3c
       -0.009926912 -0.0053487075 -0.0057728095 0.010612211
0002c0 27 e8 12 3c 65 c4 11 bc fd aa 25 bc f6 d7 2c bc
       0.008966482 -0.008896922 -0.010111568 -0.010549536

exp_avg_sq f4 [12, 15]
000000 9b 1b c2 3d d0 e7 b7 3d 18 1b ce 3d 55 7d cd 3d
       0.094779216 0.089797616 0.100637615 0.10033671
000010 59 d7 cf 3d ab 40 60 3d 67 0c be 3d 2f 83 a9 3d
       0.10148496 0.054749172 0.09279709 0.082769744
000020 77 80 9d 3d 38 bb bd 3d 1a fb c0 3d 9d 20 c3 3d
       0.07690518 0.09264225 0.09422894 0.09527705
000030 3b e8 c2 3d 6e 57 c3 3d 20 92 c1 3d 9c 88 80 3f
       0.09516951 0.0953816 0.09451699 1.004169
000040 e5 60 a4 3f 77 34 93 3f a1 49 98 3f 18 c1 93 3f
       1.284207 1.1500386 1.189747 1.1543303
000050 9f 06 83 3f e0 09 68 3f 50 d3 84 3f 86 b3 90 3f
       1.0236396 0.9064007 1.0376987 1.1304786
000060 56 ed 88 3f aa e1 9c 3f 62 cc a0 3f 24 c3 9f 3f
       1.0697429 1.2256367 1.2562373 1.2481427
000070 29 47 a0 3f a6 8e 9d 3f ac c4 0b 3e 96 37 03 3e
       1.2521716 1.2309158 0.13649243 0.12814173
000080 25 93 14 3e 2f d6 16 3e 3c 76 16 3e 29 3d ca 3d
       0.14509256 0.14730142 0.1469354 0.098749466
000090 2b fb ae 3d e3 05 f4 3d a2 6d fc 3d 89 18 f4 3d
       0.08544 0.11915185 0.12325598 0.11918742
0000a0 18 9d 0f 3e ee 48 0d 3e b1 90 0e 3e 32 49 0e 3e
       0.1402477 0.13797352 0.13922383 0.1389511
0000b0 06 56 0f 3e 4a fd af 3a d6 69 ba 3a bc b6 b1 3a
       0.13997659 0.0013426926 0.0014222215 0.0013558487
0000c0 01 6d b3 3a 41 54 b3 3a 05 38 b3 3a e6 94 9e 3a
       0.0013689102 0.0013681726 0.0013673311 0.0012098819
0000d0 01 9c b1 3a ee 2f b1 3a 72 1b ad 3a 6a ec a9 3a
       0.0013550521 0.0013518312 0.0013207032 0.0012964134
0000e0 12 10 b2 3a f1 8d ae 3a 75 8b b0 3a a6 a5 aa 3a
       0.0013585112 0.0013317448 0.0013469296 0.0013019338
0000f0 fc bd 67 3d 2f 4f 6a 3d ae c3 88 3d 4a 32 8d 3d
       0.056577668 0.05720442 0.06677948 0.068943575
000100 6e d1 89 3d 53 cc 3d 3d 46 93 38 3d e9 31 77 3d
       0.06729399 0.046337437 0.045062326 0.060350332
000110 c3 1c 6d 3d 40 e8 69 3d fe b5 87 3d be 0e 89 3d
       0.057888757 0.057106256 0.06626509 0.06692265
000120 6f e3 88 3d 22 22 89 3d 03 21 88 3d cf ee 0d 3e
       0.066840045 0.066959634 0.066469215 0.1386063
000130 97 b8 16 3e 5d f9 21 3e 01 aa 25 3e 6b 15 21 3e
       0.14718853 0.15817781 0.16178133 0.15730827
000140 89 23 1f 3e fa 45 e5 3d 2f c5 2e 3e 65 da 39 3e
       0.155409 0.111949876 0.17067407 0.18149717
000150 55 79 21 3e 00 43 34 3e 7e f8 3a 3e 43 8c 38 3e
       0.15768941 0.17603683 0.18258855 0.18022256
000160 5d be 39 3e de 4b 35 3e 61 81 93 3d 67 b0 d9 3d
       0.18139024 0.17704722 0.072024114 0.10629349
000170 7d 9c bd 3d 61 4d cd 3d 3f 8f c2 3d a9 e6 83 3d
       0.092583634 0.100245245 0.09499978 0.06440479
000180 c9 9d 95 3d 66 40 8b 3d 30 f7 a2 3d 96 b8 a8 3d
       0.07305486 0.067993924 0.079573035 0.08238332
000190 2c d5 c2 3d 81 55 cc 3d 4b ff c8 3d 89 32 ca 3d
       0.095133156 0.09977246 0.09814318 0.0987292
0001a0 3a 7b c4 3d 7b d2 6e 3e ce f1 95 3e 01 5a 84 3e
       0.09593816 0.2332248 0.29286045 0.25849918
0001b0 02 72 85 3e 34 13 84 3e 61 5e b2 3e 92 26 1f 3e
       0.26063544 0.257959 0.3483763 0.15542057
0001c0 32 1e a2 3e 66 b8 b7 3e 13 69 80 3e c5 a8 9d 3e
       0.31663662 0.35882872 0.25080165 0.30792823
0001d0 59 30 a4 3e a1 d5 a1 3e 83 28 a3 3e cc 91 9e 3e
       0.32068136 0.31608298 0.31866845 0.3097061
0001e0 94 51 b9 3d f9 a9 8e 3d ba 91 be 3d 21 b1 bb 3d
       0.09048763 0.069660135 0.09305139 0.09164644
0001f0 88 00 bf 3d e0 7d 9e 3d 52 43 91 3d 5f 1d b9 3d
       0.09326273 0.077388525 0.070929185 0.09038805
000200 f5 3c af 3d aa bf a7 3d 5d 02 d4 3d b5 0e d6 3d
       0.085565485 0.08190854 0.10352013 0.10452024
000210 d4 ee d3 3d f6 c9 d4 3d 15 cc d4 3d 63 24 70 3e
       0.10348287 0.103900835 0.10390488 0.2345138
000220 70 ba 50 3e 86 95 7b 3e 08 49 7b 3e 6c ae 7b 3e
       0.2038362 0.24568757 0.24539578 0.24578255
000230 f7 95 41 3e 0c 71 42 3e 38 c7 77 3e 6c 12 59 3e
       0.18904863 0.18988436 0.2419709 0.21198434
000240 48 b8 66 3e 68 03 62 3e 60 8e 71 3e 4e 40 6c 3e
       0.22531235 0.22071612 0.23589468 0.23071405
000250 31 82 6e 3e 8f 0a 65 3e ee 56 4a 3d 86 c6 82 3d
       0.23291852 0.22367309 0.04939931 0.063855216
000260 c5 7c 65 3d 8a 61 6c 3d 1b b6 69 3d c8 5a 52 3d
       0.056027193 0.057710208 0.057058435 0.051356107
000270 90 3c 24 3d 12 17 83 3d 07 b4 80 3d a4 a6 6b 3d
       0.04009682 0.06400885 0.062843375 0.057531968
000280 99 5e 89 3d 07 6c 8a 3d b6 66 8a 3d 87 85 8a 3d
       0.06707496 0.06758886 0.06757872 0.067637496
000290 2a 81 89 3d e2 c7 f1 3c 3b dc b1 3c 92 91 e8 3c
       0.06714089 0.029514257 0.02171146 0.028389726
0002a0 82 c1 e2 3c 7e 16 ea 3c 7d e1 c0 3c f2 f4 9e 3c
       0.027680162 0.028575178 0.023545021 0.019403908
0002b0 7a 74 cb 3c 69 56 c8 3c 85 af b6 3c 50 93 f6 3c
       0.024835814 0.024455266 0.022300491 0.030099541
0002c0 3e 4d f2 3c 73 c6 f6 3c 91 22 f7 3c b0 7e f7 3c
       0.029577848 0.030123925 0.03016785 0.030211776

exp_avg f4 [12]
000000 db 77 30 3d cc e3 1d be c0 a9 82 bc 18 76 1c 39
       0.043083053 -0.15418929 -0.015950084 0.00014921313
000010 e0 6c 15 3a e0 c5 26 bb a4 7f de 3b b7 7b f8 3d
       0.00057001226 -0.0025447533 0.0067901183 0.12132972
000020 3e 7e 96 3d 4b 37 c4 3d f6 45 33 bd 96 91 29 bc
       0.073482975 0.09580859 -0.04376789 -0.010349652

exp_avg_sq f4 [12]
000000 82 d8 a3 3d 92 82 89 3f 61 ab d2 3d 96 a5 99 3a
       0.0800028 1.0742972 0.10286594 0.0011722322
000010 32 22 49 3d 39 b5 0d 3e 12 9c 8d 3d 87 7f 8c 3e
       0.049104877 0.13838662 0.06914534 0.27441046
000020 5c 78 88 3d 19 e5 4f 3e 32 fe 4a 3d 3d 41 a8 3c
       0.06663582 0.20302238 0.049558826 0.02053892

exp_avg f4 [100, 12]
000000 cc 4c 94 38 f7 8a 2b bb f7 35 93 ba 3a f0 88 b8
       7.0714945e-05 -0.0026175359 -0.0011231293 -6.529731e-05
000010 a8 f1 2f 3a 62 8a 1f bb 74 d3 90 3a d0 ca e0 ba
       0.000671173 -0.0024343957 0.0011049346 -0.0017150287
000020 f1 ac cb b9 9c 0e ca 3a dc 29 f7 3a 2c 24 b7 b8
       -0.0003884803 0.0015415731 0.001885708 -8.7328575e-05
000030 14 c9 73 39 dd d0 43 3a 3e d0 e5 3a cd 66 08 39
       0.00023249193 0.0007469783 0.0017533374 0.00013008267
000040 0b b3 d2 38 4f 16 bd 3b 0b cd 18 bb 8a 31 4c 3b
       0.0001004693 0.0057704817 -0.0023315575 0.0031157457
000050 12 44 fe 3a a6 bb 0c 3b 5b 45 7c bb d8 c1 ef b9
       0.0019398949 0.0021474152 -0.0038493488 -0.00045730057
000060 07 8f ec 39 38 53 d8 bb d4 44 59 bb ce fd 68 b8
       0.0004511999 -0.0066017173 -0.0033152597 -5.5549484e-05
000070 1f f7 12 3a 7f 03 40 39 91 7c 47 3b 1f 93 b3 b9
       0.0005606282 0.00018311849 0.0030439238 -0.00034251154
000080 5c 33 c4 3a 53 9b 82 3a 90 c0 cf 3a bf cf a6 b9
       0.001496892 0.0009964503 0.0015850235 -0.0003181677
000090 9a 51 5d 3b 58 42 8c 3b 67 2b 5b 3b f3 74 41 39
       0.0033770562 0.0042803697 0.0033442618 0.00018449481
0000a0 a2 41 0a 38 d9 cc 08 3b ea 60 3c bb a0 7d bb 3a
       3.296289e-05 0.0020874052 -0.0028744289 0.0014304407
0000b0 ef a1 1a 3a 3e a2 5b 3a 75 b5 cc ba 41 67 27 b9
       0.0005898764 0.0008378363 -0.0015618043 -0.00015964826
0000c0 c2 af 2c bb c2 a6 98 bb 28 be 45 bb a6 41 01 37
       -0.0026349877 -0.004658551 -0.0030173156 7.704284e-06
0000d0 b8 17 23 3a 68 94 ac b9 a9 50 b3 3a ea 57 ae ba
       0.0006221491 -0.00032916968 0.0013680655 -0.0013301347
0000e0 fa 52 73 ba 24 74 5f 3b 57 15 ee 3a 94 b9 56 b9
       -0.0009282079 0.0034096325 0.0018164319 -0.00020477764
0000f0 58 26 aa ba 87 08 a6 bb 8e a4 de ba be 15 b1 b8
       -0.0012981398 -0.0050669345 -0.0016986297 -8.4440675e-05
000100 50 38 ac 3a b3 08 eb ba 20 97 a3 3a e2 aa ff ba
       0.0013139341 -0.001793167 0.0012480952 -0.0019505883
000110 be 00 00 3b 0e 85 3d 3b 9e 19 9b 3b d1 87 10 ba
       0.0019531692 0.0028918418 0.0047332784 -0.0005513402
000120 1a 1e e9 b9 56 21 8d bb 6a 01 21 bb 13 6d 87 b8
       -0.0004446365 -0.0043069525 -0.0024567493 -6.457618e-05
000130 f3 d5 18 3a 16 b0 74 b9 76 e2 ed 3a 2d cb 16 ba
       0.0005830221 -0.0002333525 0.0018149156 -0.00057523214
000140 8e 46 e6 ba 9e ee 89 3b 18 2a 12 3b 82 e2 18 b9
       -0.0017568634 0.0042093536 0.0022302922 -0.0001458023
000150 be f1 1a ba 9c d9 b9 bb 42 30 7e bb fa 42 61 b8
       -0.0005910656 -0.005671693 -0.0038786088 -5.3706557e-05
000160 c1 57 37 3a 6a 5f c7 b7 5a 2f 1c 3b 89 e4 25 ba
       0.00069939723 -2.376708e-05 0.0023831935 -0.0006328305
000170 f1 03 c1 39 58 b7 1d 3b b3 c4 eb 3a 1c c0 a2 b9
       0.00036814765 0.002406558 0.0017987698 -0.0003104218
000180 bb 4c 1e ba 7f e3 8d bb 48 fc 67 bb c5 2c 4e b7
       -0.00060386554 -0.004330098 -0.0035398174 -1.22889805e-05
000190 f2 ea 25 3a e7 28 90 ba bf ed b6 3a 44 c4 cf ba
       0.000632926 -0.0010998518 0.0013956352 -0.0015851338
0001a0 03 f3 77 b9 33 13 0e 3b 36 05 85 3a 40 f6 3a b9
       -0.00023646285 0.0021678924 0.0010148648 -0.00017830078
0001b0 08 44 19 bb 39 42 4c bc 0f d0 de bb bc a6 4a b9
       -0.0023386497 -0.012466961 -0.006799705 -0.00019326335
0001c0 c1 42 a1 3a 47 a4 27 3b 73 0f b5 3b 80 f9 a7 39
       0.0012303219 0.0025580095 0.0055255233 0.00032038614
0001d0 4b c7 ca bb 00 f2 4a 3c b1 a9 13 3a fe 74 c2 b9
       -0.0061883084 0.012386799 0.0005632891 -0.0003708973
0001e0 fa b8 1b b9 2d 15 a9 bb c8 52 20 bb 82 0b bf b8
       -0.00014850861 -0.005159995 -0.0024463404 -9.109733e-05
0001f0 f1 ae c6 39 94 67 f8 39 a3 1b 26 3b 0d 4a 3d 3a
       0.00037895844 0.00047379418 0.0025346063 0.0007220812
000200 ff 3b 71 b9 59 79 1b 3b 1e 6e f7 3a 0b 65 75 b9
       -0.00023005901 0.0023723452 0.0018877422 -0.00023402662
000210 61 9e d1 37 c8 20 e6 bb 6f 7f 88 bb 83 7f b9 b8
       2.4988492e-05 -0.007022951 -0.004165582 -8.845238e-05
000220 a8 14 99 3a 83 62 bd ba 11 d5 34 3b 14 54 d0 ba
       0.001167913 -0.0014448914 0.0027592818 -0.0015894198
000230 b7 b9 02 3a 62 97 5c 3b 26 00 2d 3b e2 5a ce b9
       0.000498678 0.0033659567 0.0026397794 -0.00039359095
000240 07 94 98 ba 73 d3 f2 bb 04 75 a5 bb 52 83 93 b8
       -0.0011640795 -0.0074104606 -0.0050493497 -7.0339665e-05
000250 d0 67 85 38 84 ec 20 3b 08 0d 70 3b da d5 31 3b
       6.361271e-05 0.0024555037 0.003662886 0.0027135522
000260 31 fa 29 b9 dd c7 41 3b 78 05 e3 3a bb 35 68 b9
       -0.000162103 0.002956859 0.0017320355 -0.0002214526
000270 6d 3b 65 ba 23 c8 d2 bb b2 9a 65 bb 50 b7 0e b9
       -0.0008744512 -0.0064325496 -0.0035034833 -0.00013610465
000280 09 b2 2f 3a d3 41 0e bb 1a a1 56 3b d1 b1 04 bb
       0.00067022495 -0.0021706715 0.0032749833 -0.0020247588
000290 b0 2b 09 bb 0d 0c 55 3b ec 3c 18 3b 26 f6 a9 b7
       -0.002093058 0.0032508404 0.0023229672 -2.0260992e-05
0002a0 8f ad 54 3a 28 7f 8d bb f6 8a 43 bb d1 64 91 b8
       0.00081130204 -0.0043181367 -0.0029837466 -6.932917e-05
0002b0 ac eb eb 39 6f 0b 14 b9 82 24 04 3b 11 d8 78 b9
       0.00044998282 -0.00014118639 0.0020163362 -0.00023731614
0002c0 58 3f 5a ba c6 de 28 3b 32 6c 6c 3a 2f 23 ec b8
       -0.0008325479 0.002576755 0.0009018808 -0.000112599104
0002d0 3f f7 82 b9 85 ea 42 3b 46 f1 0e 3b 78 07 14 39
       -0.00024979745 0.0029741835 0.002181129 0.00014117162
0002e0 07 9a 04 3a 2c 2b 02 3b 87 8d 3b bb bd 6d d2 b8
       0.0005058352 0.0019862158 -0.0028618292 -0.00010034021
0002f0 08 75 9c 3b af 1d 1c bb 3b 96 5b bb b4 b6 0e ba
       0.0047746934 -0.0023821404 -0.0033506292 -0.0005444095
000300 e7 aa 3d 3a 50 92 11 bc c6 ba cd bb 41 20 f4 b8
       0.0007235244 -0.008884981 -0.0062783686 -0.000116408344
000310 53 e0 e4 39 62 92 1c 3b f4 8b 95 3b 1c f4 94 3a
       0.00043654683 0.0023890962 0.004563803 0.0011364254
000320 36 8a 74 37 74 30 66 3b bf 94 bb 3a e0 e9 d3 b9
       1.4575713e-05 0.0035124095 0.0014311298 -0.00040419307
000330 d5 26 c8 ba 1c a0 8d bb 01 28 4a bb 03 47 1f b9
       -0.0015270362 -0.004322065 -0.0030846598 -0.00015189876
000340 f4 3a 99 3a 4d 32 45 bb c2 76 a4 3a 71 6b 1c bb
       0.0011690543 -0.0030089796 0.00125476 -0.002386775
000350 3e 24 ee ba b3 2c a6 3b 9a 72 66 3b 41 e2 4a b9
       -0.001816876 0.0050712465 0.0035163523 -0.00019348507
000360 f8 1c 2b 3b e9 47 01 bc ca d1 e2 ba a4 ec 52 b9
       0.0026109796 -0.00789068 -0.0017304954 -0.00020115316
000370 54 71 bc 3a d4 88 81 3a c6 94 26 3b 74 81 22 bb
       0.0014377036 0.0009882697 0.0025418266 -0.0024796398
000380 51 1e 59 bb 29 46 1d 3c 5d 2f 61 3a ef 18 d4 b9
       -0.0033129642 0.009599247 0.00085901265 -0.00040454368
000390 e4 66 38 ba 21 ff f6 bb 59 9f 9e bb 7e dd a1 b8
       -0.0007034375 -0.007537738 -0.004840773 -7.7183344e-05
0003a0 c4 6d 47 3a df 38 26 bb 89 60 89 3b 19 7b c3 ba
       0.0007607604 -0.0025363488 0.004192416 -0.0014914005
0003b0 83 1f 30 b9 91 c6 0d 3b 16 0f 85 3b ba eb 51 b9
       -0.00016796407 0.0021633247 0.0040606363 -0.00020019608
0003c0 86 e0 0a ba 7a 68 d6 37 1a a9 b1 3a 57 45 e2 b8
       -0.0005297739 2.5559439e-05 0.0013554425 -0.00010789435
0003d0 1f 42 e4 39 96 eb 45 ba 9d 4d 6d ba 92 37 9f ba
       0.00043536813 -0.00075500587 -0.0009052398 -0.0012147299
0003e0 2d 7d 44 b9 72 76 d1 3a ab 32 bd 3a a5 5d f0 b8
       -0.00018738648 0.0015980734 0.0014434656 -0.000114615345
0003f0 9b a6 58 ba 1e 68 51 3c 6f a5 c7 3b 99 58 26 38
       -0.0008264572 0.012781171 0.0060927193 3.9659997e-05

exp_avg_sq f4 [100, 12]
000000 3d 4f 0d 38 84 ef da 38 81 ec 2c 38 42 63 23 34
       3.3690816e-05 0.00010439663 4.1228257e-05 1.5216668e-07
000010 a3 8e 96 36 01 cc d2 38 4e 20 0f 38 73 ad 97 38
       4.4869535e-06 0.00010051579 3.4123943e-05 7.2325485e-05
000020 2e 30 98 38 13 89 b4 38 1d bc 2f 38 85 51 cc 35
       7.256899e-05 8.608601e-05 4.1898445e-05 1.522291e-06
000030 28 03 d7 38 26 3b 31 39 3c 2b df 38 ec db f2 34
       0.00010252587 0.0001690207 0.00010641522 4.5236027e-07
000040 74 ce 93 35 13 6d b2 39 3d 75 0a 39 ac eb 3b 39
       1.1012439e-06 0.00034032072 0.0001320438 0.00017921504
000050 dc d6 72 39 b9 d7 94 39 29 28 dc 38 f4 38 a1 36
       0.0002315896 0.00028389486 0.00010497898 4.804804e-06
000060 af f2 61 38 01 22 51 39 d4 72 96 38 91 13 86 34
       5.3870197e-05 0.0001994446 7.173946e-05 2.4973681e-07
000070 46 1d c8 36 dc a5 2c 39 1c 19 74 38 25 a9 f3 38
       5.9638724e-06 0.00016464986 5.819752e-05 0.000116186486
000080 ab 70 49 39 e1 e1 f7 38 7d d6 8e 38 52 be 8d 36
       0.00019210826 0.00011819951 6.811039e-05 4.2242837e-06
000090 c1 5d 3c 39 f1 21 f1 39 1c f5 88 39 41 0c 82 35
       0.00017964003 0.0004599239 0.00026122562 9.689321e-07
0000a0 c4 45 3e 36 b5 b4 41 3a d3 8e 92 39 d4 8e c4 39
       2.8352815e-06 0.0007389293 0.00027953702 0.00037490448
0000b0 29 2f f6 39 c1 ed 28 3a 4d a1 7a 39 14 5e 24 37
       0.00046955913 0.00064441195 0.00023901947 9.797066e-06
0000c0 64 87 be 38 aa 30 4a 39 98 ae 00 39 56 64 be 34
       9.0851245e-05 0.0001928235 0.00012272072 3.5463262e-07
0000d0 a1 be 55 37 a1 32 65 39 9c 84 89 38 b3 84 29 39
       1.2740174e-05 0.00021858003 6.5573695e-05 0.0001616653
0000e0 2e 06 6a 39 df 65 3d 39 db 4a c3 38 eb b3 9b 36
       0.00022318281 0.00018062395 9.3122675e-05 4.640305e-06
0000f0 99 a1 a5 38 b9 4f 4d 39 65 88 bf 38 f7 41 bd 34
       7.897913e-05 0.00019580022 9.132995e-05 3.525199e-07
000100 23 3b 8b 37 31 af 6a 39 20 76 a8 38 eb eb 5d 39
       1.6597629e-05 0.00022381243 8.032867e-05 0.00021164089
000110 59 82 fd 38 e3 e3 60 39 f4 5c e2 38 9b 17 22 36
       0.00012088259 0.00021447199 0.00010793834 2.4153621e-06
000120 c4 f7 49 38 82 14 29 39 7b 91 80 38 1f a9 6e 34
       4.8152884e-05 0.00016124736 6.1306135e-05 2.2227003e-07
000130 b7 69 df 36 17 5a 24 39 60 ff 72 38 9a 77 f3 38
       6.6582247e-06 0.0001567382 5.7935133e-05 0.000116094205
000140 89 af 35 38 ad b4 0e 39 b7 bc 86 38 61 d2 7a 35
       4.3317243e-05 0.00013609482 6.424769e-05 9.34384e-07
000150 f8 56 31 38 bc c6 50 39 88 4e 87 38 3f 91 70 34
       4.2281084e-05 0.0001991046 6.451929e-05 2.2404582e-07
000160 b4 0a d6 36 0c e1 22 39 a3 2b 44 38 a6 5b da 38
       6.378943e-06 0.0001553336 4.677068e-05 0.00010412121
000170 9a 29 0a 39 9a be f8 38 c8 cc 88 38 ea b2 44 36
       0.00013176203 0.00011861064 6.523129e-05 2.9310418e-06
000180 03 57 d4 38 da 0b 9a 39 68 0c f0 38 f4 eb d6 34
       0.00010125155 0.00029382 0.00011446403 4.0032285e-07
000190 fa c6 4b 37 69 ed 91 39 e7 50 b1 38 2d 22 3f 39
       1.2146071e-05 0.0002783344 8.455087e-05 0.00018227911
0001a0 f9 5e 71 39 0c 2c 67 39 e9 f0 ef 38 45 c0 a6 36
       0.00023018931 0.00022046285 0.00011441281 4.9695686e-06
0001b0 06 c6 94 39 67 95 63 3a 04 b3 a1 39 ea 8b ad 35
       0.000283763 0.00086816255 0.0003084169 1.2930225e-06
0001c0 4d 79 cb 37 8e 11 43 3a 76 10 a2 39 a3 1d f8 39
       2.425597e-05 0.00074412755 0.00030911312 0.00047324327
0001d0 27 63 70 39 04 11 7b 3a cb 34 99 39 f9 dd f5 35
       0.0002292512 0.00095774257 0.00029221768 1.8318525e-06
0001e0 7f 7b 42 38 e0 8b 30 39 d0 ee 7c 38 54 25 6c 34
       4.636822e-05 0.00016836775 6.0303893e-05 2.1992793e-07
0001f0 61 f8 db 36 a7 3c 17 39 a5 66 75 38 d5 07 e7 38
       6.5556237e-06 0.00014423077 5.8508147e-05 0.00011016397
000200 ed fc 93 38 d1 be 08 39 cb 28 75 38 f1 06 c7 35
       7.056617e-05 0.00013041055 5.8450543e-05 1.4828676e-06
000210 d4 c8 47 38 4d 4b 6d 39 91 f7 9a 38 50 65 88 34
       4.7632333e-05 0.00022630133 7.389405e-05 2.5405689e-07
000220 bc ec ec 36 ea 65 3d 39 6c af 5f 38 b6 2f fb 38
       7.0609076e-06 0.0001806241 5.3330717e-05 0.000119774995
000230 68 d4 1e 39 10 81 12 39 cf e3 9a 38 23 87 60 36
       0.00015147182 0.00013971725 7.385725e-05 3.345726e-06
000240 57 4e 6c 38 4e d8 95 39 a9 28 b7 38 61 61 93 34
       5.6339744e-05 0.00028580654 8.7336935e-05 2.7451736e-07
000250 8f 80 7c 36 44 50 4b 39 62 28 b0 38 0b f3 f0 38
       3.7625757e-06 0.0001938949 8.399856e-05 0.00011489362
000260 c7 ea 48 39 57 a7 1a 39 9f a3 95 38 5c e0 8d 36
       0.00019160948 0.00014748923 7.1353505e-05 4.2282463e-06
000270 32 5f 65 38 0e 30 5b 39 85 d5 a1 38 dc fb 98 34
       5.4686512e-05 0.0002090337 7.716849e-05 2.8495458e-07
000280 10 93 18 37 94 68 3e 39 01 ba 86 38 ba 33 0f 39
       9.094147e-06 0.0001815877 6.424264e-05 0.00013656812
000290 8e d1 2c 39 f3 dc 17 39 f0 c1 a2 38 50 04 7a 36
       0.00016481263 0.00014482792 7.760886e-05 3.7255413e-06
0002a0 f4 45 6c 38 ed 45 21 39 ba 16 7f 38 bf 3c 70 34
       5.6331934e-05 0.00015380206 6.0817903e-05 2.2373841e-07
0002b0 9b 47 d0 36 a4 a8 1a 39 90 25 3f 38 37 95 cc 38
       6.207219e-06 0.00014749408 4.557293e-05 9.7552715e-05
0002c0 df a8 06 39 ba 7f f6 38 d7 c8 7b 38 14 66 36 36
       0.00012842145 0.00011753985 6.003011e-05 2.717953e-06
0002d0 52 b1 09 39 e1 d0 48 39 66 22 06 39 12 5f 0f 35
       0.00013131395 0.000191513 0.0001279205 5.3409997e-07
0002e0 19 e9 e1 35 df 3e c9 39 40 e8 32 39 4f 00 63 39
       1.6831647e-06 0.0003838455 0.00017061923 0.00021648522
0002f0 18 28 b6 39 16 f3 af 39 4f 34 0b 39 44 3d fe 36
       0.00034743617 0.00033559714 0.0001327556 7.576922e-06
000300 b5 a9 c4 38 9d 6d a1 39 2b d2 f4 38 3c ab d1 34
       9.377619e-05 0.0003078998 0.000116739735 3.9053873e-07
000310 31 fa e0 36 1c f8 8b 39 3c d3 c0 38 63 7f 18 39
       6.7048463e-06 0.00026697002 9.194619e-05 0.00014543305
000320 63 c3 42 39 f8 2f 6b 39 e9 71 d4 38 da f7 7c 36
       0.00018574069 0.00022429216 0.00010130165 3.7695195e-06
000330 0a f8 8d 38 da ad 3d 39 ac 71 9a 38 f2 18 8e 34
       6.769605e-05 0.0001808921 7.364465e-05 2.646771e-07
000340 a0 b6 fc 36 d0 ab 37 39 dc bc 6a 38 a0 b2 f9 38
       7.5314456e-06 0.00017516245 5.5965837e-05 0.00011906517
000350 e6 cb 24 39 36 a8 17 39 1c 95 97 38 c4 8b 57 36
       0.00015716217 0.00014463146 7.228015e-05 3.211885e-06
000360 b1 3f bb 39 41 b8 82 3a c5 67 b6 39 9e 8f cb 35
       0.00035714873 0.0009973125 0.0003479106 1.5166477e-06
000370 1d a1 36 38 a4 3f 72 3a 90 a1 c0 39 57 60 39 3a
       4.354223e-05 0.00092410506 0.00036741467 0.00070715457
000380 7c 56 87 39 2a ec 8a 3a 5b 0d d1 39 f6 9f 62 36
       0.00025813642 0.0010598947 0.00039873537 3.3769734e-06
000390 96 3e 01 39 e9 6d 00 3a 5d bd 3b 39 b6 c7 21 35
       0.00012325714 0.00048991904 0.00017904253 6.026779e-07
0003a0 84 83 91 37 6f b7 dd 39 98 80 14 39 31 d3 98 39
       1.7346589e-05 0.00042289073 0.00014162285 0.0002914905
0003b0 fb 4c b4 39 01 e8 ab 39 63 b8 34 39 99 93 fe 36
       0.0003438963 0.00032788518 0.00017234827 7.5869725e-06
0003c0 9b 88 34 38 91 d3 7d 38 61 bd 19 38 74 51 47 34
       4.3042568e-05 6.0516937e-05 3.6654415e-05 1.8562952e-07
0003d0 48 1d 26 37 63 2c e7 38 28 96 2a 38 9f 79 d0 38
       9.901189e-06 0.00011023206 4.0671002e-05 9.9408666e-05
0003e0 56 2b 50 38 9b 53 eb 38 84 52 6b 38 9d 21 6f 35
       4.9631424e-05 0.00011221246 5.6105215e-05 8.908335e-07
0003f0 ee d9 b2 39 68 30 ff 3a f9 e0 d5 39 a5 e6 d0 35
       0.00034113176 0.0019469382 0.00040794144 1.5564334e-06
