runs/perovskite_multiscale_dataset_runs/ae2_PCE_predictor_enc_l_18_l1_1em2_tanh_predictor_0_1_100_relu_decoder_linear_seed_0_lr_1em3_bs_100_e_1500_pass_latents_ae1_fold_0_ae2_fold_4_xavier_normal_gain_10/checkpoints/epoch=1393-total_val_loss=2.31.ckpt (torch, 54674 bytes, 33 tensors)

submodules.encoder.0.weight f4 [18, 23]
000000 55 b3 40 3e 7a c8 47 3a e9 4e 11 bb 10 69 0d 3b
       0.1881841 0.0007621121 -0.0022172278 0.0021577515
000010 55 e4 49 3b 04 ef db ba 1b 12 26 bb 82 56 a1 bc
       0.0030806263 -0.0016779606 -0.0025340382 -0.01969457
000020 b1 b1 0a 3b 27 2e 2e 39 28 ab 2e 3c f0 ba df ba
       0.0021163041 0.00016611126 0.010660924 -0.0017069262
000030 1f fc cc bb e6 65 64 3b b9 6b aa 39 f2 c0 f1 3a
       -0.006255641 0.0034850775 0.00032505186 0.0018444343
000040 af 3f 82 b9 45 f0 a0 bb 18 a6 c9 3d 54 7f af bd
       -0.0002484298 -0.004911455 0.09846133 -0.08569208
000050 e8 27 5c 3e 30 e3 56 3a 34 e8 ad ba 05 28 53 3d
       0.21499598 0.0008197306 -0.0013268054 0.051551837
000060 25 7a 0e 3c 94 a3 73 bb 58 af d4 3c b2 3c 20 3b
       0.008696114 -0.0037176358 0.025962517 0.002445024
000070 27 dd 42 bd 30 e9 81 bb 64 09 52 3d 63 7f f3 3c
       -0.04757419 -0.0039645657 0.051278487 0.029723829
000080 ed b8 20 b9 60 f0 34 3c 43 cd c0 ba 1b 72 9f bb
       -0.0001532768 0.011043638 -0.001470961 -0.0048658974
000090 59 96 be ba ed ac 05 3d 29 a2 95 39 41 aa a7 bb
       -0.0014540657 0.032635618 0.00028540313 -0.0051167314
0000a0 ea bc de ba 38 be 8f 3d 05 87 b1 ba 85 10 09 3b
       -0.0016993557 0.07018703 -0.0013544267 0.0020914387
0000b0 3e a6 62 3c 98 0b b3 bc cb 34 e8 3d 16 46 d1 be
       0.013833581 -0.021856114 0.113381945 -0.40873784
0000c0 f2 32 4f bd 06 7f 47 bd ac 08 a7 bb cc 1d 4c ba
       -0.050585695 -0.048705123 -0.0050974693 -0.00077864225
0000d0 a4 f6 d1 ba 43 67 90 3d 17 2b 5f 3d fc b8 8e bc
       -0.0016018939 0.070509456 0.054484453 -0.017422192
0000e0 e0 0f 5c bd 10 ce 88 bc 76 c1 33 bd ec ec 08 3c
       -0.053726077 -0.01669982 -0.04388567 0.008357268
0000f0 a0 0e ad b7 a2 17 0c 3b 8f 54 87 bb 88 1d 9c bb
       -2.0630017e-05 0.002137639 -0.004129953 -0.0047642626
000100 91 8b c2 3e 1e ff 49 ba db 6c ee be fe 8f 19 bc
       0.37997106 -0.0007705557 -0.46567425 -0.009372709
000110 c3 ea ab 3a 74 f1 05 bd c6 27 f1 39 18 c4 f4 b8
       0.0013116229 -0.03270097 0.00045996736 -0.00011671352
000120 87 4c b0 ba a5 71 44 bb ed 9c 0e be c9 7c aa bd
       -0.0013450541 -0.0029974964 -0.1392705 -0.08324582
000130 d4 53 2f 3b 2f 43 34 bc 1a 72 0d 3b 89 20 ec bd
       0.0026752846 -0.011002346 0.0021582902 -0.11529643
000140 09 c9 a5 3b e1 87 60 be d3 90 b4 bd 86 3a 13 3b
       0.0050593656 -0.21926834 -0.088166855 0.0022465303
000150 39 76 c4 39 e9 5a 28 3a 70 d7 85 3a fc 30 0d ba
       0.00037472116 0.0006422238 0.00102113 -0.00053860224
000160 32 45 d8 bd cf 77 da ba 3b f2 a3 3b 95 35 aa 3e
       -0.10560073 -0.0016667786 0.0050032414 0.33244005
000170 2a 59 c1 bd 2e 77 ad bd 6c ba 49 39 f7 d0 a5 3d
       -0.09440835 -0.08469997 0.00019238301 0.080964975
000180 2e 51 08 39 61 52 9a bb 56 aa e0 3c eb d0 87 be
       0.00013000212 -0.0047095274 0.027424973 -0.2652658
000190 57 4f c6 3a c1 5a f3 ba 8d 62 33 39 b2 2d e9 ba
       0.0015129846 -0.0018566475 0.00017107483 -0.0017790108
0001a0 c7 e9 0b ba 14 75 56 3c 44 f8 bb 3c 4e 81 2e bc
       -0.0005337265 0.013089437 0.02294553 -0.010650946
0001b0 74 af 6a ba 00 08 92 ba 49 2b 5e b9 de 00 c3 3a
       -0.0008952536 -0.00111413 -0.00021187695 0.0014877578
0001c0 03 bc 0c 3b 65 17 b9 3b fa 5d 4c bd 58 e7 55 3a
       0.0021474368 0.005648541 -0.04989431 0.0008159778
0001d0 d0 b5 33 3a 67 96 c4 bc 5b bc 1d 3c 2b b6 84 3a
       0.00068554 -0.023997499 0.009627427 0.0010125091
0001e0 6d 46 26 bc 4b a2 a1 3d 2f da 60 bd 0d 1a 34 bb
       -0.010148627 0.07892283 -0.054895576 -0.0027481348
0001f0 b5 c3 34 3b ad 26 17 3e 18 55 51 3b 76 e3 2e bc
       0.002758247 0.14760847 0.003194159 -0.010674348
000200 df e5 8a bb 95 eb 3e 3a 0c 77 00 bc e6 01 eb b9
       -0.0042388286 0.0007283029 -0.007840883 -0.00044824107
000210 a3 75 b0 3d 14 7f 15 3a ec 5e 6b bb f4 c0 1b be
       0.086161874 0.0005702835 -0.0035914732 -0.15210325
000220 5e ab 93 3c c2 cd 88 3b ba cd 3f ba 32 0c c4 b9
       0.01802605 0.004174919 -0.00073167274 -0.0003739312
000230 87 25 2a bd 15 6b c9 3d 54 19 79 3b 3a e6 d0 bc
       -0.041539695 0.098348774 0.0038009482 -0.025500406
000240 3c c4 d5 bd fc ae 71 3b 73 62 42 bd 74 cf 82 3b
       -0.10437819 0.003687798 -0.04745717 0.0039920155
000250 10 94 1b bb 50 62 98 3b 29 73 88 3c 5f 7e 0c bc
       -0.0023739375 0.0046503916 0.016656475 -0.008575051
000260 fe 07 9f bb 23 a6 1d 3b 52 2b ad b9 02 f1 06 be
       -0.0048532477 0.0024055324 -0.00033029407 -0.13177875
000270 b4 c5 0e 3b c0 dc cd ba ea 16 3c bb 0d c5 9c 3d
       0.002178532 -0.0015706047 -0.0028700181 0.07654772
000280 bd bc 42 bc 5c 9e 15 bb ed d4 d9 bc eb 7e 46 3c
       -0.011885819 -0.0022829985 -0.026590789 0.012115221
000290 0b a3 5e 3a 0b 1e 00 3a da dc 09 39 38 06 10 3b
       0.0008492923 0.0004887289 0.00013147612 0.0021976363
0002a0 21 3f c8 ba 22 4c bd 3d ef d9 1c bb 56 13 a6 3a
       -0.0015277603 0.09243037 -0.002393361 0.0012670557
0002b0 24 7b a7 bb e4 12 e4 3d ce 1e 15 be a2 32 1f bb
       -0.005111115 0.111364156 -0.14562532 -0.0024291654
0002c0 33 c9 ca 3a 64 d2 6f bb 94 65 02 3c 11 72 ee 3a
       0.0015471339 -0.0036593908 0.007958788 0.0018191953
0002d0 eb 6e ba b9 6c fc 3d 3a 68 d9 96 bb 2e ed af 3c
       -0.00035559325 0.00072473916 -0.0046035536 0.0214754
0002e0 36 40 28 3b 22 62 61 3c dc 19 38 3a 98 a2 48 ba
       0.0025673038 0.013756307 0.00070228963 -0.0007653623
0002f0 73 b0 84 3c f7 f0 be 3b 1e 43 eb ba 03 eb ea 3a
       0.016197419 0.005827065 -0.001794908 0.0017922822
000300 aa ff 98 3a ae ca 96 3c 18 20 5e 3b 00 0f 30 3b
       0.0011672874 0.018407192 0.003389364 0.002686441
000310 a6 2f 87 bd a2 e2 b3 ba be 77 85 3d 80 dc 44 3a
       -0.06600885 -0.0013724158 0.0651698 0.00075096637
000320 f1 82 9c 3d 64 1d c6 3a a9 5f e8 bd 6e 0a 1c 3e
       0.076421626 0.001511496 -0.11346371 0.15238354
000330 b4 db 98 bc a9 5d 44 bc a6 fe 88 3d 84 eb 2a bb
       -0.01865945 -0.011985221 0.06689195 -0.002608032
000340 f9 f6 32 bb 13 d7 23 3b 61 30 97 ba 35 c7 fe 39
       -0.0027307852 0.002500002 -0.0011534804 0.00048595076
000350 9e dd 76 3d 25 1f e2 3c 78 9c 83 39 23 79 3d bb
       0.060269944 0.027602741 0.00025102845 -0.0028911314
000360 fe a6 15 3b d2 f1 49 bb ad 96 1b 3b cf a8 23 3d
       0.002283513 -0.0030814302 0.0023740933 0.03995591
000370 a5 8f b5 bb 48 05 9b 3e 40 79 8a 3a 90 7c 2c 3d
       -0.0055408054 0.30277467 0.00105647 0.04211098
000380 ef 50 4f be 55 f7 2f bb cc 7f 75 ba 9b db 5c ba
       -0.20245717 -0.0026850302 -0.00093650515 -0.0008425058
000390 88 29 b0 38 e0 83 3a ba aa eb 09 3b 6a 2c 8f 3a
       8.40007e-05 -0.0007114988 0.0021045008 0.0010923271
0003a0 64 81 50 bb 14 76 13 3a 09 e3 e2 3c b2 5e 84 ba
       -0.0031815404 0.00056252 0.02769615 -0.0010099022
0003b0 a7 db 2d bb 00 ec 9c 3b 35 65 a9 3a 9e 2a 8f 3d
       -0.0026528628 0.0047888756 0.0012923839 0.069905505
0003c0 36 d9 34 3a 48 6b d0 b9 c2 60 ed 3b fd 01 38 ba
       0.0006898822 -0.00039752782 0.0072442004 -0.0007019339
0003d0 9c 55 ae bb 86 c8 e4 3a 94 63 47 be 9d 33 be 3a
       -0.005320264 0.001745478 -0.1947158 0.0014511232
0003e0 f4 3f eb bd 87 2c d2 ba e3 08 e6 b9 33 c1 06 bb
       -0.114868075 -0.0016034999 -0.0004387564 -0.0020561933
0003f0 c4 23 4a bd cd db d1 bb e7 69 ab bb 76 54 00 3e
       -0.049350515 -0.006404376 -0.0052311304 0.1253222

submodules.encoder.0.bias f4 [18]
000000 f3 ee 34 3d 03 d8 44 3c c9 76 a5 be 3a 66 56 bd
       0.044173192 0.012014392 -0.32317188 -0.052343585
000010 a8 35 ac be c4 9c 67 3e 39 ec 42 3e 98 8d 27 3e
       -0.33634686 0.22618395 0.19035424 0.16362607
000020 a6 ce d2 bd 05 12 c7 bd 53 9f 2b be 8b 9b be 3d
       -0.10293321 -0.09720234 -0.16759996 0.09307011
000030 f9 41 d3 bb c3 47 a5 bc 5f 8c d1 3c 3a e2 8e bd
       -0.0064470735 -0.02017582 0.02557963 -0.06976743
000040 61 7b 8d bb 64 f1 1b be
       -0.0043176864 -0.15228802

submodules.PCE_pred.0.weight f4 [100, 18]
000000 db 36 f2 3e 55 9a e2 3f 4f 47 0a bf 14 ea 03 c0
       0.47307476 1.7703348 -0.5401506 -2.061162
000010 01 a7 79 bd 22 58 70 bf 58 86 49 bf ec 8c c9 be
       -0.060950283 -0.9388448 -0.7872062 -0.39365327
000020 e2 1a 03 40 e5 db c5 3d af 79 37 be 58 13 89 3f
       2.0485158 0.09661082 -0.17917512 1.0709028
000030 70 06 fc bd d0 63 27 3e 03 94 d7 3e e1 52 31 bf
       -0.12305915 0.16346669 0.4210511 -0.6926709
000040 c0 28 10 3f 4b da 8f 3f f6 c9 89 3f 2e 74 d5 bf
       0.5631218 1.1238493 1.0764759 -1.667608
000050 89 13 57 3f d3 9c 05 c0 43 04 e6 3e 01 37 e3 bf
       0.84014183 -2.0876968 0.44925126 -1.7751161
000060 d9 c0 46 be 32 b7 30 bf cc 7b 1e 3f 69 20 00 bf
       -0.19409503 -0.69029534 0.6190765 -0.50049454
000070 f5 77 d8 bf b7 c5 0b 3f be f5 95 c0 12 92 b2 be
       -1.6911608 0.54598564 -4.686248 -0.34877068
000080 09 43 45 3f be 6c a6 bf 5c fa 96 be b0 28 fe bf
       0.7705541 -1.3001935 -0.29487884 -1.9856167
000090 6a 2f 48 3f 90 14 2e c0 d3 52 f3 be 50 6e bd bf
       0.7819735 -2.720005 -0.47524127 -1.479929
0000a0 89 af 20 c0 76 3b b7 bf 98 24 e2 3d 12 68 d7 bf
       -2.5107138 -1.4315021 0.11042136 -1.6828635
0000b0 fe ed f6 3f 75 60 fb 3d cf cc cf 3f 29 10 29 bf
       1.929138 0.12274257 1.6234378 -0.66040283
0000c0 d3 02 14 bf db 28 5b 3f eb 29 61 bf 27 ec ef 3f
       -0.5781681 0.85609215 -0.87954587 1.8743943
0000d0 99 b0 0b bf 5b 2e c9 3d 51 aa e3 3f 13 c0 51 bf
       -0.5456634 0.09823295 1.7786351 -0.81933707
0000e0 cc 30 3c 3f b9 a1 de bf 1c ad 65 3e dc f9 82 bf
       0.7351196 -1.7393104 0.22429317 -1.0232501
0000f0 11 64 e7 3f d8 6e 8a 3e 71 d1 1e 40 75 fa 1d 3e
       1.8077413 0.27037692 2.4815333 0.15427573
000100 d8 67 48 40 90 ce bc 3f d4 2a ae bd 36 e4 51 3e
       3.1313381 1.4750538 -0.085042626 0.20497212
000110 ae 7f 03 bf 9c fb e8 3f 09 ae 65 be af 57 2b bf
       -0.513667 1.8201785 -0.2242967 -0.6693067
000120 a4 bb 0d 40 68 e5 18 bf b0 e5 c9 bf aa 4c 5f bf
       2.2145777 -0.59725046 -1.577322 -0.87226355
000130 da b8 6a bf a3 82 2c 40 a5 42 48 bf d6 b5 11 3e
       -0.9168831 2.6954734 -0.7822669 0.14229521
000140 d5 26 e9 bf 7c 5e 09 be d1 f1 d8 3e 73 f0 39 40
       -1.8214976 -0.13414949 0.4237199 2.9053009
000150 a9 19 2b 3f cd 43 e4 be c3 b5 12 bf be c8 93 bf
       0.6683603 -0.44582978 -0.57308596 -1.1545637
000160 92 10 8f 3e 13 a7 c0 bf 05 14 66 be d4 93 30 bf
       0.2794233 -1.5050987 -0.22468574 -0.6897557
000170 e2 cb e0 bf 6e 8a a9 bc 2f ec 81 3f 39 d9 66 bf
       -1.756222 -0.020695891 1.0150203 -0.90175205
000180 6f b1 39 bf ce c6 46 3f b3 9e d6 3c 2b 20 50 3f
       -0.7253637 0.776471 0.02619872 0.81299084
000190 fc 85 6b 3e f7 e2 01 40 35 47 29 c0 93 46 c4 bf
       0.2300033 2.0294778 -2.6449711 -1.5334038
0001a0 48 ae 19 bf 5b b4 0b c0 2c de 2f bf 50 b8 eb bf
       -0.6003156 -2.182883 -0.6869838 -1.8415623
0001b0 43 0e 9d be 34 e0 36 3f 05 c8 8d be 42 6c 05 40
       -0.30674943 0.71435857 -0.27691665 2.0847325
0001c0 4d d9 9e 3f 11 7d 00 40 e9 6d 41 bf c1 90 f7 bf
       1.2410065 2.0076334 -0.75558335 -1.934105
0001d0 b8 63 4f 3f f9 9d b9 be da 81 1c 40 e2 7c e0 3e
       0.81011534 -0.36253336 2.4454255 0.43845278
0001e0 02 07 0b 3f a3 75 0b 3e 87 5b cf bf 4e 0a 22 be
       0.5430757 0.13619094 -1.6199807 -0.15824243
0001f0 1d 82 01 40 c8 01 05 c0 f6 97 41 bf ad 0b dc bf
       2.0235665 -2.0782337 -0.756225 -1.7191063
000200 1f 6e e7 3f ea bf 49 bf 84 c4 8c be eb 7b e8 be
       1.8080481 -0.7880846 -0.2749368 -0.45407042
000210 65 f1 d7 be 7d ea ca 3e 67 aa 93 3f 7f 3d c0 be
       -0.42176357 0.39632025 1.1536378 -0.37546918
000220 1c a7 b2 3e 30 99 25 3f 9c 6d d7 3d 07 2e de 3f
       0.3489312 0.6468687 0.10518953 1.7357796
000230 b7 6d 37 bf 20 7e f5 bf 06 3a f4 3e 10 42 26 3e
       -0.71651787 -1.9179115 0.47700518 0.16236138
000240 6b 80 3d 3f ec 43 63 40 a4 8e 0c 3e 97 40 6f bf
       0.74024075 3.5510206 0.13726288 -0.9345793
000250 50 ee 98 3f e3 3a 2e bf ee c2 5e bf 18 e2 e1 3c
       1.1947727 -0.68058604 -0.8701619 0.02757363
000260 54 7c 58 bf db 9f ec 3e 6b 36 4a 3f 7c f3 34 c0
       -0.8456471 0.4621571 0.78989285 -2.827361
000270 07 8b 31 be c3 13 d7 bf f1 f8 03 c0 26 3f d9 be
       -0.17338191 -1.6802906 -2.0620692 -0.4243099
000280 8a b2 b9 be a6 e9 a6 3e 77 99 ac 3d c3 1b 85 3f
       -0.36269027 0.32600135 0.084277086 1.0399097
000290 50 52 f9 bd 64 12 23 3f 33 e5 33 3f 4f 0b 7f bf
       -0.12173903 0.63699937 0.70271605 -0.9962663
0002a0 a5 10 dd 3e 52 46 cc bf f0 68 e9 3c b1 25 1a 40
       0.4317676 -1.595896 0.02849242 2.4085505
0002b0 32 41 4e bf a0 e6 c8 3f 38 26 44 3f ec 0a de bf
       -0.8056823 1.5695381 0.7662082 -1.7347083
0002c0 93 c1 b8 bf b4 cf 3d bd b9 1a 99 3f 6a 81 af bf
       -1.4434074 -0.04634066 1.196128 -1.3711369
0002d0 d0 f0 57 bf 50 62 7a bf 4c 36 08 3f e2 af 01 40
       -0.84351826 -0.9780626 0.5320785 2.02636
0002e0 6b ed 15 bf 9f 78 7f 3f ad 65 aa 3f b5 cd 21 be
       -0.58565396 0.9979343 1.3312279 -0.15801127
0002f0 7d 41 91 bf 52 a1 fa 3e 5c aa 7e bf 2a e3 2e bf
       -1.134811 0.48951203 -0.994787 -0.68315375
000300 aa 03 91 bf b5 a1 d0 3f 8b 31 92 3d e2 0c 6d 3f
       -1.1329243 1.6299349 0.07138356 0.9259778
000310 7d 75 0d be 66 2f 6c bf 59 78 1b bf 23 32 13 bf
       -0.1381435 -0.92259824 -0.6073051 -0.5749838
000320 13 58 bf 3f 6c 43 b4 3f cb be 21 c0 13 cc 46 bf
       1.4948753 1.4083076 -2.52727 -0.7765514
000330 b9 a7 e0 3f 68 e5 2b c0 cf 04 20 bf 51 cf ca bf
       1.7551185 -2.6858768 -0.6250734 -1.5844518
000340 46 d3 be be 0f 38 0c c0 b8 39 8d 3e 35 0e 31 be
       -0.37270564 -2.1909215 0.27583098 -0.17290576
000350 3e 72 58 3f df 20 b3 bf cf fb e0 3e b0 22 ca bf
       0.8454932 -1.3994406 0.43942115 -1.5791836
000360 69 1b ef 3f 4b 32 c8 bf 60 5f 22 c0 12 97 f8 bd
       1.868024 -1.5640348 -2.5370712 -0.121381894
000370 a8 c1 ab bf c9 13 94 3f 65 a2 05 bf 3a 5a 8b bf
       -1.3418474 1.1568538 -0.5220092 -1.088691
000380 78 7e ac bf 5b cd ab be d9 95 1b c0 c6 f5 e9 bd
       -1.3476095 -0.3355511 -2.431021 -0.11423831
000390 02 4d cd 3f 35 74 17 40 78 e4 93 bf 76 94 22 bf
       1.6039126 2.3664677 -1.1554098 -0.63507783
0003a0 20 9c 6f be 46 63 bd 3e 50 fc 4c c0 62 c2 b5 3f
       -0.233994 0.36989802 -3.2029 1.4199946
0003b0 ee 0c ea bf 6e 9b 6c 3f 70 31 32 3f 46 64 b1 be
       -1.8285196 0.92424667 0.69606686 -0.34646815
0003c0 a7 f8 04 3f 3d 05 dc be 6c d7 aa bf e0 14 ab be
       0.51941913 -0.42972746 -1.3346992 -0.33414364
0003d0 f5 4f e6 3e d5 ea 91 bf 7b 71 fb bf eb 89 6d 3f
       0.44982877 -1.139979 -1.9644006 0.9278857
0003e0 a1 8c 9d 3f 70 6f 25 40 a1 d6 fa be 22 a3 0b bf
       1.2308542 2.5849266 -0.48991874 -0.54545796
0003f0 c0 88 01 40 18 27 13 3f 47 43 78 3f 45 3f 74 be
       2.0239716 0.5748153 0.9697766 -0.2385226

submodules.PCE_pred.0.bias f4 [100]
000000 6b 67 4d be db d1 1c bf 70 fd 44 bf a7 c4 42 bf
       -0.20058982 -0.61257714 -0.76949215 -0.7608132
000010 ee 06 29 3f b3 d9 e8 3d 3f f3 34 bf 37 e0 3e bf
       0.660262 0.11369648 -0.70683664 -0.74560875
000020 e9 8c b3 be f4 37 09 bf 4f dc 07 3c d6 cc 92 3e
       -0.35068443 -0.53601 0.008292272 0.28671902
000030 33 dd 8a 3e a7 ab 52 3e 57 f8 4c bd 15 7f 49 3e
       0.27121887 0.20573293 -0.050041523 0.19677384
000040 a0 60 fe be 19 f2 26 3e d9 dd 93 3e c1 55 3e bf
       -0.49683094 0.1630329 0.28880194 -0.743496
000050 6b 77 80 3d 8d 5e 14 bf 48 51 25 3f 62 f1 f7 bd
       0.06272777 -0.57956773 0.6457715 -0.12106587
000060 34 fe db be 08 f9 c1 bd b5 90 98 3e 05 2f 4f 3e
       -0.4296738 -0.09471327 0.29797903 0.2023278
000070 d6 5c b6 3e eb 4c 67 bd 4f 2b 97 3d f2 8e 25 3f
       0.35617703 -0.05646984 0.07381307 0.6467124
000080 45 17 75 be 81 18 f8 be b8 02 87 3e 54 55 b0 3e
       -0.23934658 -0.48456195 0.26369262 0.344401
000090 f6 6c e9 3d ce f2 46 bd 81 4e ba 3c 4f 0d 05 bf
       0.11397736 -0.0485714 0.022742512 -0.5197343
0000a0 d7 c2 d1 3e 22 1a 20 be 0d fe 5b 3d 9b 7c 1c bf
       0.40968964 -0.15634969 0.05370908 -0.6112763
0000b0 16 41 62 3e f7 26 c6 3e 50 30 da be 4d 8b ca 3d
       0.22095141 0.38701603 -0.42614985 0.09889851
0000c0 03 94 99 3e 24 a3 f5 be ee af 20 bf ac 04 a3 3d
       0.29995736 -0.4797603 -0.6276845 0.079598755
0000d0 14 8e 88 be b6 0e 8d 3e c3 1a 0c 3f ac a5 24 3e
       -0.26670897 0.27550286 0.54728335 0.16078824
0000e0 7c a0 15 3e ee 98 61 3e eb 84 d3 be 67 87 07 3e
       0.14612001 0.22030994 -0.41312346 0.13235246
0000f0 55 28 65 3d 62 bf 5c 3f d8 48 12 3f 70 7d 96 be
       0.055946667 0.86229527 0.571424 -0.29392576
000100 b0 90 1c bf e2 53 12 3f 58 44 0f bf b3 00 56 bf
       -0.61158276 0.57159245 -0.5596366 -0.83594817
000110 0b d4 35 bf d6 df 98 bb f9 17 9f 3e 12 34 0c bc
       -0.71026677 -0.004665355 0.31072977 -0.008557336
000120 74 14 41 bf 70 f7 22 bf 8a 2f 22 3e 25 7d 94 3e
       -0.75421834 -0.6365881 0.15838447 0.29001728
000130 f7 4d cc bd 5b d8 e8 bb b4 d6 0f bf d2 ed 02 3f
       -0.09975808 -0.0071058697 -0.56186986 0.51144135
000140 3e 03 d9 bd 77 83 cb be b6 6a fe be 42 43 13 bf
       -0.105963215 -0.39748737 -0.4969079 -0.575245
000150 13 5c fc be a6 af da bd b7 0b 65 be dc f9 31 be
       -0.49288997 -0.106780335 -0.2236775 -0.1738047
000160 e4 dc 97 bb 64 9f 34 3f 24 5e 8f be 42 1e 23 bf
       -0.0046344865 0.7055571 -0.2800151 -0.63718045
000170 7d 10 1b bf 36 7e bf be 25 08 0a bf 45 8b fe be
       -0.60572034 -0.3740098 -0.5391868 -0.4971563
000180 86 12 4c bf a9 23 90 bc b3 a9 a2 3e a6 fa f0 be
       -0.79715765 -0.01759513 0.31770095 -0.4706623

submodules.PCE_pred.3.weight f4 [1, 100]
000000 7f b0 bb 3f 9e 9e a6 bf f6 b3 10 3e d5 32 83 be
       1.4663237 -1.3017156 0.1413115 -0.2562472
000010 fb b3 09 3e 49 56 88 3e 4a ea 7c bf 13 48 39 bf
       0.13447563 0.2662833 -0.98794997 -0.723756
000020 2c 12 0c bf 4f 11 94 be f9 d6 9c 3e e5 bb 6a 3e
       -0.5471523 -0.28919455 0.3063276 0.22923239
000030 cc 11 29 3e 8a 83 0d 3f 31 34 8f 3e 23 70 a9 3e
       0.16510695 0.5527884 0.27969506 0.33093366
000040 03 ae a4 bf 5a ff 6c 3f 25 5f ce 3e 19 1a 8d bf
       -1.2865604 0.92577136 0.40306965 -1.1023589
000050 b2 a8 41 3f 4e 13 30 c0 ce cd 53 3e 11 6c 40 40
       0.75648034 -2.7511783 0.20683977 3.0065958
000060 1c 23 3c bf f1 1c 08 3f 22 eb 77 3f a6 2e 2d 3f
       -0.7349107 0.5316916 0.9684316 0.67649305
000070 53 0b 83 3e 0e d6 0c 3f 39 d5 36 3e 62 57 3c 3e
       0.25594577 0.5501412 0.17854775 0.18392709
000080 12 60 b6 bf cd 69 d6 be 72 58 bf 3e 40 96 76 3e
       -1.4248068 -0.41877595 0.37372166 0.24080753
000090 87 ca ee 3e 5b 97 f9 3e c3 ef 78 3e 45 39 e9 be
       0.4663889 0.48748288 0.24310212 -0.45551506
0000a0 36 8e f0 3e a9 07 0f c0 8f db d3 3e 1f fc 8f bf
       0.46983498 -2.2348425 0.41378447 -1.1248816
0000b0 3e 48 83 3e f2 57 b3 3e dd 83 10 c0 0b 58 af 3e
       0.25641054 0.35028034 -2.2580483 0.3424686
0000c0 66 41 4a 3e 69 8e a8 bf b4 a0 d5 bf 8a 0e 03 3f
       0.1975151 -1.316846 -1.6689668 0.5119406
0000d0 19 1c 0d 3f 8c c4 92 3e 10 50 9c 3e 3d 7e ad 3e
       0.55121 0.28665578 0.30529833 0.33885375
0000e0 ca dc 24 3e 87 be 4c 3e fb 32 4d c0 5f aa 34 3f
       0.1609985 0.19994555 -3.2062366 0.70572466
0000f0 1a 1c a4 3f e6 4a 32 3e 9f af a6 3e 48 ad cc bf
       1.2821076 0.17411384 0.32555863 -1.5990381
000100 a6 56 98 bf 8c ec 38 3e 20 46 82 bf 6f 41 2a bf
       -1.1901443 0.18058985 -1.017765 -0.66506094
000110 54 88 6f be 73 ba c4 3e b7 f3 51 3e 94 f3 6b 3f
       -0.23391849 0.384235 0.20503126 0.92168546
000120 28 24 29 bf 62 d0 d4 be c6 32 8f 3f 8c a3 78 3e
       -0.66070795 -0.41565233 1.118737 0.24281138
000130 f6 72 2c 3e 74 1b 36 3f 57 02 dc bf 14 90 7f 3e
       0.16840729 0.7113564 -1.7188214 0.24957305
000140 b1 ab 51 3f e6 8a 4d 3e 6f d6 a6 bf 2d cd fa bf
       0.81902605 0.20072517 -1.303419 -1.9593865
000150 c8 63 36 c0 9f df 7d 3e 7e 1f 97 bf a5 b5 fb be
       -2.8498402 0.24792336 -1.1806486 -0.4916202
000160 2a 83 a1 3e 95 86 2b 3e 28 ef bc bf f1 f1 01 c0
       0.31545383 0.16750558 -1.4760485 -2.030392
000170 79 c0 03 bf bd 39 b8 bf ff 87 a9 bf 6d 44 2c c0
       -0.51465565 -1.439262 -1.3244628 -2.6916764
000180 68 04 53 bf 1f 0f 67 3e 2c 76 57 3e 4c e5 cf be
       -0.824286 0.22564362 0.21041173 -0.40604627

submodules.latents_pred.0.weight f4 [12, 18]
000000 e8 b6 b0 3f a7 73 95 3f 1f 05 8d bd b6 4b d1 be
       1.3805819 1.1675919 -0.068857424 -0.40878075
000010 07 9f ca be 47 bf 9c 3e de 83 43 3f 6c fc 21 bf
       -0.39574453 0.30614683 0.7637309 -0.6327579
000020 e6 8a 1a 3f ee f1 e9 be 27 f2 82 3e a7 f7 58 bf
       0.6036819 -0.4569239 0.25575373 -0.8475289
000030 e3 ea c3 bf c2 12 2a bf 47 dd 9c 3d 70 40 4c 3f
       -1.5306057 -0.6643487 0.07659393 0.79785824
000040 62 f2 84 3f 79 4a 18 bf 1a 8d 6d 3f f9 6a 89 3f
       1.0386469 -0.59488636 0.9279343 1.073577
000050 2b 93 a3 bd 2a 85 ab be 5f 27 38 bf d2 d7 72 3e
       -0.079870544 -0.33500034 -0.71935076 0.23715141
000060 f8 d3 bc 3e ab 06 e5 be 22 06 c7 3e 8c 49 8b be
       0.3688047 -0.4473165 0.38871866 -0.2720455
000070 2c 21 b0 bc 7b 8d 12 bf 90 cf 70 bf 10 ee d7 be
       -0.021500193 -0.5724713 -0.94066715 -0.42173815
000080 e4 18 77 be ce 1c 30 3f a4 c9 5b 3f 3e 67 df be
       -0.24130589 0.6879395 0.85854554 -0.43633455
000090 f2 62 bf bf 0e 5c 89 bf f5 8d 5e 3b 74 5b 9b 3e
       -1.4952071 -1.0731218 0.0033959125 0.3034321
0000a0 ca 05 cf bd 01 1d 2b be b8 b5 8e bf b9 ad 1d 3e
       -0.10108526 -0.16710283 -1.1149206 0.15398301
0000b0 8c 29 31 bf 99 17 0c 3f b9 52 19 bf 0f 11 a1 3f
       -0.6920402 0.5472351 -0.5989185 1.2583331
0000c0 18 6b 88 3f 5b 90 35 3f d9 bf be 3e 86 81 44 bf
       1.0657682 0.70923394 0.37255743 -0.7676014
0000d0 c0 d1 a7 bf 54 d6 6b 3f f7 fa ff be d1 81 62 3f
       -1.3110886 0.92123914 -0.49996158 0.88479334
0000e0 d2 1c b3 be fe 3a 3f 3f cf c4 49 3e 3e a1 c5 3e
       -0.34982926 0.7469939 0.19703983 0.3859958
0000f0 62 1d bf 3f 70 99 ea 3d b5 09 42 3f 5c 1a 20 bf
       1.4930842 0.11455047 0.7579606 -0.6254022
000100 49 6e 1c 3f 6b b1 a3 3e 18 0e 7e bd 43 e4 c8 3f
       0.6110578 0.31971297 -0.06202516 1.569466
000110 7c b7 8f be 11 ea 23 c0 f2 a3 2a bf 1c 5a ca 3e
       -0.28069675 -2.5611613 -0.6665641 0.39521873
000120 21 bc 00 bf 20 e0 33 3f 6d c2 a5 be e1 ba 26 3f
       -0.5028706 0.7026386 -0.32374898 0.65128905
000130 66 8f d3 bc b5 ca dc 3e ad 07 a6 3f 9e c0 0c bc
       -0.025825214 0.43123403 1.2971092 -0.008590845
000140 d3 d3 39 3f 1d 93 07 bf ed cd bf 3e c7 90 e9 3e
       0.72588843 -0.5295885 0.37461796 0.4561827
000150 16 4b 6c bc 56 84 bb 3f 61 d2 4f be 11 80 ff bf
       -0.014422199 1.4649761 -0.20295097 -1.9960958
000160 1b 33 14 bf 23 f5 0c 3f 21 d0 65 3f 09 32 85 bf
       -0.5789048 0.5506155 0.89770705 -1.0405895
000170 ec b6 1c 3f bb b7 5e bf be 21 2e 3d 65 c5 59 bf
       0.61216617 -0.869991 0.042512648 -0.85066825
000180 f1 ae d3 bf 08 48 d5 bd 62 bf 11 bf 62 ac 0a 3f
       -1.6537763 -0.104141295 -0.5693265 0.54169285
000190 22 3b a7 be d9 c8 ef be 67 5c a7 be 0d 91 eb bf
       -0.32662302 -0.46832922 -0.32687685 -1.8403641
0001a0 4d a3 22 3e 6c 04 22 40 8b ba 13 3f 1c f9 08 bf
       0.15882607 2.53152 0.57706517 -0.5350511
0001b0 31 77 af bf ff 5c 70 bf fd f1 80 3c 12 a2 a4 3e
       -1.3708249 -0.938919 0.015740389 0.321549
0001c0 76 3a 3b bd 7c cf 7e be 73 2b 90 bf 53 ba d3 3e
       -0.04571005 -0.24883837 -1.126326 0.41353092
0001d0 de 1c 02 bf 5d b6 04 3f 5a 77 dc be 70 88 93 3f
       -0.508253 0.51840764 -0.43059808 1.1526012
0001e0 ad 59 b8 3f 7a d7 3e 3f 72 d7 ef 3e 47 5f 4a bf
       1.4402367 0.7454754 0.4684406 -0.7905163
0001f0 ae 92 ba bf ea b0 0a 3f 36 d8 32 bf 16 e3 91 3f
       -1.4576013 0.541762 -0.6986116 1.1397426
000200 73 38 22 3e 25 14 a7 3e 77 8b f6 bf 2f e9 8d bf
       0.15841846 0.32632557 -1.9261311 -1.1086787
000210 dc 7a 8b be fc 70 09 3f 52 b9 5c 3f 6c fb 78 be
       -0.27242172 0.53688025 0.86220276 -0.2431466
000220 cb 30 60 be a0 70 1e 3f 2b 10 98 3f 96 10 9a 3f
       -0.21893613 0.618906 1.1879934 1.2036312
000230 19 4a f8 bf 07 33 f5 be 6a 50 be be 6b ee 0b 3f
       -1.9397613 -0.47890493 -0.37170726 0.5466067
000240 82 44 6a 3f 8f 1c 37 3f ee c2 17 3f 15 fa 13 bf
       0.91510785 0.7152795 0.59281814 -0.5780347
000250 d4 40 b4 3c 0e fc 05 3f 34 a2 50 be 05 68 81 3f
       0.022003569 0.5233773 -0.20374376 1.0109869
000260 d6 0a cc be 76 8d b9 bd e3 e7 d7 be ca 88 44 3e
       -0.39852017 -0.09060185 -0.42169103 0.19192806
000270 68 2d b4 bf bb 3b e8 bf 43 1b c4 bf 13 66 e1 bf
       -1.4076357 -1.8143228 -1.532082 -1.7609276
000280 76 a0 22 3f a8 4e bf 3f a2 c7 4f bf cf 75 c8 bf
       0.63526094 1.4945879 -0.8116399 -1.5660952
000290 9d f3 0d bf 4a ea 14 3f 28 44 f9 be 3c 86 b7 be
       -0.5544985 0.58169997 -0.48684812 -0.358446
0002a0 85 db e1 ba 7d 33 c6 bf 0d 74 8c 3e c1 1a a8 3e
       -0.001723156 -1.5484463 0.2743229 0.32832912
0002b0 03 b7 43 3f 1d 52 42 be af 43 90 3f ce 49 06 40
       0.7645113 -0.18976636 1.1270655 2.0982547
0002c0 e6 64 f6 3f 17 95 b0 3f c8 e1 8f bf 09 9a d4 bf
       1.9249542 1.3795499 -1.1240778 -1.6609508
0002d0 1e e8 a6 3f 28 d3 75 3f bd 99 30 bd f1 8a 90 be
       1.3039587 0.96025324 -0.043115366 -0.28231004
0002e0 53 62 af 3d 68 a8 a3 3f 16 ee 87 3f 85 41 43 be
       0.08563676 1.2785769 1.0619533 -0.19067962
0002f0 7b 17 dd 3e f5 89 eb be 42 29 50 3e 74 f3 5f be
       0.43181977 -0.4600369 0.20328239 -0.21870214
000300 4f 32 e8 bf 66 67 24 bf be 06 24 3e 4d 14 ac bf
       -1.8140353 -0.64220273 0.16018197 -1.3443695
000310 60 6b ee 3e 8d fd a7 3e 48 0f 72 bf fd f9 85 bf
       0.46566296 0.3281063 -0.9455457 -1.0466915
000320 ff 2d 1e bf 21 b6 1f 3f b3 13 e8 bd 64 ec b0 be
       -0.61788934 0.6238728 -0.11331882 -0.34555352
000330 c9 c6 ab 3e 37 97 96 bf 51 b8 d8 3e f8 60 fb 3d
       0.335501 -1.1764897 0.42328122 0.12274355
000340 bb 58 db 3e 8b bd 06 be ea ee b1 3f 3f 32 fd 3f
       0.42841133 -0.13158242 1.3901036 1.9780959
000350 f5 c5 cc 3f 7c 3c ea 3f c0 06 20 bf 79 cb ac bf
       1.5997912 1.8299708 -0.625103 -1.3499595

submodules.latents_pred.0.bias f4 [12]
000000 ca b2 5b be cf 7d 92 be 41 37 bd 3d 82 e9 c0 be
       -0.21454921 -0.2861161 0.092390545 -0.37678152
000010 3d 7e d3 be 41 ec 2b 3f c5 c9 37 3d 95 2c ab be
       -0.4130725 0.6715737 0.044870157 -0.3343245
000020 71 36 a5 bd 97 69 c9 3c b9 f5 f5 be 57 90 1a 3d
       -0.080670245 0.024586482 -0.48039034 0.03773531

submodules.etm_pred.0.weight f4 [7, 18]
000000 65 6a 8e c0 43 c6 02 c0 22 42 d4 bf 36 a6 22 c1
       -4.4504876 -2.043351 -1.6582682 -10.165579
000010 16 6b 5b c0 c3 90 76 c0 80 66 a2 40 07 6c 1a 41
       -3.428411 -3.8525856 5.075012 9.651374
000020 53 9f 04 c1 f5 1b ec bf db bc a5 40 8e d0 bf 3e
       -8.2888975 -1.8446032 5.1793036 0.37463802
000030 01 37 b1 bf 68 a1 f1 40 b4 8b ab 40 3e 6b 14 3f
       -1.3844911 7.550953 5.3608036 0.5797614
000040 ef 93 d6 bf 16 5f 49 40 8e 28 6d 3f 50 8a b3 c0
       -1.6763896 3.1464286 0.92640007 -5.610634
000050 ca 78 2d c0 60 5d a2 c0 2d 3e cb 3f db bc 3c c0
       -2.7104974 -5.0738983 1.587835 -2.9490268
000060 fa cc 11 c0 82 03 3e c1 fd 2a b3 3f 95 81 02 c1
       -2.2781358 -11.875856 1.3997494 -8.156636
000070 2c 1f 1e 40 58 93 96 3f 2f 49 1c 41 ab b7 0d c1
       2.4706526 1.1763716 9.767867 -8.857341
000080 cd b4 d9 c0 9c a3 06 c1 78 9c 47 40 3f 18 4a 3f
       -6.8033204 -8.414944 3.118925 0.78943247
000090 67 06 75 3f 38 ea d6 40 db fb 6b c0 ef 45 00 be
       0.95712894 6.716091 -3.687247 -0.12526678
0000a0 2e ba c5 40 e8 74 9e bf 3c cd 67 bf cf 78 72 bf
       6.178977 -1.2379427 -0.9054754 -0.9471559
0000b0 59 f0 3c 41 b4 90 6f 41 8d 02 a6 3f 39 e1 79 40
       11.808679 14.972828 1.2969528 3.9043715
0000c0 57 7d 95 c0 7e 77 83 40 47 79 c2 c0 ee dd 75 3f
       -4.6715503 4.1083364 -6.0773044 0.9604176
0000d0 59 af 93 3f ca cc 82 be 4f cb 04 c1 b6 3c e7 be
       1.1537887 -0.25546867 -8.299636 -0.45163506
0000e0 3d 47 b8 bf 99 ae 0d 41 61 7d 47 3f ad 1a 05 c0
       -1.439674 8.855126 0.7792569 -2.0797532
0000f0 ea 48 b5 40 73 1c 0e 40 72 86 f8 c0 3d 7c fc 3f
       5.6651506 2.2204864 -7.766412 1.9725415
000100 10 08 9a 40 37 b2 55 41 5b f5 1f c1 8e 87 0f c1
       4.813484 13.3560095 -9.997401 -8.970594
000110 7c cc 8d c0 53 bb d2 bf e2 91 18 41 76 93 1e c1
       -4.4312115 -1.6463417 9.535616 -9.911001
000120 c8 cb 59 c0 8a 66 9a bf fe 99 54 bf 40 c1 a4 40
       -3.4030628 -1.2062542 -0.83047473 5.14859
000130 95 1b 62 c0 25 e8 9f c0 40 ff 6a 40 45 7b c3 c0
       -3.5329335 -4.997088 3.6718292 -6.1087976
000140 e9 11 47 41 5f cd 67 40 ba bb 10 c1 12 4f 58 c1
       12.441873 3.6219099 -9.045832 -13.519304
000150 17 3b ee c0 b4 a3 7f c0 d9 38 41 be 34 1d 2d bf
       -7.444713 -3.9943666 -0.18869342 -0.67622685
000160 e3 76 3a c1 74 64 83 3e 25 f0 aa be 49 8f 0d c0
       -11.654025 0.25662577 -0.3338634 -2.2118704
000170 75 9e 5e c0 49 4d bf 40 12 af 56 3e 82 a1 12 41
       -3.4784214 5.978184 0.20965222 9.164431
000180 c6 0f 40 c1 c6 5e e2 40 b0 15 7f 40 47 d7 69 c1
       -12.003851 7.074069 3.9856987 -14.615058
000190 c7 f6 45 41 2d 48 03 c1 42 ae b4 c0 63 5c 80 40
       12.372748 -8.205121 -5.6462717 4.0112777
0001a0 2d 0a 4c c0 50 0d da 40 ee f5 2e c0 1b de 28 40
       -3.188121 6.814125 -2.7337604 2.6385562
0001b0 3a 5f e8 40 68 e5 d0 40 80 d6 35 41 59 5b 6d 3f
       7.2616243 6.5280037 11.364868 0.9271751
0001c0 9e 89 5e c0 ac 58 80 40 b7 0b e7 bf f8 fd 21 c0
       -3.4771495 4.010824 -1.805045 -2.531126
0001d0 b1 33 12 c1 25 ce d9 3f c7 38 e7 c0 cb 52 ee bf
       -9.13762 1.7016035 -7.225681 -1.8619016
0001e0 22 06 79 3f ee bf 06 41 70 6a ed 40 5f 40 51 40
       0.9727498 8.421858 7.419243 3.269554
0001f0 8b 52 a8 40 a3 8a 56 3e
       5.260076 0.20951323

submodules.etm_pred.0.bias f4 [7]
000000 89 68 18 c0 93 dc f7 3f 7b f5 3a 40 fa 7a 3a c0
       -2.3813803 1.9364189 2.921233 -2.913756
000010 cf 48 9c bf 9b 62 b8 3f c2 bf 3e 3e
       -1.220972 1.4405092 0.18627837

submodules.htm_pred.0.weight f4 [4, 18]
000000 7e b0 46 c1 e3 fa 47 40 2f a9 b0 3f 94 6c 42 c1
       -12.418089 3.124688 1.3801631 -12.151508
000010 6e a1 0c c0 df 97 d6 bf a5 25 a3 bd da c1 43 c0
       -2.197353 -1.6765097 -0.079661645 -3.0587068
000020 9d 49 56 41 33 ee 1c 40 14 7f b3 3f 6c 82 52 3f
       13.392972 2.4520385 1.4023156 0.8223026
000030 43 ee cb be 4c f9 2c 3f 1e 4a 08 40 0a d5 42 c0
       -0.39830217 0.67567897 2.1295238 -3.0442529
000040 7e 3a 1d 41 15 f0 49 c0 ae 40 ef 40 6a 7c 76 c0
       9.82678 -3.1552784 7.4766455 -3.8513436
000050 72 23 fc c0 55 60 07 c0 9c 1f 69 40 fa b9 24 c1
       -7.879327 -2.1152546 3.6425543 -10.295404
000060 32 25 08 c0 5b 63 c1 3f f2 ef f8 c0 09 63 69 40
       -2.1272702 1.5108446 -7.77929 3.6466696
000070 d0 22 21 3f c5 a2 50 40 cb 9e cf 40 90 68 19 40
       0.62943745 3.2599347 6.488134 2.397007
000080 b8 20 f3 bd 11 79 39 c0 b6 a2 03 40 d7 90 f8 40
       -0.11871475 -2.8980143 2.056806 7.7676806
000090 2c 61 67 40 60 32 fe 3f 13 0e 84 40 3d 33 eb c0
       3.615306 1.9859123 4.126718 -7.3500047
0000a0 9f 5a 23 40 80 21 96 40 e6 90 a9 40 1e 26 89 c0
       2.552406 4.6915894 5.298938 -4.285903
0000b0 f3 a2 16 c1 2c ab 3f 3f 30 51 60 40 ba 0f dd bf
       -9.414783 0.7487056 3.5049553 -1.7270424
0000c0 4a c8 d2 c0 d8 96 e5 3f 32 c6 28 c1 5c f4 ab 40
       -6.5869493 1.7936659 -10.548388 5.373579
0000d0 f9 df 57 c1 93 42 0b c0 46 ad fe 3f 43 e1 15 bf
       -13.492181 -2.1759384 1.9896629 -0.5854685
0000e0 32 14 4e 40 da 38 53 41 84 da 49 c0 23 aa 27 40
       3.2199826 13.20138 -3.1539621 2.6197593
0000f0 0c 69 6b c0 70 5b 5c 40 e3 15 a3 40 47 2e 99 c0
       -3.6782866 3.443081 5.0964217 -4.786899
000100 76 ae 59 c0 e7 4f f7 bf 07 46 6f bf 15 b8 81 c0
       -3.4012733 -1.9321259 -0.9346623 -4.053721
000110 f2 25 c5 40 7d 27 05 bf c3 7d 05 41 5a f2 31 c0
       6.160882 -0.5201338 8.343204 -2.780417

submodules.htm_pred.0.bias f4 [4]
000000 2e 90 9a 3f 46 05 89 bf a8 e6 0c be 6e a2 66 bf
       1.207525 -1.0704734 -0.13759863 -0.900916

exp_avg f4 [18, 23]
000000 78 a3 5c 3d e2 28 e8 3c 1d 17 8b bd 1b 77 34 3e
       0.053866833 0.028339807 -0.06791518 0.1762356
000010 a0 7e 1f 3e 10 2e 41 be fe 59 82 bd 30 81 80 bb
       0.15575647 -0.18865228 -0.06364821 -0.0039216504
000020 1a 65 a6 3d 7d ad dc bd cc b9 13 3e 13 3f ab bd
       0.08124752 -0.10775278 0.14426345 -0.0836164
000030 f5 5e 40 3d c1 b9 c8 bc 8e bc 94 bd 49 32 81 bb
       0.046965558 -0.024502637 -0.072625265 -0.003942762
000040 9d b0 09 bd 32 a8 5e bd ce e9 5d 3d f9 42 de bc
       -0.033615697 -0.054359622 0.05417805 -0.027131544
000050 c7 01 00 3a 4d 7a 0c bd c3 42 14 bd 56 1f 7b 3d
       0.00048830773 -0.034296323 -0.03619648 0.06130918
000060 07 18 eb 3c 06 e4 8e bd 51 a7 21 bd 4a c2 05 bd
       0.02869798 -0.06977086 -0.039466206 -0.03265599
000070 25 e2 4d 3d 36 42 86 bd f0 a1 e8 bd 4a 6b 00 3c
       0.050264496 -0.065555975 -0.11359012 0.00783808
000080 88 02 73 bb 13 05 64 3d d7 fe cf bb 75 49 28 bc
       -0.0037080366 0.0556689 -0.006347518 -0.01027142
000090 10 e5 55 3c e9 e4 0c 3d be 46 52 bc 1f b1 2a bd
       0.013055101 0.034397993 -0.012834249 -0.041672822
0000a0 88 a1 34 bd 81 1d f5 3c f6 49 90 3c 7f 06 f5 3b
       -0.04409936 0.029921295 0.017613392 0.007477581
0000b0 f0 89 31 bc 9b 80 04 bd bc 8e c3 bf c6 20 91 bf
       -0.0108361095 -0.03234921 -1.5277934 -1.1338127
0000c0 bf 53 cf 3f e4 ff 8b 3e 46 50 83 3e b7 84 b8 be
       1.6197432 0.27343667 0.2564718 -0.36038753
0000d0 01 49 cc 3f 4c f2 1a 3f 01 ee 79 bd 7f c7 72 3d
       1.5959779 0.60525966 -0.061017994 0.059272286
0000e0 7d 3c 84 bf 8f 4a 5f 3d ed 48 cd 3d 8a 66 2f 3d
       -1.033096 0.054514464 0.10023675 0.0428224
0000f0 6d 50 68 3e 5c f0 d4 bc 77 4d 25 bd 1b 07 dd bd
       0.2268693 -0.025993519 -0.04035708 -0.10792371
000100 8d da 2e 3e 33 4c 0a 3d 6a 16 ab 3e 39 64 7a bc
       0.17075558 0.033764075 0.33415538 -0.015282684
000110 b2 0b 42 bc 4d 16 26 bf 74 be ec be 48 08 31 3f
       -0.011843609 -0.6487778 -0.46239054 0.6915326
000120 1a 65 84 bb 9d 0d ad bc 23 a1 88 bd 63 74 29 3f
       -0.0040403726 -0.021124655 -0.066713594 0.6619322
000130 1b 3f 8f 3e 54 42 c4 bd 16 27 c5 3d ad a6 09 bf
       0.27977833 -0.095829636 0.09626596 -0.5376995
000140 42 9f bd 3d dc 0d 02 3d ac 01 b7 bc af b1 3d 3d
       0.09258892 0.0317515 -0.022339664 0.04631203
000150 3e f6 13 3c e9 44 3c 3d db d9 32 3d ce 78 9a 3d
       0.009030877 0.045964155 0.043664794 0.07542573
000160 69 66 75 bd 35 f8 eb 3d 73 bc 3f bc 27 74 3f 3e
       -0.05991212 0.11521951 -0.011702645 0.18696652
000170 d3 bd b4 be b6 2a 80 be 0a 65 c1 3e e6 a3 ec 3d
       -0.35301074 -0.25032586 0.377724 0.11554699
000180 19 af bb 3d b6 72 16 be b5 24 ba 3e bb 1b 6a 3e
       0.091642566 -0.14692196 0.3635613 0.22862141
000190 d3 e9 1f 3e bd c1 29 be 76 81 39 be 90 a5 23 be
       0.1561654 -0.16577812 -0.18115792 -0.15981126
0001a0 46 94 19 3d 3d b9 ba bc ae 3c 32 3d 87 80 0a bd
       0.03749492 -0.022793407 0.0435149 -0.03381398
0001b0 f3 4e aa bd 83 a7 4c be 14 20 ce bd 72 d5 94 3c
       -0.083158396 -0.19985776 -0.10064712 0.018168185
0001c0 86 66 a6 3d 05 96 db bb f9 74 d8 be 8e 64 f5 bd
       0.081250235 -0.0067012333 -0.42276743 -0.1198207
0001d0 ae 26 50 bd 5c 37 0f 3e 6d 1b e7 3d e9 a3 e6 3d
       -0.050818138 0.13985962 0.11284528 0.11261732
0001e0 fe 6a f9 bd 38 f6 1b 3e b3 52 80 3e 5d a6 c8 bd
       -0.1217861 0.15230644 0.25063094 -0.09797356
0001f0 0f 64 cb 3d 77 78 02 be 79 f4 c6 3d 7b 62 e5 bd
       0.09931194 -0.12741266 0.09714598 -0.11200424
000200 1c 31 48 3c 42 80 c3 3d 75 71 0e bd fe 99 46 3c
       0.01221874 0.095459476 -0.03477617 0.012121676
000210 62 67 66 3d 66 09 4f 3e 09 22 e7 3c e1 c7 5b bd
       0.056250937 0.20218429 0.028214471 -0.053657416
000220 4e 5b 8f 3d 49 3e 4f 3e 21 bc c9 3d fa d0 df 3d
       0.06999837 0.20238604 0.09850336 0.10928531
000230 d2 8f eb bd 5f 93 4f 3e f6 e4 3f 3e 73 84 58 be
       -0.11502041 0.20271061 0.18739685 -0.21144275
000240 0d 94 ea bd 78 eb 3a 3e 89 03 bf bc 1c 42 33 3c
       -0.1145402 0.18253887 -0.023317115 0.010941055
000250 41 af cc 3d fd 8b cb 3c c1 15 ab 3c c5 90 bb 3c
       0.099943645 0.024847025 0.020884397 0.02289618
000260 5e 9a 0b 3c 81 b1 25 3c b5 38 ec 3d 51 2a 92 bc
       0.008520691 0.010113121 0.115342535 -0.017842444
000270 1d 78 5c 3e 0d 39 3a 3d a3 01 a4 bc db e7 30 3b
       0.21530195 0.045464564 -0.020020312 0.0026993665
000280 0b 38 a5 3e 83 62 5d 3e a9 fc 21 3e 80 aa 6b be
       0.3226932 0.2161961 0.15819038 -0.2301426
000290 99 89 d2 3c 29 fc 15 3d 10 72 62 3c 64 ab 6b be
       0.025700377 0.03661743 0.01382114 -0.23014599
0002a0 72 7d 15 bd f3 76 a5 3d 6d 11 95 bd 45 c2 50 3e
       -0.036496587 0.080793284 -0.07278714 0.20386608
0002b0 d5 30 a1 bd c9 f8 98 bd 92 c7 0f bd 81 05 07 bd
       -0.07870642 -0.07469327 -0.035102434 -0.032964233
0002c0 a6 4d db bb 6a a2 ba bc 6e 20 8a bc 39 81 e5 bc
       -0.006692606 -0.022782523 -0.016861167 -0.02801572
0002d0 67 f2 12 bd b2 28 d1 bd 5c ea 34 bc 48 24 a2 bd
       -0.035875704 -0.1021284 -0.011042204 -0.07917076
0002e0 db c8 94 bd d9 70 09 bd 4d 5e aa 3d 44 03 82 3d
       -0.07264873 -0.033554886 0.08318768 0.06348279
0002f0 82 89 ac 3d 79 bc a2 bd fc 58 a9 3d 1e b3 31 3e
       0.08424665 -0.079461046 0.082689255 0.17353484
000300 d7 60 38 be 12 ad 38 3e 10 15 02 be d7 7f 3b 3e
       -0.18005691 0.18034771 -0.12703347 0.18310486
000310 8e 16 6f bc 7c c4 8a 3c 53 55 d4 3d 1b 02 b9 3c
       -0.01459278 0.016939394 0.10367837 0.022584012
000320 85 aa 04 3e cf b8 37 bc 65 e7 87 3d fe f2 32 3d
       0.12955673 -0.011213495 0.06635932 0.043688767
000330 c9 54 8a 3d ed 4b 19 bc 5d 48 52 3e 31 0a b5 bd
       0.06754453 -0.009356481 0.20535417 -0.088398345
000340 08 a5 6c bd d4 b3 be 3d 03 4c 1d 3e b6 db 2d 3e
       -0.057774574 0.09311643 0.15361027 0.16978344
000350 ba 23 17 be fc e4 b3 3d 07 aa 2b 3e 2d a5 c1 3d
       -0.14759722 0.0878391 0.16764079 0.09455333
000360 a8 71 9a bd 53 5b 08 3d c1 a1 b6 bd fe 10 4a bd
       -0.075412095 0.03329022 -0.08917571 -0.04933261
000370 9b 01 ce 3c 3e f9 8c 3d c2 6b a3 3b 95 89 c4 3c
       0.02514725 0.06883477 0.004987211 0.023991385
000380 3c 72 e7 bd 34 4f 35 bd c3 02 3f 3d 2c 8a 8b bc
       -0.11301085 -0.044264987 0.046633493 -0.017033659
000390 3d d5 05 bd d0 7e f3 bd f9 84 14 3d a0 48 40 3d
       -0.032674063 -0.11889422 0.036259625 0.04694426
0003a0 07 43 11 bd 1b b5 2f 3e 76 81 29 3e ba 79 3d be
       -0.035464313 0.1715893 0.16553292 -0.18503466
0003b0 d1 74 2b bd 50 9d 27 3e 47 87 33 3e 7b c6 45 be
       -0.04185945 0.16368604 0.17532073 -0.19313996
0003c0 12 11 02 3e e6 c7 38 be e5 65 4e 3b fa 8e 00 bd
       0.12701824 -0.18045005 0.003149384 -0.031386353
0003d0 6c aa d7 bc 03 c7 6a bc ae a4 87 3c 77 a8 0a bd
       -0.02632638 -0.014329675 0.016558018 -0.033852067
0003e0 ec 11 19 bd 49 48 9e 3c f9 c4 8e bd fb fc cb bc
       -0.037370607 0.019321578 -0.06971163 -0.024900904
0003f0 23 8c 97 bd c3 f0 e7 bd 30 aa 09 be 23 f5 cc 3d
       -0.07399776 -0.113252185 -0.13443828 0.100076936

exp_avg_sq f4 [18, 23]
000000 1b 64 20 3e af 5d af 3d 2b e4 4d 3e 9a 8c 86 3e
       0.15663187 0.085627906 0.2010657 0.26279145
000010 ec 3a 73 3e da 28 97 3e be 52 39 3e ce c5 a9 3e
       0.23752946 0.29523355 0.1809797 0.33158726
000020 1a c3 89 3e d4 84 8d 3e d8 bc 3a 3e d6 5d 8b 3e
       0.26906663 0.27640402 0.182361 0.2722003
000030 11 31 61 3d 50 80 6e 3d 44 98 3e 3d de 69 25 3c
       0.054978434 0.058227837 0.04653193 0.0100960415
000040 9f ec 51 3c 90 c3 93 3c 43 a7 9d 3d 79 3e 85 3d
       0.0128127625 0.018037587 0.07697918 0.06506056
000050 23 f0 a8 3d 91 16 d0 3c 1b 28 ed 3d 85 c1 e4 3d
       0.082489274 0.025401386 0.11579915 0.111697234
000060 42 47 86 3d db 62 05 3e fc 5b 53 3e b0 27 59 3e
       0.0655656 0.13025992 0.20640558 0.21206546
000070 0e 8d 4f 3e a9 2f fb 3d 00 a9 47 3e 57 68 8c 3e
       0.20268652 0.1226495 0.19498062 0.27423355
000080 9e d7 6e 3e 07 03 29 3e 80 ca 86 3e 2e 1f 8d 3c
       0.23324439 0.16505061 0.2632637 0.017226782
000090 dc 9a 31 3d c6 c2 ff 3c 6b 37 43 3c 19 1c 3c 3c
       0.043360576 0.031220805 0.011915068 0.011481308
0000a0 66 f5 95 3c a4 fd 40 3d b6 d9 4c 3d f2 46 11 3d
       0.018305492 0.04711689 0.050012313 0.03546805
0000b0 14 12 9b 3c e9 2f af 3d 97 3b d7 40 24 01 71 40
       0.018929519 0.0855406 6.726024 3.7656946
0000c0 8c 22 ef 40 b0 7c ce 3e df ce c5 3e af bb fc 3e
       7.472967 0.40329504 0.38634393 0.4936194
0000d0 0f da eb 40 16 d5 81 3f 64 28 d5 3f ca 16 a3 3f
       7.3703685 1.0143154 1.6652951 1.274133
0000e0 3a db 70 40 dc e8 c8 3f 37 f5 8e 3e 79 fc 80 3d
       3.7633805 1.5696063 0.2792146 0.06298155
0000f0 b4 5b 81 3d 56 46 d1 3c 30 54 68 3c f0 35 46 3d
       0.06316319 0.025546234 0.014180228 0.048391283
000100 18 7e 0c 3e 49 d5 b4 3c 79 ac d5 3e e3 6b 50 3c
       0.13719976 0.022074359 0.4173315 0.012721035
000110 17 37 63 3e c1 b7 82 3f db b3 16 3f a4 50 93 3f
       0.22188984 1.0212327 0.5886819 1.1508985
000120 28 b8 d0 3e 59 1e fd 3e d3 fe a0 3e 38 24 8f 3f
       0.407655 0.49437216 0.31444415 1.1182928
000130 5d b1 a3 3e 52 c4 71 3e 99 e4 78 3e ec 26 3a 3f
       0.31971255 0.23610047 0.24305953 0.7271564
000140 83 5b 74 3e a4 fd 3c 3d 7a 95 88 3d 18 1b f6 3c
       0.23863034 0.046140328 0.066691354 0.030042216
000150 b7 72 24 3c 48 2b 46 3c 6b 99 ca 3c e6 88 58 3d
       0.010037116 0.01209528 0.024731359 0.05286493
000160 a7 34 82 3d 15 5a ad 3d 91 e9 df 3b 33 45 cf 3d
       0.06357699 0.084644474 0.006833263 0.101206206
000170 f1 80 80 3e 90 04 11 3e d0 8e 90 3e 87 5a 4b 3f
       0.25098374 0.14161897 0.28233957 0.7943501
000180 c4 8d 30 3f 1c 30 64 3f 8a f1 8a 3e d1 86 2f 3f
       0.6896632 0.8913591 0.27137405 0.6856509
000190 38 c7 46 3f 18 b1 49 3f b7 14 cd 3e b7 eb 46 3f
       0.77647734 0.7878585 0.40054867 0.7770342
0001a0 2b f7 d6 3c 04 c1 48 3e 49 29 25 3d db c3 73 3d
       0.026240906 0.1960488 0.040322576 0.059512954
0001b0 4d 0d 7e 3d ef 8d 26 3e ed 2f a8 3e 74 e3 ee 3d
       0.062024403 0.16265081 0.32849064 0.11664477
0001c0 0f 67 ef 3d 24 3a 7f 3d 07 42 0f 3f 54 37 f7 3e
       0.11689579 0.062311307 0.55960125 0.482844
0001d0 f1 10 a4 3e df 6c 11 3f 8c 12 05 3f 38 11 d8 3e
       0.32044175 0.5680675 0.51981425 0.42200637
0001e0 cb a1 31 3f 12 0d 09 3f 68 e0 b0 3f 3d b0 72 3f
       0.693875 0.5353557 1.3818483 0.9480017
0001f0 37 67 66 3f 9e 0a f6 3e b3 47 70 3f 6c d5 ff 3d
       0.90001243 0.48054975 0.93859404 0.12491879
000200 92 9b 50 3d 19 6f ed 3c 7c 7e f1 3c 26 7b 95 3c
       0.050929613 0.02898364 0.029479258 0.018247198
000210 7b 96 48 3d 3b 59 0b 3f e5 4a 2e 3c e2 a8 40 3e
       0.048971634 0.5443303 0.010637973 0.18814424
000220 39 99 11 3e 3a 23 09 3f 8c fd 1b 3e 79 ed 00 3e
       0.14218606 0.53569376 0.15233439 0.12590589
000230 dd 55 2b 3e f7 da 0c 3f 14 d3 f3 3e d4 63 24 3f
       0.16731973 0.55021614 0.47621977 0.64214826
000240 49 44 29 3e e7 f4 3a 3f f8 bf f4 3e 81 1d 13 3f
       0.16529955 0.7302994 0.4780271 0.57466894
000250 79 1c 90 3e a0 9b 00 3f e0 fb 26 3d 3e e9 29 3d
       0.28146723 0.50237465 0.04076755 0.041482203
000260 09 aa c3 3d d0 01 9c 3c 97 b9 e0 3c d3 11 09 3d
       0.09553916 0.019043833 0.027432246 0.033464264
000270 5e 34 b5 3e 93 45 f1 3d 14 88 cb 3c 94 bc a0 3d
       0.35391515 0.11780848 0.02484516 0.078484684
000280 5f eb e0 3e 68 d0 5d 3e 37 f1 03 3e c0 19 81 3e
       0.43929574 0.21661532 0.12884985 0.25214958
000290 65 4f 8a 3e 68 f4 8b 3e c0 c2 86 3e 43 92 76 3e
       0.27013698 0.27334905 0.26320457 0.24079232
0002a0 44 f6 89 3e 45 85 81 3e 1b 5b 82 3e f5 10 82 3e
       0.26945698 0.2529699 0.25460133 0.25403562
0002b0 c7 c0 82 3e 35 b4 9f 3c ba b7 10 3d 8c e0 7a 3c
       0.25537702 0.01949511 0.035331465 0.015312325
0002c0 c2 5f c6 3b b9 70 30 3c c5 21 02 3d 37 e5 cb 3d
       0.0060538957 0.010769063 0.031770486 0.09955829
0002d0 cb 98 99 3c 40 f9 50 3d 4e aa ab 3c 6e 72 ff 3d
       0.018749615 0.051018953 0.020955231 0.124729976
0002e0 43 a9 e4 3d de 1f 95 3d bc 73 03 3e ed e9 31 3e
       0.111650966 0.07281469 0.12837118 0.17374392
0002f0 04 ab 24 3e f7 71 43 3e 69 a1 fb 3d 60 8a 6e 3e
       0.16080862 0.19086443 0.12286646 0.23294973
000300 f5 f1 60 3e 51 d0 4c 3e 46 f2 0b 3e d4 21 59 3e
       0.219673 0.20001341 0.13666639 0.2120431
000310 c4 bc 97 3c 16 2a 4c 3d 74 62 a6 3c ae 30 7d 3c
       0.018522628 0.049844824 0.020310618 0.015453501
000320 2b 82 9b 3c d7 d9 9f 3c 6f b9 40 3d c3 8c 01 3d
       0.018982967 0.019513054 0.047051843 0.03162838
000330 a2 96 52 3d f3 9e 2a 3c 85 90 d7 3d c3 bb 7c 3e
       0.051413186 0.010413873 0.10525612 0.24681
000340 03 ac 20 3e e5 16 8d 3e f7 60 ae 3e 68 92 aa 3e
       0.15690617 0.2755653 0.34058353 0.33314824
000350 dc 63 b6 3e 9a f8 8b 3e 7e b4 d7 3e 2a e1 5b 3f
       0.35623062 0.27338105 0.42129892 0.8589045
000360 c5 6d 38 3f c2 9b d5 3e 8a e3 53 3f 2a 22 c0 3c
       0.72042495 0.41720396 0.8276907 0.02345379
000370 ec fd 01 3c f9 88 ca 3c 1f e9 0b 3d bb 1e 71 3c
       0.007934075 0.024723517 0.03415787 0.014716799
000380 7d ea 8a 3d 6e 19 42 3e 73 f0 c7 3c 1a 8f dd 3c
       0.06783006 0.18955013 0.024406647 0.027045775
000390 e3 eb b7 3c 68 07 94 3e d1 8f 0b 3e f3 cb a5 3d
       0.022451347 0.289119 0.1362908 0.08095541
0003a0 fe 8c 26 3e 74 8e 7a 3e 5e 4e 6b 3e 5d e0 89 3e
       0.16264722 0.24468404 0.22979113 0.26928988
0003b0 90 cc 1b 3e 0d c7 9a 3e 18 0b 1f 3e e1 cb 36 3e
       0.15214753 0.3022999 0.15531576 0.17851211
0003c0 a0 5b 1a 3e 6b 9a 23 3e e0 15 b3 3c 70 96 4b 3d
       0.15074015 0.15976875 0.021861017 0.049704015
0003d0 eb df a6 3c 69 7d 0e 3d b0 ea 02 3d 8e 9e c6 3c
       0.020370444 0.03478757 0.031962097 0.024245527
0003e0 01 c7 94 3d a8 72 82 3c 3a fc 8b 3d 73 e2 27 3c
       0.072645195 0.015923813 0.06835218 0.010246861
0003f0 fb e0 24 3e 03 65 a0 3d 1e b0 90 3d 31 83 bb 3d
       0.16101448 0.078317665 0.07064842 0.09155882

exp_avg f4 [18]
000000 d0 a3 b7 bd 05 7f 8b bc 97 8d b8 3e 1e e2 6a 3e
       -0.08966792 -0.017028341 0.36045524 0.2293782
000010 a2 26 b1 be c5 78 7c 3e a2 07 bd 3e b9 f0 5a be
       -0.34599787 0.24655445 0.36919886 -0.21380891
000020 61 4d 9d 3e 25 d4 b9 bd 58 32 e8 bd dc f5 9a be
       0.30723098 -0.090736665 -0.11337727 -0.302657
000030 06 dc 0d be 23 14 2d be f9 57 35 be 91 73 7b 3e
       -0.13853464 -0.16902213 -0.1770934 0.24555804
000040 8f f5 00 bd 60 f6 ad be
       -0.031484183 -0.33977032

exp_avg_sq f4 [18]
000000 37 92 a3 3e 12 bc 46 3e a6 6a 2a 3f bb 47 88 3e
       0.3194749 0.1940768 0.6656898 0.26617226
000010 b3 c7 5c 3f 23 34 5d 3f 6d 2b 29 3f 3a 75 65 3e
       0.86242217 0.8640768 0.6608189 0.22408
000020 7e b5 52 3e 36 f2 b5 3e 01 72 82 3e 66 91 ef 3e
       0.20577046 0.35536355 0.25477603 0.46790618
000030 65 22 06 3f b8 61 9a 3e b8 de ae 3e 1e 2a 40 3f
       0.5239623 0.30152678 0.34154296 0.75064266
000040 cd 77 50 3e 0a 64 28 3f
       0.203582 0.6577765
