runs/perovskite_multiscale_dataset_3/ae2_PCE_predictor_enc_l_18_l1_1em2_tanh_predictor_0_1_100_relu_decoder_linear_seed_0_lr_1em3_bs_100_e_1500_pass_latents_ae1_fold_0_ae2_fold_4_xavier_normal_gain_10/submodule_params/etm_pred_params.pt (torch, 1607 bytes, 2 tensors)

0.weight f4 [7, 18]
000000 8b e8 8f c0 25 92 08 c0 bf 29 db bf d9 b3 30 c1
       -4.4971366 -2.13392 -1.7122115 -11.043908
000010 a5 f7 54 c0 22 e9 7f c0 59 3a a7 40 6e fd 22 41
       -3.327615 -3.9986043 5.2258725 10.1868725
000020 29 e2 09 c1 03 b7 1b c0 53 db af 40 c7 99 90 3e
       -8.617715 -2.4330451 5.495523 0.28242323
000030 0f b6 c2 bf 17 e3 01 41 44 02 aa 40 82 e8 1f 3f
       -1.521181 8.117942 5.3127766 0.62464154
000040 f7 00 cb bf b1 25 48 40 04 a8 53 3f 9a 65 b3 c0
       -1.585967 3.1273005 0.82678246 -5.6061525
000050 3d ba 33 c0 71 65 a2 c0 32 c4 ba 3f e4 36 46 c0
       -2.808242 -5.074883 1.4591124 -3.0971003
000060 7e f2 0a c0 20 3d 4e c1 f3 38 c6 3f 95 79 04 c1
       -2.1710505 -12.889923 1.548613 -8.279683
000070 3f a5 26 40 30 d6 9d 3f 8d 7f 26 41 a3 bf 16 c1
       2.6038358 1.233099 10.40614 -9.421786
000080 c0 6d dd c0 69 4f 0e c1 d1 7b 4d 40 ce fb 6a 3f
       -6.919647 -8.894387 3.2106822 0.91790473
000090 2a 46 6a 3f de 6b dd 40 a4 d1 72 c0 a4 18 ac bd
       0.9151331 6.9194174 -3.7940454 -0.08403137
0000a0 19 e1 c5 40 40 98 a1 bf dc 49 7b bf a4 d4 4d bf
       6.1837277 -1.2624588 -0.98159575 -0.8040259
0000b0 be a8 47 41 3e 57 82 41 0b 07 bc 3f 5a bf 80 40
       12.478697 16.292599 1.4689649 4.0233583
0000c0 a9 05 9a c0 38 64 83 40 0a e5 c9 c0 f6 6a 81 3f
       -4.813191 4.1059837 -6.309209 1.0110767
0000d0 90 b2 93 3f 5e 03 fe bd 38 1c 07 c1 d1 2c c7 be
       1.1538868 -0.12402986 -8.444389 -0.3890138
0000e0 fc 62 c6 bf dd 1a 17 41 5a 36 66 3f 70 42 07 c0
       -1.5498958 9.444058 0.89926684 -2.11343
0000f0 44 7b c1 40 7a 3a 1e 40 58 b2 f3 c0 0a 99 07 40
       6.046297 2.4723191 -7.6155205 2.1187158
000100 e0 4c a6 40 9d bd 67 41 4b d5 32 c1 1c 45 12 c1
       5.196884 14.483792 -11.1770735 -9.141872
000110 f6 27 90 c0 d3 44 e3 bf 8e 75 21 41 97 ab 29 c1
       -4.504878 -1.7755378 10.0912 -10.604392
000120 63 6e 64 c0 9c 14 aa bf eb 4f 6e bf 78 c2 b3 40
       -3.5692375 -1.328754 -0.93090695 5.617489
000130 1e 20 63 c0 d4 a0 a5 c0 5d 18 7f 40 42 53 ba c0
       -3.5488353 -5.1758823 3.985862 -5.8226633
000140 73 6f 55 41 8a 67 5a 40 eb 3e 1c c1 43 62 6f c1
       13.339709 3.4125695 -9.765361 -14.96149
000150 83 eb 04 c1 eb 1e 7d c0 11 d0 4e be a6 fe 1d bf
       -8.307498 -3.955012 -0.20196559 -0.6171669
000160 47 d2 4b c1 0e 22 8e 3e 5b 32 44 be cb b6 19 c0
       -12.738837 0.27760357 -0.19159834 -2.4017818
000170 63 10 6c c0 14 f8 cb 40 8d ba 6c 3e c1 b4 19 41
       -3.6885002 6.374033 0.23118038 9.606629
000180 2b 8a 4d c1 54 9f e2 40 c0 11 6e 40 6f f1 7d c1
       -12.846232 7.081949 3.7198334 -15.871444
000190 4b b8 50 41 e7 ed 0a c1 26 08 bc c0 31 c5 76 40
       13.044993 -8.683082 -5.8759947 3.8557856
0001a0 04 85 4e c0 d6 dc e1 40 d8 12 2a c0 cb 7e 2d 40
       -3.2268686 7.0582075 -2.6574001 2.7108638
0001b0 b5 d2 f6 40 39 fb d8 40 3b 84 41 41 54 bc 77 3f
       7.713221 6.780667 12.094783 0.9677174
0001c0 ea 24 68 c0 04 96 7d 40 4a 25 01 c0 73 02 1e c0
       -3.627253 3.9622812 -2.017901 -2.4688995
0001d0 6b 58 1e c1 b1 0d f5 3f 45 4e f9 c0 53 cd f6 bf
       -9.896586 1.9144803 -7.7908044 -1.928141
0001e0 68 ef 5b 3f 59 a0 0c 41 b4 72 01 41 e4 0c 66 40
       0.8591218 8.789147 8.090504 3.5945368
0001f0 8e 5c b1 40 6b b1 92 3e
       5.542548 0.28650984

0.bias f4 [7]
000000 07 1c 22 c0 5f 48 ff 3f 64 b2 44 40 ca 8b 41 c0
       -2.5329607 1.9943961 3.073388 -3.024157
000010 0c 9b a2 bf b6 25 bf 3f 05 3a 9a 3e
       -1.2703567 1.4933383 0.3012239
