runs/perovskite_multiscale_dataset_3/ae2_PCE_predictor_enc_l_18_l1_1em2_tanh_predictor_0_1_100_relu_decoder_linear_seed_0_lr_1em3_bs_100_e_1500_pass_latents_ae1_fold_0_ae2_fold_4_xavier_normal_gain_10/submodule_params/htm_pred_params.pt (torch, 1415 bytes, 2 tensors)

0.weight f4 [4, 18]
-13.145723 3.411247 1.4128529 -13.105867 -2.6280603 -1.6964086 -0.13971435 -2.9982715
14.635801 2.3616974 1.3244202 0.6033526 -0.49668226 0.9446256 2.0971794 -3.2138252
10.651712 -3.199787 7.5588455 -3.9383862 -8.019276 -2.108341 3.877238 -11.025789
-2.0676012 1.6270614 -8.010473 3.782777 0.6595834 3.3156328 6.7652073 2.6555526
-0.01967896 -3.1423097 2.1235557 7.939648 3.776573 2.0540566 4.2156606 -7.9457083
2.657243 4.9776115 5.5685534 -4.3518767 -10.085924 0.9277338 3.5892653 -1.7339023
-6.990086 1.5472172 -11.069138 5.6172047 -14.310703 -2.3517454 2.024063 -0.6755311
3.2718549 13.936966 -3.2278507 2.6127214 -3.8843215 3.3711371 5.241338 -4.9748726
-3.4415002 -1.9477038 -1.032927 -4.14815 6.525019 -0.45891565 8.492311 -2.8070045
00000000: e254 52c1 df51 5a40 5dd8 b43f a2b1 51c1
00000010: 2432 28c0 eb23 d9bf 4711 0fbe aee3 3fc0
00000020: 3e2c 6a41 0d26 1740 9a86 a93f 5175 1a3f
00000030: 234d febe fcd2 713f 3038 0640 50af 4dc0
00000040: 6a6d 2a41 4fc9 4cc0 10e2 f140 850e 7cc0
00000050: f44e 00c1 0fef 06c0 ab24 7840 a269 30c1
00000060: 9453 04c0 8c43 d03f e62a 00c1 0519 7240
00000070: 75da 283f 5433 5440 947c d840 93f4 2940
00000080: c535 a1bc 9a1b 49c0 56e8 0740 9911 fe40
00000090: 5fb3 7140 aa75 0340 b1e6 8640 3e43 fec0
000000a0: 4510 2a40 9848 9f40 9731 b240 9342 8bc0
000000b0: f25f 21c1 f67f 6d3f 86b6 6540 83f0 ddbf
000000c0: c9ae dfc0 370b c63f 301b 31c1 24c0 b340
000000d0: a4f8 64c1 ff82 16c0 408a 0140 9bef 2cbf
000000e0: 1266 5140 d0fd 5e41 1b95 4ec0 d436 2740
000000f0: b998 78c0 b6c0 5740 0ab9 a740 2832 9fc0
00000100: 8a41 5cc0 5c4e f9bf f436 84bf a5bd 84c0
00000110: f5cc d040 fef6 eabe 81e0 0741 f6a5 33c0

0.bias f4 [4]
1.1911036 -0.9953779 -0.11421958 -0.966963
00000000: 1576 983f 16d1 7ebf f5eb e9bd e38a 77bf
