runs/perovskite_multiscale_dataset_3/ae2_PCE_predictor_enc_l_2_l1_1em2_tanh_predictor_0_1_100_relu_decoder_linear_seed_0_lr_1em3_bs_100_e_1500_pass_latents_ae1_fold_0_ae2_fold_2_xavier_normal_gain_10/checkpoints/epoch=1495-total_val_loss=3.65.ckpt (torch, 27026 bytes, 33 tensors)

submodules.encoder.0.weight f4 [2, 23]
000000 cd e8 4d 3c a5 1e 82 3e b6 38 a8 3e c3 79 b6 ba
       0.012567711 0.25414005 0.32855767 -0.0013921786
000010 76 a7 01 be 8b 8e d4 3a bb 61 20 bc 4a a3 cd 3b
       -0.12661538 0.0016216798 -0.009788926 0.006275569
000020 80 4d 83 bc 97 40 80 bd 13 3f 84 3e 5b ea 79 3e
       -0.016028166 -0.062623195 0.25829372 0.24405806
000030 06 7e f4 3e a3 ce 35 3a d2 41 cb 3e 51 7d 09 bf
       0.47752398 0.00069353933 0.39698654 -0.5370684
000040 23 fa 73 be e1 b6 a4 3e 2b 3c 34 bf ec c0 84 3e
       -0.23825888 0.32170776 -0.7040431 0.25928438
000050 6a 12 37 ba 94 cc ae 3d 16 da d2 be 0c b2 83 3e
       -0.000698364 0.08535114 -0.4118201 0.25721776
000060 4c 08 65 3d 47 8c e2 ba f4 fa f5 ba c0 b6 58 bd
       0.055916116 -0.0017284238 -0.0018766806 -0.05290866
000070 6e 70 16 be 92 7f 09 bb f1 9e 20 3a 61 df 0c be
       -0.14691326 -0.002098058 0.00061272 -0.13757087
000080 78 68 d0 bd 25 d3 b1 bd 38 72 18 3c 13 59 e6 be
       -0.10176176 -0.08682851 0.009304576 -0.44989833
000090 46 7f a3 bb d8 09 99 ba dc da ea 3d aa 38 3f 3f
       -0.0049895374 -0.0011675907 0.11467525 0.7469584
0000a0 9c 10 40 3f bc 25 10 bf c5 c6 f8 bc f7 2f 2d bf
       0.75025344 -0.5630758 -0.030368218 -0.67651314
0000b0 a5 9d 1b 3b 91 00 de 3d
       0.0023745087 0.10839952

submodules.encoder.0.bias f4 [2]
000000 90 87 f9 3d 63 87 d4 bd
       0.121840596 -0.103773855

submodules.PCE_pred.0.weight f4 [100, 2]
000000 ca 53 f8 bf 7f 77 98 be 35 3f eb be 0a ca 96 bf
       -1.940057 -0.29778668 -0.4594666 -1.1780407
000010 12 d7 a6 3e 3a f8 36 3e 35 2d de 3b 6a 4b 04 40
       0.3258596 0.17868128 0.0067802914 2.067103
000020 19 cb 2f 3f aa aa b9 bd 52 72 bf 3e 2f a8 88 bf
       0.6866928 -0.09065755 0.37391907 -1.0676326
000030 22 0c b6 3f 0e b4 46 3f 9c 37 c7 3f e6 96 73 be
       1.4222453 0.7761849 1.5563846 -0.23788032
000040 56 3c 21 bf 92 10 ce bf 4d 85 00 3f ae 3c c9 bf
       -0.6298269 -1.6098807 0.502034 -1.5721643
000050 13 b4 32 c0 95 9b 03 3f 96 f7 c3 be 8f ba 7c bf
       -2.7922409 0.51409274 -0.3827483 -0.98722166
000060 09 f5 0f be 52 29 ee 3d 5b 84 68 3f cd 11 84 40
       -0.14058317 0.11628975 0.9082696 4.127173
000070 08 d4 09 c0 44 a2 74 bf f5 9f 24 bf 83 b9 3b 3e
       -2.1535664 -0.955601 -0.64306575 0.18332486
000080 73 3b a1 3f 84 e7 94 3f da ed 22 3f bc f4 a9 bd
       1.2596267 1.1633153 0.6364418 -0.082986325
000090 9a cc 15 bf f4 99 17 bf ab 55 01 c0 bb de 4a 3e
       -0.5851532 -0.5921929 -2.0208538 0.19811527
0000a0 b2 f9 db 3c fe 72 b6 bc 21 2b 36 40 e4 08 dd be
       0.026852462 -0.02227163 2.8463824 -0.43170846
0000b0 1c 9c 8f 3d 1c 81 dd 3c 6a fc 37 40 54 1b 0a 3f
       0.070121974 0.027039103 2.8747811 0.5394795
0000c0 ef e3 9b bf f9 e5 f1 3e d4 7d c7 be 01 ad 17 3f
       -1.2178935 0.47245768 -0.38963187 0.5924836
0000d0 32 b8 ac 3e 4d 26 1f be f9 5d 7d 3f be eb 97 bf
       0.3373428 -0.15541954 0.98971516 -1.1868818
0000e0 66 8a 3c 3f d8 d9 02 3e 65 22 b1 bd 46 24 63 bc
       0.7364868 0.12778413 -0.08649138 -0.013863629
0000f0 91 c5 e5 bf 49 79 23 3f f7 82 41 40 9e 4b 18 3f
       -1.7950917 0.6385694 3.0236185 0.5949038
000100 97 6d b6 bf c7 e5 d9 be 82 f1 8d bd 57 20 0d be
       -1.4252194 -0.4255812 -0.069308296 -0.13781868
000110 53 2f 9e bf dc 84 a9 3e 5a 50 8d 3f e9 36 a4 be
       -1.2358192 0.33109176 1.1040146 -0.32073143
000120 19 e6 1f bf 6e 46 c8 3e e3 d6 26 bd 15 92 84 be
       -0.62460476 0.39116234 -0.040732276 -0.25892702
000130 bf 3f 6b c0 5a 12 c5 be 1f 0e 20 3d 77 57 dc 3d
       -3.6757658 -0.38490564 0.039075967 0.1075887
000140 15 37 56 3f 05 c9 e0 3e c2 2a 6d bf ab f9 17 3f
       0.836778 0.43903366 -0.9264337 0.5936534
000150 44 16 ca 3f ba a2 98 3e bb e1 aa be 28 8f 5b bf
       1.5788045 0.2981165 -0.33375344 -0.85765314
000160 7a 95 cf 3c d5 92 2e 3d 5e 87 1c 40 e0 2f 48 3f
       0.02533983 0.0426205 2.4457622 0.7819805
000170 79 14 de be f3 f1 a8 3e 2a 81 1e 40 8d c9 4c c0
       -0.43374994 0.32997093 2.4766335 -3.1998017
000180 df 81 55 3f f5 3c 1d 3e 8e ea 8b bf 88 5c 5a 3f
       0.8340129 0.15355285 -1.0930955 0.8529744
000190 62 42 d2 be 51 b2 87 bf e7 1d c0 3e b1 b7 77 bf
       -0.4106627 -1.0601293 0.37522814 -0.96764666
0001a0 bd 81 c0 be 65 e1 4c be e3 7c e9 be cd 5c 96 bf
       -0.37598982 -0.20007856 -0.45603094 -1.174707
0001b0 a2 05 7a 3d 58 ff e9 3f c7 3d 06 bf b0 cd ab bf
       0.061040528 1.828105 -0.52438015 -1.3422146
0001c0 e7 5d e3 be 96 95 91 bf f0 8f 1e be 42 f3 76 be
       -0.4440758 -1.1373775 -0.15484595 -0.24116233
0001d0 93 0f ef be b8 c0 66 3e 0e 59 e2 3e 15 6c a5 3f
       -0.4669157 0.22534454 0.44208568 1.2923609
0001e0 ba 83 ec be b5 6e 98 bf 8d eb 94 3e 1f 67 2c c0
       -0.4619425 -1.1908785 0.2908596 -2.693794
0001f0 6d 6b 4d 3f 95 7d 10 3e 4e d8 8d be 25 5b 8f 3f
       0.80242044 0.14110406 -0.2770409 1.119969
000200 79 30 aa 3f 39 c7 7f 3e 1c b3 75 bf e6 95 01 bf
       1.3296043 0.24978341 -0.95976424 -0.5061935
000210 6d 42 26 bf 66 10 e2 3e d0 bf c9 3f 44 74 76 3f
       -0.6494511 0.44153136 1.5761662 0.9627116
000220 8e 57 ff be 92 22 a9 3e 0f 58 5a 3e 47 db de bf
       -0.49871486 0.33034188 0.21322654 -1.7410668
000230 20 cb be 3f 37 94 5e be 1e 69 23 40 29 0c fa 3e
       1.4905739 -0.21736227 2.5532908 0.48837402
000240 ca be a7 3e 48 50 8e bf d1 d0 13 40 ef e5 b3 3e
       0.32762748 -1.111825 2.3096201 0.35136363
000250 35 85 86 3f 3e fe 82 3d 54 99 58 3f 50 1b 1f 40
       1.0509402 0.06396149 0.8460896 2.486042
000260 2b aa d6 3d 30 c7 ea 3c 81 1f 0c bf 22 2b 05 3f
       0.10481676 0.028659433 -0.5473557 0.5201894
000270 80 5e d9 bf 1b 65 04 3f be 6a 06 bf de 2b 79 bf
       -1.6981964 0.51716775 -0.52506626 -0.9733256
000280 ab 4b 6d bf ec 18 23 3f 4f 1f 69 3e 83 17 e3 bf
       -0.92693585 0.637099 0.2276585 -1.774155
000290 c7 ae d4 bf 18 3a 9e 3e 0a d6 67 3e fd 17 e9 bf
       -1.6615838 0.30903697 0.22640243 -1.8210446
0002a0 71 16 73 3f 35 2e 2a 3e 05 e4 a1 3f 10 86 6b 3e
       0.9495612 0.16619189 1.2647711 0.2300036
0002b0 7f 81 1e 3e 26 69 a0 bf 90 15 86 bf c4 bd 2e 3f
       0.15479086 -1.2532089 -1.047533 0.6825831
0002c0 5a 93 70 3f 1b d3 5f 3f 2b 73 03 3f 04 39 a2 bf
       0.9397484 0.87431496 0.5134761 -1.267365
0002d0 7e 10 6a be 09 df b9 bc b1 89 0d c0 7f 62 1e 3f
       -0.22857854 -0.02268936 -2.211529 0.61869043
0002e0 7c cb 46 3f b6 2b 02 3e 9a a6 a0 3e 8b 70 37 c0
       0.7765424 0.12711987 0.31377107 -2.866244
0002f0 99 b2 ff 3c 55 bc 05 3d d6 84 83 bf 96 4b 94 3f
       0.031213092 0.03265031 -1.0274913 1.1585567
000300 1e 12 b4 be e4 72 66 bf 3f a7 64 be 5b 1d 2e 3f
       -0.35170072 -0.9001906 -0.22329424 0.6801354
000310 cc 0c a4 3f 76 fe 97 3f 32 6f 15 bf bf e9 be bf
       1.2816405 1.187453 -0.58372796 -1.4915084

submodules.PCE_pred.0.bias f4 [100]
000000 3e 6a 13 3f 19 b4 53 bf 8e 0c 48 3f 50 a6 56 bf
       0.5758399 -0.8269668 0.78144157 -0.8384752
000010 c4 07 ad bd c6 cb b6 3e 0a a2 04 bf c6 de 2c be
       -0.08448747 0.35702342 -0.5180975 -0.16881856
000020 f3 e0 90 bf ae 97 0a 3f d0 02 aa 3e b1 84 31 bf
       -1.1318649 0.54137695 0.3320527 -0.69343096
000030 cc 85 36 3e 3d 33 35 bd 93 f3 8c be f4 88 78 be
       0.17824477 -0.044238318 -0.27529582 -0.24270993
000040 10 69 4d bf 87 bc 9e bd c0 2b 9c be 57 ba c1 bf
       -0.8023844 -0.077508025 -0.3050213 -1.5134991
000050 07 91 e6 bd 99 a3 97 be 19 66 03 3f 8c 58 3a bf
       -0.112581305 -0.29617003 0.51327664 -0.7279136
000060 8e ad 83 3f 4d 61 e5 be 84 68 d3 be ae 0c 3a bf
       1.028734 -0.44800797 -0.41290677 -0.726756
000070 dc 33 d3 be c8 a4 ba 3e 0c 7d 26 bf 0b 4b 45 bf
       -0.41250503 0.36453843 -0.65034556 -0.7706763
000080 ad 0e 60 3f 28 0d 14 3f 95 df 04 bf fe 16 4e bf
       0.87522393 0.57832575 -0.5190366 -0.80503833
000090 88 ad 60 bd 8a e6 6c 3f a3 c7 81 3f d2 61 02 3f
       -0.054852992 0.92539275 1.0139049 0.5093051
0000a0 6b 39 94 be 32 55 89 bd 69 33 d8 be b4 42 1a bf
       -0.28950056 -0.06705703 -0.42226723 -0.6025803
0000b0 cd 81 99 3e 56 22 a5 bf 2a 35 8c be fa 3d a5 bf
       0.29981843 -1.2901103 -0.2738431 -1.2909539
0000c0 01 6b f3 be 91 23 b3 3b 8e fa 3e bf 36 7b 23 bf
       -0.47542575 0.0054668863 -0.74601066 -0.6385988
0000d0 98 a2 5a 3f 28 03 54 bf f2 7a aa bf ea 0c 72 bf
       0.8540435 -0.82817316 -1.331877 -0.94550955
0000e0 9c 1d 4c bf 1e a3 92 bd eb 07 de 3e 16 be 22 bf
       -0.7973268 -0.071600184 0.43365416 -0.635713
0000f0 53 2e 56 bf 11 30 a5 bf fb 5e ec be ca 9f 93 3f
       -0.83664435 -1.2905294 -0.46166214 1.1533139
000100 15 dd 40 bf 55 cc 73 bf af 61 ae be 5a 8b 5b 3e
       -0.75337344 -0.9523366 -0.34058902 0.21439877
000110 a6 bf 0d 3f 3e a3 57 bf 42 76 2c be ea be 23 bf
       0.5537056 -0.8423346 -0.16841987 -0.63963187
000120 46 46 c1 3e 35 06 b0 bf 46 40 5e be 42 b7 8d bf
       0.37748927 -1.3751894 -0.21704206 -1.1071551
000130 41 d5 e6 3e 81 74 41 3f 93 3e fb 3e 4b 5c 4b bf
       0.45084575 0.75568396 0.49071178 -0.794377
000140 f2 ef 84 3f 74 5b 5d bf 51 dd 49 3e cd 02 64 bf
       1.0385725 -0.8646767 0.19713332 -0.89066774
000150 0e 7f 06 bf c0 75 3a bf 46 97 1b bf 0c 76 0e bf
       -0.5253762 -0.7283592 -0.607777 -0.55648875
000160 1b fa 1a bf 12 ba 4e bf 32 2a 2a 3f 7b 15 80 3e
       -0.6053788 -0.8075267 0.66470635 0.25016388
000170 b2 c0 dc be a1 e7 b1 bf 65 3f 9a 3e b1 22 9e be
       -0.43115765 -1.3898813 0.3012649 -0.30885842
000180 38 f3 20 bf f5 c5 3f 3f 37 e3 51 bf 7c 0e 86 bf
       -0.6287112 0.74911433 -0.8198733 -1.047317

submodules.PCE_pred.3.weight f4 [1, 100]
000000 22 32 82 3e 91 72 51 c0 b9 be 1b 3f 62 e1 4f 3f
       0.25428873 -3.2726176 0.60837895 0.8120328
000010 dd f4 b2 3f cf 27 0c 3f 71 bf b0 bf 1d 1f 09 3f
       1.3980976 0.54748243 -1.3808423 0.535631
000020 b5 ac ce bf 63 1b b9 3e 50 d7 4e 3e 6f c6 2d c0
       -1.6146456 0.36153707 0.20199323 -2.7152364
000030 9c 88 e4 3f 52 9d 4c 3e fe 2f 94 3e 28 d8 4f bf
       1.785419 0.19981888 0.28942865 -0.81189203
000040 8c da b1 bf 68 49 9f 3f 3b e2 d8 3f e5 2a 84 c0
       -1.389482 1.2444277 1.694404 -4.130236
000050 39 09 36 bf 52 67 96 3e 09 8c 65 3f df 04 38 3f
       -0.7110782 0.29375702 0.896668 0.7188243
000060 8f 02 9d 3e 27 87 7e bf 01 c2 aa bf 00 0b da bd
       0.30666015 -0.99424976 -1.3340455 -0.10646629
000070 cc 5d 72 bf ae 0b 8a 3f 5e 21 b1 be 5a fb 44 3f
       -0.9467437 1.0784814 -0.3459577 0.7694603
000080 0a a6 83 3e 4c af 2f 3f 9a 5a 2d bf ea 6a 90 40
       0.25712615 0.68626857 -0.6771637 4.513051
000090 c1 30 96 3f 46 27 de 3e 12 10 0a 3e 8f 1a 58 3f
       1.1733629 0.43389338 0.13482693 0.84415525
0000a0 15 37 8a bf f3 0a 1f 3f 53 80 cf 3f 4a b8 19 c0
       -1.079806 0.6212608 1.6211036 -2.401873
0000b0 ae 51 c3 3f f6 9f 7f bf 66 1d 58 bf 52 76 9d bc
       1.5259302 -0.99853456 -0.8441986 -0.019221459
0000c0 72 1b a4 bf f3 f6 db 3e c0 89 00 c0 54 08 c5 bf
       -1.2820876 0.42961845 -2.0084076 -1.5393167
0000d0 ef 10 e0 3e 9c b0 07 c0 0a 48 f1 bf c7 54 2e c0
       0.4376292 -2.1201544 -1.885011 -2.7239244
0000e0 45 f0 01 c0 a8 8d 71 40 02 00 39 3f 65 0b 66 40
       -2.03029 3.774271 0.72265637 3.5944455
0000f0 8a b1 c0 bf 35 bd 61 be 7b e1 c5 bf 01 a6 93 3e
       -1.5054181 -0.22044833 -1.5459436 0.28837588
000100 f9 07 a8 bf 43 86 ee bf dc 43 f9 be 58 90 25 3f
       -1.3127433 -1.8634723 -0.48684585 0.64673376
000110 2d ce 16 3f 7e 8b b7 be c0 c6 2d 3f 4e 09 85 3f
       0.5890835 -0.35848612 0.67881393 1.0393465
000120 c3 e5 0c 3f a8 c9 36 c0 ff d8 a0 3f ba a3 8a 3f
       0.5503809 -2.8560581 1.2566222 1.0831215
000130 5f fc 7f 3f f9 54 eb 3e 75 37 93 3e 88 72 bd bf
       0.9999446 0.45963266 0.28753248 -1.4800577
000140 76 50 a4 3e 9e d3 af be 00 39 b7 3e 83 25 df be
       0.32092637 -0.3434114 0.35785675 -0.43583307
000150 14 b3 82 bf 60 61 b3 bf 75 26 01 bf 5e 90 d1 be
       -1.02109 -1.4014091 -0.50449306 -0.40930456
000160 df 2c 93 bf dd 84 15 bf 22 d8 22 3f 50 61 6d 3e
       -1.1498069 -0.5840586 0.6361104 0.23181653
000170 c0 7f 9a bf ae 98 8a be dd c0 c2 3f 5c 6e 4a 3f
       -1.2070236 -0.2706961 1.5215107 0.79074645
000180 9b 21 2d c0 fd ed e1 3e 43 b9 a5 bf a1 57 c0 bf
       -2.705176 0.44126883 -1.2947162 -1.5026742

submodules.latents_pred.0.weight f4 [12, 2]
000000 58 14 1a bb 14 da 81 39 4f 3d 19 be b9 c7 8c 3d
       -0.002351066 0.00024767278 -0.14964794 0.068740316
000010 20 a2 9c bc 3e ec 4d bc 56 ac 59 bf b9 2b c6 bd
       -0.019120276 -0.012568532 -0.8502859 -0.09676308
000020 1a 50 48 bf cd 69 e2 bd d0 cb 76 3f f7 49 25 3e
       -0.78247225 -0.11055336 0.96404743 0.16141497
000030 0c 05 94 3b 50 2e e3 3a 51 c1 a3 bf d8 b6 96 be
       0.004517203 0.0017332528 -1.279337 -0.29436374
000040 7f f1 ae be 30 b2 dc bd d6 aa d1 3e eb ea 02 3e
       -0.34168622 -0.10776174 0.4095065 0.12784927
000050 25 02 54 be 0c 1c 33 bd cb 2e b4 3e 7e a8 e1 3d
       -0.20703943 -0.04372792 0.3519195 0.110184655

submodules.latents_pred.0.bias f4 [12]
000000 94 88 7d 3e 3b ca 43 3e f4 fe 82 be 1f 81 a2 be
       0.24759132 0.19120114 -0.2558514 -0.31739137
000010 1c bf 9c be e3 f0 be 3e 91 da 74 be ae b1 9a be
       -0.30614555 0.37293157 -0.23911501 -0.30213684
000020 7f 5d fa be 9e 21 09 3f c7 d5 2b be 4c cb 00 3f
       -0.48899457 0.5356692 -0.16780768 0.50310206

submodules.etm_pred.0.weight f4 [7, 2]
000000 63 e6 f9 40 b4 f8 0d c1 30 a3 95 3f 98 4c 74 c0
       7.8093734 -8.873219 1.1690426 -3.817175
000010 45 fc 1a 41 0e 84 4e c0 b5 5e 11 c1 38 35 07 40
       9.686589 -3.22681 -9.085622 2.1126232
000020 7a f5 b9 c0 c6 41 4e 41 b9 41 ca 40 d2 45 2f 41
       -5.8112154 12.891058 6.320523 10.954546
000030 4a b4 2e c1 e2 46 16 c1
       -10.919016 -9.392305

submodules.etm_pred.0.bias f4 [7]
000000 d6 c4 03 c0 df 22 7f 40 d3 71 2e 3e a5 2b 6e be
       -2.058889 3.9865034 0.17035608 -0.23258837
000010 1a ce 5d c0 8f 26 af 3e 83 28 0b c0
       -3.4657044 0.34209105 -2.1743476

submodules.htm_pred.0.weight f4 [4, 2]
000000 7c 84 2f 41 5b a0 2f 3f b8 6b bf 40 87 11 28 c1
       10.969845 0.6860406 5.9818993 -10.504279
000010 2d 39 21 3f 11 4d 0f 3f e7 36 1e c1 f3 1f 0c 41
       0.6297787 0.5597697 -9.888404 8.7578

submodules.htm_pred.0.bias f4 [4]
000000 53 35 05 c0 5d 6c 86 c0 b4 be ce 3f e6 cf 5d 3f
       -2.0813797 -4.200728 1.6151948 0.8664535

exp_avg f4 [2, 23]
000000 25 99 17 3e 73 b6 b4 3d bf 5f 49 be 0c 7c 0f bc
       0.14804514 0.08823862 -0.1966543 -0.008757602
000010 bd 69 8b bc 1e eb 96 3c 7d 7c 31 be f3 b1 21 be
       -0.017018193 0.01842266 -0.17332645 -0.15790538
000020 41 26 c3 3d cc 34 d3 bd 8d 42 1f 3e 57 84 bb bd
       0.09528781 -0.103128046 0.15552731 -0.09156101
000030 03 9d d7 bd 75 ef 97 3d 41 a5 72 3c 31 55 9e 3c
       -0.105279945 0.0741872 0.014809907 0.019327732
000040 c5 e4 e2 3c b5 b4 39 be 44 b2 d9 3c 54 02 e5 3d
       0.027696976 -0.1813534 0.026574261 0.11182085
000050 c5 8a bf bd 88 7e cc bc b9 a7 e7 bd df a3 9b bc
       -0.0935264 -0.024962679 -0.113112874 -0.018999038
000060 7f 4b a2 bd 92 3b a4 bb 87 07 f2 bd 14 59 e3 bd
       -0.07924556 -0.005011984 -0.11817842 -0.11100975
000070 d1 e1 06 3e 7a c8 28 3c 24 11 c5 be 7d 7b c0 bd
       0.1317208 0.010301704 -0.3848964 -0.093985535
000080 5f 98 0f 3e f0 67 f9 ba 24 9b d7 3d 41 0d 68 bc
       0.14022969 -0.0019028168 0.105276376 -0.014163316
000090 b2 14 05 bc e5 93 8f 3c 9c 65 91 bb a4 39 da bc
       -0.00812261 0.017526576 -0.0044371616 -0.026638813
0000a0 e6 f1 34 3d b3 9b 03 be 3c 55 ae 3d f4 2a 33 3c
       0.044176005 -0.12852363 0.08512351 0.010935534
0000b0 6e e5 ab bc af 7b 47 be
       -0.020983424 -0.19480775

exp_avg_sq f4 [2, 23]
000000 34 1d 11 40 5e 99 b0 3f cd 11 23 40 91 ae 35 3f
       2.2674074 1.3796804 2.5479615 0.7096949
000010 46 9c 40 3f 1e 29 23 3f 39 9f 1d 40 af 6d 11 3f
       0.75238454 0.63734615 2.4628432 0.5680799
000020 41 59 d3 3e da 44 ef 3e d7 83 b9 3f b2 a4 da 3e
       0.41279033 0.46732217 1.4493359 0.42703778
000030 89 c6 38 3e aa 6a 86 3d c1 ca 32 3d 26 69 40 3c
       0.18044485 0.06563313 0.043650392 0.011743819
000040 53 08 c3 3b ad 88 78 3e 33 3f 55 3d c9 9f 6f 3d
       0.00595192 0.24270888 0.052062225 0.058501992
000050 30 70 64 3e 7c bf 07 3d b0 e7 99 3e 0c 48 62 3e
       0.22308421 0.033141598 0.30059576 0.22097796
000060 41 db 53 3e 95 ad 6b 3e bd b1 8d 3f e0 cd 7f 3f
       0.20689107 0.23015435 1.1069866 0.99923515
000070 f5 3d a0 3f 11 ef 75 3e ed ac 01 40 b5 df fe 3f
       1.2518908 0.24016978 2.0261796 1.991202
000080 df cf 07 40 e7 2d 2f 3f b7 02 03 40 7f 0c a0 3b
       2.1220624 0.68429416 2.0470407 0.004884302
000090 fd 26 35 3c 7d 5a 4f 3c 28 aa 4f 3c e7 b0 40 3d
       0.011056659 0.012655851 0.012674846 0.047043707
0000a0 2f 5e a6 3d d7 e4 e2 3f af c0 fb 3b bc 13 a9 3c
       0.08123433 1.7726086 0.007682882 0.020639293
0000b0 c0 a7 ba 3d 00 45 ec 3f
       0.09114027 1.8458557

exp_avg f4 [2]
000000 65 0c 04 be f0 35 f5 bd
       -0.12895353 -0.119731784

exp_avg_sq f4 [2]
000000 8a 9b 1e 3f 75 50 fc 3f
       0.61956084 1.9712054

exp_avg f4 [100, 2]
000000 e5 50 9e 3b ab cc 20 ba 7d 6a e8 3a b2 ea 95 bb
       0.0048314207 -0.00061340135 0.0017731931 -0.004575097
000010 89 e2 4c 3c a1 cd 93 3a e3 27 0f 3c f1 c5 aa 3a
       0.012505182 0.0011276492 0.008737537 0.0013028962
000020 6c 9f c9 3b 45 8a 3e 3c 40 4c cd 3b 62 6c 8e ba
       0.006153038 0.011629646 0.006265193 -0.0010866041
000030 54 8b 0f bc 59 04 89 bc 02 13 0c ba c4 10 84 3b
       -0.008761246 -0.016725706 -0.00053434086 0.004030319
000040 69 5c b8 bb 30 18 e9 bb ee a9 42 3a 11 50 6e 38
       -0.0056262505 -0.007113479 0.0007425834 5.681819e-05
000050 5a 0f 2a 3b 71 6f 5c 3a 1c 31 bd bc 9e 32 8e 3c
       0.0025949092 0.000840894 -0.023094706 0.01735812
000060 3a f7 44 3d 06 a6 bc 3a 7d 43 02 3b 1f 27 17 39
       0.048087336 0.001439274 0.0019876652 0.00014415056
000070 b6 be 8d 3b 57 1a ca ba 83 6f 3d bc 6e 9e 40 3c
       0.004325713 -0.0015419227 -0.011562231 0.011756523
000080 c6 d8 64 bb 67 c2 c1 bc 27 3d 54 bb db 66 3e 3c
       -0.0034919246 -0.023652269 -0.0032385082 0.011621202
000090 6f 09 a4 3c 32 c8 c2 b8 96 3f b1 3c 4a 7b 31 3c
       0.02002403 -9.28793e-05 0.021636765 0.010832617
0000a0 04 00 00 00 04 00 00 80 8f 20 4e b9 08 26 23 3b
       6e-45 -6e-45 -0.0001965782 0.0024894495
0000b0 1c b3 86 3c 50 f6 12 3c 67 ff e5 ba 75 cd c1 3b
       0.016442828 0.008969858 -0.0017547429 0.005914385
0000c0 4d 3b 48 3c 7c 42 29 bb a3 6d 0b bc bb 63 44 3c
       0.01222117 -0.0025826981 -0.008510026 0.011986668
0000d0 04 00 00 00 04 00 00 80 1a 5f 2e 39 a0 a4 f1 b3
       6e-45 -6e-45 0.00016629361 -1.1252382e-07
0000e0 cf 77 8b 3a cd f7 1e 39 77 6e 0e 3c e9 c4 66 3c
       0.0010640564 0.00015160367 0.008693329 0.014085033
0000f0 ad 3a 17 bc 1a 9a 7a 3b 72 f9 08 bb f9 18 1a 3c
       -0.009230298 0.0038238824 -0.0020900634 0.009405368
000100 2d 3d 5c 3b 47 e7 62 3a bb b9 68 3c 39 22 58 bb
       0.00336058 0.0008655679 0.014204438 -0.0032979383
000110 2f aa 8b bc 82 a9 fe 3b 66 05 1f bd cd b7 49 3d
       -0.017048923 0.0077716717 -0.038823508 0.04924755
000120 00 e7 b9 3c 1a 34 4c 3c 49 e0 05 3c 8d 14 5b 3b
       0.022693157 0.012463594 0.0081711495 0.0033428997
000130 b4 00 42 3b f5 e9 23 ba 01 4d 40 3c 22 bb 94 3b
       0.002960247 -0.0006252819 0.011737109 0.0045389095
000140 55 a1 8c bb ef e9 97 bc 6e 13 1e 3c b0 90 4a 3b
       -0.004291693 -0.018544165 0.009648187 0.0030908994
000150 66 64 27 3b d5 70 71 3c c1 23 cb bb c6 07 69 bc
       0.002554202 0.014736374 -0.0061993306 -0.014223045
000160 93 1a 23 3d 25 bf 15 3c 7a c6 04 3b ed 97 01 3a
       0.039820265 0.009139811 0.0020259903 0.0004943598
000170 5b 30 2a bc 53 6e 56 3c 4b 76 05 b8 fe 7f 87 37
       -0.010387505 0.013087827 -3.181984e-05 1.6152855e-05
000180 4f df 97 ba 0a 09 f2 39 25 f4 ab 3b 84 ff 42 3b
       -0.0011586937 0.00046164572 0.00524761 0.002975435
000190 4e 01 0a bc d2 c2 26 bc bb d9 c3 3a 3c 2b 8c 3b
       -0.008423163 -0.010178285 0.0014942208 0.004277615
0001a0 32 54 0f 3c e5 6f 53 3b ff 13 ca 3b b4 de 37 ba
       0.008748101 0.003226274 0.0061669345 -0.00070140813
0001b0 f5 c3 00 37 da e3 89 bc e7 44 86 bc 6b a8 74 bc
       7.675019e-06 -0.01683228 -0.016390277 -0.014932732
0001c0 48 0e 17 bc 13 3f 61 bc fd 19 9c bc 6b 27 71 3c
       -0.0092197135 -0.013747948 -0.01905536 0.014718871
0001d0 5d 00 d2 3c e0 92 46 bb 42 95 0a 3d aa a5 ec 3b
       0.025634939 -0.0030299947 0.03383375 0.007221897
0001e0 00 7a 7a 3b 00 c9 26 3a 73 6e 31 3a 81 e6 a7 ba
       0.003821969 0.0006362349 0.00067684724 -0.0012809784
0001f0 13 52 17 3b 17 96 24 39 f7 9d 91 3b c8 5f 8b 3b
       0.0023089692 0.00015696172 0.0044438797 0.0042533614
000200 a7 53 b1 b7 7c ae e3 b8 d4 9d eb bb 3a 4f 54 bb
       -2.1138998e-05 -0.00010856704 -0.0071904454 -0.0032395856
000210 c0 e0 9f bb 27 c9 00 3c 66 2e 82 3b 09 35 93 3b
       -0.004879087 0.007860458 0.0039728163 0.0044924063
000220 36 9e 85 3c e3 81 d1 bb 1c 11 a5 39 60 7b 4b ba
       0.016310792 -0.0063936575 0.00031484 -0.000776222
000230 fb 0a 41 39 a9 bb bc 3b 61 09 4f b8 f5 ee 1a 3c
       0.00018410005 0.0057596755 -4.936138e-05 0.009456386
000240 1f d2 cc ba a2 38 a2 39 52 b9 0b 3b 1b c8 0e ba
       -0.0015626586 0.00030941243 0.0021320176 -0.0005446688
000250 60 39 24 3c 62 38 bd bb c1 07 57 3c f4 55 1b 3b
       0.010023445 -0.0057745436 0.013124407 0.0023702355
000260 65 7b aa 3c 83 b0 04 3c a5 ab 03 3c 5b 05 6e 3a
       0.020810792 0.008098724 0.008036529 0.00090797775
000270 93 8a 82 3b 5a 70 40 ba 89 80 75 bb 7b a3 08 3b
       0.0039838045 -0.00073409604 -0.0037460646 0.0020849395
000280 ee 6e c3 3b ce 59 41 3b 28 ec 9d 3a b8 47 7f ba
       0.0059641516 0.002950299 0.001204853 -0.0009738165
000290 5a 64 1a 3c ed ac 15 3b 16 00 80 3a 81 59 7f ba
       0.00942334 0.0022838668 0.0009765651 -0.0009740815
0002a0 fd 70 c5 3a 35 ff 74 39 4c 14 9f 3a 07 61 11 39
       0.001506358 0.00023364725 0.0012136786 0.00013864423
0002b0 0b 86 5f 3a a9 6b d2 ba 8c 8d be bb 21 f8 b8 3b
       0.0008526749 -0.0016053814 -0.0058152135 0.0056448136
0002c0 3f 16 3c 39 dc 2d 3a bc cd 55 3a 3b 50 65 3e bb
       0.00017937364 -0.011363473 0.002843249 -0.0029052086
0002d0 83 45 75 3b 8d 54 65 3a 16 79 4a 3b f3 ae 00 3a
       0.0037425465 0.0008748256 0.0030894927 0.0004908882
0002e0 7d 36 3b 3b d1 ba b3 b9 19 26 48 3a eb 64 e8 ba
       0.0028566413 -0.0003428073 0.00076350715 -0.0017730271
0002f0 a6 cf fb 3c 7b ad 22 3c 3a 57 b9 3c d3 87 c3 3b
       0.030738663 0.009929056 0.0226246 0.0059671192
000300 76 1a 86 3c 64 39 69 bc 0d aa 40 3c 8f e2 85 3a
       0.01637004 -0.014234874 0.011759293 0.0010214614
000310 7e 18 0f bb 41 e6 7f bc 42 ae c1 3b c0 62 a4 ba
       -0.0021834667 -0.015618862 0.0059106657 -0.0012541637

exp_avg_sq f4 [100, 2]
000000 f2 bf a0 39 36 e7 94 39 92 54 cc 3c 03 93 96 3c
       0.00030660589 0.00028401025 0.02494267 0.018380648
000010 ed 3b f9 3a cd c6 f3 3a 84 b6 68 39 03 67 a1 3a
       0.0019015052 0.0018598676 0.00022193237 0.0012314025
000020 f4 60 de 3a ab 6d 47 3b b2 b0 97 3a b4 8d 54 3a
       0.001696615 0.0030430357 0.0011573045 0.00081082736
000030 f0 13 46 3a 7e 2e ef 3a fb 43 88 39 4f d3 f5 39
       0.00075560715 0.0018248109 0.0002599059 0.0004688748
000040 7b 83 c2 3b ff 16 93 3b f2 a1 04 3a 36 0e b9 39
       0.005936084 0.0044888253 0.0005059532 0.00035296538
000050 fb 4d 3b 39 94 d2 0c 39 d8 af 89 3c 4b 19 52 3c
       0.0001786276 0.00013429887 0.016807482 0.012823413
000060 70 d0 7f 3c 55 02 61 3c 65 e1 43 38 81 54 a6 38
       0.01561366 0.013733466 4.6701538e-05 7.931237e-05
000070 54 10 c0 39 cd a2 30 39 76 16 34 3b 37 d5 98 3a
       0.0003663326 0.00016845316 0.0027479208 0.0011660223
000080 49 10 d9 38 44 9a f5 3a 13 0b b2 3a 9b f8 1f 3b
       0.000103504 0.0018737991 0.0013583623 0.0024409655
000090 15 b8 08 3c 0b b2 9e 3b 7f e0 79 3c fc fb 9d 3b
       0.00834467 0.0048430017 0.015251278 0.0048212986
0000a0 c5 f9 89 2a 47 04 5f 2b 1e 87 9a 38 52 3a 0d 39
       2.45094e-13 7.923145e-13 7.36846e-05 0.00013468534
0000b0 d0 ab 86 3b 66 7d 81 3b 5f 3d bd 39 e2 56 c8 39
       0.004109837 0.0039517162 0.00036094614 0.00038211705
0000c0 d3 de ef 39 f8 e6 c9 39 41 24 db 39 22 76 37 3a
       0.0004575165 0.00038509793 0.00041797946 0.0006998499
0000d0 82 ac 93 2d 5e d8 48 2e f7 6e 1a 37 f5 13 a6 37
       1.6788574e-11 4.5666908e-11 9.204951e-06 1.9798035e-05
0000e0 1f d7 8c 39 1d 9d cb 37 44 e1 c6 3b af 96 b6 3b
       0.0002686316 2.4272647e-05 0.006069334 0.005572162
0000f0 da b0 08 3a ce c5 5e 39 95 78 e6 39 2c ff f4 39
       0.0005214341 0.00021245258 0.0004395886 0.00046729425
000100 0a da a2 39 54 da a4 39 b4 98 21 3b 1d d3 14 3b
       0.000310615 0.00031443185 0.0024657669 0.002270884
000110 cc 49 07 3b bf 4e 6a 3a 60 54 bf 3b 4f c0 02 3c
       0.0020643352 0.00089381257 0.0058389157 0.00798042
000120 64 b4 c7 3b 30 c7 8f 3b 78 a0 81 3a 4a 60 6f 3a
       0.0060945023 0.0043877587 0.0009889742 0.00091314747
000130 09 b9 9c 38 d9 a9 8b 38 fb 2e 70 3b 91 1e 63 3b
       7.473125e-05 6.659673e-05 0.0036649096 0.003465567
000140 80 d6 08 3a a8 c2 8d 3a a3 53 e1 3a fc 2c 9e 3a
       0.0005219951 0.0010815458 0.0017191063 0.001206785
000150 cd 48 08 3b 56 12 fc 3a 94 e0 54 3c e7 7b 1b 3c
       0.0020795346 0.0019231539 0.012992997 0.00948999
000160 aa 8d 47 3c 67 b3 39 3c 55 16 ad 39 41 00 28 38
       0.012179771 0.011334277 0.0003301377 4.0054558e-05
000170 85 26 4a 3a 9b 6d 1b 3a b4 af ee 34 d0 e1 5c 35
       0.00077114283 0.0005929113 4.4458795e-07 8.2284987e-07
000180 1b 27 03 3a 99 38 28 38 b6 5c 50 3a d0 c9 1b 3a
       0.00050030806 4.0107032e-05 0.00079483853 0.0005942853
000190 3f 71 17 3c e9 49 e4 3b 98 eb 84 3a 62 8b 69 3b
       0.009243309 0.0069668186 0.0010141013 0.0035636057
0001a0 4e ed 79 3a b0 af 76 3a 13 6b 24 3c f2 20 fd 3b
       0.00095339573 0.0009410335 0.010035294 0.0077248747
0001b0 ff 3f 32 38 a0 45 c3 39 ea 02 8f 3c 5e 17 57 3c
       4.2498108e-05 0.00037245173 0.017457444 0.01312813
0001c0 92 c0 1a 3c 47 79 e8 3b 03 64 39 3d 08 89 17 3d
       0.009445326 0.0070945355 0.045261394 0.036995918
0001d0 5d 92 2c 3b 9d 98 17 3b 78 05 89 3b c6 1f cf 3c
       0.0026332357 0.0023131736 0.00418156 0.025283705
0001e0 01 f1 a3 3b 86 29 77 3b c1 8c 01 38 3f d6 ab 38
       0.005003095 0.003771396 3.0887084e-05 8.193822e-05
0001f0 2f d2 40 3a 6a 7c 6f 38 18 ec dc 39 e7 67 b2 39
       0.00073555385 5.709791e-05 0.00042137573 0.0003402822
000200 96 18 0e 3a 6b 6c 38 38 48 a3 83 3b bd 12 c5 3a
       0.00054205337 4.396999e-05 0.0040172674 0.0015035492
000210 59 8e 88 39 de 43 51 39 19 ce f0 39 c8 4e 8e 3a
       0.00026046 0.00019957076 0.00045929922 0.0010857219
000220 57 82 e8 3a f4 6b ca 3a 2f 0d a8 38 1d 09 5f 39
       0.001773904 0.001544355 8.01332e-05 0.00021270332
000230 d6 7c df 39 8b cb 4c 3a 9a 91 52 3a 12 4d 69 3a
       0.00042626885 0.00078123127 0.00080325606 0.0008899729
000240 14 5d 99 3a 6d 43 54 3a 76 f8 28 3b b7 3c 2d 39
       0.0011700713 0.00080972054 0.002578286 0.00016521184
000250 4f d0 ab 3a d5 9f 04 3b 91 3e bb 39 c8 f2 03 3b
       0.0013108345 0.002023687 0.00035714035 0.0020133723
000260 50 42 a8 3b b3 43 9c 3b 42 b4 92 3a 25 1d 72 3a
       0.005134858 0.0047688126 0.0011192637 0.000923591
000270 a8 e1 b0 39 90 f3 8b 39 46 10 aa 3b e8 03 1e 3b
       0.00033737463 0.00026693614 0.005189928 0.0024111215
000280 ac 90 0a 3a 71 78 fe 39 b5 cd 93 38 25 ba 4b 39
       0.000528584 0.0004853639 7.047822e-05 0.00019428933
000290 4f 66 0d 3a 6f d8 d9 39 2f 9f 00 39 7b 85 ae 39
       0.00053939683 0.0004155072 0.00012266332 0.00033287317
0002a0 1c ff a0 39 9d 72 e8 37 a0 0f 1b 3a b3 b8 3d 38
       0.0003070765 2.7709926e-05 0.0005915109 4.5233126e-05
0002b0 b3 d2 2f 39 ad 35 e9 39 10 dc 97 39 fe 08 28 39
       0.00016767792 0.00044481215 0.00028964924 0.00016025078
0002c0 30 27 8f 38 1c 5d a1 3a 50 95 20 39 c2 f2 0b 3a
       6.8260706e-05 0.0012311074 0.00015314412 0.0005338603
0002d0 b3 45 fe 3a 09 17 fb 3a a3 43 81 39 c8 60 44 39
       0.0019399434 0.0019156645 0.0002465519 0.0001872807
0002e0 e4 13 e8 39 66 c8 26 38 44 c1 4b 38 7a 14 08 39
       0.00044265308 3.976412e-05 4.8578964e-05 0.00012977599
0002f0 d8 99 3d 3c 1c a2 35 3c fc a3 c7 3a 83 70 c8 3a
       0.011572324 0.011086013 0.0015231366 0.001529232
000300 7e ad 84 3c d5 f9 42 3c e5 c1 8c 3a 8e f1 6d 3a
       0.016196009 0.011900385 0.0010738937 0.0009076827
000310 f7 8a c1 38 09 a1 d0 3a 04 f3 ac 3b 21 97 79 3b
       9.2288414e-05 0.0015917133 0.005277993 0.0038084465

exp_avg f4 [100]
000000 f2 f4 d8 bb 70 33 1f 3c 25 5e 26 bc 08 3b 9e 3b
       -0.0066209966 0.0097168535 -0.010154282 0.0048288144
000010 2f 6b bc 3c 0f c8 fc ba f2 d0 1e bd a4 3e 96 3b
       0.023000328 -0.0019285696 -0.038773485 0.004585104
000020 4d d7 61 3c e3 09 22 39 1d a5 7f ba e7 21 fc bb
       0.013784242 0.00015453207 -0.0009752082 -0.007694471
000030 86 b0 3b bc 9b f9 87 3a 27 30 f1 bb 3e b6 ad 3c
       -0.011455661 0.0010374071 -0.0073604765 0.021205064
000040 0a 05 0f bd 98 73 96 ba 73 4a 34 bc fe 4b da bc
       -0.034916915 -0.0011478541 -0.011004078 -0.026647564
000050 04 00 00 00 0a 5c fa 3a 55 48 1c bc ff a4 01 bb
       6e-45 0.0019100916 -0.00953873 -0.0019782183
000060 0f 32 96 b9 f9 41 93 3c 04 00 00 00 1e b3 1a b9
       -0.00028647526 0.017975794 6e-45 -0.00014753311
000070 45 8c 04 3b aa 07 18 3b fd 17 6d 3c 6a bd ff 39
       0.0020225209 0.0023197928 0.014471051 0.00048778515
000080 2f 0d e3 ba fb 09 8a 3a 2b 7d d9 3c 68 bb 71 bd
       -0.0017322655 0.0010531539 0.026548943 -0.059016615
000090 91 b1 91 bb 40 75 7d bb 2d 62 06 bb 79 44 6a 3c
       -0.0044462164 -0.0038674623 -0.0020505295 0.014298552
0000a0 31 69 02 bd 19 61 f8 3a b9 86 6d 3c b2 16 d4 3c
       -0.0318386 0.0018949836 0.014497452 0.025889728
0000b0 42 a5 10 3b a0 c9 69 3b dc d5 a6 3c f8 57 34 b9
       0.0022071158 0.0035673156 0.020365648 -0.00017198909
0000c0 b5 42 8a ba 86 30 f1 3a d7 87 a8 3c 65 11 00 bc
       -0.0010548445 0.0018401302 0.020572586 -0.007816647
0000d0 84 20 ca bb 6b 61 55 3a 0b fe b6 bc 89 7e ff 3c
       -0.006168427 0.00081398216 -0.022337934 0.031188266
0000e0 aa ec d8 3c da a4 e1 bc 58 aa e4 bb 87 5f 94 3c
       0.026480038 -0.027544428 -0.0069783144 0.018111957
0000f0 16 fb 77 3a af 7f c3 3a 48 51 87 3b 05 22 ee 38
       0.0009459717 0.0014915372 0.0041295625 0.00011355061
000100 26 0e dd 39 af 77 1d 3c 17 4b 2b 3c 1e 0d 3b bb
       0.00042162946 0.009611054 0.0104549145 -0.0028541754
000110 71 87 6b bb 8c c3 8c 3a 50 c8 b0 3b a5 72 a9 3b
       -0.0035938884 0.001073943 0.005394973 0.0051711374
000120 64 29 cc 3a 9a 7b 86 3b e2 1b c0 3c 22 18 e6 3b
       0.00155763 0.00410409 0.023450796 0.00702192
000130 5c 97 c8 3a 50 b6 72 39 2c 91 f1 ba f6 53 a5 ba
       0.0015303898 0.00023146835 -0.0018430105 -0.0012613523
000140 d1 40 a2 3b f5 6d b5 3a 45 95 fc bb 90 76 d0 3a
       0.0049515744 0.0013841974 -0.007708224 0.0015904475
000150 0c e8 33 3b d6 c2 20 3b 26 f2 15 3b 03 57 30 3c
       0.0027451543 0.0024530194 0.0022879927 0.010762933
000160 fc 13 71 bc 34 40 55 3b 2d 0a a0 3a ce 00 0a b9
       -0.014714237 0.0032539489 0.0012210064 -0.00013161005
000170 1a fe 9a 3b 5d 37 0c 3b 24 3a 5c bc 21 98 4e bc
       0.0047299983 0.0021395304 -0.013441596 -0.012609513
000180 18 ef 85 3c f8 ff c1 3b a2 a5 bb bc f0 59 c1 3a
       0.01634936 0.0059204064 -0.022906128 0.0014751535

exp_avg_sq f4 [100]
000000 6c 70 68 3a 00 38 53 3d a1 b0 bd 3b 0c 3a 32 3b
       0.000886685 0.051567078 0.005788878 0.0027195243
000010 c7 2b f9 3b 4f 11 31 3b dd d0 bc 3b fe b4 99 3a
       0.0076040956 0.0027018373 0.005762203 0.0011726914
000020 78 1d 4d 3c 18 c5 9d 3a 6f 64 01 3a 71 cf 11 3d
       0.012519233 0.0012036888 0.0004935925 0.035598222
000030 8f 20 40 3d 19 ac 74 39 6c 0d 48 3a 0c 43 b8 3b
       0.04690605 0.00023333765 0.00076313945 0.005623227
000040 c7 26 90 3b 32 0e c6 3b cb 8c 84 3c 4e 2e c7 3c
       0.004399154 0.0060441727 0.016180417 0.024314072
000050 51 69 7e 2b 05 23 ab 39 e3 81 4c 3c 63 2e a1 3a
       9.0385083e-13 0.00032641753 0.012482139 0.001229715
000060 3c 97 ab 3a d1 10 d3 3a 94 8a 68 2e 32 3d 2c 38
       0.0013091336 0.0016103034 5.2873775e-11 4.106499e-05
000070 a9 46 18 3a 97 be 92 3c 2e fe 8a 3a 1b c0 cc 3a
       0.0005808869 0.017913146 0.0010604316 0.0015621217
000080 a6 8d 75 3a cc 8a ef 3b 1a b9 88 3b bf 5d 7e 3c
       0.00093671156 0.007310247 0.0041724565 0.0155252805
000090 ef cd 88 3c 3d 31 40 3b 28 31 6a 39 29 49 39 3c
       0.01669976 0.0029326223 0.00022334291 0.011308947
0000a0 c1 5b 7f 3b 0b d5 99 3b 95 4b df 3b ea c7 da 3c
       0.0038964602 0.004694586 0.00681443 0.026706655
0000b0 2e 22 14 3d 4a b3 49 3a 77 c5 10 3b 5d b6 03 36
       0.03616541 0.00076942577 0.0022090354 1.962667e-06
0000c0 70 b6 8d 3a e6 c5 12 3b 82 94 9f 3c 2a 08 bd 3b
       0.0010811817 0.0022395789 0.019479994 0.0057687955
0000d0 8c fe 40 3b 09 97 af 3c 5d 08 2c 3a 46 68 17 3d
       0.0029448597 0.021434324 0.00065625255 0.036964677
0000e0 5c d3 a3 3c 1e c0 d5 3d 92 d0 01 3c e7 6e 62 3d
       0.019998245 0.10437034 0.007923262 0.055281546
0000f0 21 90 2b 3c 82 b4 11 39 fa 33 cf 3a 42 b0 a1 3a
       0.010471375 0.00013895522 0.0015808337 0.0012335854
000100 8a b0 99 3a 57 99 d2 3b ad 9f 44 3a 9f 31 3d 3b
       0.0011725586 0.006426971 0.00075006 0.0028868688
000110 63 2d ab 3b 8a 34 bf 39 79 00 fa 3a e3 87 38 3b
       0.0052239164 0.00036469504 0.0019073627 0.0028157167
000120 f5 9b 39 3b b3 ae b2 3b b6 ac a4 3b 35 a2 90 3b
       0.0028321717 0.0054529547 0.0050254716 0.004413868
000130 40 70 81 3c 28 d3 51 3b 5d 14 78 3a 9f 05 1a 3c
       0.015800595 0.0032016728 0.00094634836 0.009400754
000140 75 fc d0 3a e0 15 ac 39 b9 37 c9 3a 73 b1 13 3a
       0.0015944379 0.00032822695 0.001535169 0.0005634047
000150 ee e1 2d 3a f2 f3 a6 3a ec 1c 45 3a 53 5b 3c 3a
       0.00066330924 0.0012737496 0.00075192633 0.0007185239
000160 e1 4c 3c 3b 79 a8 61 3a af 3b c4 3b 53 2d 31 3a
       0.0028732347 0.0008608173 0.00598856 0.0006758768
000170 36 a0 7a 3a a8 c9 66 39 ba 19 11 3d a7 36 a5 3b
       0.00095606165 0.00022009632 0.035424925 0.0050419155
000180 38 a9 06 3d 26 9f 4a 3b 67 68 75 3b d1 bb 2f 3c
       0.032876223 0.0030917614 0.0037446262 0.010725931

exp_avg f4 [1, 100]
000000 28 75 52 bd 15 f9 85 3a 90 4e c3 bb 6e 92 cb ba
       -0.05138126 0.0010221327 -0.005960293 -0.001553131
000010 bd 74 6f 3a 0d a1 a8 3b 69 fd 7b 3b 4a 59 9c bb
       0.0009134522 0.005146152 0.0038450605 -0.0047713863
000020 e4 d8 b7 39 c7 ac 7a 3a 54 cf 10 bd 12 ce 89 3a
       0.00035066076 0.0009562489 -0.035353974 0.0010513684
000030 3f b0 9c bb 80 b9 3e 3c 85 e4 a4 bc 7a 81 b4 bb
       -0.0047817524 0.011640906 -0.020128498 -0.005508599
000040 87 b5 34 3b 3f e5 18 bb 1a 9a 9f bb 65 f7 91 39
       0.002757402 -0.002333 -0.0048706653 0.00027840878
000050 04 00 00 80 47 b9 f5 bb 15 4a 7c bb ac 30 10 ba
       -6e-45 -0.0074988934 -0.0038496305 -0.0005500417
000060 3d 4d 5b bd db 99 1f bb 04 00 00 80 f7 40 21 bb
       -0.053540457 -0.002435318 -6e-45 -0.0024605372
000070 de 7a e6 37 d0 3c 44 b8 e5 5d e3 bc 23 e5 b9 ba
       2.7475351e-05 -4.6786678e-05 -0.027754733 -0.0014182668
000080 ea c6 d4 bc 5a c5 1e 39 c8 60 6f bc a2 58 1f bb
       -0.025973756 0.00015141573 -0.014610477 -0.0024314304
000090 63 f5 fa bb 61 12 34 bc f0 2d c3 bd 86 94 20 3c
       -0.007658647 -0.01099071 -0.09530246 0.009801036
0000a0 dd d8 14 3b 96 fd 3d bc 61 fc bc 3a 7d e1 0a 3a
       0.0022712268 -0.011596104 0.0014418476 0.00052978826
0000b0 d5 d5 b9 3a 5b 81 46 ba bd 72 7e bb ff a4 2b bb
       0.0014178107 -0.0007572376 -0.0038825714 -0.0026190875
0000c0 cb 8e 9d 39 6f d2 f2 bb 5d 9f 07 3a f7 ef 7c ba
       0.00030051763 -0.0074103395 0.0005173588 -0.00096487947
0000d0 1f 1b ac bc bb 9d a1 3a cb 55 fc 39 1f 3d 92 39
       -0.021009026 0.0012330333 0.00048129106 0.0002789283
0000e0 11 1f 29 3a de d3 d6 39 ad 50 b1 bc 14 11 6d 3b
       0.00064514676 0.00040975114 -0.021644915 0.003617351
0000f0 56 2a 0e 3b 2e d7 fe bb b1 b7 3a 37 a8 6b 4f 3c
       0.0021692715 -0.0077771163 1.1129233e-05 0.012659945
000100 58 fa 90 39 a3 f6 a6 39 99 11 d0 bb 05 2d 7d 3c
       0.0002765234 0.00031845746 -0.006349754 0.015452628
000110 45 a5 a9 bc b9 00 bd ba b6 e9 34 bb 5f 01 98 3a
       -0.02070869 -0.0014419771 -0.0027605123 0.0011597088
000120 9b 6d f7 b9 ae 76 a4 39 9b 31 86 3b 63 49 0c 3c
       -0.00047193174 0.0003136894 0.004095269 0.008562419
000130 49 2a 4f 3b c0 51 05 bc d4 b1 e5 bc 32 69 28 ba
       0.0031610897 -0.0081371665 -0.028038897 -0.0006424367
000140 26 66 98 3b 0d f6 19 bb 3d ad 3c bd eb 8f af ba
       0.004650849 -0.0023492605 -0.04606365 -0.0013394331
000150 b9 c6 16 b8 70 aa 1e 39 fb b2 c7 ba a8 a8 1e bc
       -3.594786e-05 0.00015131547 -0.0015235835 -0.0096837655
000160 e3 9a 3e 3a 84 b8 8d bb 63 98 87 b8 50 50 e8 bc
       0.0007271005 -0.0043249745 -6.465686e-05 -0.028358608
000170 95 ae 01 b9 7e 6f 0d bc 8c 95 e6 ba ba 38 80 bc
       -0.00012367436 -0.008632539 -0.0017592176 -0.01565205
000180 17 00 99 3a 76 d5 ba 3b 88 a7 00 3b 6e 54 06 3b
       0.0011673 0.005701716 0.0019631106 0.0020497101

exp_avg_sq f4 [1, 100]
000000 23 78 0e 3d 85 58 c6 38 be ee f5 3b 15 4f dd 3a
       0.03478254 9.457864e-05 0.007505267 0.001688453
000010 38 a1 ab 39 16 78 dd 3b 67 45 1f 39 3f 3b fd 3a
       0.0003273578 0.0067587 0.00015189276 0.0019320025
000020 6b 9e 36 39 35 0d 6c 3c a2 81 28 3d ea fc 8b 38
       0.00017415888 0.014407446 0.041139252 6.6751454e-05
000030 2a ce 47 3a 74 76 fd 3c e8 0c 91 3c c7 cf 94 39
       0.00076219684 0.030940272 0.01770635 0.00028383566
000040 30 47 20 38 19 5e 9b 39 05 8b 47 3a e4 74 01 36
       3.821327e-05 0.00029634012 0.0007611963 1.9290537e-06
000050 12 d5 41 21 b1 9d d2 3b 97 5a 79 3b 9a a0 ba 3a
       6.567294e-19 0.0064274897 0.003804838 0.0014238537
000060 93 88 06 3d 68 47 0f 38 e9 3b ba 25 2a df 86 3a
       0.03284509 3.416036e-05 3.2306453e-16 0.0010289897
000070 e3 36 8a 36 2f 18 1c 3b 68 28 1d 3b ce b8 ce 3a
       4.11911e-06 0.0023818125 0.0023980383 0.0015771629
000080 b0 f4 05 3d ac 19 c1 3b b3 04 64 3a d2 f9 18 37
       0.032704055 0.005892953 0.000869821 9.118072e-06
000090 b6 d8 9a 3a 86 0f 6b 3c c5 b4 de 3d b1 a2 83 3b
       0.0011813852 0.014346963 0.10874323 0.004017197
0000a0 40 fc 83 38 41 20 39 3b e2 b0 df 39 c5 8a 4d 38
       6.293552e-05 0.0028247985 0.00042665662 4.9005048e-05
0000b0 31 72 a7 3a c3 06 ab 38 18 9c 74 38 c4 69 5f 3c
       0.001277512 8.155175e-05 5.8319507e-05 0.013636056
0000c0 dc ba 9b 36 8d 2d a5 3b e7 4c a0 38 5d fe 6a 39
       4.6411133e-06 0.0050408305 7.643719e-05 0.00022410737
0000d0 5a 02 75 3c 47 a6 cb 38 7b 1b 8c 34 79 40 fe 38
       0.014954174 9.710766e-05 2.6097027e-07 0.00012123673
0000e0 6f 81 b4 38 d7 32 0f 39 29 68 bd 3b c3 15 68 39
       8.607178e-05 0.00013656482 0.005780239 0.00022133351
0000f0 1f b5 cd 38 84 89 2e 3b 14 80 81 36 c1 8e d0 3c
       9.808898e-05 0.0026632259 3.85941e-06 0.025458695
000100 20 cb 62 37 39 e0 6e 37 52 ba 1c 39 04 75 96 3b
       1.3517943e-05 1.4238111e-05 0.00014946729 0.004591586
000110 b0 51 06 3c 50 ee 8b 3a bf 34 e4 3a 08 0b 94 3a
       0.008198187 0.0010675881 0.0017410739 0.0011294791
000120 f9 90 f3 3b 01 88 c2 37 7a 52 c2 39 69 ff a9 3a
       0.0074330536 2.3189934e-05 0.00037064013 0.0012969795
000130 1b d7 3a 3b b3 06 60 3c 08 9a bb 3c cb 45 82 38
       0.002850956 0.013673472 0.022900596 6.211883e-05
000140 5d 2b eb 3c cb 50 92 3a 51 87 6d 3c 1d 12 99 3a
       0.0287072 0.0011162994 0.014497594 0.0011678372
000150 d3 0b d7 36 03 d5 20 37 fd 0d 12 3a 2a 32 cd 39
       6.408876e-06 9.586339e-06 0.00055715424 0.00039138022
000160 df c8 b1 37 74 cb 09 3a 71 3c 02 3c c2 18 cc 3c
       2.1193582e-05 0.0005256452 0.007948981 0.02491415
000170 54 97 a1 36 34 78 42 3b 8e 22 a8 3a 4c 53 2a 3b
       4.815791e-06 0.0029673697 0.0012827681 0.002598959
000180 35 c9 63 38 ec be 38 3c 82 44 2c 38 b6 d9 21 39
       5.4308406e-05 0.011275988 4.10718e-05 0.0001543526

exp_avg f4 [12, 2]
000000 1e cc 0a 3b 61 09 f1 39 e4 0e be ba 6b 7d b7 3a
       0.0021178792 0.0004597409 -0.0014500287 0.001399917
000010 9a 3c 93 3a 58 3a 0b bb 90 91 04 3b c2 12 53 ba
       0.0011233271 -0.0021244492 0.0020228364 -0.00080518064
000020 2c 27 00 3b 07 fb 66 ba 49 41 05 bb f3 2d 59 3a
       0.0019554598 -0.00088112097 -0.0020333102 0.000828474
000030 71 a9 8f 3a 6d 8f b4 ba d9 7e 02 3b a8 49 7d ba
       0.0010960532 -0.0013775654 0.0019912033 -0.000966216
000040 3e 1b 14 bb 16 de d4 ba 44 5c be 3a f5 dc 34 bb
       -0.0022599245 -0.0016240503 0.0014523347 -0.002759752
000050 19 69 92 b9 38 d9 bf b8 b0 f7 f3 3a 6c 22 d6 3a
       -0.00027925594 -9.14805e-05 0.0018613245 0.0016337163

exp_avg_sq f4 [12, 2]
000000 09 65 28 38 42 5b 4f 38 70 7d fb 37 b5 e5 12 38
       4.0148418e-05 4.9437636e-05 2.9979943e-05 3.5023044e-05
000010 36 3b 17 38 e6 de 85 38 9b fc fd 37 75 f1 00 38
       3.605635e-05 6.383452e-05 3.0277579e-05 3.0742453e-05
000020 3a a2 fe 37 2e 99 ff 37 cf 48 fd 37 d8 c3 ff 37
       3.0354702e-05 3.0469699e-05 3.0193854e-05 3.0489566e-05
000030 bc eb 02 38 53 70 7a 38 f7 a0 f0 37 a9 46 ff 37
       3.121396e-05 5.9709255e-05 2.8685185e-05 3.0431273e-05
000040 6e 22 f6 37 fa 88 28 38 9f ef f2 37 e8 2d 35 38
       2.9341518e-05 4.018189e-05 2.896023e-05 4.3196516e-05
000050 4c d4 ee 37 28 43 08 38 ff f8 f6 37 b4 62 42 38
       2.847067e-05 3.248747e-05 2.9441433e-05 4.634513e-05

exp_avg f4 [12]
000000 d9 ea 0a bb f6 da c6 bb fe 50 3e 3b 7a 29 23 3b
       -0.002119711 -0.0060685826 0.0029039974 0.0024896548
000010 aa 89 28 3b b4 c8 20 bb 52 23 04 3b b6 58 58 3b
       0.002571682 -0.002453369 0.0020162654 0.003301186
000020 48 2b d3 bb 9c 5b e4 b9 58 bf 68 39 62 a8 a8 3b
       -0.0064443685 -0.00043555803 0.00022196525 0.005147026

exp_avg_sq f4 [12]
000000 6c bb 32 39 e4 c7 fc 38 17 50 56 39 08 b4 ca 38
       0.00017045223 0.00012053529 0.00020438466 9.665644e-05
000010 9c 5c ca 38 0f f7 c7 38 06 2e 33 39 70 5d c6 38
       9.6493604e-05 9.535078e-05 0.00017087915 9.45878e-05
000020 7b b7 fe 38 62 33 09 39 9d e0 ca 38 18 33 14 39
       0.0001214584 0.0001308448 9.673948e-05 0.00014133414

exp_avg f4 [7, 2]
000000 ae 84 7d ba a6 43 70 b9 71 15 a4 bb af fe 0e 3b
       -0.0009670955 -0.00022913385 -0.005007439 0.0021819284
000010 fb 5f 01 3b c0 d6 c9 38 b2 54 1e 3b 54 8b 9b 38
       0.0019741047 9.624427e-05 0.002415937 7.416928e-05
000020 f4 b1 27 ba cd 9f b8 bb b0 a8 bc 3a bc 7a 09 3b
       -0.00063970615 -0.005634284 0.0014393535 0.0020977696
000030 1d be 4d 3a af 3e b9 3a
       0.00078484585 0.0014133061

exp_avg_sq f4 [7, 2]
000000 bf 23 bf 38 5d 2c 16 39 b6 1a 4f 38 83 08 b5 38
       9.114248e-05 0.00014321641 4.9377522e-05 8.632338e-05
000010 c3 f7 e6 38 9a 54 f6 38 c9 0b 85 37 8c 74 95 36
       0.00011013404 0.00011745952 1.5860323e-05 4.454114e-06
000020 ef 72 16 37 1f df 1a 38 92 36 0d 36 b7 eb 00 38
       8.967457e-06 3.692426e-05 2.1042401e-06 3.0737105e-05
000030 7a 96 6a 37 ea 33 e2 37
       1.3982522e-05 2.6965474e-05

exp_avg f4 [7]
000000 75 49 bb 3b 83 75 84 bc ed 3c 30 3c 0e 40 de ba
       0.005715544 -0.016169315 0.010756713 -0.0016956346
000010 b9 9e e5 bb 60 8c fb 3b a5 a8 3d 3a
       -0.0070074466 0.007676646 0.0007234908

exp_avg_sq f4 [7]
000000 82 dc ab 39 79 d8 9b 39 2e a3 d1 39 48 57 1d 38
       0.00032779953 0.00029725189 0.00039985165 3.7513004e-05
000010 43 38 c3 38 a8 a1 a1 38 8a f5 1d 38
       9.308804e-05 7.707189e-05 3.7660393e-05

exp_avg f4 [4, 2]
000000 02 6b 74 bb 21 74 6a bb f1 91 a8 ba 27 9b 11 3b
       -0.0037295227 -0.0035774785 -0.0012860877 0.0022217722
000010 44 04 7a 3a 7e 00 13 ba 79 19 85 3b 1c 32 fb 3a
       0.0009537379 -0.00056076783 0.0040618745 0.0019164714

exp_avg_sq f4 [4, 2]
000000 ba 61 2c 38 3e db b4 37 a0 b2 d9 37 c1 bb 21 38
       4.109901e-05 2.1559765e-05 2.5951595e-05 3.856025e-05
000010 39 55 da 38 32 1f e3 38 f9 4a 4d 38 f8 23 7e 38
       0.00010410924 0.00010830014 4.8945632e-05 6.0591818e-05

exp_avg f4 [4]
000000 88 08 2d bc 08 46 44 ba 60 4b f5 3b ea 9c 7a 3b
       -0.010561116 -0.0007487242 0.007485792 0.00382405

exp_avg_sq f4 [4]
000000 55 ca 46 39 e8 a9 ae 38 ba ac eb 39 6c 58 3c 39
       0.00018958126 8.328614e-05 0.00044951384 0.00017962017
