runs/perovskite_multiscale_dataset_runs/ae2_PCE_predictor_enc_l_18_l1_1em2_tanh_predictor_0_1_100_relu_decoder_linear_seed_0_lr_1em3_bs_100_e_1500_pass_latents_ae1_fold_0_ae2_fold_3_xavier_normal_gain_10/submodule_params/latents_pred_params.pt (torch, 2007 bytes, 2 tensors)

0.weight f4 [12, 18]
00000000: ad30 863f 1a3b 7b3e cd8d d8be f25c 41be
00000010: 761c 583e 7c11 fdbe ea3b 9f3f a6ee 1abf
00000020: 4cfa 953e 73e5 24be 68b7 12be 488b 38bf
00000030: 95b5 eebf 4633 71bf 97c3 88bc e915 9e3e
00000040: 1bd6 953f 539d c6be b061 7c3f fca2 da3e
00000050: eaa8 d7be 5434 0abe c7fa 05bd e578 27bf
00000060: 93d2 fa3e 2419 a3be 1227 ac3d d918 92bd
00000070: 64eb 78be 5b13 18bf 62f8 c4bf 0c63 0ebf
00000080: 951d ebbe e059 c93e 1c47 813f 0beb edbe
00000090: 52f3 8bbf 98bc ab3e dd8d 853c fb58 4b3e
000000a0: fbc6 d2be 7ced eb3c f9fb 04c0 e1a6 193f
000000b0: eaa5 0abf 976f c93d c5f3 d3bd cee0 123f
000000c0: 4778 cb3f b82a 8e3f 3a51 673e 217b e5be
000000d0: 1aa8 56bf 545a b63e 9c31 22bf b9ac 463f
000000e0: 0750 a639 658c 133f 28ff d5be 5cf4 473e
000000f0: 76ef b93f 6010 203e 2d2e 003e 1111 ddbc
00000100: 2727 a23f b07d 9f3f c4bf 8ebf 9ab9 9f3f
00000110: 882f 123e d698 19c0 f932 c7be c92b dc3e
00000120: cf9e 05bf 43ce 4a3f 288b a0bd b02d 043f
00000130: 086b 1abf 7191 123e 0a67 843f e256 ba3d
00000140: e75a 093e 7d22 a6bb 7de9 833f b45f a13f
00000150: 268b 7cbf 7d3f 9a3f 373b a33d bb7e ecbf
00000160: 74fb 81be 79fc d83e f7a4 533f a532 8fbf
00000170: cefe d23e 26a6 11bf 3176 9d3e bef3 53be
00000180: 68ab d2bf f937 d1be bcde 673e 98b0 4a3d
00000190: f94a 0dbf 387c b5bf b426 203f e745 febf
000001a0: 679c 193e f653 f83f 9db0 773e d7ae cbbe
000001b0: 8f7c 92bf 99b3 203e d187 8c3d a219 0f3e
000001c0: cb4a e6be acc9 763d e4d7 dbbf 3629 1c3f
000001d0: 7ca3 d8be e9ab cb3d 44a8 29bc 2a80 0a3f
000001e0: fc78 0140 763c 873f b929 c13e d258 f3be
000001f0: 38cc 83bf c0bc 293e ac55 65bd d864 1a3f
00000200: e8d2 923e fdf6 df3e 346b 89bf ea59 00c0
00000210: 1bd2 8cbe b0a2 8a3f 5f4d acbe 2f64 993e
00000220: dbee eabe 8241 873e 1c72 923f 1c27 8b3f
00000230: b9b6 15c0 0f25 d23e 8e2b ebbd 5187 0b3d
00000240: 196b 003f 3789 8f3f 7ed0 cf3e 03ce c5bb
00000250: cedf a53d 8701 953e c4d9 16bf adcd ba3f
00000260: 9d09 5ebf 3c53 9cbe e3e1 09be 14f5 5abf
00000270: a1b1 e4bf b6e1 a3bf 5d66 a5bf 78fd d7bf
00000280: b4ff 2d3f 0105 0540 5091 babe 3ebd bebf
00000290: 8ac8 71be f053 443e 4654 20bf 1de8 03bd
000002a0: 5d81 4abd 440d 09c0 c93f 973f 353f 0f3f
000002b0: cbc7 723f 86dd 6f3f cf03 853f db2a 873f
000002c0: d90f b93f 3844 c83f 3f59 13bf daef 05c0
000002d0: bca3 7e3f 6101 853f 94c0 70be ecff a2bc
000002e0: 3cff a6be 04bc 373f 4597 d93e 782c 25be
000002f0: fec5 bf3e 60ea bebe fbb1 823f 33b8 963e
00000300: 3885 6cc0 bf4d 69bf bedb ca3e 60de eabf
00000310: 5e04 753f f356 333f bbe8 f0be 6ebb 9cbf
00000320: 7463 c1be 5119 913d 19c8 58be 963e 1abe
00000330: b445 023f 61aa d3bf 05a0 793f 78b8 c13e
00000340: 86e8 9b3e 3dd9 823f 0a54 ca3f a368 ac3f
00000350: 446a a63f 6991 e33f 9d3c 25bf 0a6d 04c0
1.0483605 0.24534264 -0.42295685 -0.18883112 0.21104607 -0.49427402 1.2440159 -0.605204
0.29292524 -0.16103153 -0.14327776 -0.72087526 -1.8649164 -0.9421886 -0.016694827 0.3087609
1.1705965 -0.38791904 0.9858656 0.42702472 -0.4212106 -0.13496524 -0.032709863 -0.65418845
0.4898878 -0.31855118 0.084058896 -0.071336456 -0.24308544 -0.59404534 -1.53883 -0.55619884
-0.45921007 0.39326382 1.0099826 -0.46468386 -1.093363 0.33542323 0.016302997 0.19858162
-0.41167435 0.028799765 -2.0778792 0.6002026 -0.54159415 0.09835737 -0.1034923 0.57374275
1.5896081 1.1106787 0.22589579 -0.44820502 -0.8385025 0.3561579 -0.6335695 0.77607304
0.00031721612 0.576361 -0.4179623 0.1952681 1.4526203 0.15631247 0.12517615 -0.026985677
1.2668198 1.2460232 -1.1152272 1.2478516 0.14275944 -2.3999534 -0.38906077 0.43002155
-0.5219545 0.7922098 -0.07839042 0.51632214 -0.60319567 0.14313294 1.0343945 0.09098603
0.13413583 -0.0050700293 1.030563 1.2607331 -0.98649824 1.2050625 0.07970279 -1.8476175
-0.25387156 0.4238012 0.8267359 -1.118733 0.41210026 -0.5689415 0.30754235 -0.20698449
-1.6458559 -0.40863016 0.2264356 0.04948482 -0.55192524 -1.4178534 0.62559056 -1.9865083
0.15001069 1.9400623 0.24188466 -0.3978183 -1.1444262 0.15693511 0.068618424 0.13974622
-0.44978938 0.060250923 -1.717526 0.6100038 -0.4231223 0.09944899 -0.010355059 0.5410181
2.0230093 1.0565326 0.37727144 -0.47528702 -1.0296698 0.16575909 -0.055989906 0.60310125
0.28676534 0.43743125 -1.0735841 -2.005488 -0.27504048 1.0830898 -0.3365278 0.29959247
-0.45885357 0.26417166 1.1441073 1.087131 -2.3392775 0.41043898 -0.11482917 0.034064595
0.5016342 1.121375 0.40588754 -0.0060365214 0.08099328 0.29102728 -0.58926034 1.4594017
-0.8673342 -0.30532253 -0.13465075 -0.8553021 -1.7866708 -1.2803257 -1.2921864 -1.6874228
0.67968297 2.0784304 -0.3643899 -1.4901502 -0.23611656 0.19172645 -0.6262859 -0.032203782
-0.049439777 -2.1414347 1.1816341 0.5595582 0.9483611 0.9369739 1.0391787 1.0559953
1.4457961 1.5645819 -0.57558054 -2.0927644 0.9946859 1.0391046 -0.23510963 -0.019897424
-0.32616603 0.71771264 0.42498222 -0.16130245 0.37455744 -0.3728819 1.0210565 0.29437408
-3.695631 -0.91134256 0.39620775 -1.8349113 0.9570979 0.7005455 -0.4705256 -1.2244699
-0.3777119 0.07084907 -0.21170081 -0.15062937 0.5088761 -1.653637 0.97509795 0.3783605
0.3045084 1.0222546 1.5806897 1.3469433 1.300118 1.7778751 -0.64545614 -2.0691552

0.bias f4 [12]
00000000: b82a 47be 7d61 28be ed7d 213e 98ab b6be
00000010: 5170 c3be 3b8a 473f da2f a23d 74a1 cc3b
00000020: 8694 f73d 1a7b 583e afad 83be 0d2b 9cbd
-0.1944989 -0.16443439 0.15770693 -0.3567779 -0.38171628 0.779453 0.07919283 0.0062448326
0.120888755 0.2114071 -0.25718448 -0.07625399
