runs/perovskite_multiscale_dataset_runs/ae2_PCE_predictor_enc_l_18_l1_1em2_tanh_predictor_0_1_100_relu_decoder_linear_seed_0_lr_1em3_bs_100_e_1500_pass_latents_ae1_fold_0_ae2_fold_2_xavier_normal_gain_10/submodule_params/etm_pred_params.pt (torch, 1607 bytes, 2 tensors)

0.weight f4 [7, 18]
0	0xc04a03c3	-3.1564796
1	0xc058570b	-3.3803127
2	0xc0570555	-3.3597004
3	0xbfb98abc	-1.4495463
4	0xbe84674f	-0.25860068
5	0xc0c547c6	-6.1650114
6	0x3e8148c5	0.2525083
7	0x410fea33	8.994678
8	0xc148964f	-12.536696
9	0x3fe69a4d	1.8015839
10	0x40b5ccb6	5.681239
11	0x3f6fb106	0.9362949
12	0xbfc5a87d	-1.5442044
13	0x3f9afc9b	1.2108339
14	0x3faf0ae1	1.3675195
15	0xbf85dc43	-1.0457844
16	0xbf15b06d	-0.5847233
17	0x40650041	3.5781405
18	0xbde9a233	-0.1140789
19	0xc129f1ec	-10.621563
20	0xbf614967	-0.8800263
21	0xc0fd99b2	-7.9250116
22	0x3fe000e6	1.7500274
23	0x4040996b	3.009364
24	0xc019786b	-2.3979747
25	0xc16375e8	-14.216286
26	0xbf21df0c	-0.6323097
27	0xc0d5a88f	-6.676826
28	0xbf1f94d2	-0.62336457
29	0x401ad4ea	2.4192452
30	0x41201249	10.004464
31	0xc0afad59	-5.4899106
32	0xc15a34f8	-13.637932
33	0xc0db8af5	-6.8607125
34	0x3e14ede3	0.14543872
35	0x3fe06867	1.7531861
36	0xbdfe3c16	-0.12413804
37	0x409029d2	4.505105
38	0xc04c4bed	-3.1921341
39	0xc0e237e3	-7.069322
40	0x403cad83	2.9480903
41	0xc09c4558	-4.883465
42	0x3ecbe9c5	0.3982679
43	0x409860b5	4.761805
44	0x418bc437	17.470808
45	0x413ff4f3	11.997302
46	0x3fb5bdc5	1.4198538
47	0x3f800dfa	1.0004265
48	0x3f366611	0.7124949
49	0x40be6077	5.9492755
50	0x3f9f0c10	1.2425556
51	0x3f856216	1.0420558
52	0x3e79c87d	0.24392886
53	0x3e8c6ecf	0.2742829
54	0xc1200293	-10.000628
55	0x4018bf66	2.386682
56	0x400fe10c	2.2481108
57	0x40bfc852	5.993203
58	0xbf9ceba3	-1.2259411
59	0xc02962fa	-2.646666
60	0x401e5fa0	2.4745865
61	0x4026b963	2.605065
62	0xc05916e7	-3.3920228
63	0xbf8ad438	-1.0846014
64	0x40843298	4.131176
65	0x412d4c0d	10.831067
66	0xc0855d1e	-4.167617
67	0xc1736cfb	-15.214107
68	0x3fbc095d	1.4690357
69	0xc0955e79	-4.6677823
70	0x40f7c978	7.7433434
71	0xc15286bf	-13.157897
72	0xc0844790	-4.1337357
73	0x3f8e5424	1.1119428
74	0xbf7b0f86	-0.9807056
75	0x41010e30	8.065964
76	0xc0102386	-2.2521682
77	0xbfe51076	-1.7895648
78	0x40527f19	3.2890074
79	0xc152f699	-13.1852045
80	0x4135a4bc	11.352718
81	0x40b95317	5.791393
82	0xc0eef783	-7.467714
83	0xc0e1df05	-7.058474
84	0xc12c680f	-10.775405
85	0xc0072f4a	-2.1122613
86	0x3e1f3678	0.15548122
87	0x3e2d072d	0.16897269
88	0xc136c399	-11.422753
89	0x3f13b312	0.57695115
90	0xc05b208b	-3.4238613
91	0xbef301ad	-0.47462216
92	0xbbbcb3ea	-0.005758752
93	0x407e4c0c	3.9733915
94	0xc00ec74c	-2.230914
95	0x41011b5c	8.06918
96	0xc0c9d943	-6.307771
97	0x41285f2a	10.523233
98	0x412496fb	10.28686
99	0xc1833848	-16.402481
100	0x4162deb1	14.179368
101	0xc12a12c8	-10.629585
102	0x3f116dd6	0.5680822
103	0x40a606ef	5.1883464
104	0xbe27d90b	-0.16391389
105	0x40e670a5	7.2012506
106	0xc0ac5cb4	-5.3863163
107	0x3fb5fe73	1.4218277
108	0x41058000	8.34375
109	0x40ac759b	5.389356
110	0x41111898	9.068504
111	0xc0323807	-2.7846696
112	0xbff71c53	-1.9305519
113	0x404187ed	3.0239213
114	0xbe0d0846	-0.13772687
115	0x3f098be1	0.53729063
116	0xc0e0a1de	-7.019759
117	0x3fef0a17	1.8674954
118	0xc0ed9c56	-7.425334
119	0xbfce80df	-1.6133078
120	0x3fffd21e	1.9985998
121	0x410f59cb	8.959422
122	0x40ea7dc6	7.327853
123	0x40017fe5	2.023431
124	0x40bbce6d	5.8689485
125	0x3f9ced29	1.2259876

0.bias f4 [7]
0	0xc00e7f2a	-2.2265115
1	0x402af0f3	2.6709564
2	0x401023a0	2.2521744
3	0xc085b17f	-4.177917
4	0xbd7cefd4	-0.061752155
5	0x3f989230	1.1919613
6	0xbf8b0086	-1.0859535
