runs/perovskite_multiscale_dataset_runs/ae2_PCE_predictor_enc_l_18_l1_1em2_tanh_predictor_0_1_100_relu_decoder_linear_seed_0_lr_1em3_bs_100_e_1500_pass_latents_ae1_fold_0_ae2_fold_2_xavier_normal_gain_10/submodule_params/htm_pred_params.pt (torch, 1415 bytes, 2 tensors)

0.weight f4 [4, 18]
000000 30 69 60 c1 90 d3 06 bf 1b 73 cb bf 82 05 28 c1
       -14.025681 -0.5266657 -1.5894502 -10.501345
000010 e2 54 88 40 49 f7 c0 bf 9f b8 c9 3f 7d 4d ab c0
       4.2603617 -1.5075465 1.5759467 -5.353209
000020 63 43 9d 3f 4b ae b4 40 88 eb 34 40 f6 69 46 40
       1.228619 5.646276 2.8268757 3.1002173
000030 31 f8 b1 c0 d1 a8 8c 3f ab 25 21 c0 23 5f 5d 3f
       -5.561547 1.0989019 -2.517924 0.8647329
000040 c2 f4 88 41 9f 67 80 c0 f5 83 da 40 65 e5 ff c0
       17.11951 -4.012649 6.828608 -7.9967523
000050 c6 26 04 c1 b6 ed fd be 12 5e 71 40 5f 09 b9 c0
       -8.259466 -0.49595422 3.7713666 -5.782394
000060 53 1a 9a c0 3c e7 8d 3e 7a 27 17 bd 21 98 61 40
       -4.8157134 0.2771548 -0.036902882 3.5249102
000070 b2 db 8c bf e7 19 2f be ee 1e e8 40 de 31 29 3f
       -1.1004546 -0.17099725 7.2537756 0.66091716
000080 51 78 e7 bf 02 be d4 c0 98 c9 c5 c0 8b ba 1f 41
       -1.8083593 -6.6481943 -6.1808586 9.983043
000090 22 0c 57 3f c1 1a bb 40 a9 31 c6 40 9e a4 42 c1
       0.8400289 5.847016 6.193562 -12.16519
0000a0 54 c8 20 bf 7a 46 96 3f 66 23 a3 40 58 3a e6 bd
       -0.62805676 1.1740258 5.098071 -0.11241597
0000b0 87 09 b4 c0 c0 53 e5 3e 34 1f 58 40 cc d3 cd bf
       -5.626163 0.4479046 3.3769045 -1.608026
0000c0 06 2b ce c0 76 8f 2c 40 d7 e4 e0 bf 37 74 de 40
       -6.442752 2.6962562 -1.7569836 6.9516864
0000d0 ef 9c 5b c1 bd 3c 20 c0 ff 91 09 40 43 43 6b 3e
       -13.725814 -2.5037072 2.149536 0.22974877
0000e0 3f 46 88 40 9b 8b 4a 41 0a 24 ab c0 85 61 88 40
       4.258575 12.659083 -5.3481493 4.2619042
0000f0 ff a8 47 c0 0f 84 fd 3f e3 69 ab 40 00 bf c7 c0
       -3.1196897 1.9805926 5.3566756 -6.2420654
000100 1c f1 4f c0 b1 ea 20 bf 91 08 47 3f 4a a1 95 c0
       -3.2490911 -0.6285811 0.77747446 -4.6759386
000110 a4 c1 96 40 c6 af c5 bf 3a 68 e5 40 ff 4e 73 c0
       4.711138 -1.5444267 7.168973 -3.8016965

0.bias f4 [4]
000000 26 f3 c0 3f eb 86 6b be 57 0b c3 be 23 45 c3 bf
       1.5074203 -0.23000686 -0.3809459 -1.5255474
