runs/perovskite_multiscale_dataset_runs/ae2_PCE_predictor_enc_l_18_l1_1em2_tanh_predictor_0_1_100_relu_decoder_linear_seed_0_lr_1em3_bs_100_e_1500_pass_latents_ae1_fold_0_ae2_fold_0_xavier_normal_gain_10/submodule_params/PCE_pred_params.pt (torch, 9679 bytes, 3 tensors)

0.weight f4 [100, 18]
00000000: 003e 823f f358 0940 84d3 0bbf d4b9 fdbf
00000010: 2d42 b23d df1c babf df20 87be f22e 91be
00000020: ed91 953f acaf 133f d2b9 c8be 088b c63f
00000030: 0ec1 79be 9efb 0b3f 8c7c 3dbe 2b5b bebe
00000040: 8f57 093f c659 5b3f 5cff df3f 3b46 10c0
00000050: eb2c 593e aaf8 bdbf 46de 803f 2463 d4bf
00000060: d3cf 7abf 9d6b 79bc 152e 513f 4286 8bbf
00000070: cd0f a7bf 7cbd 253f 55ee 9dc0 af61 99be
00000080: 59fa 503f 056a 9fbf 355a 13bf 6e72 debf
00000090: e721 7d3f 6e79 58c0 088e 60bf 3836 c6bf
000000a0: f8c7 1cc0 0d30 bcbf 54cc c53e 7798 62bf
000000b0: da21 a53f 9db5 213f 2257 973f 54fe f6be
000000c0: 7ce5 00bf 3f56 5f3f 3421 933d f6e3 c73f
000000d0: d130 08bf bda2 a43d e0ac bb3f 2dc8 40be
000000e0: 98cb 533f c09d 8dbf 321a 03bf 93de b4be
000000f0: 25d2 0e40 dea4 9c3e defe 6940 8ed5 0bbf
00000100: d121 6c40 09ea 813f d25e 04bf 4b7b e83e
00000110: 9d2b 12bd d7ab 903f 4122 c6be 9394 c2be
00000120: 9cab 0840 e332 2bbf e971 c7bf 6990 89bf
00000130: 756d 2abf 56ca 1640 03cb 3cbf f759 ae3d
00000140: 8c08 01c0 3e3a 533e a4c4 fa3e 4346 4d40
00000150: e81f 423f 99f5 f3be 0de8 7cbf c3ef 72bf
00000160: e9e6 013f 2eaa debf ffe8 95be 919a e2be
00000170: 5992 bbbf 621f 5bbd 4557 ce3f 38db 84bf
00000180: ae64 42bf a587 4d3f a0b9 8ebe 4f01 873f
00000190: 85e1 1ebe 9df6 0140 d76e 48c0 b612 cdbf
000001a0: bd0d 81bd c507 10c0 5f3c 3fbf ad02 e8bf
000001b0: c905 c73d adec 493f 4807 f5bd 0939 ff3f
000001c0: 32b0 833f ab90 e33f 89b6 80bf c805 11c0
000001d0: b2ba 603f 436a 15be 8e01 0740 b257 233e
000001e0: 4ab9 493f afd5 eb3e 291f d2bf 8a0f 333e
000001f0: 1e15 bf3f bd14 13c0 28cf 03bf 3d3e 8fbf
00000200: 3911 b93f bba6 49bf db06 80bf 5156 d1be
00000210: 141d 49bd ee46 c53e 11bf b93f db0a 47bf
00000220: 8d92 583e 043a 183f 2cd4 403e 57f1 0540
00000230: 7293 1fbf d5df 18c0 0392 a33e 2391 1fbd
00000240: a825 c03f bf00 5e40 4dac bdbe 6f1a 82be
00000250: 4273 9e3f 5c8f 1ebf 5462 91bf baf9 b8bd
00000260: b9d7 c7be e38d 203e c7ad bc3e 21c2 2fc0
00000270: b8be 51be eefd d7bf af2b febf da4d f1be
00000280: 57d6 d9bd 84d5 f93e 1fd2 79bf 56a8 753f
00000290: fc40 093f 6832 523f e6ee 1a3f 812a 6dbf
000002a0: 23b9 05be 4f25 cfbf 229b 5ebd 77df 0240
000002b0: 45e2 40bf 18af e63f 5234 fc3f fcbf 02c0
000002c0: dd07 d4bf 2e98 aabe af42 af3f e7bf d4bf
000002d0: 3dee 18bf 712c 59bf f3eb 9f3f f30e 0240
000002e0: cace 10bf c808 803f 0ab7 7e3f 8165 1bbc
000002f0: 9c53 95bf e172 c33d 61bd 92bf 280a 8ebf
00000300: f39e 69bf d0a1 b13f eba6 5cbe 6407 933f
00000310: a38b 153e 84c6 58bf 3044 11bf d1be a4be
00000320: ed84 e63f 920c 933f f2b9 21c0 3bc7 b1be
00000330: 25bc fb3f f57e 10c0 8606 c0bf 6e25 d3bf
00000340: 9265 2fbf 9a74 05c0 d8c6 073b 4de6 4fbe
00000350: 3bda 5c3f 119c d4bf a9cf 0abe a524 8dbf
00000360: 41f4 0740 aa16 04c0 7ff2 0fc0 2068 78be
00000370: c8bc 25bf d914 c93e 023c 5bbf 8cbb 06c0
00000380: 5b59 14bf 8bcc b2bd f811 04c0 778f 4ebf
00000390: 94e8 ca3f ea4e ec3f f206 bbbf 5be0 653d
000003a0: 291b e83b 6f83 803e 32e8 29c0 c5f1 9b3f
000003b0: a684 eabf bfae 4b3f ac4d 713f ba90 6fbf
000003c0: 4baa ad3e 7e6f 48bf 4e45 92bf 509d bebe
000003d0: 04f9 363f 304b a5bf 9e88 11c0 01e3 9d3f
000003e0: 761d 1d3f 8ee3 2f40 b0cc 23bf 7f6a 29bf
000003f0: a9ff e03f a704 163f 612d 973f 9097 3cbe
1.0175171 2.146054 -0.5461962 -1.9822335 0.08704028 -1.4540061 -0.26392266 -0.2835613
1.1685158 0.5768993 -0.3920427 1.5511179 -0.24390051 0.5468081 -0.18504542 -0.3717893
0.5364923 0.8568386 1.7499804 -2.2542865 0.21208541 -1.4841511 1.0067832 -1.6592755
-0.97973365 -0.015223411 0.8171094 -1.0900347 -1.3051697 0.64742255 -4.9353433 -0.2995734
0.81632 -1.245423 -0.5755952 -1.7378671 0.98879856 -3.3824115 -0.8771672 -1.5485296
-2.4497051 -1.4702164 0.38632452 -0.8851389 1.2900956 0.63167745 1.1823466 -0.48240912
-0.50350165 0.87240976 0.07184067 1.5616443 -0.5319949 0.08038852 1.4662132 -0.18826361
0.82732534 -1.1063766 -0.51211846 -0.3532606 2.2315762 0.30594534 3.6561809 -0.54622734
3.689564 1.0149547 -0.51707184 0.45406565 -0.035686124 1.1302441 -0.3869801 -0.38003978
2.1354742 -0.6687452 -1.5581638 -1.0747195 -0.6657327 2.3560996 -0.7374727 0.08513253
-2.0161467 0.20627686 0.4897815 3.2074134 0.75829935 -0.47648314 -0.9879158 -0.948971
0.50742966 -1.7395685 -0.29279324 -0.4425855 -1.4654037 -0.053496726 1.6120383 -1.03794
-0.75934875 0.802851 -0.27875996 1.0547274 -0.15515716 2.030677 -3.1317651 -1.6021335
-0.063014485 -2.2504742 -0.74701494 -1.8125817 0.097179 0.78876764 -0.119642794 1.9939281
1.0288146 1.7778524 -1.0055705 -2.2659779 0.87784874 -0.14591317 2.10947 0.15951422
0.78798354 0.46061465 -1.6415759 0.17486396 1.492832 -2.2981408 -0.5148797 -1.1190869
1.4458381 -0.78770036 -1.0002092 -0.40886167 -0.049099997 0.38530678 1.4511434 -0.7775094
0.21149655 0.59463525 0.18830937 2.0928552 -0.6233436 -2.3886616 0.31947336 -0.038956773
1.5011492 3.4687955 -0.37045518 -0.25410792 1.2378924 -0.619375 -1.1358132 -0.090320066
-0.3903177 0.15679125 0.36851332 -2.7462237 -0.2048291 -1.6874368 -1.9857081 -0.4712971
-0.10636585 0.48795712 -0.97586244 0.95959985 0.53614783 0.82108164 0.6052078 -0.9264298
-0.13058905 -1.6183261 -0.054347165 2.0448892 -0.7534526 1.8022184 1.9703467 -2.0429678
-1.65649 -0.3331923 1.3692225 -1.6621064 -0.5973852 -0.8483344 1.2493881 2.0321624
-0.56565535 1.000268 0.99498045 -0.00948465 -1.166614 0.09543396 -1.1464044 -1.109685
-0.9125816 1.3877506 -0.21548049 1.148663 0.14604048 -0.8467791 -0.5674467 -0.3217683
1.8009316 1.1488211 -2.5269742 -0.34722313 1.9666792 -2.2577488 -1.5001991 -1.6495798
-0.6851436 -2.0852418 0.0020717885 -0.20302697 0.86270493 -1.6610128 -0.13555779 -1.1026808
2.124283 -2.0638833 -2.2491758 -0.2425847 -0.6474118 0.39273718 -0.8563844 -2.105197
-0.57948846 -0.0873042 -2.0635967 -0.8068766 1.5852227 1.8461583 -1.4611495 0.056122165
0.007083316 0.25100276 -2.654797 1.2183157 -1.8321731 0.79563516 0.9425914 -0.9358021
0.33918986 -0.78295124 -1.14274 -0.37229395 0.7147372 -1.291357 -2.2739635 1.2334901
0.6137308 2.7482638 -0.63984203 -0.66178125 1.7578021 0.5860085 1.1810724 -0.18417192

0.bias f4 [100]
00000000: e980 cabd a563 00bf 43dd f4be d454 7cbf
00000010: c756 1e3f 33ef 263d 3274 fdbe 49f9 1cbf
00000020: 335e 09bf 0cfd 21bf 6b7d edbd 34e4 023f
00000030: f88b 34bf f88c f8bc d102 96bc 7a69 e63d
00000040: d97b 0dbf 192b cd3d 0274 e23e c2f0 3abf
00000050: 6f94 203e f5eb 1bbf f96c 313f 86fe febd
00000060: 44f0 13bf 44ab 8bbd ca05 8e3e 4840 e13d
00000070: 5f18 193f fa7e 993e 8b7b a23e eda8 763e
00000080: e317 42be ab15 13bf 7ef1 b43e eadc 063f
00000090: 263c a5bd cc29 a4bd 03da 9a3e 1068 8ebe
000000a0: 256a 153f 1c4f 06be 63c0 a2bd 19c4 fcbe
000000b0: 3681 ee3d f693 00be c70d f6be 7df3 513e
000000c0: d3ba d03c bf60 17bf 4924 25bf aa4e d43e
000000d0: ac46 23bf c6fe e13e 6db9 0d3e fe08 153e
000000e0: 0ee4 783e b051 f83d 2923 f5be 1d00 a3bd
000000f0: 6d11 253e bde0 2e3f bc37 313f c8a4 c8be
00000100: a432 44bf 771e 043f dfd1 45bf 6675 75bf
00000110: 78a0 23bf d1a3 8bbd 47b4 9b3e 92d1 54bd
00000120: 5461 29bf 8bf0 2ebf eafe 623e b887 933e
00000130: 837a b63e 684d 573d 62d1 37bf 9676 aa3e
00000140: eb22 ccbc c74e 8cbe efdb f6be ad19 d9be
00000150: 9f16 d4bd 5e3e 35be 13a8 4ebe e011 47be
00000160: df14 0b3e 2809 153f ab45 b5be 102b 21bf
00000170: 992d 45bf 4d04 08bf 20da 12bf c85c 04bf
00000180: 336d 31bf 389b 42be 61f0 523e 4671 03bf
-0.09887869 -0.50152045 -0.4782506 -0.9856694 0.6185116 0.040755462 -0.49502712 -0.6131788
-0.5365936 -0.63276744 -0.11596187 0.5112946 -0.70526075 -0.030340657 -0.01831189 0.11250587
-0.552671 0.10017986 0.44229132 -0.7302362 0.15681623 -0.60906917 0.69306904 -0.1245089
-0.5778849 -0.06819776 0.27738792 0.10998589 0.5980281 0.29979688 0.3173488 0.24087878
-0.18954425 -0.5745494 0.35340494 0.5268084 -0.08068113 -0.080157846 0.30244455 -0.27813768
0.5836509 -0.13116115 -0.07946851 -0.4936836 0.11645739 -0.12556443 -0.48057386 0.2050304
0.02547971 -0.59132 -0.6450849 0.41466266 -0.6377971 0.4413969 0.13840266 0.14554211
0.24305746 0.12124956 -0.47878388 -0.07959006 0.16119929 0.68311673 0.6922567 -0.39188218
-0.7663977 0.51608986 -0.7727336 -0.9588226 -0.6391673 -0.06818355 0.30410978 -0.051957674
-0.66164136 -0.6833579 0.22167554 0.28814483 0.35640344 0.052564055 -0.7180387 0.332936
-0.024918994 -0.27403852 -0.4821467 -0.42402402 -0.10355877 -0.17699572 -0.20181303 -0.19440413
0.1358218 0.58217096 -0.35404715 -0.62956333 -0.770227 -0.5313156 -0.5736408 -0.5170407
-0.6930725 -0.19004524 0.2059951 -0.51344717

3.weight f4 [1, 100]
00000000: 8a00 b83f 9782 d3bf 5634 8fbe 66ba 35bf
00000010: f98f 353e 6055 063f aa11 4fbf 250e 8abf
00000020: db5d 13bf f305 c2bf b8ed 9c3e e7c8 433e
00000030: 6a39 62be c734 153f 04f5 933e 5929 113f
00000040: 5be6 0bc0 321f 2e3f ea23 103f 507d a9bf
00000050: a0e5 ec3e 7b36 3bc0 0ba1 883e 3a9a 2340
00000060: 7de8 59bf 6a4a 023f 47a9 543f 4171 943f
00000070: aa50 503e 4fcd b53e 9a93 113e fec8 3e3f
00000080: c604 a1bf d9e0 3bbf 13a5 b23e 5737 4e3e
00000090: ab1e 1b3f 686e f43e 50c4 343e a454 7cbf
000000a0: b181 9f3e bf23 89bf 0e3d 053f e421 a6bf
000000b0: 5b03 493e 75c6 fa3e 7b77 c0bf b2ac d13e
000000c0: 779b 843e fa04 9cbf 6490 6cbf f1a0 923e
000000d0: 0128 bdbe f5a9 2d3e c534 553f 9a95 da3e
000000e0: c29d 223e 9f46 2c3e 238a 73c0 f7a0 f23f
000000f0: b99a 793f 8968 113e b555 8e3e e8b6 e9bf
00000100: 7b75 b6bf c4f9 433e 01ff 0bc0 d75b 09bf
00000110: 9bc0 aabe c2fc cd3e 6060 4a3e b6db b93f
00000120: 5eb9 2abf 0d05 16bf 0081 833f c0d7 6a3e
00000130: b086 773e 50b9 773f 10e3 97bf deaf b93e
00000140: a83e 223f cf20 503e dff1 80bf 6541 20c0
00000150: 5df7 32c0 2043 cb3e d939 84bf 7bf8 4bbf
00000160: 4240 a33e c25c 1e3e 1238 72c0 fdcb c2bf
00000170: 3d5f 06bf c600 13c0 d793 a8bf 7b42 81c0
00000180: 4ff3 26bf d88a 893e 7042 a93e 3a3a 14bf
1.4375165 -1.6524228 -0.27969617 -0.70987546 0.17730702 0.5247402 -0.8088633 -1.0785567
-0.5756509 -1.5158066 0.30650115 0.19119607 -0.22092214 0.58283657 0.2889787 0.56703717
-2.1859348 0.6801635 0.563048 -1.3241367 0.4626894 -2.9252002 0.26685366 2.5562882
-0.85120374 0.50894797 0.83070797 1.1597062 0.20343271 0.355082 0.14216462 0.7452544
-1.2579582 -0.73389965 0.34891567 0.20138298 0.6059367 0.47740483 0.17653012 -0.9856665
0.31153634 -1.0714034 0.5204629 -1.2979093 0.19630186 0.48979536 -1.5036463 0.4095207
0.2589986 -1.2189019 -0.9240782 0.28638414 -0.36944583 0.16959365 0.83283645 0.42692262
0.15880492 0.16823815 -3.8053062 1.8955373 0.97501713 0.14200033 0.27799764 -1.8258944
-1.4254602 0.19138247 -2.1874392 -0.5365576 -0.3335007 0.402319 0.19763327 1.4520175
-0.666891 -0.58601457 1.0273743 0.22933865 0.24172473 0.9676714 -1.1866169 0.3626699
0.63376856 0.20325015 -1.0073813 -2.5039914 -2.7963479 0.3969965 -1.0330154 -0.79676026
0.31884962 0.15465072 -3.7846723 -1.5218502 -0.5248907 -2.2969222 -1.3170117 -4.0393653
-0.6521501 0.26863742 0.330585 -0.57901347
