runs/perovskite_multiscale_dataset_runs/ae1_bg_predictor_enc_l_12_l1_1em2_tanh_pred_p_0_1_100_relu_dec_15_linear_seed_0_lr_1em3_bs_10_1500_epochs_mae_mtl_k_fold_3_xavier_normal/checkpoints/last.ckpt (torch, 36546 bytes, 21 tensors)

submodules.encoder.0.weight f4 [12, 15]
0.0006243959 0.001063534 -0.0005047957 0.00042560784 0.00041526853 0.13595045 0.09753812 0.0006700817
0.00039303486 0.00027955422 0.00036098607 -0.0001587102 -2.7244474e-05 6.177812e-05 -0.00024487893 0.0073567517
0.00051726564 -0.0031026008 0.0014324142 0.0010467144 -0.17110205 0.15456301 -0.13504095 -0.27290088
-0.001788156 -0.00017362491 0.0005278842 -0.0001697439 -0.00021466284 0.00013660654 0.00083724916 6.022121e-06
-0.00032359996 0.0002451699 0.00024715977 0.025160376 -0.039283283 0.0004039808 -0.03012762 -0.22504655
-0.00028181126 0.00023148803 -2.7301277e-05 -7.4088835e-05 0.00021170979 -0.0007136341 0.18075997 0.00025794114
-0.00037795753 -0.00055279664 -0.0003263496 -0.00032328194 0.0009396502 0.0012205302 0.00097170495 -0.0008687452
-0.00055927597 0.0005544815 0.0005459432 0.0007577983 -0.0023844242 -0.02468295 0.0017169595 -0.1555256
-0.0016190949 -0.0014373444 0.0032111993 9.635903e-05 0.000120640616 0.001105533 -0.00060869235 -0.0011041954
0.00092680287 0.000913779 0.0006788081 0.0013871639 0.0003336961 -0.0019217114 0.19029444 0.05868017
0.0022781421 -0.0009288647 -0.00027409397 -0.0011340281 -0.0012280224 -0.00040129074 -5.689828e-06 0.00017617768
0.00026029226 0.00037022622 -0.0002821996 -0.00053969515 -0.00016201044 0.0002747369 0.00021977063 -0.001121233
0.00061953784 0.18187891 -0.00023788013 -5.821146e-05 0.00066723785 0.00022895655 -0.00045662533 -0.00035510797
-0.000649275 0.28159574 -0.0007741665 0.0011344654 -0.0011672258 -0.0009355747 -0.0030845143 -0.001849528
0.00066721905 0.0013666098 0.0005403937 -0.0009974354 -0.00023482184 0.00046057382 0.00041665486 0.0008079466
0.00011082084 0.00016083429 0.00019545169 -0.00025262558 -0.00013603285 0.0017081007 -4.3653796e-05 0.00056443416
-0.00020383902 -0.00038143998 -0.00217891 -0.15355128 0.12759596 0.0029150213 0.0021070775 -0.0010990317
-0.0011800289 -0.0003758254 0.0006804023 0.00045901033 -0.00011793751 0.0012475298 -0.0006153546 -0.00029762834
0.00062109786 0.29837275 0.00038379568 -0.00078096124 -0.00067862414 -0.0015818132 -0.0031260424 0.00092736655
0.002754934 -0.0026660324 -0.00294378 0.0014017654 -0.00016555222 -0.0013111843 -0.0021917587 -0.001555981
-0.00043440133 -2.8938754e-05 0.0002470266 0.00024362886 0.00018621364 -0.0013625051 0.0014772838 0.0017694525
-0.001699093 -0.0017803516 -0.0018311791 -0.0010304734 0.0009635973 0.0013097175 0.00089895487 0.00011523499
0.05494137 -0.00023551675 -0.00022057346 -9.689525e-05
00000000: 80ae 233a 4766 8b3a 4454 04ba 1e24 df39
00000010: 66b8 d939 9836 0b3e 11c2 c73d 6ca8 2f3a
00000020: 3f10 ce39 2291 9239 bb42 bd39 726b 26b9
00000030: 108b e4b7 e08e 8138 1863 80b9 e810 f13b
00000040: 1c99 073a 0155 4bbb d8bf bb3a e831 893a
00000050: 6035 2fbe c445 1e3e 2d48 0abe aab9 8bbe
00000060: 8f60 eaba 150f 36b9 b661 0a3a 48fd 31b9
00000070: 1e17 61b9 0a3e 0f39 d77a 5b3a a011 ca36
00000080: daa8 a9b9 268a 8039 3995 8139 221d ce3c
00000090: 82e7 20bd 63cd d339 33ce f6bc 9a72 66be
000000a0: 11c0 93b9 98bb 7239 0c05 e5b7 2460 9bb8
000000b0: 6afe 5d39 2c13 3bba 2419 393e 463c 8739
000000c0: 9a28 c6b9 8ee9 10ba e719 abb9 2b7e a9b9
000000d0: dc52 763a 33fa 9f3a 04ba 7e3a 81bc 63ba
000000e0: 609c 12ba a05a 113a a11d 0f3a fca6 463a
000000f0: 0044 1cbb e633 cabc 9a0b e13a 1a42 1fbe
00000100: cf37 d4ba 4665 bcba fc72 523b 5c14 ca38
00000110: 7000 fd38 88e7 903a a790 1fba a6ba 90ba
00000120: b0f4 723a ac8a 6f3a 0af2 313a 7fd1 b53a
00000130: eff3 ae39 efe1 fbba 8cdc 423e 9e5a 703d
00000140: e24c 153b 0e7f 73ba 45b4 8fb9 aba3 94ba
00000150: 98f5 a0ba 5564 d2b9 40eb beb6 56bc 3839
00000160: d677 8839 ec1a c239 30f4 93b9 547a 0dba
00000170: 59e1 29b9 900a 9039 3b72 6639 56f6 92ba
00000180: 7b68 223a 773e 3a3e 766f 79b9 1428 74b8
00000190: 93e9 2e3a 0e14 7039 3767 efb9 c92d bab9
000001a0: 1c34 2aba 512d 903e 6ff1 4aba 58b2 943a
000001b0: 99fd 98ba 5b41 75ba 9025 4abb dd6b f2ba
000001c0: 50e8 2e3a d11f b33a 35a9 0d3a 61bc 82ba
000001d0: 823a 76b9 2c79 f139 7872 da39 61cc 533a
000001e0: 7c68 e838 a0a5 2839 2af2 4c39 d572 84b9
000001f0: 0aa4 0eb9 59e2 df3a e818 37b8 89f6 133a
00000200: 9fbd 55b9 02fc c7b9 0bcc 0ebb 8c3c 1dbe
00000210: 84a8 023e f109 3f3b e516 0a3b 620d 90ba
00000220: 33ab 9aba 6e0a c5b9 075d 323a 53a7 f039
00000230: 3855 f7b8 2784 a33a c04f 21ba 000b 9cb9
00000240: 2cd1 223a 50c4 983e 2f38 c939 6cb9 4cba
00000250: b2e5 31ba d854 cfba 4ade 4cbb 841a 733a
00000260: 1f8c 343b 9ab8 2ebb 6fec 40bb 71bb b73a
00000270: 1698 2db9 0bdc abba 9ca3 0fbb 0ff2 cbba
00000280: 5cc0 e3b9 80c1 f2b7 5983 8139 a076 7f39
00000290: 5842 4339 1696 b2ba 6ba1 c13a f9ec e73a
000002a0: 1ab4 deba b05a e9ba 2d04 f0ba f310 87ba
000002b0: ec99 7c3a d4aa ab3a d7a7 6b3a 50aa f138
000002c0: 340a 613d 0cf5 76b9 bd49 67b9 3e34 cbb8

submodules.encoder.0.bias f4 [12]
0.03733378 0.1179346 0.07437813 -0.07037821 -0.0510978 -0.06882305 0.01845102 -0.074346
-0.1628109 -0.10006202 -0.00066012016 0.05564801
00000000: 4eeb 183d b287 f13d 9053 983d 7322 90bd
00000010: ed4b 51bd 19f3 8cbd 9826 973c b742 98bd
00000020: e7b7 26be 51ed ccbd ea0b 2dba 2bef 633d

submodules.bg_pred.0.weight f4 [100, 12]
-0.2178683 -0.4744416 -0.7110652 -0.32405028 0.19265051 -0.03907259 0.1943387 0.23250768
0.24494684 0.05566603 0.02456456 -0.42135337 -0.13528234 -0.29237574 -0.39736918 0.046490442
0.5878274 -0.32343456 0.0049129445 -0.2992159 -0.25627515 -0.017506946 0.007469129 -0.05264969
-0.24206305 0.11056674 0.6163036 0.07660092 -0.21443003 -0.118194915 0.007783741 0.016040314
-0.02528081 -0.17362736 0.06647737 0.054697245 -0.0047844397 -0.60108364 0.38917446 0.27440333
0.13904683 -0.24191186 0.13209173 -0.29022306 -0.011053223 -0.08397891 0.046002015 -0.020368313
0.08679596 0.041100655 -0.2157532 -0.7631865 0.4614873 -0.11594372 -0.08506785 0.2784067
0.049537413 -0.26971915 -0.042472683 0.07172805 -0.28480756 0.3427232 0.15978238 -0.29254565
0.18024121 0.36316675 0.3007216 0.082669035 0.21276271 -0.53576845 -0.068429574 -0.1788031
-0.10826908 0.112785965 0.41026336 0.11682906 0.14217114 0.116972595 -0.35308403 0.017010782
0.15904143 -0.23496822 -0.081375144 0.14233318 -0.38511828 0.13479842 0.6401113 -0.0716206
-0.0038377275 0.40217862 0.3988216 0.20670268 0.27816275 -0.038881302 0.07397829 -0.33153066
0.013557845 0.49547994 0.06233855 -0.0110602295 -0.00063288794 -0.0038021132 0.09676011 -0.103406556
-0.030891398 -0.05100275 -0.12594491 0.101543486 -0.07237443 0.38352078 0.14308158 -0.07198794
-0.02832428 -0.15558346 -0.23687743 0.2637019 0.046269353 -0.14776805 0.18729848 -0.008263707
-0.29831356 0.2027427 0.3814929 -0.40280828 0.062344126 0.07324126 -0.08539729 0.032876987
0.08313277 -0.30605122 -0.13897671 -0.06929901 -0.004893223 0.1185718 0.5278809 0.13298842
-0.24612235 0.06926025 -0.054281976 -0.16443662 -0.1811136 -0.24823937 0.08342895 0.12528059
-0.05360911 0.5912204 0.2451352 0.081525534 -0.18489158 0.009255282 -0.009705415 0.043238733
-0.108102754 -0.123374134 0.043442618 0.20097338 -0.23888643 0.06990445 0.5371898 -0.0004642579
-0.056439597 -0.05834114 0.00022887091 0.025378242 -0.13633864 -0.19317272 0.03607068 -0.066063024
0.50140893 0.41024405 0.044112504 0.24701034 -0.2742827 0.17686771 -0.18294992 -0.16870283
-0.1698138 -0.085542716 -0.036908094 0.15386653 -0.0048507326 -0.3239125 0.03379094 0.2949234
0.31403562 -0.23510987 0.24434994 -0.34947926 0.15539235 -0.00040160783 -0.05649643 -0.0489495
0.18987298 0.54019606 -0.3389438 0.25323394 -0.17717175 0.072725005 -0.26963124 -0.4947295
0.1628567 -0.02680454 0.104721606 -0.28725073 0.351128 0.39240143 0.16927522 0.02947417
0.0009121691 -0.0776924 -0.03170956 0.027272437 0.21493351 0.064710096 -0.03481497 0.10394538
0.20431007 0.2751115 -0.14141266 0.29863793 0.302617 -0.061372817 -0.24903984 0.38974547
0.005398652 -0.32849255 -0.026248157 -0.012280914 -0.5176579 0.30808792 -0.21414736 0.6131401
-0.09418687 0.105591826 -0.12372025 0.2823601 0.0025981367 -0.32627043 0.04811535 0.11891555
0.011729561 0.23710293 -0.10576008 -0.600259 0.2961345 -0.07497815 0.11829718 0.31044802
0.30668077 -0.15580195 0.06990631 -0.0070212577 -0.15091689 0.81481194 -0.49753046 0.16560028
00000000: de18 5fbe 02ea f2be 5e08 36bf ebe9 a5be
00000010: 2d46 453e 950a 20bd b900 473e 7e16 6e3e
00000020: 58d3 7a3e 1002 643d 9e3b c93c a1bb d7be
00000030: 7487 0abe 46b2 95be f973 cbbe c36c 3e3d
00000040: db7b 163f 3799 a5be c4fc a03b d432 99be
00000050: 7f36 83be ba6a 8fbc 98bf f43b 34a7 57bd
00000060: 60df 77be d170 e23d 13c6 1d3f f1e0 9c3d
00000070: 8c93 5bbe 2d10 f2bd c10e ff3b fa66 833c
00000080: b419 cfbc 5fcb 31be 4a25 883d 380a 603d
00000090: cac6 9cbb 9ee0 19bf e041 c73e 987e 8c3e
000000a0: 4b62 0e3e beb7 77be 0e43 073e 1e98 94be
000000b0: 9418 35bc 23fd abbd 9c6c 3c3d 73db a6bc
000000c0: 15c2 b13d 2959 283d 68ee 5cbe 3160 43bf
000000d0: 1048 ec3e e773 edbd 0e38 aebd 538b 8e3e
000000e0: bee7 4a3d a118 8abe d6f7 2dbd 28e6 923d
000000f0: 4cd2 91be 6a79 af3e fe9d 233e 8bc8 95be
00000100: 2791 383e fef0 b93e 2ef8 993e 624e a93d
00000110: 78de 593e 1f28 09bf ce24 8cbd 2918 37be
00000120: 2ebc ddbd 54fc e63d 0a0e d23e 1344 ef3d
00000130: 5095 113e 548f ef3d 6ec7 b4be 325a 8b3c
00000140: c2db 223e 829b 70be 03a8 a6bd cabf 113e
00000150: 392e c5be 9908 0a3e 56de 233f d2ad 92bd
00000160: 6282 7bbb 5bea cd3e 5832 cc3e dea9 533e
00000170: 596b 8e3e 0042 1fbd ee81 973d 63be a9be
00000180: b921 5e3c 8caf fd3e b556 7f3d f735 35bc
00000190: 64e8 25ba e02c 79bb 2a2a c63d d1c6 d3bd
000001a0: f50f fdbc 42e8 50bd b4f7 00be 08f6 cf3d
000001b0: 0c39 94bd d65c c43e fa83 123e 6a6e 93bd
000001c0: 5208 e8bc 4551 1fbe ff8f 72be ef03 873e
000001d0: ef84 3d3d 8250 17be 2ccb 3f3e 8064 07bc
000001e0: 8ebc 98be c89b 4f3e 0a53 c33e e33c cebe
000001f0: 8e5c 7f3d 84ff 953d c6e4 aebd 05aa 063d
00000200: 8441 aa3d bfb2 9cbe e94f 0ebe a4ec 8dbd
00000210: 5457 a0bb c6d5 f23d 3423 073f 1e2e 083e
00000220: 7f07 7cbe 51d8 8d3d c756 5ebd 1362 28be
00000230: d875 39be 7632 7ebe ccdc aa3d 8e49 003e
00000240: 3a95 5bbd 385a 173f b904 7b3e dcf6 a63d
00000250: 3854 3dbe 77a3 173c 7603 1fbc 191b 313d
00000260: fa64 ddbd 94ab fcbd e3f0 313d f7cb 4d3e
00000270: a59e 74be 102a 8f3d 4585 093f a467 f3b9
00000280: 352d 67bd 1ff7 6ebd 11fd 6f39 08e6 cf3c
00000290: 5b9c 0bbe 12cf 45be d9be 133d 0d4c 87bd
000002a0: 565c 003f 820b d23e 50af 343d 47f0 7c3e
000002b0: c86e 8cbe cf1c 353e 3957 3bbe 6fc0 2cbe
000002c0: abe3 2dbe 0531 afbd f12c 17bd 308f 1d3e
000002d0: e5f2 9ebb dcd7 a5be 5e68 0a3d 3300 973e
000002e0: 47c9 a03e a4c0 70be df36 7a3e f2ee b2be
000002f0: 2c1f 1f3e e48e d2b9 cd68 67bd 457f 48bd
00000300: 106e 423e 4a4a 0a3f 0b8a adbe e1a7 813e
00000310: 836c 35be d9f0 943d 1b0d 8abe 2f4d fdbe
00000320: e8c3 263e 3295 dbbc 4878 d63d 8712 93be
00000330: 0dc7 b33e d7e8 c83e 7c56 2d3e d173 f13c
00000340: a21e 6f3a 311d 9fbd e2e1 01bd 726a df3c
00000350: 8817 5c3e ba86 843d 249a 0ebd 51e1 d43d
00000360: a936 513e 6adb 8c3e 7bce 10be 12e7 983e
00000370: 9ef0 9a3e 1062 7bbd 4d04 7fbe b88c c73e
00000380: 2de7 b03b 2d30 a8be 6006 d7bc e335 49bc
00000390: 3a85 04bf b3bd 9d3e 7249 5bbe c0f6 1c3f
000003a0: 0ce5 c0bd 8740 d83d 0b61 fdbd 8191 903e
000003b0: 8045 2a3b eb0c a7be 9a14 453d ff89 f33d
000003c0: 582d 403c 1ccb 723e be98 d8bd 93aa 19bf
000003d0: f19e 973e 258e 99bd cb45 f23d 0bf3 9e3e
000003e0: 4305 9d3e 8c8a 1fbe 0a2b 8f3d 9412 e6bb
000003f0: f589 1abe 8497 503f 50bc febe 1f93 293e

submodules.bg_pred.0.bias f4 [100]
-0.26469854 -0.17645082 0.07665388 -0.15738635 -0.047519814 -0.13104069 0.18710844 -0.04038628
0.051457193 0.11525056 0.07204056 0.0021084463 0.018813834 0.042490173 -0.019951029 -0.12114595
0.035255548 0.1331923 0.10215857 -0.12806843 0.03976264 -0.32535326 0.060740832 -0.05441783
0.09729937 0.14923193 -0.2560702 0.09852989 0.14772882 -0.19609961 0.07186678 -0.14101474
-0.47406557 0.06860042 -0.27655506 0.18222155 0.011183508 0.0039127567 0.07200781 0.12647238
0.11876893 -0.21846989 0.1261346 -0.2767705 0.116944954 0.068849444 -0.097910956 -0.04629773
0.026959976 0.12264484 -0.069102414 0.12325343 0.14219873 -0.21562561 -0.05544261 -0.21163711
0.10999649 -0.16958857 -0.051427092 0.1665022 0.11044379 -0.04004674 -0.10611247 0.08550512
-0.07661328 -0.026425647 -0.3631675 -0.023985393 0.012194223 0.09605586 0.19550802 -0.3563932
0.015773125 -0.1707813 0.022738721 0.05744865 -0.39489773 -0.15914734 0.1340713 -0.17004272
-0.016430099 -0.15664789 -0.036016513 -0.11676698 -0.34344104 -0.0908009 -0.03524883 0.07755124
-0.22395092 -0.31000766 -0.16893373 0.11153447 -0.13486539 0.079654686 -0.2218156 0.0032150953
-0.015127099 0.113892116 -0.04311289 -0.3045839
00000000: 9186 87be 86af 34be b6fc 9c3d e329 21be
00000010: 23a4 42bd 882f 06be 5b99 3f3e 156c 25bd
00000020: c7c4 523d 7c08 ec3d 008a 933d dc2d 0a3b
00000030: 781f 9a3c 2d0a 2e3d 5770 a3bc 5e1b f8bd
00000040: 1f68 103d 9063 083e 8338 d13d 5f24 03be
00000050: 26de 223d b494 a6be 61cb 783d 3be5 5ebd
00000060: e444 c73d 41d0 183e a21b 83be 0aca c93d
00000070: 3946 173e 56ce 48be e42e 933d 2b66 10be
00000080: b9b8 f2be 617e 8c3d a098 8dbe 4998 3a3e
00000090: 083b 373c 9536 803b d578 933d fa81 013e
000000a0: 203d f33d 92b6 5fbe 6e29 013e ddb4 8dbe
000000b0: d680 ef3d f000 8d3d 8a85 c8bd b0a2 3dbd
000000c0: 2bdb dc3c 382d fb3d 9185 8dbd 4b6c fc3d
000000d0: 8b9c 113e f6cc 5cbe ca17 63bd 66b7 58be
000000e0: d745 e13d a0a8 2dbe 37a5 52bd 8d7f 2a3e
000000f0: 5b30 e23d 0d08 24bd 7f51 d9bd 4f1d af3d
00000100: 6ce7 9cbd 997a d8bc 17f1 b9be 047d c4bc
00000110: 47ca 473c efb8 c43d 4133 483e 2b79 b6be
00000120: a436 813c 4be1 2ebe 8e46 ba3c 474f 6b3d
00000130: 0930 cabe 85f7 22be fd49 093e ae1f 2ebe
00000140: 6a98 86bc 4e68 20be 0d86 13bd 8723 efbd
00000150: 81d7 afbe d2f5 b9bd 1461 10bd 2fd3 9e3d
00000160: 6453 65be 53b9 9ebe f7fc 2cbe 2f6c e43d
00000170: 271a 0abe ff21 a33d a123 63be 59b4 523b
00000180: a7d7 77bc 4540 e93d 2497 30bd 6cf2 9bbe

submodules.bg_pred.3.weight f4 [1, 100]
0.66453165 -0.28146645 0.1572308 -0.39075282 0.17502727 0.25990364 0.09582474 0.28760678
0.13753743 0.113036476 0.13887255 0.15660213 0.11413019 0.12202595 0.1347479 -0.27232665
0.19650328 0.12144118 0.10831145 0.7210697 0.124605305 1.7869537 0.117912725 0.137812
0.12518787 0.10211445 -1.0429343 0.10505601 0.13045686 -0.38444427 0.15153629 -0.28215477
-1.1529676 0.11584015 -0.4241952 0.11231221 0.21187106 0.17589547 0.11156987 0.109170005
0.12781729 -0.66829866 0.09105338 -0.88349116 0.10303933 0.12979504 -0.91090924 0.124358535
0.17940949 0.12609448 0.25135046 0.104306854 0.101729065 -0.40198228 0.13129717 -0.619647
0.107804425 -0.38312924 -0.038215045 0.10118765 0.12134822 0.19217212 -0.2999778 0.11400234
0.23465091 -0.29838786 -0.5560457 0.16146466 0.14187089 0.10839442 0.09635452 -0.60935897
0.22177768 -0.31369305 0.18010221 0.13393658 -2.1732798 -0.23949899 0.12823574 -0.65037835
0.18948759 -0.5053152 0.1183141 -0.42574838 -0.62991476 -0.30395824 0.20572707 0.122428864
-0.4130361 1.0608934 -0.8392858 0.115931846 -0.20405258 0.14650752 -0.33824646 0.13495442
0.21929969 0.100145824 0.15255338 1.0941644
00000000: bf1e 2a3f 5f1c 90be 1c01 213e c110 c8be
00000010: 593a 333e 1712 853e c33f c43d 3241 933e
00000020: 9dd6 0c3e ab7f e73d 9b34 0e3e 4f5c 203e
00000030: 17bd e93d bee8 f93d 5afb 093e 666e 8bbe
00000040: 2838 493e 27b6 f83d 65d2 dd3d 0698 383f
00000050: 1131 ff3d e6ba e43f 3a7c f13d 971e 0d3e
00000060: 4031 003e 6121 d13d df7e 85bf 9b27 d73d
00000070: 7c96 053e e1d5 c4be 542c 1b3e 9776 90be
00000080: 7194 93bf 9a3d ed3d 1d30 d9be f203 e63d
00000090: baf4 583e f11d 343e be7e e43d 8694 df3d
000000a0: 89e2 023e 9f15 2bbf 327a ba3d 7a2c 62bf
000000b0: 4906 d33d fee8 043e 5931 69bf b0af fe3d
000000c0: 1fb7 373e e91e 013e 02b1 803e d59e d53d
000000d0: 5457 d03d 9fd0 cdbe c472 063e 30a1 1ebf
000000e0: 91c8 dc3d 8429 c4be 6187 1cbd 783b cf3d
000000f0: 6a85 f83d c5c8 443e b196 99be 0f7a e93d
00000100: 5448 703e 4bc6 98be 0359 0ebf fe56 253e
00000110: 9a46 113e e5fd dd3d 8555 c53d f3fe 1bbf
00000120: b019 633e 609c a0be b76c 383e ac26 093e
00000130: 0417 0bc0 393f 75be 3b50 033e 327f 26bf
00000140: 0909 423e 565c 01bf aa4e f23d b1fb d9be
00000150: 1842 21bf 6aa0 9bbe 1eaa 523e fcbb fa3d
00000160: 7879 d3be 5bcb 873f 6fdb 56bf ad6d ed3d
00000170: 29f3 50be 1106 163e a42e adbe 7e31 0a3e
00000180: 1990 603e 4119 cd3d f436 1c3e 940d 8c3f

submodules.decoder.0.weight f4 [15, 12]
0.010026956 -0.015963864 0.013270877 0.12724863 0.62349856 0.3200399 -0.007948045 3.728475
-0.019368732 0.018301643 0.08747748 -0.0547559 0.008794551 0.0047025667 -0.018648975 5.302681
-2.2640224 -1.5920514 0.008165613 0.14887449 0.20022406 0.020617452 0.00042832017 0.7171676
0.001061359 -0.0033068971 0.0071200468 -0.05299945 2.1861193 -2.035157 -0.038316924 -0.8014113
0.0051191407 0.0074860877 0.0041360855 -0.12393792 -0.00271806 0.013226494 -0.011840071 -0.333232
-2.5938764 2.6264904 0.04547522 -0.174164 0.034433488 -0.01315662 -0.05586575 0.2921115
0.0010727549 0.0030924466 -0.0044691917 -0.3471206 -1.5034349 2.1502156 0.03548562 0.88197803
-0.0034831732 -0.011712407 0.01458513 0.13911897 5.0459266 -1.5918723 2.034926 0.02296121
0.012062651 0.04588663 -1.1342673 0.023253666 -0.12816536 0.0057560867 -0.061850403 -0.5304625
3.2470765 2.3695548 -2.759443 0.016087504 0.15953009 0.084198505 1.8457096 -0.06738467
-0.13572021 -0.04206779 0.06399361 -0.40416896 0.0060347896 -0.03872322 0.0024416838 0.038851656
0.10299507 0.08768246 5.4984536 -0.01760209 -0.0168597 0.012426688 -0.06971026 -0.1605511
-1.3104135 -1.3105253 -2.9089954 -0.018431585 -0.14322124 -0.08465609 -0.9327344 0.044180375
-0.0035732966 -0.06052494 0.002996404 0.30562773 0.1675624 -0.36972162 -3.584308 0.014903131
-0.14190441 -0.06002692 -0.34584063 0.0013556911 0.12219396 0.012749348 0.061664335 0.526564
-0.0063768104 -0.0018555699 -0.013424239 -0.017708313 -0.20372048 -0.104667746 0.004619106 0.013166128
-0.49543777 2.94844 0.057018995 0.44651005 -0.008940523 -0.011467089 0.0072001847 -0.047487963
-0.34033194 -0.21268463 -0.053440824 0.009012122 -3.0326257 0.2669505 -0.053308688 2.0457108
0.005014052 0.004523918 0.0018894587 0.024963029 0.24630375 0.14218657 0.028794212 -0.0077971937
2.1438098 -1.3212924 0.017054996 -0.9305959 0.0065358346 0.012193417 0.0016829408 0.02355557
0.24066727 0.13805835 0.056017753 -0.0091468645 2.5005815 -0.9304247 0.055273 -1.1902738
0.008655805 0.0038325957 0.016309572 0.025730953 0.2889372 0.16505128 0.012133815 -0.01751778
1.0301374 -2.499456 -0.025816197 -0.21329007
00000000: 1a48 243c a6c6 82bc 186e 593c 774d 023e
00000010: 9a9d 1f3f 45dc a33e 8438 02bc 569f 6e40
00000020: 2dab 9ebc 54ed 953c 6527 b33d b947 60bd
00000030: 0517 103c fd17 9a3b bcc5 98bc 90af a940
00000040: bee5 10c0 57c8 cbbf 10c9 053c 8e72 183e
00000050: 8907 4d3e eee5 a83c 2990 e039 4c98 373f
00000060: 4c1d 8b3a 87b8 58bb 484f e93b f415 59bd
00000070: 61e9 0b40 0340 02c0 35f2 1cbd 4a29 4dbf
00000080: 77be a73b db4d f53b 0088 873b 2ad3 fdbd
00000090: 7b21 32bb f0b3 583c dbfc 41bc 629d aabe
000000a0: 1202 26c0 6b18 2840 3944 3a3d 0c58 32be
000000b0: 210a 0d3d dd8e 57bc 7cd3 64bd a38f 953e
000000c0: ae9b 8c3a a5aa 4a3b 4c72 92bb cbb9 b1be
000000d0: 8e70 c0bf 229d 0940 5f59 113d 50c9 613f
000000e0: f345 64bb 65e5 3fbc 78f6 6e3c 3475 0e3e
000000f0: 3b78 a140 79c2 cbbf 3a3c 0240 2619 bc3c
00000100: 6da2 453c 9ef3 3b3d ac2f 91bf 797e be3c
00000110: c83d 03be 8e9d bc3b d956 7dbd 64cc 07bf
00000120: 1ad0 4f40 c9a6 1740 b79a 30c0 f1c9 833c
00000130: db5b 233e 4470 ac3d 3640 ec3f f900 8abd
00000140: 3dfa 0abe 464f 2cbd 150f 833d 3cef cebe
00000150: 7cbf c53b 3d9c 1ebd a804 203b ea22 1f3d
00000160: 14ef d23d dd92 b33d 55f3 af40 4232 90bc
00000170: 5b1d 8abc 4f99 4b3c 41c4 8ebd 8267 24be
00000180: a1bb a7bf 4bbf a7bf fb2c 3ac0 d6fd 96bc
00000190: 97a8 12be 2c60 adbd aec7 6ebf 7bf6 343d
000001a0: f82d 6abb 00e9 77bd 515f 443b 3d7b 9c3e
000001b0: 7a95 2b3e 274c bdbe 4d65 65c0 432c 743c
000001c0: 644f 11be cade 75bd 0612 b1be 72b1 b13a
000001d0: d440 fa3d a4e2 503c be93 7c3d e6cc 063f
000001e0: 90f4 d0bb 9836 f3ba 57f1 5bbc 0611 91bc
000001f0: 1a9c 50be 0b5c d6bd df5b 973b beb6 573c
00000200: 05aa fdbe 3eb3 3c40 c08c 693d f79c e43e
00000210: 457b 12bc 75e0 3bbc 87ef eb3b bd82 42bd
00000220: fd3f aebe 00ca 59be c4e4 5abd 94a7 133c
00000230: 8a16 42c0 bcad 883e 365a 5abd edec 0240
00000240: eb4c a43b 603d 943b b7a7 f73a 447f cc3c
00000250: 0d37 7c3e 5b99 113e d7e1 eb3c 9a7f ffbb
00000260: 2e34 0940 1c20 a9bf ebb6 8b3c 883b 6ebf
00000270: 8e2a d63b e6c6 473c 1f96 dc3a 9cf7 c03c
00000280: 7b71 763e 2b5f 0d3e df72 653d bbdc 15bc
00000290: 8709 2040 5030 6ebf f165 623d e45a 98bf
000002a0: 14d1 0d3c 492c 7b3b a79b 853c b8c9 d23c
000002b0: 94ef 933e 3403 293e e9cc 463c 7381 8fbc
000002c0: 8bdb 833f 16f7 1fc0 7d7c d3bc b668 5abe

submodules.decoder.0.bias f4 [15]
0.34434098 0.16094589 -0.07924554 -0.007802923 0.097406305 -0.11679443 -0.21798071 -0.07575089
0.38286895 0.27067524 0.15891793 -0.57057506 0.2685605 0.37021047 -0.04440837
00000000: 764d b03e 00cf 243e 7c4b a2bd aaaf ffbb
00000010: f57c c73d eb31 efbd 5636 5fbe 4823 9bbd
00000020: 6607 c43e f295 8a3e 62bb 223e 3511 12bf
00000030: c380 893e 3a8c bd3e 8de5 35bd

exp_avg f4 [12, 15]
-0.047741547 -0.039156064 0.038385224 -0.030952957 -0.0324207 0.1135953 0.1309241 0.041609533
-0.02102452 0.03210568 -0.10539557 -0.09966165 0.10193509 0.104137205 0.10660491 -0.123085156
-0.16933073 0.116814435 -0.094653964 -0.09730838 -0.14008872 0.21258844 0.20354208 0.2179976
0.25884068 0.31487083 0.3044984 -0.31055897 -0.30735898 -0.30891004 0.015824335 0.03286108
0.03419506 -0.04673425 -0.03258529 0.09524373 -0.0077179098 -0.11433693 -0.14402664 -0.12706219
0.041677278 0.04276633 -0.045909 -0.04425605 -0.040999677 -0.01341031 0.098303206 0.040673554
-0.053815253 -0.045592993 0.08748344 -0.08892164 -0.08827275 -0.106885135 -0.12030122 -0.05094089
-0.052001636 0.051965117 0.054640494 0.05117641 0.057405725 -0.035448752 -0.040758424 0.03282211
0.045256343 0.06276409 0.04551486 0.0079929205 -0.03871408 -0.008386658 -0.046160657 -0.03446587
0.03919243 0.039378244 0.04397307 -0.055693377 -0.038784754 0.03055471 -0.016938154 -0.025944287
-0.16164693 -0.040050145 0.03772703 0.1085379 0.06941179 0.10241383 0.09763825 -0.10176919
-0.10177326 -0.10047523 -0.07017395 0.026125697 0.04978087 -0.039823465 -0.04942965 0.03717107
0.048342083 -0.012192719 -0.020840919 0.006829799 -0.12083153 -0.11885949 0.118794635 0.11683129
0.118721485 -0.056567177 -0.11955307 0.065150276 -0.051327348 -0.052451424 -0.21395305 -0.119416974
-0.02296345 0.08432338 0.022649879 0.08434364 0.09303562 -0.090686075 -0.089528814 -0.08449016
-0.12746303 0.09801927 0.14730822 -0.14940794 -0.14729933 -0.042209562 -0.026513634 -0.006501565
0.0051169596 -0.0059027397 0.083541565 0.08827047 -0.086910106 -0.08787705 -0.08316342 0.016829636
-0.08723941 -0.07674111 0.09645123 0.0767687 0.056273855 -0.044435043 -0.115310885 -0.09339916
-0.09272572 -0.14124936 -0.14272049 0.1452299 0.14183915 0.13796906 -0.014166893 0.00072611077
0.011541902 -0.0097555425 -0.01064739 -0.0060690963 -0.005020857 0.0005295779 0.0072366646 0.002604562
0.0014189426 0.005818529 -0.0040223557 -0.0045398967 -0.0040829405 0.06359847 -0.05720558 -0.07504418
0.0766348 0.0752634 0.046740398 0.03598391 0.018743793 -0.008517042 0.0095138885 -0.05003086
-0.038728308 0.049622122 0.050279975 0.05026716
00000000: a48c 43bd 1c62 20bd d339 1d3d 0e91 fdbc
00000010: 91cb 04bd a7a4 e83d f810 063e c26e 2a3d
00000020: 9d3b acbc 3f81 033d a2d9 d7bd 681b ccbd
00000030: 58c3 d03d e345 d53d ad53 da3d 1214 fcbd
00000040: 0965 2dbe 683c ef3d f0d9 c1bd 9e49 c7bd
00000050: 6b73 0fbe c9b0 593e 566d 503e c33a 5f3e
00000060: c486 843e c036 a13e 37e7 9b3e 9601 9fbe
00000070: 285e 9dbe 7529 9ebe 09a2 813c 5799 063d
00000080: 1f10 0c3d 6a6c 3fbd 2778 05bd 250f c33d
00000090: 85e6 fcbb 7b29 eabd b87b 13be 971c 02be
000000a0: cbb5 2a3d bf2b 2f3d 130b 3cbd d545 35bd
000000b0: 47ef 27bd ebb6 5bbc 3153 c93d 5099 263d
000000c0: 626d 5cbd b8bf 3abd 852a b33d 8c1c b6bd
000000d0: 58c8 b4bd 98e6 dabd 7c60 f6bd 65a7 50bd
000000e0: abff 54bd 60d9 543d b6ce 5f3d 5b9e 513d
000000f0: 4422 6b3d b632 11bd 4ef2 26bd 7a70 063d
00000100: b75e 393d 768a 803d ca6d 3a3d bdf4 023c
00000110: a892 1ebd 3168 09bc f512 3dbd 162c 0dbd
00000120: 3e88 203d 154b 213d 1b1d 343d bd1e 64bd
00000130: c3dc 1ebd df4d fa3c e2c1 8abc 1d89 d4bc
00000140: c686 25be 9f0b 24bd a987 1a3d 1e49 de3d
00000150: c527 8e3d 58be d13d 90f6 c73d 5d6c d0bd
00000160: 806e d0bd f5c5 cdbd 5cb7 8fbd 8f05 d63c
00000170: 07e7 4b3d ee1d 23bd bf76 4abd b140 183d
00000180: 5902 463d f8c3 47bc 93ba aabc 82cc df3b
00000190: 8576 f7bd 9b6c f3bd 9a4a f33d 3e45 ef3d
000001a0: 4024 f33d fcb2 67bd 3dd8 f4bd 826d 853d
000001b0: a03c 52bd 4ed7 56bd 8216 5bbe e390 f4bd
000001c0: d81d bcbc bcb1 ac3d 3d8c b93c 5cbc ac3d
000001d0: 7689 be3d 9fb9 b9bd e25a b7bd 2d09 adbd
000001e0: ab85 02be 54be c83d f7d7 163e 65fe 18be
000001f0: a3d5 16be efe3 2cbd 1f33 d9bc 150b d5bb
00000200: 2bac a73b c56b c1bb d717 ab3d 26c7 b43d
00000210: edfd b1bd e2f8 b3bd 9551 aabd 4ede 893c
00000220: 93aa b2bd 712a 9dbd 3988 c53d e838 9d3d
00000230: 6a7f 663d 8501 36bd 1d28 ecbd 0f48 bfbd
00000240: fbe6 bdbd aca3 10be 5225 12be 26b7 143e
00000250: 483e 113e c347 0d3e 421c 68bc 7858 3e3a
00000260: 3f1a 3d3c b6d5 1fbc 6472 2ebc 45df c6bb
00000270: 0086 a4bb 5fd3 0a3a 8b21 ed3b 4db1 2a3b
00000280: d0fb b93a 5ca9 be3b f7cd 83bb 6ac3 94bb
00000290: 30ca 85bb ea3f 823d 6650 6abd c3b0 99bd
000002a0: b5f2 9c3d b323 9a3d dc72 3f3d dd63 133d
000002b0: 958c 993c 108b 0bbc 24e0 1b3c 29ed 4cbd
000002c0: 93a1 1ebd 9140 4b3d 60f2 4d3d f0e4 4d3d

exp_avg_sq f4 [12, 15]
0.11739248 0.084796265 0.1143987 0.111491725 0.11529294 0.07582842 0.11402792 0.102066964
0.09431565 0.10864381 0.10407308 0.107197255 0.106301025 0.106638804 0.10472022 0.73176175
1.0636873 0.90941274 0.9629415 0.91149336 0.8236299 0.93248624 0.8640797 0.9391715
0.9699509 1.1218318 1.1599134 1.1451663 1.1486205 1.1272085 0.17299965 0.1233405
0.1677311 0.16504948 0.16902134 0.10677201 0.119586945 0.13825776 0.10860555 0.117397174
0.1604873 0.1555784 0.15807031 0.15668473 0.15984246 0.06273874 0.068677835 0.07842212
0.08293949 0.07925376 0.062218986 0.06463737 0.07834032 0.07638848 0.07650097 0.07894293
0.07831644 0.0787773 0.078592345 0.07897012 0.098773174 0.105185516 0.11138491 0.11316269
0.11260598 0.08750698 0.10609617 0.12102153 0.11117471 0.12198358 0.1240439 0.12599884
0.12545711 0.12576318 0.12442497 0.121742524 0.13436197 0.13614805 0.13896365 0.13669583
0.12184088 0.11589272 0.14184862 0.14837633 0.14194284 0.14386906 0.14423455 0.14437236
0.14444995 0.1439339 0.073718905 0.09439226 0.0884848 0.0935053 0.09041197 0.06839208
0.072660014 0.0740936 0.07990114 0.08226216 0.10917685 0.112737656 0.1115173 0.11163562
0.109766364 0.19722022 0.26003596 0.22351341 0.2287364 0.22447185 0.2767495 0.13463144
0.26516467 0.29108474 0.20687057 0.2371321 0.24350704 0.24121907 0.2420811 0.23826022
0.10646732 0.080784805 0.11408447 0.11324126 0.113625616 0.092618056 0.109572574 0.11711877
0.118134156 0.12888281 0.13973437 0.14729513 0.14361592 0.14468145 0.14097281 0.21462819
0.16471805 0.22258678 0.22431195 0.22421692 0.17974216 0.16997023 0.19949469 0.19714047
0.19945379 0.21393548 0.21745348 0.21659853 0.21692823 0.21462129 0.00061502017 0.00059580116
0.0006227971 0.00063259003 0.0006299116 0.00059078104 0.00051884993 0.00059030135 0.0006353083 0.00061559724
0.00064042414 0.0006384903 0.0006370551 0.00063886866 0.0006441667 0.04687643 0.033646166 0.046815105
0.04581683 0.046629813 0.037130866 0.04239372 0.04157116 0.044974897 0.04785553 0.053430416
0.05561466 0.05517021 0.05544985 0.053935606
00000000: 786b f03d aaa9 ad3d de49 ea3d c655 e43d
00000010: b41e ec3d ee4b 9b3d 7887 e93d 7c08 d13d
00000020: 9028 c13d a580 de3d 4424 d53d 3c8a db3d
00000030: 5ab4 d93d 7265 da3d 8e77 d63d bd54 3b3f
00000040: e826 883f 46cf 683f 5683 763f a157 693f
00000050: 69d9 523f 6bb7 6e3f 5434 5d3f 8b6d 703f
00000060: b44e 783f 2f98 8f3f 0b78 943f cf94 923f
00000070: ff05 933f 5e48 903f d226 313e f299 fc3d
00000080: b4c1 2b3e bb02 293e ee13 2d3e 49ab da3d
00000090: 00ea f43d 7193 0d3e 966c de3d ee6d f03d
000000a0: c856 243e f24f 1f3e 2fdd 213e f671 203e
000000b0: bead 233e 2b7d 803d f7a6 8c3d c79b a03d
000000c0: 2edc a93d cc4f a23d 56d9 7e3d 9960 843d
000000d0: e470 a03d 9071 9c3d 8aac 9c3d d5ac a13d
000000e0: 5f64 a03d fe55 a13d 06f5 a03d 16bb a13d
000000f0: 9749 ca3d 816b d73d c61d e43d d7c1 e73d
00000100: f79d e63d dc36 b33d f348 d93d 23da f73d
00000110: 91af e33d 87d2 f93d ba0a fe3d d705 013e
00000120: d477 003e 10c8 003e 85d2 fe3d 2554 f93d
00000130: 2f96 093e 656a 0b3e 7d4c 0e3e fef9 0b3e
00000140: b687 f93d 2a59 ed3d c440 113e f7ef 173e
00000150: 7759 113e 6952 133e 39b2 133e 59d6 133e
00000160: b0ea 133e 6963 133e f0f9 963d bb50 c13d
00000170: 8537 b53d b57f bf3d e929 b93d 2611 8c3d
00000180: c6ce 943d 63be 973d 35a3 a33d 1079 a83d
00000190: 1d98 df3d 00e3 e63d 2f63 e43d 37a1 e43d
000001a0: 30cd e03d 19f4 493e 6f23 853e b3e0 643e
000001b0: e039 6a3e f3db 653e 1cb2 8d3e d3dc 093e
000001c0: aac3 873e 0f09 953e e1d5 533e c2d2 723e
000001d0: e959 793e 2202 773e 1ce4 773e 7dfa 733e
000001e0: 8a0b da3d 8172 a53d 1ea5 e93d 09eb e73d
000001f0: 8cb4 e83d 89ae bd3d 9667 e03d f7db ef3d
00000200: 52f0 f13d dbf9 033e 8716 0f3e 89d4 163e
00000210: 0d10 133e 6027 143e 2d5b 103e 7ec7 5b3e
00000220: d9ab 283e caed 633e 08b2 653e 1f99 653e
00000230: 540e 383e ad0c 2e3e 5648 4c3e 31df 493e
00000240: 9d3d 4c3e e711 5b3e 20ac 5e3e 01cc 5d3e
00000250: 6f22 5e3e afc5 5b3e 4e39 213a 8a2f 1c3a
00000260: 3543 233a 66d4 253a a720 253a a5de 1a3a
00000270: 6e03 083a 74be 1a3a d18a 263a 0860 213a
00000280: 23e2 273a 5c60 273a 0b00 273a c079 273a
00000290: 4cdd 283a 8001 403d 90d0 093d 32c1 3f3d
000002a0: 6eaa 3b3d e7fe 3e3d 8916 183d 0aa5 2d3d
000002b0: 8546 2a3d 9937 383d 2904 443d dad9 5a3d
000002c0: 33cc 633d 28fa 613d 621f 633d 95eb 5c3d

exp_avg f4 [12]
0.043897778 0.13209082 -0.057766404 -0.050874922 0.06796304 -0.02470047 0.060847677 0.045537
-0.0027883425 -0.03927845 0.00017294334 -0.0014077793
00000000: 28ce 333d d142 073e 779c 6cbd 3962 50bd
00000010: 3530 8b3d a458 cabc 6a3b 793d 0185 3a3d
00000020: a0bc 36bb 71e2 20bd 2058 3539 3c85 b8ba

exp_avg_sq f4 [12]
0.082638375 1.0357894 0.13313602 0.064813666 0.09659972 0.11561886 0.072947115 0.22792743
0.085840486 0.18577439 0.00046371657 0.033254974
00000000: 4f3e a93d bf94 843f cf54 083e 07bd 843d
00000010: 13d6 c53d 95c9 ec3d 4c65 953d cf65 693e
00000020: 23cd af3d a43b 3e3e fc1e f339 5e36 083d

exp_avg f4 [100, 12]
-0.0041814093 -0.0030246286 -0.0065038 -0.0010228389 0.0015294648 -0.0053093983 0.0047088508 -0.0019177035
0.000839684 -0.0069414554 0.00012159092 0.0006058383 -0.0012185599 -0.00090041506 0.0043332814 0.0045980373
-0.0011753221 0.0027662935 -0.0018997793 0.0049070707 0.004725868 -0.0021828082 -7.959537e-05 -0.0013696884
0.00059121253 -0.00048208734 -0.0018197579 0.0009736424 0.0010850042 -0.0011170547 0.0013119456 6.0588187e-05
-0.0009670924 0.0027056355 9.612274e-05 0.00013430601 0.0008846157 -0.002331389 -0.0014058929 0.0015223484
9.852264e-05 -0.0008332415 0.0011269916 -0.00019081216 0.0017224934 -0.0028616604 -1.8904399e-05 -0.00030896222
0.00027725496 -0.0029733076 -0.0056197946 0.00047497617 0.0021001215 -0.0040602693 0.0035423785 -0.003646738
-7.208846e-05 -0.0015049524 4.1729185e-05 0.00030442158 -0.0037280542 -0.003522323 -0.0051538614 0.0004018376
0.0006833616 -0.00082603336 0.0023241618 0.00047506762 -0.0012108414 0.0013723201 -7.790226e-05 0.00027435797
0.00037112692 -0.00077558163 -0.0014510005 0.0005913619 0.0008740167 -0.0018727502 0.0014676834 -0.0012192882
-0.00094046164 0.0003997892 7.880009e-05 0.00032290877 -0.0010923188 -0.00028223265 -0.0024262362 -0.00023654239
-0.0008004597 0.0013685477 0.0014011179 0.0023798088 -0.0048056045 0.005382772 -0.000112256836 0.00089768897
0.002687937 0.0011101939 -0.00086040684 0.0004913019 0.0012006882 -0.003018667 0.0010814047 -0.0019757317
-0.0032564995 0.0016944852 0.00010340364 0.0008836738 0.0005572016 -0.00025223268 -0.0011201145 -0.00058814493
8.138444e-05 -0.00086015253 0.001524532 0.000329764 -0.0021217517 0.0009220464 -1.004925e-05 0.000595247
0.0013068645 -0.0018832069 -0.0041215797 -0.0014181026 -0.00024190609 -0.0001827679 0.003070563 0.00020052807
-0.00080297503 -0.0006027064 -6.68343e-05 0.00037368928 0.0013387253 0.0015664002 0.00032708122 -0.000828271
-0.00075235363 0.0001815592 0.0006980275 3.4929988e-05 -0.0031121944 0.0018930254 -3.9535466e-06 0.0007758792
0.0017459121 -0.0008052805 -0.0016526835 0.00014414596 -7.6037715e-05 0.00018156707 0.0014109941 0.0009347878
-0.0005202735 0.00068565353 -1.7478213e-05 0.00010126553 -0.0007035955 -0.0006500189 -0.0013712631 -0.0007805224
-0.0007065924 0.0009808046 0.0009718624 0.0017082108 -0.0010458874 0.00082071085 -7.048326e-05 0.0002701109
0.003932316 4.3631957e-05 -0.003516172 -0.0014599239 -0.0005383846 -0.00037002843 0.0026767778 0.00082667527
-0.00222707 -0.00028652526 -6.837143e-05 0.0007173213 0.00027805188 -0.0006219661 0.0023370048 0.0019977659
-0.0007388126 0.001786809 -0.0009363953 0.0026826928 0.0035357059 -0.0023047267 -5.3312302e-05 -0.00096746045
0.00060892885 0.0007911253 -0.0010440241 -0.0011249518 0.0004932668 -0.0027661435 0.0009738804 -0.0032750883
-0.0035188468 0.0005966376 8.123742e-05 0.0011086358 0.0033481133 0.0010122502 -0.0020483783 -0.0005436402
0.0014058577 -0.0026084515 0.001378291 -0.0025453446 -0.0038729298 0.003179653 0.00012221717 0.00091847737
0.0006091382 0.0018634832 0.000849747 -0.00055338093 0.00016120629 -0.00068817043 -0.00014332942 0.00025599202
-0.0012256054 0.0002208619 3.780086e-05 0.00033111993 0.00017411425 -0.0028645564 -0.003234059 -0.003322064
-0.0013203716 0.0035349322 0.0024508212 0.0049757925 0.0027653442 -0.0015555156 -0.00020254574 -0.00067647273
0.0016809581 -0.0012468381 -0.0030318766 -0.0002244333 0.00089431735 -0.0021489705 0.0023074406 -0.00094641506
-0.0016315974 8.3300096e-05 1.9678724e-05 0.0005272729 -0.009235433 -0.015162455 -0.015436107 0.012581182
00000000: 3404 89bb d938 46bb d41d d5bb c710 86ba
00000010: 5378 c83a 76fa adbb b44c 9a3b 745b fbba
00000020: 3d1e 5c3a 2675 e3bb a1fe fe38 1fd1 1e3a
00000030: 16b8 9fba d509 6cba 33fe 8d3b 22ab 963b
00000040: 440d 9aba b44a 353b 0402 f9ba 7ecb a03b
00000050: 74db 9a3b 720d 0fbb 70ec a6b8 1e87 b3ba
00000060: 9afb 1a3a abc0 fcb9 f184 eeba 093c 7f3a
00000070: b336 8e3a 236a 92ba 97f5 ab3a 1220 7e38
00000080: 7984 7dba 0851 313b 8195 c938 7fd4 0c39
00000090: 8ee5 673a 38ca 18bb f045 b8ba 8989 c73a
000000a0: f19d ce38 e46d 5aba 90b7 933a c014 48b9
000000b0: 4ac5 e13a b28a 3bbb e394 9eb7 35fc a1b9
000000c0: 885c 9139 d3db 42bb 4126 b8bb 3906 f939
000000d0: 31a2 093b 020c 85bb 4027 683b 1cfe 6ebb
000000e0: 322e 97b8 d341 c5ba 5f06 2f38 c69a 9f39
000000f0: 5f52 74bb c6d6 66bb b9e1 a8bb bbad d239
00000100: 9f23 333a 298a 58ba f750 183b 7f12 f939
00000110: 18b5 9eba 6cdf b33a 755f a3b8 b4d7 8f39
00000120: d093 c239 6750 4bba 7f2f beba a005 1b3a
00000130: 451e 653a 1277 f5ba 485f c03a 86d0 9fba
00000140: 5089 76ba cc9a d139 7a41 a538 154c a939
00000150: 232c 8fba a0f8 93b9 7d01 1fbb 5d08 78b9
00000160: f1d5 51ba d760 b33a b7a5 b73a 91f6 1b3b
00000170: 5578 9dbb f761 b03b 6e6b ebb8 e352 6b3a
00000180: 1a28 303b ed83 913a ed8c 61ba b6ca 003a
00000190: 6960 9d3a d4d4 45bb ecbd 8d3a 477b 01bb
000001a0: ff6a 55bb 7d19 de3a 68da d838 58a6 673a
000001b0: 2b11 123a 193e 84b9 ced0 92ba bd2d 1aba
000001c0: f0ac aa38 dc7b 61ba ced2 c73a 2de4 ac39
000001d0: 160d 0bbb 7db5 713a 3399 28b7 5a0a 1c3a
000001e0: 194b ab3a f0d5 f6ba 510e 87bb a1df b9ba
000001f0: 2ca8 7db9 62a5 3fb9 803b 493b d844 5239
00000200: be7e 52ba f1fe 1dba 6429 8cb8 baeb c339
00000210: 2b78 af3a ab4f cd3a 197c ab39 5320 59ba
00000220: 9939 45ba ed60 3e39 d5fb 363a ca81 1238
00000230: f5f5 4bbb 641f f83a b5a8 84b6 5f64 4b3a
00000240: 17d7 e43a 7619 53ba db9e d8ba e325 1739
00000250: 7076 9fb8 0a63 3e39 1bf1 b83a 8c0c 753a
00000260: f762 08ba 6ebd 333a 2d9e 92b7 845e d438
00000270: 7f71 38ba 0866 2aba f4bb b3ba f99b 4cba
00000280: 9d3a 39ba 578e 803a 95c4 7e3a 0be6 df3a
00000290: 2816 89ba f924 573a 69d0 93b8 ac9d 8d39
000002a0: a8da 803b 7501 3738 946f 66bb eb5a bfba
000002b0: 6122 0dba 6000 c2b9 e16c 2f3b 3db5 583a
000002c0: 09f4 11bb c538 96b9 a262 8fb8 9e0a 3c3a
000002d0: 7ec7 9139 700b 23ba 6f28 193b f3ec 023b
000002e0: e0ac 41ba 5c33 ea3a 6d78 75ba 1ed0 2f3b
000002f0: 4db7 673b e60a 17bb a69b 5fb8 2c9d 7dba
00000300: 86a0 1f3a 8563 4f3a a3d7 88ba 1e73 93ba
00000310: 934e 013a 3048 35bb 024c 7f3a dda2 56bb
00000320: 749c 66bb ac67 1c3a 025e aa38 a54f 913a
00000330: 056c 5b3b 7bad 843a 163e 06bb 1483 0eba
00000340: c244 b83a 8ef2 2abb c6a7 b43a cccf 26bb
00000350: fbd0 7dbb ba61 503b 6c27 0039 f9c5 703a
00000360: 93ae 1f3a 1f40 f43a 8ec1 5e3a c410 11ba
00000370: 7c09 2939 5666 34ba b34a 16b9 ab36 8639
00000380: 7ea4 a0ba 2a97 6739 5d8c 1e38 2a9a ad39
00000390: 7092 3639 48bb 3bbb 82f2 53bb fcb6 59bb
000003a0: 5210 adba 52aa 673b f59d 203b f90b a33b
000003b0: c73a 353b 71e2 cbba 7562 54b9 5155 31ba
000003c0: 9853 dc3a f26c a3ba 73b2 46bb db55 6bb9
000003d0: 9f70 6a3a bed5 0cbb 6e38 173b d718 78ba
000003e0: 53db d5ba 66b1 ae38 bd13 a537 af38 0a3a
000003f0: 3750 17bc f26b 78bc bae7 7cbc 4d21 4e3c

exp_avg_sq f4 [100, 12]
0.000313877 0.00022983803 0.00028637165 0.00019509037 0.00020039358 0.00031858784 0.0002426028 0.0006330332
0.00018919504 0.0007520266 1.0201451e-06 1.0096119e-05 0.00010024752 9.816471e-05 0.00010997692 7.202049e-05
1.32041205e-05 0.00019288635 9.445975e-05 0.0002281112 0.00025410176 0.0002067219 3.0646257e-07 2.1090484e-05
8.624648e-05 0.00021878154 0.00018996843 7.658842e-05 4.5222292e-05 0.00013289627 6.919944e-05 0.00017185067
0.00017592042 0.00020880993 3.1989148e-07 1.3784981e-05 0.00013971473 0.00023529537 0.00013754153 0.00012569953
1.833921e-05 0.00031192508 0.0001415856 0.00032050017 0.00030330595 0.0003705072 4.6977283e-07 2.408778e-05
8.65171e-05 0.00013614823 0.0001632765 7.499349e-05 6.500549e-05 0.00010996525 6.536385e-05 0.00017311925
9.062515e-05 0.00020940378 3.0780762e-07 6.491664e-06 0.00013813948 0.00028204458 0.0002894453 0.0001246363
0.000113370785 0.00018863197 0.000110284534 0.00026274516 9.8393604e-05 0.00043281825 5.5653385e-07 4.8772717e-06
3.7452523e-05 8.495408e-05 7.9517056e-05 3.1390467e-05 1.9245801e-05 5.5285105e-05 2.9160621e-05 6.99212e-05
6.7658664e-05 9.1929986e-05 1.3778413e-07 5.1684096e-06 0.0001565352 0.00040808533 0.00035891798 0.0001556684
0.00015005656 0.00022149537 0.00013583225 0.00033363028 0.0002344161 0.0004699988 7.18699e-07 1.6067874e-05
8.496101e-05 0.00016599815 0.000186741 6.918702e-05 4.47454e-05 0.00011933109 5.521242e-05 0.00014243307
0.00018737648 0.0001645887 2.7828503e-07 1.4985291e-05 5.3042033e-05 0.00011177107 0.00011267822 4.5378092e-05
3.136825e-05 7.294726e-05 3.6093377e-05 9.552733e-05 0.00010662241 0.00012380081 1.9793214e-07 8.191245e-06
6.5584325e-05 0.00014968409 0.00014306328 5.5010707e-05 3.8510287e-05 9.1090194e-05 5.141687e-05 0.00012312822
0.00010172542 0.00015353982 2.3154989e-07 7.762174e-06 6.703333e-05 0.00019083041 0.00017638164 6.2791514e-05
3.6764264e-05 0.000104624065 4.7816608e-05 0.00012886169 0.00015842229 0.0001513815 2.5435588e-07 1.241948e-05
4.4209635e-05 0.00011319788 0.00010864994 4.050873e-05 2.6008955e-05 6.5900706e-05 2.9246814e-05 8.051943e-05
0.00010891483 9.360504e-05 1.588895e-07 8.658025e-06 6.847463e-05 0.000171607 0.00015047422 5.7697052e-05
3.5417223e-05 0.00010068834 5.358394e-05 0.00013223896 0.00013937052 0.00015906409 2.619245e-07 1.1010568e-05
8.247441e-05 0.000163045 0.00018631788 6.8129324e-05 4.3971355e-05 0.000113697206 5.367324e-05 0.00013256284
0.00018409164 0.00015658498 2.7474456e-07 1.4801119e-05 0.000109153065 0.000113676426 0.00012732632 7.9245656e-05
1.34322545e-05 0.0002098794 9.624001e-05 0.0002322609 0.00021123068 0.00024884366 3.3479e-07 1.6884791e-05
0.00012443431 0.0002568244 0.00028486154 9.8414275e-05 4.4602035e-05 0.00018211598 8.49553e-05 0.00019013502
0.00021926491 0.00026783114 4.1581623e-07 1.7077096e-05 6.230559e-05 0.00012500823 0.00013681571 5.5823108e-05
3.4798053e-05 9.2784925e-05 4.43704e-05 0.000113335656 0.00014002634 0.00014018113 2.2826418e-07 1.0851429e-05
4.193242e-05 8.855758e-05 9.504163e-05 3.5851033e-05 2.2964883e-05 6.271211e-05 3.1875206e-05 7.879249e-05
6.523551e-05 0.000102656886 1.4968677e-07 5.0415374e-06 0.00045468245 0.0010728148 0.00085199066 0.00040270074
0.00026774727 0.0006548885 0.0004100312 0.0009305062 0.00037350942 0.0011638793 1.7011042e-06 2.5140454e-05
4.345855e-05 7.559063e-05 8.24871e-05 3.574513e-05 3.076274e-05 5.8183537e-05 3.1100833e-05 8.751174e-05
4.7218982e-05 0.000111936446 1.5296773e-07 3.1930317e-06 0.0024715734 0.0059153303 0.006547961 0.0019150934
00000000: dc8f a439 ad00 7139 2724 9639 2c91 4c39
00000010: be20 5239 2308 a739 3163 7e39 24f2 253a
00000020: a862 4639 a723 453a ebeb 8835 8062 2937
00000030: fa3b d238 c7dd cd38 69a3 e638 b509 9738
00000040: 4487 5d37 8941 4a39 b118 c638 2231 6f39
00000050: f638 8539 7dc3 5839 e587 a434 78eb b037
00000060: 3adf b438 b968 6539 4332 4739 189e a038
00000070: 11ad 3d38 125a 0b39 2b1f 9138 d032 3439
00000080: 4777 3839 fdf3 5a39 8dbd ab34 0b46 6737
00000090: 6380 1239 9fb9 7639 0639 1039 36ce 0339
000000a0: 27d7 9937 e089 a339 9876 1439 ce08 a839
000000b0: 0905 9f39 a240 c239 1635 fc34 1d10 ca37
000000c0: 8470 b538 03c3 0e39 3435 2b39 d345 9d38
000000d0: 8f53 8838 259d e638 f313 8938 5887 3539
000000e0: 020e be38 6693 5b39 c240 a534 f8d2 d936
000000f0: 89d9 1039 62df 9339 b1c0 9739 cdb0 0239
00000100: 7ac1 ed38 82cb 4539 8f48 e738 0fc1 8939
00000110: aa58 ce38 e2eb e239 b764 1535 72a7 a336
00000120: 5716 1d38 6029 b238 65c2 a638 42a9 0338
00000130: 0b72 a137 eee1 6738 f59d f437 a9a2 9238
00000140: f8e3 8d38 89ca c038 d0f1 1334 4d6c ad36
00000150: 9923 2439 49f4 d539 282d bc39 eb3a 2339
00000160: 8058 1d39 3641 6839 316e 0e39 19eb ae39
00000170: 98cd 7539 2c6a f639 9fec 4035 7fc9 8637
00000180: 182d b238 ca0f 2e39 e8cf 4339 8018 9138
00000190: 02ad 3b38 6441 fa38 e293 6738 165a 1539
000001a0: 7e7a 4439 7195 2c39 3467 9534 5669 7b37
000001b0: 7379 5e38 a366 ea38 a94d ec38 5b54 3e38
000001c0: 6791 0338 43fb 9838 f862 1738 d855 c838
000001d0: 789a df38 87d0 0139 2c87 5434 216d 0937
000001e0: 518a 8938 84f4 1c39 4203 1639 4cbb 6638
000001f0: 1b86 2138 ad07 bf38 72a8 5738 fb1b 0139
00000200: 6b55 d538 88ff 2039 f39f 7834 493a 0237
00000210: 3f94 8c38 a619 4839 16f3 3839 f0ae 8338
00000220: 5433 1a38 9e69 db38 b18e 4838 0c1f 0739
00000230: 291e 2639 29bc 1e39 688e 8834 435d 5037
00000240: bc6d 3938 a664 ed38 feda e338 ebe7 2938
00000250: ce2d da37 2c34 8a38 0e57 f537 8adc a838
00000260: 3469 e438 d34d c438 379b 2a34 ef41 1137
00000270: 099a 8f38 67f1 3339 9ec8 1d39 bdff 7138
00000280: f48c 1438 a428 d338 51bf 6038 a0a9 0a39
00000290: fd23 1239 71ca 2639 a19e 8c34 08ba 3837
000002a0: 1df6 ac38 0ff7 2a39 535e 4339 a7e0 8e38
000002b0: e26d 3838 b970 ee38 341f 6138 9100 0b39
000002c0: b908 4139 f630 2439 9b80 9334 5252 7837
000002d0: 1be9 e438 9165 ee38 e682 0539 b030 a638
000002e0: 185b 6137 1313 5c39 76d4 c938 108b 7339
000002f0: ce7d 5d39 3b77 8239 30bd b334 d0a3 8d37
00000300: 957a 0239 63a6 8639 7859 9539 c363 ce38
00000310: 1213 3b38 63f6 3e39 082a b238 fb5e 4739
00000320: 7aea 6539 b06b 8c39 593d df34 c940 8f37
00000330: 0faa 8238 a414 0339 3076 0f39 9b23 6a38
00000340: 20f4 1138 8795 c238 5b1a 3a38 9eae ed38
00000350: 09d4 1239 96fd 1239 c818 7534 880e 3637
00000360: 98e0 2f38 fdb7 b938 1651 c738 c15e 1638
00000370: b6a4 c037 4f84 8338 beb1 0538 653d a538
00000380: 0ccf 8838 7f49 d738 96b9 2034 7a2a a936
00000390: 7262 ee39 b19d 8c3a 2058 5f3a 9421 d339
000003a0: 6e60 8c39 d3ac 2b3a 75f9 d639 37ed 733a
000003b0: 96d3 c339 4f8d 983a 7f51 e435 b7e4 d237
000003c0: 4347 3638 6986 9e38 edfc ac38 0bed 1538
000003d0: 3e07 0138 190a 7438 4472 0238 8286 b738
000003e0: ff0c 4638 6cbf ea38 733f 2434 de47 5636
000003f0: 1ffa 213b 63d5 c13b 4790 d63b df03 fb3a

exp_avg f4 [100]
0.023488212 -0.011987915 -0.0043514143 0.002583966 0.0055667846 -0.0013413444 0.002972255 -0.0008190227
0.0070983395 0.0061376034 0.0064354744 0.0071611004 -7.489071e-05 0.0021440375 0.01071752 -0.006495969
0.014078306 0.0036668882 0.004026537 -0.003239722 0.006044403 -0.03804294 0.0033185086 0.0032533593
0.008218575 0.00530785 0.03251345 0.0040267543 0.0008480808 -0.020419784 -0.00052185275 -0.006651773
-0.0032876318 0.0039071064 0.0049797813 -0.007488153 -0.00029886112 0.0006773452 0.0009882028 -0.0021663094
0.0004706707 -0.05699008 0.0045888526 0.0075709424 0.0018185538 0.0026194756 0.004085667 -0.0002798941
-0.0036913578 0.007815234 -0.0064704586 0.0006654565 -0.0046162875 0.004526376 0.010222236 0.019277733
-0.0006733255 -0.013593624 6e-45 0.0009518115 -0.0011236494 0.0012260011 -0.00208886 0.0016605727
-0.00046179563 -0.009473583 0.027391477 0.0012060191 0.005013613 -0.001538953 -0.00025040904 0.01164254
0.0030732867 0.005094352 0.008893959 0.011970239 -0.03330751 -0.005240623 0.0012740862 -0.009608982
0.007725968 0.0008129818 0.006076239 0.0020852038 0.008268663 -0.015782274 -0.007813179 0.0013029381
0.0032004162 0.03257501 0.014827724 0.00013207972 -0.0069631715 -0.0028933813 -0.015393561 0.014307427
-0.009154976 0.007274409 0.0014403607 0.0134566175
00000000: 5a6a c03c f668 44bc 4f96 8ebb c157 293b
00000010: 9369 b63b 0dd0 afba 2aca 423b afb3 56ba
00000020: 3099 e83b f31d c93b ace0 d23b aaa7 ea3b
00000030: a50e 9db8 fb82 0c3b 8998 2f3c 23dc d4bb
00000040: b2a8 663c 2d50 703b 0af1 833b 8451 54bb
00000050: 2110 c63b ead2 1bbd 567b 593b 5036 553b
00000060: 34a7 063c 79ed ad3b d32c 053d ddf2 833b
00000070: bd51 5e3a 6447 a7bc f2cc 08ba 1ef7 d9bb
00000080: 4f75 57bb 2f07 803b 6f2d a33b 2e5f f5bb
00000090: 76b0 9cb9 de8f 313a 9586 813a a4f8 0dbb
000000a0: 5ac4 f639 6e6e 69bd 165e 963b ab15 f83b
000000b0: 8a5c ee3a 82ab 2b3b 0fe1 853b c0be 92b9
000000c0: b5ea 71bb 780b 003c 2406 d4bb 0872 2e3a
000000d0: 3a44 97bb fe51 943b 2a7b 273c 56ec 9d3c
000000e0: 1c82 30ba cbb7 5ebc 0400 0000 fd82 793a
000000f0: 6b47 93ba c5b1 a03a 41e5 08bb 93a7 d93a
00000100: 291d f2b9 1637 1bbc 1764 e03c 4913 9e3a
00000110: 3c49 a43b b2b6 c9ba 5549 83b9 5ac0 3e3c
00000120: 3269 493b 86ee a63b f8b7 113c d21e 443c
00000130: 756d 08bd 88b9 abbb 3dff a63a fe6e 1dbc
00000140: 1e2a fd3b 491e 553a 301b c73b eaa7 083b
00000150: 4979 073c d449 81bc d902 00bc 59c7 aa3a
00000160: 13be 513b 606d 053d fbef 723c e17e 0a39
00000170: 512b e4bb e29e 3dbb 4635 7cbc b369 6a3c
00000180: c1fe 15bc 2a5e ee3b 7cca bc3a 2579 5c3c

exp_avg_sq f4 [100]
0.0057791593 0.0026323851 0.0023191415 0.004055514 0.0020834 0.0033806732 0.0009959473 0.004278055
0.0020513346 0.0013178367 0.0016761402 0.0017521873 0.0011463151 0.0017514522 0.0019002209 0.00275589
0.002966664 0.0016237454 0.001086275 0.011034991 0.0010358543 0.056341313 0.0015681428 0.0017336408
0.0013697663 0.00092588656 0.020236105 0.0011424182 0.0015937694 0.0050537908 0.0016518338 0.0027831476
0.020576192 0.0010660727 0.0039508664 0.0012297856 0.0011213367 0.0025431195 0.00091629813 0.0013018387
0.0016512327 0.011049492 0.0008496721 0.009408911 0.0013778738 0.0014369403 0.028613158 0.0010899254
0.0017682413 0.0015642538 0.003746127 0.0011853313 0.0011813723 0.0048489636 0.0013512311 0.0077800783
0.0010978408 0.004676907 1.2965236e-31 0.0010943896 0.0012891812 0.002424741 0.0032555056 0.0014194155
0.0021088377 0.004738357 0.004456665 0.001803897 0.0016613139 0.0013002626 0.0009810615 0.005657727
0.0039122677 0.0029191754 0.0029776376 0.001787117 0.038712353 0.0023717277 0.0017282902 0.006654733
0.0030831266 0.0073758503 0.0012271605 0.0049717273 0.006928212 0.0033716282 0.0030597458 0.0013569614
0.0042916434 0.016562853 0.014722066 0.0010973561 0.0025229156 0.0014738669 0.004035039 0.0019658466
0.0031995333 0.001002764 0.0019557953 0.011038934
00000000: 1a5f bd3b 1884 2c3b bdfc 173b 1ee4 843b
00000010: a789 083b 498e 5d3b 728a 823a ed2e 8c3b
00000020: af6f 063b 43bb ac3a efb1 db3a a6a9 e53a
00000030: f43f 963a fc90 e53a d510 f93a 299c 343b
00000040: 5d6c 423b dbd3 d43a 5761 8e3a 1bcc 343c
00000050: 81c5 873a 26c6 663d 248a cd3a 553b e33a
00000060: bb89 b33a 32b7 723a 30c6 a53c 32bd 953a
00000070: 07e6 d03a 459a a53b 5882 d83a 7865 363b
00000080: 678f a83c 77bb 8b3a 4576 813b c230 a13a
00000090: d1f9 923a 77aa 263b ba33 703a 75a2 aa3a
000000a0: 2d6e d83a ee08 353c 88bc 5e3a d527 1a3c
000000b0: c699 b43a b757 bc3a 2466 ea3c d4db 8e3a
000000c0: 55c4 e73a a607 cd3a 9581 753b 1e5d 9b3a
000000d0: 47d8 9a3a 0ee4 9e3b cb1b b13a 07f0 fe3b
000000e0: 6de5 8f3a bd40 993b 634c 280c 9f71 8f3a
000000f0: bef9 a83a 67e8 1e3b 525a 553b ae0b ba3a
00000100: 6d34 0a3b 3844 9b3b 3709 923b bd70 ec3a
00000110: 72c0 d93a 936d aa3a f696 803a 7464 b93b
00000120: 7b32 803b a34f 3f3b 7824 433b b23d ea3a
00000130: d890 1e3d fd6e 1b3b cc87 e23a f20f da3b
00000140: 480e 4a3b 1eb1 f13b acd8 a03a dfe9 a23b
00000150: 0e06 e33b 89f6 5c3b 0486 483b 12dc b13a
00000160: eaa0 8c3b d2ae 873c d234 713c 29d5 8f3a
00000170: 8057 253b c42e c13a 5c38 843b 6fd5 003b
00000180: 43af 513b 2d6f 833a cd2c 003b a5dc 343c
