runs/perovskite_multiscale_dataset_3/ae2_PCE_predictor_enc_l_18_l1_1em2_tanh_predictor_0_1_100_relu_decoder_linear_seed_0_lr_1em3_bs_100_e_1500_pass_latents_ae1_fold_0_ae2_fold_2_xavier_normal_gain_10/checkpoints/last.ckpt (torch, 54674 bytes, 33 tensors)

submodules.encoder.0.weight f4 [18, 23]
0	0x3ddb13e3	0.106971525
1	0xb9d8d9ba	-0.0004136095
2	0xbe0c8a9d	-0.13724752
3	0xbae6ba73	-0.0017603174
4	0xbab70a8f	-0.0013964939
5	0x3acc90aa	0.0015607078
6	0xbbf40338	-0.007446673
7	0xbcd6b637	-0.026209934
8	0xbb17dddd	-0.0023173012
9	0x3d3abb94	0.045589045
10	0x3bf2d32a	0.0074104266
11	0x3b3e94e4	0.0029080445
12	0xb96d36c4	-0.00022622483
13	0x3a42678b	0.0007415942
14	0xb9cac4b6	-0.00038675003
15	0xbd300c38	-0.042980403
16	0xbbde6124	-0.0067864824
17	0x3b09ab26	0.0021006553
18	0x3e323f64	0.17406994
19	0xbdd7337a	-0.10507865
20	0x3de857b7	0.11344855
21	0x3a144771	0.00056563976
22	0x3b27d8df	0.0025611443
23	0x3a90bd6f	0.0011042784
24	0xba4b3cf0	-0.0007752916
25	0xbae43121	-0.0017409661
26	0x3adcfff0	0.0016860943
27	0x3a8764f2	0.0010329767
28	0xbdc79df4	-0.09746924
29	0xbab23972	-0.0013597442
30	0xbbbe9c18	-0.0058169477
31	0x3d81a895	0.063309826
32	0xbd003a09	-0.031305347
33	0x3b86b3a5	0.0041107708
34	0xbb12a9d3	-0.0022379055
35	0xbd5196ce	-0.05116921
36	0xbc8c452b	-0.017122826
37	0x3b8315d5	0.0040004053
38	0x3b57b94b	0.003291684
39	0x3be015ee	0.0068385517
40	0xbb561b9f	-0.0032670272
41	0x3d87da37	0.06633418
42	0x3af0f5f2	0.0018383844
43	0xbd4f29e1	-0.05057705
44	0x3cebb2fa	0.028771866
45	0x39a7c4e3	0.00031999414
46	0x3dced997	0.10100096
47	0xbece0a8d	-0.40242425
48	0xbc7a548d	-0.015278948
49	0xbd83fd9a	-0.06444855
50	0xbb9d0fe3	-0.0047931536
51	0x3b593093	0.0033140525
52	0xba2b1911	-0.00065268675
53	0x3df9c39e	0.12195514
54	0x3ce3ee5a	0.027823616
55	0xbb954e68	-0.004556466
56	0xbd71fccc	-0.059078977
57	0xbc6fbb13	-0.014632004
58	0xbe45cdcb	-0.19316785
59	0x3a9fd3b8	0.0012193834
60	0xbafd37ac	-0.001931896
61	0x3b3e8dfe	0.0029076333
62	0xbb0472d2	-0.002021004
63	0xb8111330	-3.4588564e-05
64	0x3e6ef9cf	0.23337482
65	0xbc9f0e2e	-0.019415941
66	0xbedead7b	-0.4349173
67	0x3bd8ef0d	0.006620294
68	0x3b40091e	0.002930231
69	0xbd57deae	-0.0527026
70	0xbdd73083	-0.105073
71	0xbaaa1add	-0.0012977977
72	0x39b20454	0.0003395403
73	0xb99bd392	-0.00029721536
74	0xbddcbea8	-0.10778552
75	0xbe0c5239	-0.1370324
76	0xbb391447	-0.0028240846
77	0xbbb41801	-0.0054960256
78	0x3cabea84	0.02098585
79	0xbdaa5f43	-0.08318951
80	0x3c2530a1	0.010082395
81	0xbb833729	-0.0040043783
82	0xbca8622e	-0.020554628
83	0x3bb49027	0.0055103484
84	0xbaae4b1e	-0.0013297533
85	0x3d5058d3	0.05086596
86	0x3bbbf701	0.0057362323
87	0xbaf0c24b	-0.0018368451
88	0xbabe7b29	-0.0014532554
89	0x3b44833a	0.0029985444
90	0xbc6321b4	-0.013863016
91	0x3ea508ea	0.32233363
92	0xbd44a207	-0.048006084
93	0xbda5ca7d	-0.08095262
94	0x3b8d8e6c	0.0043199565
95	0xbb64a915	-0.003489082
96	0xbc208256	-0.0097966995
97	0xb92839db	-0.00016043281
98	0x3b9ff21f	0.004881158
99	0xbe70f9fb	-0.2353286
100	0x3c74d98c	0.014944445
101	0xbb0397c2	-0.0020079468
102	0xbd8218c8	-0.06352383
103	0xbb7d29de	-0.003862969
104	0x38898c30	6.558781e-05
105	0x3b5290fe	0.003212988
106	0xbb0332e0	-0.0020019338
107	0xbb3e882e	-0.0029072869
108	0xbabc717e	-0.0014377085
109	0xb9caa361	-0.0003865017
110	0x3baaeaeb	0.0052159927
111	0x3b8168a6	0.0039492426
112	0x3b2a6dcf	0.0026005392
113	0xbc8211af	-0.015877573
114	0xbdb43e73	-0.08800974
115	0xbcd323ac	-0.025773846
116	0xbd28ea7e	-0.041239254
117	0xbd6cc9e0	-0.05780971
118	0x3be9a90b	0.007130747
119	0x3a9bf25c	0.001189779
120	0xbd59bb6f	-0.053157266
121	0x3e0b0411	0.1357577
122	0xbe138f8f	-0.14410232
123	0x3ba5f0e8	0.0050641187
124	0xbd318256	-0.04333719
125	0x3d9fb3e5	0.07797984
126	0xbb31cd96	-0.0027130595
127	0xbdfb454b	-0.12269076
128	0x3bdd9aef	0.0067628543
129	0xbcde859f	-0.027163325
130	0xbb05baca	-0.0020405524
131	0x3c88ed14	0.01671461
132	0x3d4704e6	0.048588656
133	0xbb5964b6	-0.00331716
134	0xbba05ec6	-0.0048941104
135	0xbd841ad2	-0.06450428
136	0x3c22d184	0.009937648
137	0x3dcc45d2	0.09974255
138	0x3b55fe74	0.0032652887
139	0x3b0e9ba6	0.0021760254
140	0xbdacbf77	-0.084349565
141	0x3e06ae38	0.13152397
142	0x3ae62d58	0.0017561121
143	0xbccf6bcd	-0.025319958
144	0xbdc575be	-0.09641598
145	0x398acc03	0.00026473412
146	0xbd8f275a	-0.069899276
147	0x3b18d0aa	0.0023317733
148	0xba8044cf	-0.0009786132
149	0x3b78f5fc	0.0037988415
150	0x3ac0b998	0.0014703749
151	0xbb5cad5c	-0.0033672666
152	0x3c420912	0.011842983
153	0xbac9e6e9	-0.00154039
154	0x3afa98b1	0.0019118992
155	0xbb8220ec	-0.0039712097
156	0x3ab2fa53	0.0013654925
157	0x3b8a3d89	0.0042187613
158	0xba883fa4	-0.0010394943
159	0x3dd85e0d	0.10564814
160	0xbcaf02ce	-0.021363642
161	0x398fda5a	0.0002743777
162	0x39a6d73f	0.00031822358
163	0x3c4be07e	0.01244366
164	0xbb22f08c	-0.0024862615
165	0xbc2f624b	-0.010704587
166	0xb8db1c58	-0.00010448013
167	0xb96430f1	-0.00021762007
168	0x3cbaaca0	0.022787392
169	0x3d284948	0.04108551
170	0xbc72f382	-0.014828565
171	0xbba90029	-0.00515749
172	0xbc24884a	-0.0100422595
173	0x3d6d4edd	0.057936538
174	0xbe2f058e	-0.17091963
175	0x3a640d8c	0.00086995284
176	0x3aa38252	0.0012474752
177	0xbe0d47c8	-0.13796914
178	0x3ac916e3	0.0015341904
179	0xbaa10f6d	-0.0012287922
180	0xbbc5b285	-0.006033244
181	0xbad179f6	-0.0015981782
182	0xbb162055	-0.0022907455
183	0x3c893e87	0.016753448
184	0x3a9bfb98	0.0011900542
185	0x3af10879	0.0018389366
186	0xbab7fb3f	-0.0014036669
187	0xb948e8e8	-0.0001916025
188	0x3b3f75ae	0.002921443
189	0x3b6d9b7d	0.0036256008
190	0xba6c83dc	-0.0009022334
191	0x3b6f0df9	0.0036476834
192	0xbae673b9	-0.0017582095
193	0x3ad2198a	0.001602934
194	0x38188818	3.636637e-05
195	0x3aee62c2	0.0018187391
196	0xbe65ef64	-0.22454602
197	0xbb8dc1a1	-0.004326061
198	0x3e14050a	0.14455047
199	0xbb0eddf0	-0.0021799766
200	0x3d85b3f4	0.06528464
201	0x3d465ae3	0.04842652
202	0xbd9e9547	-0.07743316
203	0x3c44e1de	0.012016742
204	0xbb258c5e	-0.0025260667
205	0xbc8dc41f	-0.017305432
206	0x3af78947	0.0018885516
207	0x3a705e0e	0.00091692887
208	0x3ac75ca6	0.0015210107
209	0x3d261269	0.0405449
210	0x3a79527a	0.0009510886
211	0x3a93c6f6	0.0011274505
212	0x3b92fedf	0.0044859494
213	0x3d204842	0.03913141
214	0x3b4e1ecd	0.0031451464
215	0xbb544414	-0.003238921
216	0x3cb47233	0.02202711
217	0xbb16cdf3	-0.002301094
218	0x3b444755	0.0029949744
219	0x3da5277e	0.08064173
220	0xbd610f65	-0.054946322
221	0x3e24b26a	0.16083685
222	0xbb285fdc	-0.0025691902
223	0xba01f5fc	-0.0004957614
224	0xbe8630dc	-0.26209152
225	0xbae114b5	-0.0017172309
226	0x3d05bd1a	0.032651044
227	0x3a3b8ee0	0.0007154774
228	0x3b518186	0.003196807
229	0xbbd02fd1	-0.0063533564
230	0xbac395fa	-0.0014922016
231	0xbab49f54	-0.0013780394
232	0x39ffeee9	0.00048815392
233	0x3abc9f84	0.0014390801
234	0x3d96cee8	0.07363683
235	0x3aa80444	0.0012818654
236	0x3aab6929	0.0013077605
237	0x3b3dc03e	0.0028953697
238	0xbb164f05	-0.0022935283
239	0x3ddcf2bf	0.10788488
240	0x3cb159b8	0.021649227
241	0x3b194543	0.002338723
242	0x3d18353a	0.037160136
243	0xb83f91a9	-4.5673605e-05
244	0xb98d6748	-0.00026970566
245	0xbc132ddb	-0.008983101
246	0xbe1ef3c1	-0.15522672
247	0x3cbd1d43	0.023085242
248	0xbe0e72ef	-0.13911031
249	0xbb0e1fd3	-0.002168645
250	0x381a61f0	3.6807673e-05
251	0xb83d2d48	-4.5103283e-05
252	0xbdb40575	-0.08790103
253	0xbc21e650	-0.009881571
254	0xbaa7301c	-0.0012755427
255	0x3df77479	0.12082762

submodules.encoder.0.bias f4 [18]
0	0xbb636b70	-0.003470149
1	0x3d398494	0.045292452
2	0xbe9c8902	-0.3057328
3	0xbdc8bd81	-0.0980177
4	0xbea6396c	-0.32465684
5	0x3e48ca94	0.19608527
6	0x3e77541e	0.24153182
7	0x3e55c33d	0.20875259
8	0xbdf6d41e	-0.12052177
9	0xbd5ca7cf	-0.053870972
10	0xbe24ed98	-0.1610626
11	0x3da79c7d	0.08184145
12	0xbc33f072	-0.01098262
13	0x3b26f3e0	0.002547495
14	0x3c7c1004	0.015384678
15	0xbd0e9b03	-0.0348158
16	0x3baa45d6	0.0051963134
17	0xbe0bf04c	-0.13665885

submodules.PCE_pred.0.weight f4 [100, 18]
0	0x3e9f9897	0.31171104
1	0x3fe8acc8	1.8177729
2	0xbf2b6c96	-0.66962564
3	0xc00a934f	-2.165241
4	0x3e7deb03	0.24796681
5	0xbfc1e3c9	-1.514764
6	0xbf39ffdf	-0.72656053
7	0xbe94d611	-0.2906957
8	0x3f9a5d20	1.205967
9	0x3f02e9a5	0.51137763
10	0xbcfd99e9	-0.03095718
11	0x3fc32efa	1.5248711
12	0xbe4ce534	-0.20009309
13	0x3ecca7e5	0.39971843
14	0x3e990a94	0.29890883
15	0xbf0cc3be	-0.5498618
16	0x3ec645cd	0.3872513
17	0x3f84452a	1.0333607
18	0x3ff03608	1.8766489
19	0xbffeefee	-1.9916971
20	0xbc53b25d	-0.012920943
21	0xc007cf47	-2.1220262
22	0x3f73aebd	0.95188504
23	0xbfe7099d	-1.8049809
24	0xbf877807	-1.0583504
25	0xbea260ab	-0.31714377
26	0x3eb80347	0.3594
27	0xbf80ced9	-1.0063125
28	0xbfd069e3	-1.6282314
29	0x3f477174	0.7790749
30	0xc08e809c	-4.4531994
31	0xbf183654	-0.594579
32	0x3efe7cb4	0.49704516
33	0xbfe9b430	-1.8258114
34	0xbea0d937	-0.31415722
35	0xbfb0f520	-1.3824806
36	0x3f828d99	1.0199462
37	0xc03773e1	-2.8664477
38	0xbedc29ad	-0.43000546
39	0xbfc3710e	-1.5268877
40	0xc028ef7f	-2.6396177
41	0xbfb9dfe2	-1.4521449
42	0x3efe5df8	0.49681067
43	0xc005c5ce	-2.090198
44	0x3fa6cbaf	1.3030909
45	0xbf0c4d3f	-0.5480537
46	0x3fc5bb16	1.5447719
47	0xbf834598	-1.0255613
48	0xbeb92cc6	-0.36166972
49	0x3f2332ee	0.6374959
50	0xbf1f918b	-0.62331456
51	0x40035c3f	2.0525053
52	0xbea73679	-0.32658747
53	0xbe55fa14	-0.20896178
54	0x40132765	2.2992795
55	0xbe6e4905	-0.23270042
56	0x3f4ed226	0.8078941
57	0xbfb27e94	-1.3944879
58	0xbf275a52	-0.6537219
59	0xbeeca28b	-0.4621776
60	0x40150bd4	2.328847
61	0xbe4b1c9d	-0.19835134
62	0x4009f68c	2.155673
63	0xbe9c6c35	-0.30551305
64	0x40417c19	3.0231993
65	0x3fc33b93	1.5252556
66	0x3f220ba6	0.63299024
67	0x3f92160a	1.1412976
68	0xbf0b3684	-0.5438006
69	0x3fa0b807	1.2556161
70	0xbf82b9c3	-1.021294
71	0xbf170d83	-0.5900499
72	0x400890bb	2.1338336
73	0xbf07e4d8	-0.5308356
74	0xbfc94453	-1.5723976
75	0xbf8f700f	-1.1206073
76	0xbf58358c	-0.84456706
77	0x40200133	2.5000732
78	0xbf4a8be9	-0.79119736
79	0x3e462068	0.193483
80	0xc008fbef	-2.1403768
81	0x3ea8fda3	0.3300601
82	0x3e95ccb1	0.2925773
83	0x4042d30d	3.0441315
84	0x3f2bec6b	0.6715762
85	0xbf31be5d	-0.69431096
86	0xbf4ba44e	-0.79547584
87	0xbf8411c6	-1.0317924
88	0x3f114bd6	0.5675634
89	0xbfad5f44	-1.3544698
90	0xbd238195	-0.0399185
91	0xbf11dba4	-0.5697577
92	0xbfd0997a	-1.6296837
93	0x3e1ef03e	0.15521333
94	0x3fa125b9	1.2589637
95	0xbf9508af	-1.1643275
96	0xbf014aac	-0.50504565
97	0x3f2843ec	0.6572864
98	0xbe8a5564	-0.27018273
99	0x3f813789	1.0095073
100	0x3c407378	0.01174628
101	0x4007f037	2.1240366
102	0xc040a313	-3.0099533
103	0xbfc4424c	-1.5332732
104	0xbe1827ae	-0.14858887
105	0xc0009135	-2.0088627
106	0xbf12ef66	-0.57396543
107	0xc005c0ff	-2.0899045
108	0x3d2b39c2	0.04180313
109	0x3f28c057	0.6591849
110	0xbf1c96dd	-0.611677
111	0x3ffd206d	1.977552
112	0x3f816f1c	1.0112033
113	0x400acff9	2.1689436
114	0xbf451efa	-0.7700039
115	0xc00960b7	-2.146528
116	0x3f3dcb4b	0.74138325
117	0xbf382470	-0.719306
118	0x4023df4e	2.5605044
119	0x3bf145f0	0.0073630735
120	0x3ed298ec	0.41132295
121	0x3e9c4fbd	0.30529585
122	0xbfc0f7ca	-1.5075619
123	0xbded214a	-0.11578615
124	0x3f80cbad	1.0062157
125	0xc008061a	-2.1253724
126	0xbe030c88	-0.12797749
127	0xbf7779e0	-0.9667034
128	0x3fb28e41	1.3949662
129	0xbf32bf1a	-0.6982285
130	0xbf838ab9	-1.027671
131	0xbf1000d7	-0.5625128
132	0x3ea3f86f	0.32025477
133	0x3ec95ede	0.3933019
134	0x3f5354a4	0.82551026
135	0xbfa9f406	-1.3277595
136	0x3f1e3092	0.6179286
137	0x3e9b3c42	0.3031941
138	0xbe1ab030	-0.15106273
139	0x3ff57f7a	1.9179528
140	0xbf812ae5	-1.0091215
141	0xc022c5af	-2.5433156
142	0x3f97252d	1.180822
143	0x3e402a75	0.18766196
144	0x3ea18187	0.31544134
145	0x405e025a	3.4688935
146	0xbefdbb73	-0.49557075
147	0xbedd3ed3	-0.43211994
148	0x3f9743b7	1.181754
149	0xbf73d956	-0.95253503
150	0xbf58e438	-0.84723234
151	0xbe5cf865	-0.2157913
152	0xbf76f6c3	-0.9647028
153	0x3e691406	0.22761545
154	0x3f3a67ca	0.7281462
155	0xc016967b	-2.3529346
156	0x3dd5ba9c	0.104359835
157	0xbfc08339	-1.5040046
158	0xc0550849	-3.3286307
159	0xbe4ae7e8	-0.19815028
160	0xbf7667a5	-0.962519
161	0xbe12e6a4	-0.14345795
162	0xbf36b322	-0.71367085
163	0x3f7f6cab	0.9977519
164	0x3eb034d4	0.34415305
165	0x3f26376c	0.6492832
166	0x3ec90b39	0.39266375
167	0xbfbb6bf3	-1.4642318
168	0x39668c44	0.00021986762
169	0xbfb7bc8c	-1.4354415
170	0x3ed33f0f	0.41259047
171	0x3ff8a7ea	1.9426243
172	0xbf71da0b	-0.9447333
173	0x3fb7b433	1.4351867
174	0x3fa6891a	1.301059
175	0xc0143007	-2.3154314
176	0xbfee1d6d	-1.860273
177	0x3eafc44c	0.3432945
178	0x3f9450ca	1.1587155
179	0xbff1ceae	-1.8891199
180	0xbf6dc068	-0.92871714
181	0xbf7b6e7a	-0.9821545
182	0x3f06c174	0.52638936
183	0x3ff8c2af	1.9434413
184	0xbf3a0604	-0.7266543
185	0x3f698e5a	0.91232836
186	0x3f98829f	1.1914862
187	0xbe3df640	-0.18550968
188	0xbf586615	-0.84530765
189	0x3d46e175	0.048554856
190	0xbf871061	-1.0551873
191	0xbf949745	-1.1608664
192	0xbf3be13a	-0.73390543
193	0x3f954c4a	1.1663907
194	0xbe8a54d3	-0.2701784
195	0x3f9574a8	1.1676226
196	0x3e30e424	0.17274529
197	0xbf9c0e5f	-1.2191886
198	0xbed00ff8	-0.40637183
199	0xbf2caab0	-0.6744795
200	0x3fdc1379	1.7193443
201	0x3f9a5675	1.2057635
202	0xc01dad30	-2.4636955
203	0xbf28c90b	-0.6593177
204	0x3fde5c59	1.7371932
205	0xc01f1fa2	-2.4863057
206	0xbf7c55af	-0.9856824
207	0xbfe560b2	-1.7920134
208	0xbf1220d6	-0.57081354
209	0xc03f9a16	-2.9937797
210	0x3e3f0caa	0.18657175
211	0xbf08ca73	-0.53433913
212	0x3f6030f1	0.8757468
213	0xbf8e4915	-1.1116053
214	0xbc9c4bfd	-0.019079203
215	0xbfb974a7	-1.4488724
216	0x3fce27ce	1.6105897
217	0xbfc5275a	-1.5402634
218	0xc0300d7f	-2.7508237
219	0x3d1f0710	0.038825095
220	0xbfa9814b	-1.3242582
221	0x3f7cc8d5	0.98743945
222	0xbf16d212	-0.5891429
223	0xbf82b6a6	-1.021199
224	0xbfa13a02	-1.2595828
225	0x3c3ff22f	0.011715456
226	0xc01d60fd	-2.4590447
227	0xbda97467	-0.08274155
228	0x3fdef5c6	1.7418754
229	0x4014d208	2.3253193
230	0xbf85073f	-1.0392836
231	0xbf04949e	-0.5178927
232	0xbe55df8e	-0.2088606
233	0x3ea19cae	0.3156485
234	0xc04c303b	-3.1904438
235	0x3fe910c1	1.8208238
236	0xc00082df	-2.0079877
237	0x3f1e2b48	0.6178479
238	0x3f38d48c	0.7219932
239	0xbefaa5ba	-0.48954564
240	0x3f0084f4	0.5020287
241	0xbf08fe11	-0.53512675
242	0xbf72daff	-0.9486541
243	0xbec5d678	-0.3864019
244	0x3efe007d	0.49609748
245	0xbf8bfd0e	-1.0936601
246	0xc023f293	-2.5616806
247	0x3f2bf7cf	0.67175
248	0x3f4314f1	0.7620383
249	0x40146ad9	2.3190215
250	0xbedb839e	-0.42873853
251	0xbef6988f	-0.48163268
252	0x40057699	2.0853636
253	0x3f0238d4	0.5086796
254	0x3fb60600	1.4220581
255	0x3dc9e4cd	0.098580934

submodules.PCE_pred.0.bias f4 [100]
0	0xbe4fe01f	-0.20300339
1	0xbec47931	-0.38373712
2	0xbf2103ea	-0.628966
3	0xbf3b5c79	-0.7318798
4	0x3f1d6f91	0.6149836
5	0xbce5e5a2	-0.028063599
6	0xbef7d130	-0.48401785
7	0xbf57a73b	-0.8423955
8	0xbec57d4c	-0.38572156
9	0xbf0b1e5e	-0.5434321
10	0xbb817a83	-0.003951372
11	0x3e9e4870	0.3091464
12	0x3eb54a26	0.35408133
13	0x3e15c03e	0.14624116
14	0xbe16730d	-0.14692326
15	0x3d52465d	0.051336635
16	0x3f10f81c	0.56628585
17	0x3e8f17da	0.27947885
18	0x3e4ca7df	0.19985913
19	0xbf359416	-0.70929086
20	0x3e356d14	0.17717391
21	0xbf1cdbbd	-0.61272794
22	0x3f3b67f0	0.7320547
23	0xbe211c78	-0.15733516
24	0xbf25d08c	-0.6477134
25	0xbe0b32d4	-0.13593608
26	0x3ea9790f	0.33100173
27	0x3d0874d9	0.03331456
28	0x3ee18690	0.44047976
29	0xbd0065a2	-0.031346925
30	0x3ce6283d	0.028095359
31	0x3ef7ef78	0.48424888
32	0xbe5b5694	-0.21419746
33	0xbec8acf1	-0.39194444
34	0x3e8dca8d	0.27693596
35	0xbe7e9543	-0.24861626
36	0xbe1d6cf2	-0.1537359
37	0xbd8f0bab	-0.06984647
38	0xbe381a0d	-0.17978688
39	0xbe6c0e13	-0.23052244
40	0x3f0e939c	0.55693984
41	0xbe83c046	-0.2573263
42	0xbe113527	-0.14180432
43	0xbf37a816	-0.71740854
44	0x3d814d9c	0.06313631
45	0x3df4b284	0.11948112
46	0xbed6cbf8	-0.4195249
47	0x3e568235	0.20948108
48	0x3e2cd4c6	0.16878042
49	0xbee6d7d4	-0.4508654
50	0xbf38165c	-0.7190912
51	0x3e19736c	0.14985436
52	0xbf27d514	-0.65559506
53	0x3e9e11e8	0.30873036
54	0x3ed6f510	0.41983843
55	0x3e773a4b	0.24143331
56	0x3e3880b9	0.18017854
57	0x3e12c81d	0.1433415
58	0xbf139cec	-0.5766132
59	0xbddf8aca	-0.10915144
60	0x3e33b3a8	0.17549002
61	0x3f1e808f	0.61914915
62	0x3efea693	0.4973646
63	0xbe946c7f	-0.28989026
64	0xbf2c3567	-0.67268986
65	0x3ed9cb78	0.42538047
66	0xbf2319d5	-0.6371129
67	0xbf67d19d	-0.9055422
68	0xbf3d9811	-0.7406016
69	0xbe98d0ee	-0.298469
70	0x3e8f2b5c	0.27962768
71	0xbd84f553	-0.064921044
72	0xbf4af5da	-0.7928139
73	0xbf071424	-0.5276511
74	0x3e21de19	0.1580738
75	0x3eaefca4	0.34177125
76	0x3dc57955	0.09642283
77	0xbc1a1673	-0.009404766
78	0xbf11238c	-0.56694865
79	0xbe28950a	-0.16463104
80	0xbbefc865	-0.00731759
81	0xbe938898	-0.2881515
82	0xbf20197f	-0.62538904
83	0xbf116a0a	-0.5680243
84	0xbec9053d	-0.3926181
85	0xbf3708ca	-0.71497786
86	0xbe872fc7	-0.2640364
87	0xbe960706	-0.29302233
88	0x3cb16692	0.021655355
89	0x3f2ff067	0.687262
90	0xbeca6503	-0.3953019
91	0xbf41828a	-0.7558981
92	0xbf1c9cad	-0.6117657
93	0xbf09916f	-0.5373754
94	0xbee91ca2	-0.45529658
95	0xbf019c59	-0.5062919
96	0xbf36c7bc	-0.7139852
97	0xbc5128ad	-0.0127660455
98	0x3e04de05	0.12975319
99	0xbf152079	-0.58252674

submodules.PCE_pred.3.weight f4 [1, 100]
0	0x3fc65c6c	1.5496955
1	0xbfb89244	-1.4419637
2	0x3ebb9769	0.36638954
3	0xbec50b54	-0.38485205
4	0x3e275708	0.16341794
5	0x3ee35b38	0.44405532
6	0xbf551dd8	-0.8324866
7	0xbfef58b8	-1.869895
8	0xbf66b4f5	-0.9011987
9	0xbfb8da45	-1.444161
10	0x3e85a437	0.26101848
11	0x3e6f0886	0.23343095
12	0x3e161dba	0.14659777
13	0x3f0e96e1	0.5569897
14	0x3ea675b0	0.32511663
15	0x3ebb8332	0.36623532
16	0x3e79bc25	0.24388178
17	0x3f19eaed	0.60124093
18	0x3ef39a77	0.47578785
19	0xbf9a6660	-1.2062492
20	0x3f2ee1ce	0.683133
21	0xc0386818	-2.8813534
22	0x3e3e461b	0.1858143
23	0x40337769	2.8041632
24	0xbfa7a716	-1.3097866
25	0x3f179817	0.59216446
26	0x3f569969	0.83827835
27	0x3f8f8c77	1.1214741
28	0x3e3d93de	0.18513438
29	0x3f13abcf	0.57684034
30	0x3e379f5e	0.17931888
31	0x3f00f288	0.50370073
32	0xbf0adafc	-0.54240394
33	0xbe32d98b	-0.17465799
34	0x3eb4b685	0.352955
35	0x3f0acfbe	0.5422324
36	0x3f4e60f8	0.8061671
37	0x3eefd5eb	0.46842894
38	0x3e321c9a	0.17393723
39	0xbfb638b1	-1.4236051
40	0x3e9ce8f1	0.3064647
41	0xbfde103b	-1.7348703
42	0x3eeeccf7	0.4664075
43	0xbfb7c5f9	-1.4357291
44	0x3e834848	0.25641084
45	0x3ea0787d	0.31341925
46	0xbfc359fe	-1.5261838
47	0x3ebf4e77	0.3736455
48	0x3e54f140	0.20795155
49	0xbffe6c64	-1.9876828
50	0xc0040388	-2.0627155
51	0x3ee9dc6b	0.45675978
52	0xbed2fe50	-0.4120965
53	0x3e5e86f0	0.21731162
54	0x3eac37e3	0.33636388
55	0x3ec22887	0.37921545
56	0x3e2a2e40	0.16619205
57	0x3e3ccb82	0.18437007
58	0xc03bc31a	-2.933783
59	0x3f77ec0a	0.9684454
60	0x3f914c6f	1.1351451
61	0x3e274e66	0.163385
62	0x3eab1481	0.3341408
63	0xbfc4d77a	-1.5378258
64	0xbfa7e275	-1.3115984
65	0x3e5aef82	0.21380427
66	0xbff057ca	-1.8776791
67	0xbf1a6b80	-0.6032028
68	0xbea5610f	-0.32300612
69	0x3ebe77c4	0.3720075
70	0x3e5c7004	0.21527106
71	0x3fa75736	1.307349
72	0xbf8be226	-1.092839
73	0xbeea22b0	-0.4572959
74	0x3f87a817	1.0598172
75	0x3e5abf12	0.2136195
76	0x3e547943	0.20749383
77	0x3edbe91a	0.4295128
78	0xbfab010c	-1.3359694
79	0x3e27cf29	0.16387619
80	0x3f16e6be	0.58945835
81	0x3e4fc490	0.20289826
82	0xbf8d4bd7	-1.103877
83	0xc00c9ced	-2.197078
84	0xc01f9afb	-2.4938343
85	0xbeda9d09	-0.42697933
86	0xc00ed834	-2.231946
87	0xbf18246d	-0.5943058
88	0x3ed7566b	0.4205812
89	0x3e18a2bd	0.1490583
90	0xc02a5729	-2.6615698
91	0xc02c6611	-2.6937296
92	0xbf515235	-0.8176606
93	0xc013372b	-2.3002422
94	0xbfbc0689	-1.4689494
95	0xc086e71b	-4.215711
96	0xbf22cfe2	-0.63598454
97	0x3e690969	0.22757496
98	0x3eb32d9b	0.34995732
99	0xbf0388b5	-0.51380473

submodules.latents_pred.0.weight f4 [12, 18]
0	0x3fa834f4	1.314116
1	0x3f20f78f	0.62877744
2	0xbef0d16a	-0.4703477
3	0xbd4e0ee1	-0.05030716
4	0x3d536148	0.051606447
5	0xbec2ac1c	-0.38021934
6	0x3f2ff708	0.68736315
7	0xbdbee7eb	-0.093215786
8	0x3e6efeff	0.23339461
9	0xbe7ba93d	-0.24576278
10	0x3ea1231e	0.31472105
11	0xbf4d5788	-0.8021169
12	0xbfa5de51	-1.295847
13	0xbf1d43c5	-0.61431533
14	0xbf08a2d8	-0.5337348
15	0x3f271520	0.6526661
16	0x3fa1ff38	1.2656012
17	0xbeb1b17e	-0.34705728
18	0x3f87017b	1.0547327
19	0x3f3ce816	0.73791635
20	0xbef0169b	-0.46892247
21	0xbd94d1f1	-0.07266606
22	0xbe1cace3	-0.15300326
23	0xbefafa0d	-0.490189
24	0x3dcf1f3c	0.10113379
25	0x3e026d8c	0.12737101
26	0x3e7d6dbb	0.2474889
27	0xbe40cd24	-0.18828255
28	0x3bd6f482	0.0065599093
29	0xbf05dd94	-0.52291226
30	0xbf6815be	-0.90658176
31	0xbe6f1d36	-0.23350987
32	0xbf5a0fdf	-0.8518047
33	0x3f3cd52a	0.7376276
34	0x3f632a52	0.8873645
35	0xbecfc503	-0.40579996
36	0xbfb6bf28	-1.4277086
37	0xbf143c8e	-0.579049
38	0x3edad5fa	0.42741376
39	0xbdd1ad1a	-0.10238095
40	0xbe84282c	-0.258119
41	0x3ec00855	0.37506357
42	0xbf75dea0	-0.96042824
43	0x3dd0ce65	0.10195617
44	0xbe84010f	-0.25782058
45	0x3e447371	0.19184662
46	0xbefef0f9	-0.49793223
47	0x3f76e4bd	0.96442777
48	0x3fa0fe59	1.2577621
49	0x3f26f77b	0.65221375
50	0x3f1f8c6b	0.62323636
51	0xbf1a59ea	-0.6029345
52	0xbfa22cd4	-1.266993
53	0x3ecba267	0.3977234
54	0x3c7fb950	0.015608147
55	0x3f590ea2	0.8478795
56	0x3dc387ec	0.095474094
57	0x3f1254d0	0.57160664
58	0xbe6786b9	-0.22609986
59	0x3dfd3eb1	0.12365473
60	0x3fe13375	1.7593828
61	0xbe4ffe60	-0.2031188
62	0xbe08de57	-0.13366066
63	0xbe2f5b81	-0.1712475
64	0x3f8d7f04	1.1054387
65	0x3fdd8e8d	1.7309128
66	0xbfbfaa1f	-1.4973792
67	0x3f7d57a4	0.98961854
68	0xbdfff34d	-0.12497578
69	0xc001af72	-2.0263333
70	0xbd92197e	-0.071337685
71	0x3efd6de4	0.49497902
72	0x3c7d0c09	0.015444764
73	0x3f239b0c	0.6390846
74	0x3db701bd	0.089358784
75	0x3ef6a66a	0.4817384
76	0xbe8a70ca	-0.27039176
77	0x3dd37984	0.10325912
78	0x3fbf3a00	1.4939575
79	0xbe101f53	-0.14074449
80	0xbddadb5f	-0.10686373
81	0xbe17ca73	-0.14823322
82	0x3f5ce073	0.8627998
83	0x3fd91648	1.6959925
84	0xbfa8c395	-1.3184687
85	0x3f6fec88	0.93720293
86	0xbe639fac	-0.22228879
87	0xbfceda1d	-1.6160313
88	0xbd3571bc	-0.04429792
89	0x3efbe83c	0.49200618
90	0x3e7b3fbf	0.24536036
91	0xbfbfaf86	-1.497544
92	0x3eeb1211	0.4591222
93	0xbf4a7b9b	-0.79094857
94	0xbdda3949	-0.106554575
95	0xbf1a1341	-0.6018563
96	0xbff24e0a	-1.8930066
97	0xbe12a3e1	-0.14320327
98	0x3e8a6bdf	0.27035424
99	0xbe0b5266	-0.13605651
100	0xbf24cf61	-0.64378935
101	0xbfb829ee	-1.4387796
102	0x3f037c33	0.5136139
103	0xbfc429b0	-1.5325222
104	0x3f42484a	0.75891554
105	0x3fc90438	1.5704412
106	0x3e7beb6f	0.2460153
107	0xbe5547dc	-0.20828193
108	0xbfc252f2	-1.5181563
109	0xbf2aa72f	-0.6666135
110	0x3eecee9e	0.462758
111	0x3d396168	0.04525891
112	0xbe5de8df	-0.21670865
113	0x3e9cf31f	0.30654237
114	0xbf22f315	-0.63652164
115	0xbaad0eb2	-0.0013203232
116	0xbe757dd6	-0.23973784
117	0x3e5fb059	0.21844615
118	0xbee31a84	-0.44356167
119	0x3f54c5f1	0.83114535
120	0x3fc572f1	1.5425702
121	0x3f1acd8f	0.6046991
122	0x3f41b69b	0.7566926
123	0xbf122bbf	-0.57098
124	0xbfa38349	-1.277444
125	0x3ecb0ab2	0.39656597
126	0xbeaf7742	-0.34270674
127	0x3f94e57b	1.1632532
128	0x3e3380fd	0.17529674
129	0x3f1aa92e	0.604144
130	0xbfa36a88	-1.2766886
131	0xbfe6801e	-1.8007848
132	0xbeede810	-0.46466112
133	0x3f645992	0.89199173
134	0x3eb7d5a7	0.3590519
135	0x3d20faed	0.0393018
136	0xbefa6b67	-0.48910066
137	0x3f014aa0	0.50504494
138	0x3f6f85b4	0.9356339
139	0x3f5e0f31	0.8674193
140	0xc001bfd5	-2.0273335
141	0x3e5619ca	0.20908275
142	0xbf5dcf74	-0.86644673
143	0xbcb88f0e	-0.022529151
144	0x3ee1a9d1	0.44074872
145	0x3fa9aba4	1.3255506
146	0x3ef067b3	0.46954116
147	0xbf6c92e9	-0.9241167
148	0xbdb58171	-0.088625796
149	0x3ea35792	0.31902748
150	0xbf03d746	-0.51500356
151	0x3fbffa92	1.4998343
152	0xbca31008	-0.019905105
153	0xbd3d455a	-0.046208717
154	0xbe34b6ee	-0.17647907
155	0xbf3f31a5	-0.74685127
156	0xbfdb4fec	-1.7133765
157	0xbfdc485b	-1.7209581
158	0xbf8e0609	-1.1095592
159	0xbfbd3c7c	-1.4784083
160	0x3d8a3bd2	0.06749691
161	0x3f8ea325	1.1143538
162	0x3e81f6d4	0.25383627
163	0xbffec71c	-1.9904513
164	0xbe3e1bcc	-0.18565291
165	0x3f452e90	0.77024174
166	0xbeb4eb73	-0.35335883
167	0x3df4f0b2	0.119599715
168	0xbec53380	-0.38515854
169	0xbfeec232	-1.8653014
170	0xbd851639	-0.06498379
171	0x3e6a4a26	0.22879848
172	0x3f978844	1.183846
173	0x3f9d2ef8	1.2279959
174	0x3f101812	0.5628673
175	0x3fffbdb8	1.9979773
176	0x3f7dde41	0.9916726
177	0x3fbe1cc3	1.4852527
178	0xbdef0f0d	-0.116727926
179	0xbf98b50c	-1.1930251
180	0x3fb0bfe1	1.3808557
181	0x3f11c010	0.5693369
182	0xbc35eb63	-0.011103484
183	0xbf103b99	-0.5634094
184	0xbe2e6f74	-0.17034703
185	0x3f4dfe2c	0.8046596
186	0x3f4a7a73	0.7909309
187	0x3d272be9	0.04081336
188	0xbd9eddda	-0.077571586
189	0xbe8d3f60	-0.27587414
190	0x3f871d30	1.0555782
191	0x3ef0d4ec	0.47037446
192	0xc04fb7ec	-3.2456007
193	0xbf355138	-0.70827055
194	0xbe65b96b	-0.22434013
195	0xbf9d5adf	-1.2293357
196	0x3f93358b	1.1500715
197	0x3f1587b9	0.5841022
198	0xbe94b1f1	-0.2904201
199	0xbfceaadf	-1.6145896
200	0xbeda7e31	-0.426744
201	0x3f6bbd22	0.9208547
202	0x3d9ff14d	0.07809696
203	0xbe2104f7	-0.1572455
204	0x3f0158ec	0.5052631
205	0xbfc39195	-1.5278803
206	0xbb920ec3	-0.004457326
207	0x3dbc9ea9	0.092099495
208	0x3e9db134	0.30799258
209	0x3f758c2d	0.95917016
210	0x3fbda8be	1.4817121
211	0x3fef9944	1.8718648
212	0x3f809417	1.0045193
213	0x3fbe4b1b	1.486667
214	0xbd4d2bdc	-0.050090656
215	0xbf8f5b73	-1.1199783

submodules.latents_pred.0.bias f4 [12]
0	0xbe20517b	-0.15656082
1	0xbe18bee6	-0.14916572
2	0x3de1ba3c	0.110218495
3	0xbecda527	-0.40165064
4	0xbeceea4e	-0.40413135
5	0x3f44f5f0	0.7693777
6	0x3dd5765e	0.104229674
7	0xbe05457f	-0.13014792
8	0xbbd0149c	-0.006350113
9	0x3ea77275	0.3270451
10	0xbe8f74ab	-0.28018698
11	0x3bec54ef	0.0072122733

submodules.etm_pred.0.weight f4 [7, 18]
0	0xc04a03c3	-3.1564796
1	0xc058570b	-3.3803127
2	0xc0570555	-3.3597004
3	0xbfb98abc	-1.4495463
4	0xbe84674f	-0.25860068
5	0xc0c547c6	-6.1650114
6	0x3e8148c5	0.2525083
7	0x410fea33	8.994678
8	0xc148964f	-12.536696
9	0x3fe69a4d	1.8015839
10	0x40b5ccb6	5.681239
11	0x3f6fb106	0.9362949
12	0xbfc5a87d	-1.5442044
13	0x3f9afc9b	1.2108339
14	0x3faf0ae1	1.3675195
15	0xbf85dc43	-1.0457844
16	0xbf15b06d	-0.5847233
17	0x40650041	3.5781405
18	0xbde9a233	-0.1140789
19	0xc129f1ec	-10.621563
20	0xbf614967	-0.8800263
21	0xc0fd99b2	-7.9250116
22	0x3fe000e6	1.7500274
23	0x4040996b	3.009364
24	0xc019786b	-2.3979747
25	0xc16375e8	-14.216286
26	0xbf21df0c	-0.6323097
27	0xc0d5a88f	-6.676826
28	0xbf1f94d2	-0.62336457
29	0x401ad4ea	2.4192452
30	0x41201249	10.004464
31	0xc0afad59	-5.4899106
32	0xc15a34f8	-13.637932
33	0xc0db8af5	-6.8607125
34	0x3e14ede3	0.14543872
35	0x3fe06867	1.7531861
36	0xbdfe3c16	-0.12413804
37	0x409029d2	4.505105
38	0xc04c4bed	-3.1921341
39	0xc0e237e3	-7.069322
40	0x403cad83	2.9480903
41	0xc09c4558	-4.883465
42	0x3ecbe9c5	0.3982679
43	0x409860b5	4.761805
44	0x418bc437	17.470808
45	0x413ff4f3	11.997302
46	0x3fb5bdc5	1.4198538
47	0x3f800dfa	1.0004265
48	0x3f366611	0.7124949
49	0x40be6077	5.9492755
50	0x3f9f0c10	1.2425556
51	0x3f856216	1.0420558
52	0x3e79c87d	0.24392886
53	0x3e8c6ecf	0.2742829
54	0xc1200293	-10.000628
55	0x4018bf66	2.386682
56	0x400fe10c	2.2481108
57	0x40bfc852	5.993203
58	0xbf9ceba3	-1.2259411
59	0xc02962fa	-2.646666
60	0x401e5fa0	2.4745865
61	0x4026b963	2.605065
62	0xc05916e7	-3.3920228
63	0xbf8ad438	-1.0846014
64	0x40843298	4.131176
65	0x412d4c0d	10.831067
66	0xc0855d1e	-4.167617
67	0xc1736cfb	-15.214107
68	0x3fbc095d	1.4690357
69	0xc0955e79	-4.6677823
70	0x40f7c978	7.7433434
71	0xc15286bf	-13.157897
72	0xc0844790	-4.1337357
73	0x3f8e5424	1.1119428
74	0xbf7b0f86	-0.9807056
75	0x41010e30	8.065964
76	0xc0102386	-2.2521682
77	0xbfe51076	-1.7895648
78	0x40527f19	3.2890074
79	0xc152f699	-13.1852045
80	0x4135a4bc	11.352718
81	0x40b95317	5.791393
82	0xc0eef783	-7.467714
83	0xc0e1df05	-7.058474
84	0xc12c680f	-10.775405
85	0xc0072f4a	-2.1122613
86	0x3e1f3678	0.15548122
87	0x3e2d072d	0.16897269
88	0xc136c399	-11.422753
89	0x3f13b312	0.57695115
90	0xc05b208b	-3.4238613
91	0xbef301ad	-0.47462216
92	0xbbbcb3ea	-0.005758752
93	0x407e4c0c	3.9733915
94	0xc00ec74c	-2.230914
95	0x41011b5c	8.06918
96	0xc0c9d943	-6.307771
97	0x41285f2a	10.523233
98	0x412496fb	10.28686
99	0xc1833848	-16.402481
100	0x4162deb1	14.179368
101	0xc12a12c8	-10.629585
102	0x3f116dd6	0.5680822
103	0x40a606ef	5.1883464
104	0xbe27d90b	-0.16391389
105	0x40e670a5	7.2012506
106	0xc0ac5cb4	-5.3863163
107	0x3fb5fe73	1.4218277
108	0x41058000	8.34375
109	0x40ac759b	5.389356
110	0x41111898	9.068504
111	0xc0323807	-2.7846696
112	0xbff71c53	-1.9305519
113	0x404187ed	3.0239213
114	0xbe0d0846	-0.13772687
115	0x3f098be1	0.53729063
116	0xc0e0a1de	-7.019759
117	0x3fef0a17	1.8674954
118	0xc0ed9c56	-7.425334
119	0xbfce80df	-1.6133078
120	0x3fffd21e	1.9985998
121	0x410f59cb	8.959422
122	0x40ea7dc6	7.327853
123	0x40017fe5	2.023431
124	0x40bbce6d	5.8689485
125	0x3f9ced29	1.2259876

submodules.etm_pred.0.bias f4 [7]
0	0xc00e7f2a	-2.2265115
1	0x402af0f3	2.6709564
2	0x401023a0	2.2521744
3	0xc085b17f	-4.177917
4	0xbd7cefd4	-0.061752155
5	0x3f989230	1.1919613
6	0xbf8b0086	-1.0859535

submodules.htm_pred.0.weight f4 [4, 18]
0	0xc1606930	-14.025681
1	0xbf06d390	-0.5266657
2	0xbfcb731b	-1.5894502
3	0xc1280582	-10.501345
4	0x408854e2	4.2603617
5	0xbfc0f749	-1.5075465
6	0x3fc9b89f	1.5759467
7	0xc0ab4d7d	-5.353209
8	0x3f9d4363	1.228619
9	0x40b4ae4b	5.646276
10	0x4034eb88	2.8268757
11	0x404669f6	3.1002173
12	0xc0b1f831	-5.561547
13	0x3f8ca8d1	1.0989019
14	0xc02125ab	-2.517924
15	0x3f5d5f23	0.8647329
16	0x4188f4c2	17.11951
17	0xc080679f	-4.012649
18	0x40da83f5	6.828608
19	0xc0ffe565	-7.9967523
20	0xc10426c6	-8.259466
21	0xbefdedb6	-0.49595422
22	0x40715e12	3.7713666
23	0xc0b9095f	-5.782394
24	0xc09a1a53	-4.8157134
25	0x3e8de73c	0.2771548
26	0xbd17277a	-0.036902882
27	0x40619821	3.5249102
28	0xbf8cdbb2	-1.1004546
29	0xbe2f19e7	-0.17099725
30	0x40e81eee	7.2537756
31	0x3f2931de	0.66091716
32	0xbfe77851	-1.8083593
33	0xc0d4be02	-6.6481943
34	0xc0c5c998	-6.1808586
35	0x411fba8b	9.983043
36	0x3f570c22	0.8400289
37	0x40bb1ac1	5.847016
38	0x40c631a9	6.193562
39	0xc142a49e	-12.16519
40	0xbf20c854	-0.62805676
41	0x3f96467a	1.1740258
42	0x40a32366	5.098071
43	0xbde63a58	-0.11241597
44	0xc0b40987	-5.626163
45	0x3ee553c0	0.4479046
46	0x40581f34	3.3769045
47	0xbfcdd3cc	-1.608026
48	0xc0ce2b06	-6.442752
49	0x402c8f76	2.6962562
50	0xbfe0e4d7	-1.7569836
51	0x40de7437	6.9516864
52	0xc15b9cef	-13.725814
53	0xc0203cbd	-2.5037072
54	0x400991ff	2.149536
55	0x3e6b4343	0.22974877
56	0x4088463f	4.258575
57	0x414a8b9b	12.659083
58	0xc0ab240a	-5.3481493
59	0x40886185	4.2619042
60	0xc047a8ff	-3.1196897
61	0x3ffd840f	1.9805926
62	0x40ab69e3	5.3566756
63	0xc0c7bf00	-6.2420654
64	0xc04ff11c	-3.2490911
65	0xbf20eab1	-0.6285811
66	0x3f470891	0.77747446
67	0xc095a14a	-4.6759386
68	0x4096c1a4	4.711138
69	0xbfc5afc6	-1.5444267
70	0x40e5683a	7.168973
71	0xc0734eff	-3.8016965

submodules.htm_pred.0.bias f4 [4]
0	0x3fc0f326	1.5074203
1	0xbe6b86eb	-0.23000686
2	0xbec30b57	-0.3809459
3	0xbfc34523	-1.5255474

exp_avg f4 [18, 23]
0	0xbc83324c	-0.016015194
1	0xbd4e220c	-0.05032544
2	0x3b1cfd72	0.0023954776
3	0xbe842381	-0.25808337
4	0xbe6ee0d9	-0.2332796
5	0x3e94e6d1	0.2908235
6	0x3c90ee86	0.017691862
7	0xbe863b7e	-0.26217264
8	0xbe48f55c	-0.19624847
9	0x3e66876c	0.22512597
10	0xbe08f53a	-0.13374797
11	0x3e4b3224	0.19843346
12	0xbe674337	-0.22584234
13	0x3c4d7adf	0.012541502
14	0xbd8989bb	-0.06715723
15	0x3bd469ee	0.0064823544
16	0xbd527bb0	-0.05138749
17	0x3b0fef7d	0.0021962814
18	0xbd99cc6b	-0.07509693
19	0xbcda299e	-0.026631173
20	0xbe6ee66e	-0.2333009
21	0xbc98af95	-0.018638412
22	0xbdd52c38	-0.10408825
23	0x3bc44ef4	0.0059908573
24	0xbb3a8af1	-0.0028464163
25	0xbbac0eca	-0.0052507864
26	0x3ddae9fc	0.1068916
27	0x3dc6d692	0.09708895
28	0xbdf25114	-0.11831871
29	0xbc042ef4	-0.008067835
30	0x3d2de1e2	0.042451747
31	0x3d624e2f	0.055250343
32	0xbd347fa3	-0.044067036
33	0x3d8979ae	0.06712662
34	0xbd45de67	-0.048307803
35	0x3df34282	0.1187792
36	0xbc95a48e	-0.018266942
37	0xbc638dc5	-0.013888781
38	0xbcdbc688	-0.026828066
39	0xbd222bca	-0.03959254
40	0xbd7a8efa	-0.06117151
41	0x3aa44026	0.0012531325
42	0xbc86767d	-0.016413921
43	0x3de0e8b6	0.10981886
44	0xbc825141	-0.015907886
45	0xbdeed7d1	-0.116622575
46	0x3e97f86d	0.2968172
47	0x3e771fe2	0.24133256
48	0xbea05b27	-0.31319544
49	0x3d4d4e97	0.050123777
50	0x3d4abd7d	0.049497116
51	0xbd53b1a6	-0.05168309
52	0xbe9b2256	-0.30299634
53	0x3e422c6b	0.18962257
54	0xbda6f739	-0.08152623
55	0x3db42af5	0.08797256
56	0x3de0b0ab	0.10971197
57	0x3daff582	0.08591749
58	0xbe10f8d7	-0.14157425
59	0xbc00936e	-0.00784765
60	0xbd69cddc	-0.05708109
61	0x3df01678	0.117230356
62	0x3d8f5c53	0.07000031
63	0xbcaf0b3d	-0.021367664
64	0x3e3643a0	0.17799234
65	0xbce1602d	-0.02751168
66	0xbe2b7020	-0.16741991
67	0x3c8f7b92	0.017514978
68	0x3ea455f3	0.32096824
69	0x3dd86de8	0.10567838
70	0x3d82b134	0.06381455
71	0xbe1217e7	-0.1426693
72	0xbe22cb49	-0.1589786
73	0xbe14b2d0	-0.14521337
74	0x3e3ea9a5	0.18619402
75	0xbe03eaed	-0.12882586
76	0xbe096fe6	-0.13421592
77	0xbe1da52b	-0.15395038
78	0x3e3c4786	0.18386659
79	0xbd0c2599	-0.034215543
80	0x3e238d7f	0.15971945
81	0xbdc3bc45	-0.09557394
82	0xbc6b0e8c	-0.01434673
83	0xbd170566	-0.036870383
84	0xbd522f2d	-0.05131452
85	0x3dbd21c1	0.09234954
86	0x3c792d1e	0.015208511
87	0xbcca09fe	-0.024662968
88	0xbbe5adc3	-0.0070092394
89	0xbe0ed4fd	-0.13948436
90	0xbb833eb5	-0.004005278
91	0x3d457906	0.04821112
92	0x3dafe935	0.085894026
93	0x3d9ba44e	0.07599698
94	0xbdd99b3d	-0.106253125
95	0xbd36ab9f	-0.044597264
96	0xbd4d333f	-0.0500977
97	0x3c888518	0.016665027
98	0xbda971c2	-0.08273651
99	0x3da798c5	0.08183435
100	0xbe994431	-0.29934838
101	0x3eb9e91e	0.36310667
102	0xbdfba355	-0.122870125
103	0x3ea3d2d8	0.319968
104	0xbd90c4d3	-0.07068791
105	0x3d400e6a	0.046888746
106	0xbd4c683b	-0.04990409
107	0x3caaa94c	0.02083268
108	0xbdf3d951	-0.11906684
109	0xbc8f8ca6	-0.017523121
110	0x3d94dd83	0.072688125
111	0xbc89c925	-0.016819546
112	0xbd2d5684	-0.042318836
113	0x3c2cceb2	0.010547327
114	0xbd3f8e5b	-0.04676662
115	0x3e0d0d09	0.13774504
116	0x3de438c1	0.111436374
117	0xbe1cb79c	-0.15304416
118	0x3e69b057	0.22821175
119	0x3e4214db	0.18953268
120	0xbe8689c3	-0.2627698
121	0xbe1a8b59	-0.1509222
122	0x3d71000a	0.058837928
123	0x3e994c53	0.29941043
124	0xbeb25a4b	-0.34834513
125	0x3e9a1d9f	0.30100724
126	0xbe9c602e	-0.3054213
127	0x3edbe24c	0.42946088
128	0x3d99647d	0.0748987
129	0xbd24d6e2	-0.04024399
130	0xbdaad431	-0.083412535
131	0xbcb8917c	-0.02253031
132	0xbd7f85d3	-0.062383484
133	0xbe2bd7ca	-0.16781536
134	0x3c1f8b4b	0.0097378
135	0x3edabc98	0.4272201
136	0xbd6e1d14	-0.0581332
137	0xbe776999	-0.24161376
138	0x3d514ae9	0.05109683
139	0xbc9ea682	-0.019366506
140	0xbd69bf85	-0.057067413
141	0xbebfbcf2	-0.3744884
142	0xbea9f853	-0.3319727
143	0x3ee308ef	0.44342753
144	0xbd67afe5	-0.05656423
145	0xbefc988b	-0.4933513
146	0xbd16551f	-0.03670227
147	0x3dd92477	0.10602658
148	0xbc9d50bb	-0.019203534
149	0x3d4a2ef2	0.049361177
150	0xbdd2f4ad	-0.103005745
151	0x3ab503d7	0.0013810348
152	0x3c2a7000	0.010402679
153	0xbd3d827d	-0.04626702
154	0x3d9169a3	0.07100227
155	0xbc5cca70	-0.013475999
156	0xbdac1457	-0.08402317
157	0x3d2de774	0.04245706
158	0xbdf5d58e	-0.12003623
159	0xbd160dd3	-0.036634278
160	0xbd538bf0	-0.051647127
161	0x3c55d9c9	0.013052412
162	0xbbccd881	-0.006251395
163	0x3b4819be	0.0030532922
164	0xbe0c0355	-0.13673146
165	0xbde370b2	-0.11105479
166	0x3e255f42	0.16149619
167	0xbc278550	-0.010224655
168	0xbe2a95ef	-0.16658758
169	0xbd91a746	-0.07111983
170	0x3da13fc5	0.07873491
171	0xbd24048c	-0.0400434
172	0x3d922764	0.071364194
173	0xbcfda121	-0.030960621
174	0x3c2db5aa	0.010602394
175	0x3d3ac398	0.04559669
176	0xbd917714	-0.071027905
177	0x3d9b370b	0.07578858
178	0xbba276c9	-0.004958008
179	0x3cc3e59b	0.023913195
180	0xbc0c7cee	-0.008574707
181	0x3c369ea7	0.011146224
182	0x3c37cb6e	0.011217935
183	0x3c17c7c2	0.009263935
184	0x3d86fa37	0.065906934
185	0x3d52ee57	0.05149683
186	0xbd6a6fcc	-0.057235524
187	0xbc2c19d3	-0.010504204
188	0xbc96db61	-0.018415155
189	0x3b6eb16a	0.0036421665
190	0xbd96dc00	-0.073661804
191	0xbd7fd0db	-0.06245504
192	0x3e6b2455	0.22963078
193	0xbe850fc7	-0.259886
194	0x3e12f8eb	0.14352767
195	0xbe75a64e	-0.23989221
196	0x3db64960	0.08900714
197	0x3caae611	0.020861657
198	0x3da28a79	0.07936568
199	0x3c9aa53b	0.018877616
200	0xbd3dd097	-0.046341505
201	0x3bdb1b24	0.006686585
202	0x3ae3ff67	0.0017394841
203	0x3d3f8b0b	0.04676346
204	0x3e03aa35	0.12857898
205	0x3bd122db	0.006382329
206	0xbb0e643a	-0.002172722
207	0x3c6774ab	0.014126937
208	0x3cdf0c11	0.027227433
209	0x3b6bbe0a	0.0035971426
210	0xbc7c34ab	-0.015393416
211	0xbc96109f	-0.018318472
212	0x3c8cc3e8	0.01718326
213	0xbafe6f1f	-0.0019411779
214	0x3c92f35c	0.017938308
215	0xbd07929a	-0.033098795
216	0x3ce56ed3	0.028006947
217	0xbcb2ef19	-0.021842526
218	0x3d07ba4a	0.033136643
219	0x3d4687f6	0.048469506
220	0xbb0dd646	-0.002164261
221	0x3d3f3002	0.046676643
222	0x3dc02539	0.093821
223	0x3db748f6	0.08949463
224	0xbaf58746	-0.0018732331
225	0x3ccfebdd	0.025381023
226	0x3cb871b7	0.022515161
227	0x3dc75622	0.097332254
228	0xbcaac8b9	-0.020847665
229	0x3e65dde9	0.22447933
230	0x3c54159d	0.012944606
231	0xbc1170a9	-0.008876958
232	0xbcd844c3	-0.026399976
233	0xbe8f7375	-0.28017774
234	0xbe817bc3	-0.25289735
235	0x3ea98a87	0.331135
236	0xbc04c601	-0.008103848
237	0xbe413abd	-0.18870063
238	0xbe54fcb7	-0.20799528
239	0x3e791fe3	0.2432857
240	0xbe18b842	-0.14914039
241	0x3e56a683	0.20961957
242	0xbe523e68	-0.20531619
243	0x3b1ec193	0.0024224266
244	0xbcd1917d	-0.02558207
245	0x3cbd8b00	0.02313757
246	0x3ddb072a	0.10694726
247	0xbbb4d2d0	-0.005518295
248	0x3dc622b7	0.0967459
249	0xbc3da404	-0.011574749
250	0xbe61a1d2	-0.22034386
251	0xbcbe3655	-0.023219267
252	0x3e7089be	0.23490044
253	0xbc6dcdd8	-0.014514409
254	0x3ce03de0	0.027373254
255	0x3ca6918f	0.02033308

exp_avg_sq f4 [18, 23]
0	0x3e22f8dc	0.15915245
1	0x3dce584e	0.100754365
2	0x3e4b3f30	0.19848323
3	0x3ebc8fa6	0.36828345
4	0x3ea1e5d2	0.3162065
5	0x3edc823f	0.4306812
6	0x3e3a0689	0.18166555
7	0x3efb5e13	0.4909521
8	0x3edd555f	0.43229195
9	0x3ef0c17b	0.47022614
10	0x3e6eaba6	0.23307666
11	0x3ee1f665	0.44133297
12	0x3d643593	0.055715155
13	0x3ccfad7f	0.025351284
14	0x3d54654f	0.051854428
15	0x3c27a22a	0.010231534
16	0x3c681acf	0.014166548
17	0x3cafdcdb	0.021467617
18	0x3e71274a	0.23550144
19	0x3d4ca685	0.049963493
20	0x3da11a6b	0.07866367
21	0x3ca69c72	0.02033827
22	0x3e8c8efc	0.27452838
23	0x3e549033	0.20758133
24	0x3e0983b9	0.13429154
25	0x3e743007	0.23846446
26	0x3e86f01f	0.26355073
27	0x3e8ea16f	0.2785754
28	0x3e8097de	0.25115865
29	0x3e6836ba	0.22677127
30	0x3eb1c91c	0.34723747
31	0x3e2d5df1	0.16930367
32	0x3e40952d	0.18806906
33	0x3e5be894	0.2147544
34	0x3e33472e	0.17507622
35	0x3cb56da3	0.022147005
36	0x3cb434b6	0.02199779
37	0x3c7c0a5c	0.015383329
38	0x3ca4f872	0.020138
39	0x3c93ae2f	0.018027393
40	0x3d4059cf	0.04696065
41	0x3d81b6df	0.06333708
42	0x3c63646d	0.013878924
43	0x3d3d9c31	0.046291534
44	0x3c873499	0.016504573
45	0x3e16e87b	0.14737122
46	0x407db085	3.963899
47	0x400e7c58	2.2263393
48	0x408e634a	4.4496202
49	0x3ecd790d	0.40131417
50	0x3ed14062	0.40869433
51	0x3ed64af9	0.41854075
52	0x408bbcdf	4.3668056
53	0x3f46f0a1	0.7771092
54	0x3f6d5cb1	0.9271956
55	0x3f46c7ac	0.77648425
56	0x401b49b6	2.426374
57	0x3f63e696	0.8902372
58	0x3e5080bd	0.2036161
59	0x3d1c5074	0.038162664
60	0x3d281d13	0.041043352
61	0x3d5cdce8	0.05392161
62	0x3c6a7246	0.0143094715
63	0x3cd5b5f4	0.026087739
64	0x3e117a9a	0.14206925
65	0x3cc11345	0.023568759
66	0x3e9174ef	0.28409526
67	0x3d09ebd6	0.033672176
68	0x3e54a926	0.2076765
69	0x3f2d6c61	0.677435
70	0x3ec37c33	0.38180694
71	0x3f45ebb1	0.7731276
72	0x3ec90ad8	0.39266086
73	0x3ef218b9	0.47284487
74	0x3e94da05	0.29072586
75	0x3f3f0af9	0.7462612
76	0x3e8b9e48	0.27269197
77	0x3e28886c	0.16458291
78	0x3e3d2907	0.18472682
79	0x3f1b48bf	0.60657877
80	0x3e2c6e46	0.16838941
81	0x3d1d928b	0.038469832
82	0x3cf7b4c4	0.030237563
83	0x3d0be06e	0.03414958
84	0x3ca96fe5	0.020683238
85	0x3c8b3258	0.01699178
86	0x3cbd3033	0.023094272
87	0x3d15f7e0	0.036613345
88	0x3d229feb	0.03970329
89	0x3d894af2	0.06703748
90	0x3c15f547	0.009152717
91	0x3dccdac1	0.100026615
92	0x3eeadf70	0.45873594
93	0x3e8852a4	0.2662555
94	0x3f043ea3	0.51658076
95	0x3f1b4835	0.60657054
96	0x3f0f4539	0.55965
97	0x3f2a28f8	0.66468763
98	0x3f00a67e	0.50254047
99	0x3f1e8577	0.619224
100	0x3f7b5e55	0.98190814
101	0x3f6e0fac	0.92992663
102	0x3f12301d	0.57104665
103	0x3f7ad43b	0.9798009
104	0x3d2229bc	0.039590582
105	0x3de9d26d	0.11417089
106	0x3d2ea3dd	0.04263674
107	0x3d04dce9	0.03243724
108	0x3daf4d65	0.08559684
109	0x3dcd9450	0.10038054
110	0x3e8eb972	0.2787586
111	0x3d6d7b02	0.057978638
112	0x3e05f702	0.13082507
113	0x3dbc84dc	0.092050284
114	0x3ee4b828	0.4467175
115	0x3f38b9a4	0.72158265
116	0x3eed1d94	0.4631163
117	0x3f68f2b0	0.9099531
118	0x3ef69097	0.48157188
119	0x3ecfa18b	0.40552935
120	0x3f2ac570	0.66707516
121	0x3f5119cf	0.81680006
122	0x4000b16c	2.010829
123	0x3f02ad45	0.5104564
124	0x3f0d8c29	0.5529199
125	0x3ee6f9f6	0.4511258
126	0x3f053479	0.5203319
127	0x3e4bd5a7	0.1990572
128	0x3d9540b6	0.07287733
129	0x3d1d1eae	0.038359337
130	0x3d96ec54	0.07369295
131	0x3d00b91c	0.031426534
132	0x3d928639	0.07154507
133	0x3ef60600	0.48051453
134	0x3d33b60e	0.043874793
135	0x3e86b41f	0.26309296
136	0x3dde0533	0.108408354
137	0x3f10ce1e	0.5656451
138	0x3e159009	0.14605726
139	0x3de3c9b5	0.11122457
140	0x3e250132	0.16113737
141	0x3ee55607	0.44792196
142	0x3ec4dbc4	0.38448918
143	0x3f08524b	0.5325057
144	0x3e244c56	0.16044745
145	0x3f293b82	0.66106427
146	0x3f298adb	0.662275
147	0x3f3305b1	0.6993056
148	0x3e8db94b	0.2768043
149	0x3f2c3a93	0.6727688
150	0x3cf5b877	0.029995186
151	0x3da0f2d3	0.07858815
152	0x3dc9d300	0.09854698
153	0x3d3c8912	0.046029158
154	0x3d2912e6	0.04127779
155	0x3d5e948c	0.054340884
156	0x3e791191	0.24323107
157	0x3e1577f4	0.1459654
158	0x3d2370b1	0.039902393
159	0x3d7a6d7b	0.061139565
160	0x3eb8a226	0.3606121
161	0x3dd4fc33	0.10399666
162	0x3d8424a1	0.06452299
163	0x3df2e7e6	0.11860637
164	0x3e59b052	0.21258667
165	0x3e6aa316	0.22913775
166	0x3e40350d	0.18770237
167	0x3deb1751	0.114790566
168	0x3e2a2251	0.16614653
169	0x3e0ae5b7	0.13564192
170	0x3e1341c1	0.14380552
171	0x3e3b69c5	0.18302067
172	0x3e0ccdf6	0.13750443
173	0x3c240f8e	0.010013474
174	0x3cf98bfb	0.030462256
175	0x3c69ae86	0.014262801
176	0x3c838558	0.016054794
177	0x3c590385	0.013245468
178	0x3ca15193	0.019692218
179	0x3d0a225d	0.033724178
180	0x3cbdb262	0.023156349
181	0x3d050222	0.032472737
182	0x3c257570	0.0100988
183	0x3da46260	0.08026576
184	0x3de54f8c	0.11196813
185	0x3d92db10	0.07170689
186	0x3e00a6df	0.12563656
187	0x3e417dbc	0.1889562
188	0x3e5f8c19	0.21830787
189	0x3e1ce6c5	0.15322407
190	0x3dfca414	0.12335983
191	0x3e080d90	0.13286424
192	0x3e986791	0.29766515
193	0x3e7f1129	0.2490889
194	0x3e51ea0d	0.2049944
195	0x3e938538	0.28812575
196	0x3c03afc7	0.008037514
197	0x3c7bf0bb	0.015377219
198	0x3c9569bf	0.0182389
199	0x3be54fb7	0.006998028
200	0x3c59eca0	0.013301045
201	0x3c8eb70f	0.017421274
202	0x3cf70065	0.030151555
203	0x3c126cc0	0.008937061
204	0x3d0295ea	0.03188125
205	0x3c2052d3	0.009785372
206	0x3d7a138e	0.061053805
207	0x3e25b742	0.16183189
208	0x3dcfdf3f	0.10150003
209	0x3e45f07f	0.19330023
210	0x3efad880	0.489933
211	0x3f09fa3f	0.5389747
212	0x3edaf0bf	0.427618
213	0x3e377d0b	0.17918794
214	0x3ed07e08	0.40721154
215	0x3eb14ea2	0.34630305
216	0x3eb818f5	0.3595654
217	0x3ead1846	0.33807582
218	0x3eb46cfc	0.35239398
219	0x3ca4da14	0.020123519
220	0x3cca2d1e	0.024679717
221	0x3d953603	0.072856925
222	0x3d3142a2	0.043276437
223	0x3c5cbbe5	0.013472532
224	0x3de75a86	0.11296563
225	0x3db568fe	0.08857916
226	0x3d9e850b	0.0774022
227	0x3d22d9f3	0.039758634
228	0x3c845eaa	0.01615842
229	0x3e87a76f	0.2649493
230	0x3e0e2b8d	0.13883801
231	0x3dc74ab1	0.09731043
232	0x3e261f73	0.16222934
233	0x3ed32300	0.4123764
234	0x3ee1eecb	0.44127497
235	0x3ec0f452	0.37686402
236	0x3e1c6400	0.15272522
237	0x3ee9d5f6	0.45671052
238	0x3e55d97c	0.20883745
239	0x3e6d085e	0.23147723
240	0x3e8e9cbe	0.2785396
241	0x3e59ada4	0.21257645
242	0x3cee052b	0.029055199
243	0x3cccd5ef	0.025004355
244	0x3c0e0833	0.008668947
245	0x3ca00b82	0.019536737
246	0x3cf4c78f	0.029880313
247	0x3d12eb2e	0.035868816
248	0x3e1f5951	0.15561415
249	0x3c2ed936	0.010671904
250	0x3d541e47	0.051786687
251	0x3ca3a77b	0.019977322
252	0x3e6e5eab	0.232783
253	0x3e034347	0.12818633
254	0x3de80dc7	0.11330753
255	0x3e1628a9	0.14663948

exp_avg f4 [18]
0	0xbec8d606	-0.39225787
1	0xbd4b42f1	-0.049624387
2	0x3e1309f0	0.1435926
3	0xbdd77e98	-0.10522193
4	0xbdc34391	-0.09534372
5	0x3e0c8104	0.1372109
6	0xbe29d759	-0.16586055
7	0x3d21637f	0.039401527
8	0x3e387c3a	0.18016139
9	0x3e9c45e2	0.30522066
10	0x3c4e82a0	0.012604386
11	0x3e7a9c74	0.24473745
12	0xbded06a5	-0.11573533
13	0xbf0ed872	-0.5579902
14	0xbd8d175e	-0.068892226
15	0x3e3a216a	0.18176809
16	0x3cfffcd8	0.031248495
17	0x3d8b5cae	0.068047866

exp_avg_sq f4 [18]
0	0x3ee57077	0.44812366
1	0x3e6679e6	0.22507438
2	0x3f1299de	0.5726603
3	0x3e545950	0.20737195
4	0x3f4831b6	0.7820085
5	0x3f889e01	1.0673219
6	0x3f24e248	0.6440778
7	0x3e2275aa	0.15865198
8	0x3de2bdea	0.110713795
9	0x3ed17d75	0.4091603
10	0x3ea6d539	0.3258455
11	0x3f100285	0.56253844
12	0x3f5f689d	0.87269
13	0x3e859502	0.26090246
14	0x3ea3a517	0.3196189
15	0x3f512620	0.816988
16	0x3e3eb46c	0.18623513
17	0x3f796577	0.9742045
