runs/perovskite_multiscale_dataset_runs/ae2_PCE_predictor_enc_l_18_l1_1em2_tanh_predictor_0_1_100_relu_decoder_linear_seed_0_lr_1em3_bs_100_e_1500_pass_latents_ae1_fold_0_ae2_fold_1_xavier_normal_gain_10/submodule_params/encoder_params.pt (torch, 2819 bytes, 2 tensors)

0.weight f4 [18, 23]
0.11841491 -0.0022835515 -0.005871463 0.0015875394 0.0022365684 -0.0012276794 -0.0027978006 -0.003076511
-0.0011552897 0.01809844 0.0597414 0.0012682056 0.00284963 -0.0032877962 8.002008e-05 0.0056033027
-0.00855033 -0.0023345165 0.11409589 -0.07973271 0.1680163 -0.0010363923 -0.00077011425 -0.0005970126
0.00466982 0.0015691672 0.0056211934 0.0029915264 -0.039800037 0.0011462036 0.008651701 0.02578732
-0.015248905 -0.0015799479 -0.0008192389 -0.15070003 0.00605811 0.06246865 0.0020584203 -0.006767604
-0.09390935 0.11566062 -0.0017204883 -0.15768498 0.0058183954 -0.0035514084 0.09742804 -0.31490353
-0.03166828 -0.0633554 -0.0022361397 0.0004137638 -0.0024108293 0.103686735 0.032262865 -0.024030043
-0.056768857 -0.010194295 -0.19643214 -0.00034462713 -0.007909572 0.00037827456 -0.0045891576 -0.0038378167
0.20552422 -0.05919785 -0.2138631 -0.0029667672 0.007356114 -0.060708575 -0.09356656 -0.002306591
-0.00039620016 -0.0020045708 -0.16742004 -0.15370697 -0.06250927 -0.0055239405 0.04636704 -0.14841934
0.005888529 -0.058154985 -0.08488591 0.0035588674 0.007620784 0.00091062416 0.0051867752 -0.0001908847
-0.045779806 -0.0016631058 -0.00017418766 0.32949993 -0.008625605 -0.11687538 0.002164931 0.11240887
0.0025805456 -0.0031174237 0.0034314056 -0.21620208 -0.0001757783 0.0003050469 -0.0017466749 0.00029129692
0.00087330746 0.000929794 0.004096257 -0.0046519428 -0.0009728926 -0.00078154606 -0.00024941727 0.0034904804
0.0005558408 -0.0012364866 -0.077620536 -0.0059054377 -0.042290717 0.0041947183 0.0035727492 0.005419121
-0.0028810604 0.045860596 -0.07213286 0.0027297353 0.0014827645 0.067596845 -0.0005214265 0.0018375327
0.006889596 -0.007362731 -0.00031951818 0.006380177 0.0013774459 -0.0024721336 -0.04021387 -0.10952862
0.0588968 0.033486694 0.004429101 0.003010499 -0.0448523 0.12732488 0.0023911875 -0.045480303
-0.12261057 0.0018229792 -0.07366198 -0.027911356 0.038358673 0.0007155194 0.0007561158 -0.016510362
0.0012056326 0.017858334 0.0018648352 -0.0036099935 0.00077289355 0.000807832 -0.002766827 0.0025914654
-0.00019140693 -0.0012235033 -0.00043656898 0.024952548 -0.0027467757 -0.0021236 0.003180361 0.0014524725
-0.00153901 0.11107542 -0.007185322 -0.00072119373 -0.0076841484 0.0030920443 -0.15914121 0.00026162472
0.0029814686 -0.0047239405 -0.0023256908 -0.00455198 -0.0051487465 0.0028614127 0.003358761 -0.0035336653
0.0018350941 0.015830008 0.0003536893 -0.001765203 0.03735162 0.017891964 -0.00080150826 0.0027356162
-0.0038188815 0.03585336 0.006878998 0.0061170496 -0.105790615 0.0015943946 -0.002886992 -0.00013273081
0.15380333 0.07221618 -0.004603482 -0.0012214654 -0.0007924832 -0.024892624 0.009989114 -0.002195068
-0.0024298183 0.01696758 0.0008097441 0.0009226536 0.02402884 0.037789784 0.00092743663 -0.0037546484
0.029583065 -0.003324595 0.004691417 0.028435849 0.0028691466 0.33714348 0.00040030005 -0.0027990185
-0.15957423 -0.002751374 3.0525058e-05 0.0013591418 -0.008398928 -0.0031938048 0.02874234 0.0073421006
-0.014861968 0.0005673462 0.028029269 0.0008376236 -0.008352695 0.005973191 0.0019505583 1.6080674e-05
0.0057562394 -0.0015768077 -0.0044897213 0.00020347197 0.0013318051 -0.0014099549 -0.16885845 0.09001852
-0.03824336 0.002667593 -0.0024090586 -0.0032238306 -0.073479794 -0.0029415844 -0.0012167067 0.1785309
00000000: 8483 f23d a3a7 15bb 6765 c0bb fc14 d03a
00000010: 6493 123b 16ea a0ba 4e5b 37bb 4a9f 49bb
00000020: 176d 97ba 2e43 943c 66b3 743d eb39 a63a
00000030: dcc0 3a3b 1178 57bb 74d0 a738 e99b b73b
00000040: af16 0cbc b0fe 18bb 1bab e93d e74a a3bd
00000050: 770c 2c3e 8ed7 87ba 7ee1 49ba d680 1cba
00000060: 4a05 993b 84ac cd3a fd31 b83b 7c0d 443b
00000070: 5d05 23bd 363c 963a ddbf 0d3c ee3f d33c
00000080: 8bd6 79bc 4116 cfba 31c2 56ba 1c51 1abe
00000090: 1c83 c63b 21df 7f3d 90e6 063b c7c2 ddbb
000000a0: 8c53 c0bd 7adf ec3d 0282 e1ba 2c78 21be
000000b0: 3da8 be3b bfbe 68bb 5a88 c73d 093b a1be
000000c0: 99b6 01bd 7ac0 81bd 338c 12bb 70ee d839
000000d0: 01ff 1dbb b659 d43d 1126 043d a7da c4bc
000000e0: 7686 68bd f905 27bc 8225 49be 12af b4b9
000000f0: 2697 01bc 2753 c639 a560 96bb e183 7bbb
00000100: f174 523e 7279 72bd eefe 5abe 186e 42bb
00000110: 8f0b f13b 8ea9 78bd d39f bfbd 2d2a 17bb
00000120: 16b9 cfb9 1e5f 03bb 2970 2bbe 5c65 1dbe
00000130: dc04 80bd 2c02 b5bb 5eeb 3d3d 3dfb 17be
00000140: 90f4 c03b ec33 6ebd aad8 adbd e33b 693b
00000150: c5b7 f93b f4b6 6e3a d3f5 a93b 3928 48b9
00000160: 9b83 3bbd 92fc d9ba 25a6 36b9 37b4 a83e
00000170: 6952 0dbc 5c5c efbd 84e1 0d3b 9f36 e63d
00000180: 5f1e 293b b14d 4cbb 6fe1 603b 1464 5dbe
00000190: 2151 38b9 b4ee 9f39 aff0 e4ba 36b9 9839
000001a0: acee 643a 6bbd 733a e539 863b 536f 98bb
000001b0: b809 7fba abe0 4cba 38c4 82b9 8bc0 643b
000001c0: d8b5 113a 9b11 a2ba 84f7 9ebd 6782 c1bb
000001d0: 0839 2dbd d973 893b c924 6a3b e292 b13b
000001e0: 2cd0 3cbb 52d8 3b3d 65ba 93bd 5ce5 323b
000001f0: 5259 c23a 3770 8a3d 57b0 08ba 5ed9 f03a
00000200: 1fc2 e13b 1043 f1bb 0185 a7b9 ce10 d13b
00000210: 6a8b b43a 8503 22bb 4db7 24bd 8b50 e0bd
00000220: c53d 713d 5829 093d fe21 913b cb4b 453b
00000230: 0cb7 37bd 7461 023e 78b5 1c3b 8e49 3abd
00000240: 401b fbbd 08f1 ee3a 18dc 96bd 5ba6 e4bc
00000250: fc1d 1d3d b291 3b3a 1336 463a bd40 87bc
00000260: 5106 9e3a a44b 923c 7c6d f43a a495 6cbb
00000270: 029c 4a3a b0c4 533a a753 35bb 93d5 293b
00000280: 68b4 48b9 f55d a0ba 4ce3 e4b9 4969 cc3c
00000290: 4003 34bb 192c 0bbb 9a6d 503b e460 be3a
000002a0: 9bb8 c9ba 837b e33d da72 ebbb 7e0e 3dba
000002b0: 4fcb fbbb e5a3 4a3b eaf5 22be ad2a 8939
000002c0: be64 433b 49cb 9abb 9e6a 18bb c728 95bb
000002d0: d1b6 a8bb 8a86 3b3b a91e 5c3b 1195 67bb
000002e0: 8a87 f03a efad 813c 606f b939 625e e7ba
000002f0: 03fe 183d 2b92 923c 4f1c 52ba 0648 333b
00000300: 3346 7abb f9da 123d 3869 e13b 8871 c83b
00000310: c0a8 d8bd 01fb d03a b033 3dbb a82d 0bb9
00000320: 9f7e 1d3e 14e6 933d ced8 96bb 9419 a0ba
00000330: a6be 4fba 9eeb cbbc 61a9 233c 21db 0fbb
00000340: 963d 1fbb 98ff 8a3c 0245 543a 3cde 713a
00000350: 21d8 c43c 76c9 1a3d 381f 733a 8c10 76bb
00000360: 2f58 f23c 73e1 59bb 75ba 993b 4cf2 e83c
00000370: 4b08 3c3b 129e ac3e 5ddf d139 bd6f 37bb
00000380: 6d67 23be 6550 34bb 0808 0038 3b25 b23a
00000390: a89b 09bc 274f 51bb 0e75 eb3c 0196 f03b
000003a0: 9d7f 73bc f5b9 143a a39d e53c f893 5b3a
000003b0: bed9 08bc c2ba c33b e0a9 ff3a fce4 8637
000003c0: d69e bc3b e3ac ceba 831e 93bb 175b 5539
000003d0: f78f ae3a 3cce b8ba 3be9 2cbe a15b b83d
000003e0: 12a5 1cbd c9d2 2e3b 4ce1 1dbb e746 53bb
000003f0: 937c 96bd 99c7 40bb e779 9fba ced0 363e

0.bias f4 [18]
0.01730414 0.060100954 -0.25950423 -0.10554496 -0.23912872 0.16716884 0.26312104 0.21174994
-0.16544485 -0.14101632 -0.115541436 0.104372926 -0.007939573 -0.007836572 -0.021680543 -0.04213616
0.0040245466 -0.15872025
00000000: 69c1 8d3c 6b2c 763d bddd 84be f527 d8bd
00000010: 29de 74be 4f2e 2b3e cdb7 863e fad4 583e
00000020: 606a 29be 9566 10be fda0 ecbd 79c1 d53d
00000030: fc14 02bc f764 00bc 659b b1bc f796 2cbd
00000040: 58e0 833b 9087 22be
