runs/perovskite_multiscale_dataset_runs/ae2_PCE_predictor_enc_l_18_l1_1em2_tanh_predictor_0_1_100_relu_decoder_linear_seed_0_lr_1em3_bs_100_e_1500_pass_latents_ae1_fold_0_ae2_fold_0_xavier_normal_gain_10/checkpoints/last.ckpt (torch, 54674 bytes, 33 tensors)

submodules.encoder.0.weight f4 [18, 23]
0.06671249 0.00032724737 -0.14098912 -0.0008584233 0.00023453921 0.0029126266 -0.004523741 -0.015316118
-0.0026997866 0.020366753 0.028103348 0.0025100803 -0.0023889563 0.0042647202 -0.0018932186 -0.05372647
-0.003547879 -0.0053558117 0.12477215 -0.004190838 0.13917542 -0.0022990652 -0.0013703733 -7.4127805e-05
0.0019141962 2.0695821e-05 0.03650197 0.015024756 -0.01427502 8.150525e-05 0.005692143 0.023427332
-0.005119743 -0.0014035904 -0.0024300434 -0.1624817 0.0017382259 -0.0018747349 0.00037865972 -7.2908384e-05
0.005812073 0.04851647 0.0005356892 -0.15834934 0.06689791 0.0037664943 0.026304884 -0.1998006
-0.037593953 -0.08627318 -0.00326331 0.0034967302 -0.0020720812 0.118824966 0.04043004 -0.003830746
-0.024135465 -0.009953102 -0.056979224 0.0016965115 -0.0007296632 0.003679919 -0.001025589 0.00026704711
0.20376706 0.0035578688 -0.305773 0.0019950047 9.794702e-05 -0.004101832 -0.0075598 0.0010659733
0.0023447378 0.0026495329 -0.06614064 0.002588795 -0.0022622393 -0.006058386 0.022765236 -0.0027553765
0.004595023 -0.0010097196 -0.14437458 -0.0014421633 0.00027605193 0.0023016082 0.008350079 0.0014710776
-0.16130024 0.0032968475 -0.01624267 0.24641901 -0.0031077107 -0.03163516 0.0010700497 0.0029097213
0.001233226 -0.0034484467 0.0020381948 -0.14585347 -0.00090482173 -0.00016677126 -0.04599314 0.00052088173
-0.008676906 0.0021659283 0.128275 0.0010378631 -0.0058868323 -0.0051764343 0.0036266525 -0.004952667
-0.00015212607 0.0008874097 -0.098534584 -0.001990557 -0.107221484 -0.08984164 0.020946644 -0.0014219873
-0.05790357 0.05768532 -0.15540677 0.001632858 -0.06977497 -0.00061032805 -0.0011145286 -0.0026145768
0.05621959 -0.0024132999 0.003364096 0.009959293 0.00036998972 -0.0012068528 -0.016730959 -0.15054905
0.008450437 0.09827699 0.0026804458 0.0054261507 -0.02212773 0.12864397 0.0031864187 -0.023707118
-0.12254119 0.0029360452 -0.08725164 -0.026662927 0.0015012303 0.0014880938 0.05353751 -0.011735739
0.00022940263 0.00054008083 0.001880036 1.0119169e-05 0.015287204 0.031202953 -0.0069162347 0.0011100569
-0.0016964019 -0.0042698225 -0.004147284 0.02516153 0.0005722278 -0.026714016 -0.0037939518 0.004089842
-0.001758008 0.119685285 -0.029857965 -0.0038302182 -0.0005386564 0.0010131623 -0.17119019 0.0020558897
0.0023194253 0.0019787902 4.5779278e-05 -0.0028194862 -0.0047821663 -0.00027232952 -0.04831129 0.0028912295
-0.002108015 -0.0033331031 -0.00069499935 0.0031864913 0.013038315 -0.002630639 0.0016759145 0.0018739188
-0.01078029 0.003937336 -0.0013485033 0.0070652906 -0.18171312 0.0003090342 -0.0010928898 0.0024275058
0.07577356 0.012712041 -0.110134035 0.057654176 -0.0045540957 -0.16973564 0.005511369 0.0029146275
0.0018122272 -0.0017903898 -0.00068337494 -0.00010295281 0.012730691 -0.0031111005 0.00030892383 -0.00010043154
0.03438529 0.0018436706 -0.00035730674 0.04837588 -0.08101478 0.2168627 -0.0015242756 0.0032062219
-0.272955 0.0003772492 0.00088403455 0.0005850741 0.0043910327 -0.0053293426 -0.0011341687 -0.009893053
-0.0010708806 -0.00027439473 0.030778611 0.0033637027 -0.00073683 -0.0056624305 -0.0015709338 0.045967843
0.04563005 0.002092893 0.023133567 -6.712978e-05 0.00097608793 0.00047717616 -0.12746407 0.106954135
-0.084545635 -0.0049308613 0.010084622 -0.00027637623 -0.105288565 -0.00058017904 -0.000793824 0.008331217
00000000: 8fa0 883d 6692 ab39 745f 10be d007 61ba
00000010: a4ee 7539 c4e1 3e3b e43b 94bb 74f0 7abc
00000020: e7ee 30bb 2dd8 a63c fe38 e63c 2980 243b
00000030: 0990 1cbb 11bf 8b3b e025 f8ba 4910 5cbd
00000040: 8883 68bb ce7f afbb 8a88 ff3d 4c53 89bb
00000050: 0084 0e3e eaab 16bb 199e b3ba 1075 9bb8
00000060: c4e5 fa3a f09b ad37 1783 153d 652a 763c
00000070: c6e1 69bc cced aa38 2885 ba3b adea bf3c
00000080: 84c3 a7bb aef8 b7ba 5d41 1fbb 9a61 26be
00000090: 2fd5 e33a aab9 f5ba d986 c639 64e6 98b8
000000a0: 3473 be3b 35b9 463d 7e6d 0c3a 5426 22be
000000b0: c501 893d 4ad7 763b 577d d73c 8798 4cbe
000000c0: 1efc 19bd feaf b0bd 42dd 55bb 6629 653b
000000d0: c1cb 07bb 815a f33d f899 253d 410d 7bbb
000000e0: bdb7 c5bc 5612 23bc 0c63 69bd 7b5d de3a
000000f0: de46 3fba cc2a 713b 0e6d 86ba 7502 8c39
00000100: 50a8 503e 222b 693b 478e 9cbe a0be 023b
00000110: e868 cd38 a968 86bb 33b8 f7bb 21b8 8b3a
00000120: 2caa 193b c9a3 2d3b be74 87bd c6a8 293b
00000130: 1442 14bb 6d85 c6bb 297e ba3c 8c93 34bb
00000140: d991 963b 9158 84ba eed6 13be f806 bdba
00000150: 10bb 9039 94d6 163b c5ce 083c 2cd1 c03a
00000160: e42b 25be ec0f 583b 590f 85bc 4455 7c3e
00000170: bcaa 4bbb df93 01bd e940 8c3a 06b1 3e3b
00000180: 33a4 a13a 56ff 61bb 3c93 053b 9d5a 15be
00000190: 8f31 6dba 52df 2eb9 4e63 3cbd c88b 083a
000001a0: 9529 0ebc 3ff2 0d3b 865a 033e e808 883a
000001b0: 54e6 c0bb 149f a9bb 22ad 6d3b fb49 a2bb
000001c0: 0884 1fb9 0fa1 683a 80cc c9bd 0174 02bb
000001d0: f096 dbbd e5fe b7bd 4c98 ab3c fa61 baba
000001e0: 4b2c 6dbd 7147 6c3d f422 1fbe 9f05 d63a
000001f0: 2ee6 8ebd 6cfe 1fba 6015 92ba 5259 2bbb
00000200: 8346 663d 7428 1ebb 2a78 5c3b 4d2c 233c
00000210: 2efb c139 432f 9eba 5d0f 89bc 8829 1abe
00000220: b473 0a3c 7245 c93d 6baa 2f3b dacd b13b
00000230: 3745 b5bc 3fbb 033e 3cd3 503b 6e35 c2bc
00000240: e0f6 fabd aa6a 403b fdb0 b2bd 366c dabc
00000250: eec4 c43a 240c c33a 264a 5b3d 4247 40bc
00000260: cd8b 7039 3694 0d3a 8a6b f63a 80c5 2937
00000270: 2e77 7a3c 569d ff3c 95a1 e2bb 547f 913a
00000280: cd59 deba dee9 8bbb f1e5 87bb 8e1f ce3c
00000290: 8f01 163a 5ad7 dabc f3a3 78bb 1504 863b
000002a0: f66c e6ba 8f1d f53d b198 f4bc 6604 7bbb
000002b0: 9e34 0dba 16cc 843a 7b4c 2fbe 1bbc 063b
000002c0: 8001 183b 97ae 013b 2003 4038 21c7 38bb
000002d0: b8b3 9cbb 73c7 8eb9 0fe2 45bd c87a 3d3b
000002e0: 9f26 0abb 3170 5abb 9e30 36ba 74d4 503b
000002f0: a89e 553c cc66 2cbb 5caa db3a 489e f53a
00000300: d09f 30bc c504 813b 43c0 b0ba f483 e73b
00000310: 0113 3abe de05 a239 4c3f 8fba ca16 1f3b
00000320: 2b2f 9b3d 2a46 503c f48d e1bd c926 6c3d
00000330: 863a 95bb 2ecf 2dbe b798 b43b 5603 3f3b
00000340: 4188 ed3a 83ab eaba 8424 33ba 5ee8 d7b8
00000350: 6394 503c 9be3 4bbb 0ef7 a139 c69e d2b8
00000360: 97d7 0c3d 52a7 f13a e654 bbb9 c925 463d
00000370: 14eb a5bd 4111 5e3e 34ca c7ba 7a1f 523b
00000380: c2c0 8bbe 88c9 c539 8ebe 673a a95f 193a
00000390: a7e2 8f3b c4a1 aebb 63a8 94ba 7916 22bc
000003a0: ca5c 8cba a3dc 8fb9 6d23 fc3c 9171 5c3b
000003b0: d327 41ba e98b b9bb cbe7 cdba c748 3c3d
000003c0: 93e6 3a3d eb28 093b 9b82 bd3c 07c8 8cb8
000003d0: 27e0 7f3a 802d fa39 f185 02be c50a db3d
000003e0: 4326 adbd 1093 a1bb f839 253c 97e6 90b9
000003f0: 88a1 d7bd 2817 18ba a018 50ba a87f 083c

submodules.encoder.0.bias f4 [18]
-0.059311364 0.1374621 -0.2817497 -0.0733232 -0.3222464 0.25551397 0.21694587 0.23134233
-0.045241155 -0.050051697 -0.08314596 0.095929325 -0.04110817 -0.027389938 -0.0043561296 -0.019905332
-0.044048782 -0.19536278
00000000: 79f0 72bd ddc2 0c3e 7f41 90be 792a 96bd
00000010: 7bfd a4be bad2 823e 0f27 5e3e 01e5 6c3e
00000020: ca4e 39bd 0203 4dbd 6e48 aabd 9876 c43d
00000030: 0a61 28bd dd60 e0bc ddbd 8ebb 8210 a3bc
00000040: 7f6c 34bd 2e0d 48be

submodules.PCE_pred.0.weight f4 [100, 18]
1.0175171 2.146054 -0.5461962 -1.9822335 0.08704028 -1.4540061 -0.26392266 -0.2835613
1.1685158 0.5768993 -0.3920427 1.5511179 -0.24390051 0.5468081 -0.18504542 -0.3717893
0.5364923 0.8568386 1.7499804 -2.2542865 0.21208541 -1.4841511 1.0067832 -1.6592755
-0.97973365 -0.015223411 0.8171094 -1.0900347 -1.3051697 0.64742255 -4.9353433 -0.2995734
0.81632 -1.245423 -0.5755952 -1.7378671 0.98879856 -3.3824115 -0.8771672 -1.5485296
-2.4497051 -1.4702164 0.38632452 -0.8851389 1.2900956 0.63167745 1.1823466 -0.48240912
-0.50350165 0.87240976 0.07184067 1.5616443 -0.5319949 0.08038852 1.4662132 -0.18826361
0.82732534 -1.1063766 -0.51211846 -0.3532606 2.2315762 0.30594534 3.6561809 -0.54622734
3.689564 1.0149547 -0.51707184 0.45406565 -0.035686124 1.1302441 -0.3869801 -0.38003978
2.1354742 -0.6687452 -1.5581638 -1.0747195 -0.6657327 2.3560996 -0.7374727 0.08513253
-2.0161467 0.20627686 0.4897815 3.2074134 0.75829935 -0.47648314 -0.9879158 -0.948971
0.50742966 -1.7395685 -0.29279324 -0.4425855 -1.4654037 -0.053496726 1.6120383 -1.03794
-0.75934875 0.802851 -0.27875996 1.0547274 -0.15515716 2.030677 -3.1317651 -1.6021335
-0.063014485 -2.2504742 -0.74701494 -1.8125817 0.097179 0.78876764 -0.119642794 1.9939281
1.0288146 1.7778524 -1.0055705 -2.2659779 0.87784874 -0.14591317 2.10947 0.15951422
0.78798354 0.46061465 -1.6415759 0.17486396 1.492832 -2.2981408 -0.5148797 -1.1190869
1.4458381 -0.78770036 -1.0002092 -0.40886167 -0.049099997 0.38530678 1.4511434 -0.7775094
0.21149655 0.59463525 0.18830937 2.0928552 -0.6233436 -2.3886616 0.31947336 -0.038956773
1.5011492 3.4687955 -0.37045518 -0.25410792 1.2378924 -0.619375 -1.1358132 -0.090320066
-0.3903177 0.15679125 0.36851332 -2.7462237 -0.2048291 -1.6874368 -1.9857081 -0.4712971
-0.10636585 0.48795712 -0.97586244 0.95959985 0.53614783 0.82108164 0.6052078 -0.9264298
-0.13058905 -1.6183261 -0.054347165 2.0448892 -0.7534526 1.8022184 1.9703467 -2.0429678
-1.65649 -0.3331923 1.3692225 -1.6621064 -0.5973852 -0.8483344 1.2493881 2.0321624
-0.56565535 1.000268 0.99498045 -0.00948465 -1.166614 0.09543396 -1.1464044 -1.109685
-0.9125816 1.3877506 -0.21548049 1.148663 0.14604048 -0.8467791 -0.5674467 -0.3217683
1.8009316 1.1488211 -2.5269742 -0.34722313 1.9666792 -2.2577488 -1.5001991 -1.6495798
-0.6851436 -2.0852418 0.0020717885 -0.20302697 0.86270493 -1.6610128 -0.13555779 -1.1026808
2.124283 -2.0638833 -2.2491758 -0.2425847 -0.6474118 0.39273718 -0.8563844 -2.105197
-0.57948846 -0.0873042 -2.0635967 -0.8068766 1.5852227 1.8461583 -1.4611495 0.056122165
0.007083316 0.25100276 -2.654797 1.2183157 -1.8321731 0.79563516 0.9425914 -0.9358021
0.33918986 -0.78295124 -1.14274 -0.37229395 0.7147372 -1.291357 -2.2739635 1.2334901
0.6137308 2.7482638 -0.63984203 -0.66178125 1.7578021 0.5860085 1.1810724 -0.18417192
00000000: 003e 823f f358 0940 84d3 0bbf d4b9 fdbf
00000010: 2d42 b23d df1c babf df20 87be f22e 91be
00000020: ed91 953f acaf 133f d2b9 c8be 088b c63f
00000030: 0ec1 79be 9efb 0b3f 8c7c 3dbe 2b5b bebe
00000040: 8f57 093f c659 5b3f 5cff df3f 3b46 10c0
00000050: eb2c 593e aaf8 bdbf 46de 803f 2463 d4bf
00000060: d3cf 7abf 9d6b 79bc 152e 513f 4286 8bbf
00000070: cd0f a7bf 7cbd 253f 55ee 9dc0 af61 99be
00000080: 59fa 503f 056a 9fbf 355a 13bf 6e72 debf
00000090: e721 7d3f 6e79 58c0 088e 60bf 3836 c6bf
000000a0: f8c7 1cc0 0d30 bcbf 54cc c53e 7798 62bf
000000b0: da21 a53f 9db5 213f 2257 973f 54fe f6be
000000c0: 7ce5 00bf 3f56 5f3f 3421 933d f6e3 c73f
000000d0: d130 08bf bda2 a43d e0ac bb3f 2dc8 40be
000000e0: 98cb 533f c09d 8dbf 321a 03bf 93de b4be
000000f0: 25d2 0e40 dea4 9c3e defe 6940 8ed5 0bbf
00000100: d121 6c40 09ea 813f d25e 04bf 4b7b e83e
00000110: 9d2b 12bd d7ab 903f 4122 c6be 9394 c2be
00000120: 9cab 0840 e332 2bbf e971 c7bf 6990 89bf
00000130: 756d 2abf 56ca 1640 03cb 3cbf f759 ae3d
00000140: 8c08 01c0 3e3a 533e a4c4 fa3e 4346 4d40
00000150: e81f 423f 99f5 f3be 0de8 7cbf c3ef 72bf
00000160: e9e6 013f 2eaa debf ffe8 95be 919a e2be
00000170: 5992 bbbf 621f 5bbd 4557 ce3f 38db 84bf
00000180: ae64 42bf a587 4d3f a0b9 8ebe 4f01 873f
00000190: 85e1 1ebe 9df6 0140 d76e 48c0 b612 cdbf
000001a0: bd0d 81bd c507 10c0 5f3c 3fbf ad02 e8bf
000001b0: c905 c73d adec 493f 4807 f5bd 0939 ff3f
000001c0: 32b0 833f ab90 e33f 89b6 80bf c805 11c0
000001d0: b2ba 603f 436a 15be 8e01 0740 b257 233e
000001e0: 4ab9 493f afd5 eb3e 291f d2bf 8a0f 333e
000001f0: 1e15 bf3f bd14 13c0 28cf 03bf 3d3e 8fbf
00000200: 3911 b93f bba6 49bf db06 80bf 5156 d1be
00000210: 141d 49bd ee46 c53e 11bf b93f db0a 47bf
00000220: 8d92 583e 043a 183f 2cd4 403e 57f1 0540
00000230: 7293 1fbf d5df 18c0 0392 a33e 2391 1fbd
00000240: a825 c03f bf00 5e40 4dac bdbe 6f1a 82be
00000250: 4273 9e3f 5c8f 1ebf 5462 91bf baf9 b8bd
00000260: b9d7 c7be e38d 203e c7ad bc3e 21c2 2fc0
00000270: b8be 51be eefd d7bf af2b febf da4d f1be
00000280: 57d6 d9bd 84d5 f93e 1fd2 79bf 56a8 753f
00000290: fc40 093f 6832 523f e6ee 1a3f 812a 6dbf
000002a0: 23b9 05be 4f25 cfbf 229b 5ebd 77df 0240
000002b0: 45e2 40bf 18af e63f 5234 fc3f fcbf 02c0
000002c0: dd07 d4bf 2e98 aabe af42 af3f e7bf d4bf
000002d0: 3dee 18bf 712c 59bf f3eb 9f3f f30e 0240
000002e0: cace 10bf c808 803f 0ab7 7e3f 8165 1bbc
000002f0: 9c53 95bf e172 c33d 61bd 92bf 280a 8ebf
00000300: f39e 69bf d0a1 b13f eba6 5cbe 6407 933f
00000310: a38b 153e 84c6 58bf 3044 11bf d1be a4be
00000320: ed84 e63f 920c 933f f2b9 21c0 3bc7 b1be
00000330: 25bc fb3f f57e 10c0 8606 c0bf 6e25 d3bf
00000340: 9265 2fbf 9a74 05c0 d8c6 073b 4de6 4fbe
00000350: 3bda 5c3f 119c d4bf a9cf 0abe a524 8dbf
00000360: 41f4 0740 aa16 04c0 7ff2 0fc0 2068 78be
00000370: c8bc 25bf d914 c93e 023c 5bbf 8cbb 06c0
00000380: 5b59 14bf 8bcc b2bd f811 04c0 778f 4ebf
00000390: 94e8 ca3f ea4e ec3f f206 bbbf 5be0 653d
000003a0: 291b e83b 6f83 803e 32e8 29c0 c5f1 9b3f
000003b0: a684 eabf bfae 4b3f ac4d 713f ba90 6fbf
000003c0: 4baa ad3e 7e6f 48bf 4e45 92bf 509d bebe
000003d0: 04f9 363f 304b a5bf 9e88 11c0 01e3 9d3f
000003e0: 761d 1d3f 8ee3 2f40 b0cc 23bf 7f6a 29bf
000003f0: a9ff e03f a704 163f 612d 973f 9097 3cbe

submodules.PCE_pred.0.bias f4 [100]
-0.09887869 -0.50152045 -0.4782506 -0.9856694 0.6185116 0.040755462 -0.49502712 -0.6131788
-0.5365936 -0.63276744 -0.11596187 0.5112946 -0.70526075 -0.030340657 -0.01831189 0.11250587
-0.552671 0.10017986 0.44229132 -0.7302362 0.15681623 -0.60906917 0.69306904 -0.1245089
-0.5778849 -0.06819776 0.27738792 0.10998589 0.5980281 0.29979688 0.3173488 0.24087878
-0.18954425 -0.5745494 0.35340494 0.5268084 -0.08068113 -0.080157846 0.30244455 -0.27813768
0.5836509 -0.13116115 -0.07946851 -0.4936836 0.11645739 -0.12556443 -0.48057386 0.2050304
0.02547971 -0.59132 -0.6450849 0.41466266 -0.6377971 0.4413969 0.13840266 0.14554211
0.24305746 0.12124956 -0.47878388 -0.07959006 0.16119929 0.68311673 0.6922567 -0.39188218
-0.7663977 0.51608986 -0.7727336 -0.9588226 -0.6391673 -0.06818355 0.30410978 -0.051957674
-0.66164136 -0.6833579 0.22167554 0.28814483 0.35640344 0.052564055 -0.7180387 0.332936
-0.024918994 -0.27403852 -0.4821467 -0.42402402 -0.10355877 -0.17699572 -0.20181303 -0.19440413
0.1358218 0.58217096 -0.35404715 -0.62956333 -0.770227 -0.5313156 -0.5736408 -0.5170407
-0.6930725 -0.19004524 0.2059951 -0.51344717
00000000: e980 cabd a563 00bf 43dd f4be d454 7cbf
00000010: c756 1e3f 33ef 263d 3274 fdbe 49f9 1cbf
00000020: 335e 09bf 0cfd 21bf 6b7d edbd 34e4 023f
00000030: f88b 34bf f88c f8bc d102 96bc 7a69 e63d
00000040: d97b 0dbf 192b cd3d 0274 e23e c2f0 3abf
00000050: 6f94 203e f5eb 1bbf f96c 313f 86fe febd
00000060: 44f0 13bf 44ab 8bbd ca05 8e3e 4840 e13d
00000070: 5f18 193f fa7e 993e 8b7b a23e eda8 763e
00000080: e317 42be ab15 13bf 7ef1 b43e eadc 063f
00000090: 263c a5bd cc29 a4bd 03da 9a3e 1068 8ebe
000000a0: 256a 153f 1c4f 06be 63c0 a2bd 19c4 fcbe
000000b0: 3681 ee3d f693 00be c70d f6be 7df3 513e
000000c0: d3ba d03c bf60 17bf 4924 25bf aa4e d43e
000000d0: ac46 23bf c6fe e13e 6db9 0d3e fe08 153e
000000e0: 0ee4 783e b051 f83d 2923 f5be 1d00 a3bd
000000f0: 6d11 253e bde0 2e3f bc37 313f c8a4 c8be
00000100: a432 44bf 771e 043f dfd1 45bf 6675 75bf
00000110: 78a0 23bf d1a3 8bbd 47b4 9b3e 92d1 54bd
00000120: 5461 29bf 8bf0 2ebf eafe 623e b887 933e
00000130: 837a b63e 684d 573d 62d1 37bf 9676 aa3e
00000140: eb22 ccbc c74e 8cbe efdb f6be ad19 d9be
00000150: 9f16 d4bd 5e3e 35be 13a8 4ebe e011 47be
00000160: df14 0b3e 2809 153f ab45 b5be 102b 21bf
00000170: 992d 45bf 4d04 08bf 20da 12bf c85c 04bf
00000180: 336d 31bf 389b 42be 61f0 523e 4671 03bf

submodules.PCE_pred.3.weight f4 [1, 100]
1.4375165 -1.6524228 -0.27969617 -0.70987546 0.17730702 0.5247402 -0.8088633 -1.0785567
-0.5756509 -1.5158066 0.30650115 0.19119607 -0.22092214 0.58283657 0.2889787 0.56703717
-2.1859348 0.6801635 0.563048 -1.3241367 0.4626894 -2.9252002 0.26685366 2.5562882
-0.85120374 0.50894797 0.83070797 1.1597062 0.20343271 0.355082 0.14216462 0.7452544
-1.2579582 -0.73389965 0.34891567 0.20138298 0.6059367 0.47740483 0.17653012 -0.9856665
0.31153634 -1.0714034 0.5204629 -1.2979093 0.19630186 0.48979536 -1.5036463 0.4095207
0.2589986 -1.2189019 -0.9240782 0.28638414 -0.36944583 0.16959365 0.83283645 0.42692262
0.15880492 0.16823815 -3.8053062 1.8955373 0.97501713 0.14200033 0.27799764 -1.8258944
-1.4254602 0.19138247 -2.1874392 -0.5365576 -0.3335007 0.402319 0.19763327 1.4520175
-0.666891 -0.58601457 1.0273743 0.22933865 0.24172473 0.9676714 -1.1866169 0.3626699
0.63376856 0.20325015 -1.0073813 -2.5039914 -2.7963479 0.3969965 -1.0330154 -0.79676026
0.31884962 0.15465072 -3.7846723 -1.5218502 -0.5248907 -2.2969222 -1.3170117 -4.0393653
-0.6521501 0.26863742 0.330585 -0.57901347
00000000: 8a00 b83f 9782 d3bf 5634 8fbe 66ba 35bf
00000010: f98f 353e 6055 063f aa11 4fbf 250e 8abf
00000020: db5d 13bf f305 c2bf b8ed 9c3e e7c8 433e
00000030: 6a39 62be c734 153f 04f5 933e 5929 113f
00000040: 5be6 0bc0 321f 2e3f ea23 103f 507d a9bf
00000050: a0e5 ec3e 7b36 3bc0 0ba1 883e 3a9a 2340
00000060: 7de8 59bf 6a4a 023f 47a9 543f 4171 943f
00000070: aa50 503e 4fcd b53e 9a93 113e fec8 3e3f
00000080: c604 a1bf d9e0 3bbf 13a5 b23e 5737 4e3e
00000090: ab1e 1b3f 686e f43e 50c4 343e a454 7cbf
000000a0: b181 9f3e bf23 89bf 0e3d 053f e421 a6bf
000000b0: 5b03 493e 75c6 fa3e 7b77 c0bf b2ac d13e
000000c0: 779b 843e fa04 9cbf 6490 6cbf f1a0 923e
000000d0: 0128 bdbe f5a9 2d3e c534 553f 9a95 da3e
000000e0: c29d 223e 9f46 2c3e 238a 73c0 f7a0 f23f
000000f0: b99a 793f 8968 113e b555 8e3e e8b6 e9bf
00000100: 7b75 b6bf c4f9 433e 01ff 0bc0 d75b 09bf
00000110: 9bc0 aabe c2fc cd3e 6060 4a3e b6db b93f
00000120: 5eb9 2abf 0d05 16bf 0081 833f c0d7 6a3e
00000130: b086 773e 50b9 773f 10e3 97bf deaf b93e
00000140: a83e 223f cf20 503e dff1 80bf 6541 20c0
00000150: 5df7 32c0 2043 cb3e d939 84bf 7bf8 4bbf
00000160: 4240 a33e c25c 1e3e 1238 72c0 fdcb c2bf
00000170: 3d5f 06bf c600 13c0 d793 a8bf 7b42 81c0
00000180: 4ff3 26bf d88a 893e 7042 a93e 3a3a 14bf

submodules.latents_pred.0.weight f4 [12, 18]
1.4373628 0.5023762 -0.25215894 -0.29213816 0.16438876 -0.18504226 1.4192234 -0.4143693
0.018337995 0.049066316 -0.14296322 -0.3095711 -1.711617 -1.1639645 -0.4845865 0.7883899
1.5878217 -0.42240945 0.94041115 0.38847572 -0.2513439 -0.32603738 -0.08093371 -0.30354065
0.83472836 -0.23356864 -0.0158256 0.08333851 -0.28890756 -0.329399 -1.3151021 -0.7101682
-0.86778355 0.7707818 1.4915321 -0.37258202 -2.2251158 -0.2991353 -0.043164063 0.042558007
-0.38836175 -0.32446766 -1.7881324 0.43089777 -0.292633 -0.022076676 -0.09693933 -0.06863191
1.2868551 1.412667 0.7772397 -0.9415478 -0.9597174 0.24893598 0.097462535 0.84477115
-0.0873125 1.0069528 -0.19249482 0.2373539 1.4661385 -0.26064897 -0.02550497 -0.099553235
0.87392694 0.9470389 -0.80703384 1.5950555 -0.15617134 -2.298544 -1.1241534 0.47593585
-0.01424931 0.7442912 -0.15680663 0.8167537 -0.34978163 0.15799743 1.0898184 -0.21951464
-0.012893435 -0.03558384 0.7142783 0.8100534 -0.6828457 1.5374986 -0.19608836 -1.8880802
-0.8905835 0.36862594 0.26513183 -0.9575336 0.66558677 -0.94716495 0.028989905 -0.62147564
-1.8287394 0.10430677 0.11573245 0.21515606 -0.24603947 -0.993269 0.21866988 -2.0282226
0.6669248 1.9332361 0.91971457 -0.60037786 -2.0123637 -0.23905596 -0.039000243 0.097145036
-0.40265107 -0.26512673 -1.5264055 0.47359815 -0.17271075 0.0056971977 0.027709365 0.0027824943
1.6866783 1.3075615 0.85527134 -0.86498404 -1.3181846 0.15077053 -0.6780145 0.3342481
0.34302345 0.20060834 -0.86175 -1.3892092 0.34476912 0.5837203 0.14981546 0.08276861
-0.36446846 -0.01117306 1.1642786 0.7553884 -2.8299906 -0.11612731 -0.179369 0.17154661
0.4778243 0.7428349 0.409752 -0.28566262 -0.005598041 0.29699588 -0.8039172 1.475334
-0.6460086 -0.14648417 0.11793555 -0.29605424 -1.7163279 -1.0412946 -1.319289 -1.4270856
1.2448944 1.6572796 -0.19590414 -1.2372565 -0.07226805 0.50538766 -0.6823727 -0.037636258
-0.36080176 -2.4121664 0.9408366 0.53362876 0.5028921 0.593117 0.6431408 1.611657
1.5697064 1.6894321 -1.0847551 -1.4528676 1.4697161 0.8595146 -0.05707442 0.11016928
-0.32219964 0.5259922 0.3546723 -0.160711 -0.22592351 0.10780093 0.9055233 0.24490221
-3.1739647 -0.24068609 0.17597741 -1.3126976 1.0975841 0.47699165 -0.42359278 -0.8832843
-0.35066223 0.35611176 -0.09700973 -0.22611596 0.6026644 -1.7066566 0.713663 0.20119148
-0.013926773 0.4088127 1.4591981 1.2492579 1.3839496 1.4595907 -1.2209486 -1.6704209
00000000: 81fb b73f ba9b 003f fa1a 81be 2293 95be
00000010: 8755 283e b87b 3dbe 1da9 b53f 3628 d4be
00000020: 9039 963c c3f9 483d f364 12be 1a80 9ebe
00000030: 4416 dbbf cafc 94bf b91b f8be ecd3 493f
00000040: be3d cb3f 0d46 d8be c9be 703f 4ae6 c63e
00000050: 26b0 80be 5fee a6be 93c0 a5bd ae69 9bbe
00000060: c2b0 553f 9e2c 6fbe b0a4 81bc 61ad aa3d
00000070: b1eb 93be fca6 a8be 4455 a8bf 95cd 35bf
00000080: 1027 5ebf f551 453f 86ea be3f 12c3 bebe
00000090: 4c68 0ec0 4328 99be cdcc 30bd 4e51 2e3d
000000a0: 5ad7 c6be a020 a6be 86e1 e4bf a29e dc3e
000000b0: fed3 95be 25da b4bc 2188 c6bd e38e 8cbd
000000c0: abb7 a43f 46d2 b43f 2ef9 463f 4709 71bf
000000d0: 0ab0 75bf 13e9 7e3e 709a c73d ec42 583f
000000e0: e5d0 b2bd d4e3 803f 5d1d 45be e70c 733e
000000f0: 6daa bb3f c873 85be cdef d0bc 91e2 cbbd
00000100: adb9 5f3f 2471 723f c599 4ebf c72a cc3f
00000110: 61eb 1fbe 581b 13c0 42e4 8fbf ddad f33e
00000120: f075 69bc de89 3e3f eb91 20be c516 513f
00000130: 9416 b3be 14ca 213e 2b7f 8b3f 72c8 60be
00000140: fc3e 53bc 5cc0 11bd f1da 363f a95f 4f3f
00000150: face 2ebf c1cc c43f 63cb 48be 9dac f1bf
00000160: 48fd 63bf 8abc bc3e 5cbf 873e ec20 75bf
00000170: e563 2a3f 6779 72bf 3d7c ed3c 0719 1fbf
00000180: 2214 eabf ca9e d53d 2205 ed3d df51 5c3e
00000190: c5f1 7bbe e146 7ebf ffea 5f3e 66ce 01c0
000001a0: 95bb 2a3f 4874 f73f 6a72 6b3f 5db2 19bf
000001b0: 91ca 00c0 16cb 74be b8be 1fbd faf3 c63d
000001c0: 4828 cebe b1be 87be 4161 c3bf 757b f23e
000001d0: 16db 30be 8faf ba3b c0fe e23c 825a 363b
000001e0: 13e5 d73f 2d5e a73f 10f3 5a3f 986f 5dbf
000001f0: 46ba a8bf 9763 1a3e 5c92 2dbf 9122 ab3e
00000200: c5a0 af3e 466c 4d3e a69b 5cbf 9bd1 b1bf
00000210: 9485 b03e b26e 153f 3969 193e 9782 a93d
00000220: 9c9b babe 360f 37bc 1507 953f 2261 413f
00000230: 911e 35c0 28d4 edbd 82ac 37be eaa9 2f3e
00000240: 63a5 f43e 6e2a 3e3f 04cb d13e 5f42 92be
00000250: c66f b7bb d80f 983e 85cd 4dbf bfd7 bc3f
00000260: d260 25bf f2ff 15be 3288 f13d 6c94 97be
00000270: a2b0 dbbf 2449 85bf 76de a8bf beaa b6bf
00000280: b358 9f3f bd21 d43f 189b 48be 6c5e 9ebf
00000290: 4501 94bd 1661 013f faaf 2ebf 7a28 1abd
000002a0: 02bb b8be ef60 1ac0 abda 703f e59b 083f
000002b0: 89bd 003f 84d6 173f e0a4 243f c74a ce3f
000002c0: 24ec c83f 503f d83f 41d9 8abf 91f7 b9bf
000002d0: a81f bc3f 2609 5c3f dec6 69bd 6ea0 e13d
000002e0: 5af7 a4be 6da7 063f 9c97 b53e 6d91 24be
000002f0: 7e58 67be bcc6 dc3d 60d0 673f a5c7 7a3e
00000300: 3d22 4bc0 6a76 76be 6c33 343e 7a06 a8bf
00000310: a37d 8c3f 4038 f43e 27e1 d8be eb1e 62bf
00000320: 008a b3be 4854 b63e 0aad c6bd f18a 67be
00000330: 3748 1a3f b973 dabf 9eb2 363f 2405 4e3e
00000340: 1f2d 64bc e64f d13e 01c7 ba3f afe7 9f3f
00000350: 4325 b13f ded3 ba3f 0b48 9cbf 5ad0 d5bf

submodules.latents_pred.0.bias f4 [12]
-0.32190046 -0.24193189 0.31269267 -0.45022646 -0.44804257 0.81719273 0.21489948 0.00557458
0.15231216 0.26447362 -0.2763448 -0.07872947
00000000: 23d0 a4be febc 77be 4119 a03e 1584 e6be
00000010: d665 e5be 8b33 513f 9c0e 5c3e f7aa b63b
00000020: b8f7 1b3e 1669 873e 117d 8dbe eb3c a1bd

submodules.etm_pred.0.weight f4 [7, 18]
-2.5801768 -10.51004 -1.9394 -2.13031 -6.1264043 -1.2511071 3.5594149 4.8510194
-10.496561 2.2391875 6.3233905 4.7654533 0.945079 0.5621742 0.11899508 1.7100226
-1.4860988 5.5976167 0.80297214 -0.4842114 -2.0141573 -10.98337 0.22758801 0.738089
-3.467278 -12.485547 4.6858296 -10.068308 -2.2946875 -5.5017343 8.219705 -7.8836865
-5.7756014 -10.69854 1.2137643 -2.303745 -0.45382836 5.3397074 -4.048717 -2.6782806
11.517132 -3.94551 -2.308473 4.3640924 7.382463 15.467797 -0.1063747 2.7154634
-2.2706482 6.400395 -3.466442 -0.0668276 0.39266506 0.8376954 -12.60444 0.58947444
0.06806032 10.981952 0.34605125 2.2594795 0.99102145 -0.61020124 -2.4613595 3.2800899
2.317201 10.248891 -5.3174763 -10.495318 0.71999156 -3.6532726 9.314534 -8.924539
-0.0750906 3.9859369 0.41706917 1.3326714 -4.3356895 -2.653186 3.6908162 -1.3263155
15.154977 5.713946 -9.516923 -11.308817 -9.937263 -2.7128756 -1.6167998 -0.34993145
-14.483379 2.5879705 -2.4899273 -0.60746986 -1.3853214 5.5921273 -1.5588864 2.103686
-4.088655 4.6092076 5.242312 -15.489904 16.385313 -14.296775 -0.8282516 3.9658144
-2.9365685 8.3893 2.8503296 -1.7395499 7.7901874 7.327292 8.555804 1.0877395
-3.6919982 1.4774567 -2.0970778 1.9010984 -7.5573874 3.8041203 -8.245006 -5.9023576
3.4379501 9.356871 7.548533 1.8273805 8.91796 -0.051770423
00000000: 9e21 25c0 2029 28c1 423e f8bf 0057 08c0
00000010: 810b c4c0 4724 a0bf 74cd 6340 8d3b 9b40
00000020: eaf1 27c1 d94e 0f40 3759 ca40 987e 9840
00000030: b3f0 713f a6ea 0f3f b1b3 f33d 05e2 da3f
00000040: 7c38 bebf ad1f b340 958f 4d3f 8eea f7be
00000050: f4e7 00c0 e2bb 2fc1 d50c 693e 67f3 3c3f
00000060: e2e7 5dc0 cdc4 47c1 51f2 9540 ca17 21c1
00000070: 29dc 12c0 350e b0c0 e983 0341 2947 fcc0
00000080: bad1 b8c0 382d 2bc1 a15c 9b3f 8f70 13c0
00000090: 315c e8be e2de aa40 178f 81c0 f368 2bc0
000000a0: 2c46 3841 3c83 7cc0 06be 13c0 a5a6 8b40
000000b0: 233d ec40 197c 7741 fbda d9bd 27ca 2d40
000000c0: 4d52 11c0 09d0 cc40 30da 5dc0 e9dc 88bd
000000d0: 650b c93e 3573 563f c9ab 49c1 cce7 163f
000000e0: 3663 8b3d 13b6 2f41 a12d b13e 509b 1040
000000f0: 95b3 7d3f 2636 1cbf ea86 1dc0 feec 5140
00000100: 054d 1440 75fb 2341 c428 aac0 d3ec 27c1
00000110: 5e51 383f 38cf 69c0 5508 1541 e9ca 0ec1
00000120: 1ac9 99bd 9719 7f40 178a d53e fa94 aa3f
00000130: f8bd 8ac0 cdcd 29c0 5536 6c40 b5c4 a9bf
00000140: c97a 7241 a5d8 b640 5145 18c1 eaf0 34c1
00000150: 07ff 1ec1 c19f 2dc0 4cf3 cebf 372a b3be
00000160: ecbb 67c1 4fa1 2540 f85a 1fc0 2583 1bbf
00000170: 3652 b1bf b5f2 b240 9789 c7bf cba2 0640
00000180: 43d6 82c0 a17e 9340 05c1 a740 a6d6 77c1
00000190: 1f15 8341 97bf 64c1 4c08 54bf e7cf 7d40
000001a0: bdf0 3bc0 933a 0641 cd6b 3640 92a9 debf
000001b0: 3749 f940 2d79 ea40 93e4 0841 0c3b 8b3f
000001c0: b349 6cc0 4d1d bd3f 8636 06c0 3157 f33f
000001d0: 1ed6 f1c0 b576 7340 8beb 03c1 1de0 bcc0
000001e0: 6007 5c40 beb5 1541 958d f140 9be7 e93f
000001f0: f7af 0e41 390d 54bd

submodules.etm_pred.0.bias f4 [7]
-2.5500975 2.1197703 3.327597 -3.3146768 -0.9774063 1.2788976 0.0350716
00000000: cc34 23c0 51aa 0740 59f7 5440 aa23 54c0
00000010: 4d37 7abf ebb2 a33f 3da7 0f3d

submodules.htm_pred.0.weight f4 [4, 18]
-8.456541 0.39416212 2.4265919 -12.530624 2.0610719 -1.1813354 4.5125494 -1.6048846
8.720909 5.501771 2.6350236 8.416014 -2.1559262 -1.5067878 1.7099624 -0.49386203
8.52363 -1.6164167 7.363148 -13.345199 -10.585141 2.1583 2.824178 -7.0694394
-5.448848 -0.74947 1.0383217 -0.13145779 -2.1224236 -3.089795 8.943009 2.4807703
-2.1381345 -8.478628 -3.9677422 7.317528 2.4089174 7.175063 4.515474 -2.7333508
1.419117 1.8307498 0.55765986 -2.4256954 -11.915161 -0.6990203 3.61187 -3.96465
-7.3984337 1.4926858 -4.565625 7.8491373 -10.731772 2.1196666 -1.7493855 0.7912146
3.2506971 14.640137 -6.542423 3.9036078 -1.0159836 1.9375683 11.04977 -4.2577786
-4.2700686 -7.306913 0.73026854 -2.8034582 4.774267 -1.5884945 9.616422 -7.9772177
00000000: fe4d 07c1 9ecf c93e 484d 1b40 707d 48c1
00000010: 9ae8 0340 0036 97bf ce66 9040 dc6c cdbf
00000020: d888 0b41 820e b040 3aa4 2840 fea7 0641
00000030: b2fa 09c0 6cde c0bf 0ce0 da3f 7cdb fcbe
00000040: ca60 0841 bee6 cebf e99e eb40 ef85 55c1
00000050: bd5c 29c1 9621 0a40 55bf 3440 d938 e2c0
00000060: f65c aec0 44dd 3fbf bae7 843f df9c 06be
00000070: cad5 07c0 34bf 45c0 9116 0f41 f1c4 1e40
00000080: 32d7 08c0 76a8 07c1 7def 7dc0 3029 ea40
00000090: b42b 1a40 1e9a e540 c37e 9040 38ef 2ec0
000000a0: a0a5 b53f 0256 ea3f ccc2 0e3f 983e 1bc0
000000b0: 80a4 3ec1 fff2 32bf e128 6740 d3bc 7dc0
000000c0: f8bf ecc0 5410 bf3f 9a19 92c0 222c fb40
000000d0: 57b5 2bc1 9ea8 0740 ddeb dfbf 0a8d 4a3f
000000e0: 6c0b 5040 003e 6a41 875b d1c0 b6d4 7940
000000f0: c00b 82bf 3d02 f83f dccb 3041 b93f 88c0
00000100: 67a4 88c0 3bd2 e9c0 e1f2 3a3f dc6b 33c0
00000110: ccc6 9840 ca53 cbbf dddc 1941 5e45 ffc0

submodules.htm_pred.0.bias f4 [4]
0.050676543 2.4434547 -0.79131305 -1.033066
00000000: 3592 4f3d 9061 1c40 7e93 4abf 823b 84bf

exp_avg f4 [18, 23]
0.088822015 0.10232578 -0.09589033 0.15901637 0.1359297 -0.18796965 -0.08950914 0.25510713
-0.033274285 -0.0038439804 0.026675697 0.02497661 -0.118169755 -0.024789138 -0.029953223 0.010620685
-0.02136745 0.025525397 0.007828258 0.006541276 -0.15438399 -0.002225767 0.013861201 -0.16133657
-0.14077094 0.18087873 -0.0012750133 0.018472662 0.038535353 0.16689162 -0.15974769 0.059849076
-0.061754998 -0.015288431 -0.057602085 0.02485925 0.051501535 0.07263416 0.011976562 -0.0076823607
-0.008019731 -0.02487803 0.08717449 0.075149745 -0.00088593655 -0.04037414 -0.48870018 -0.3565296
0.5241814 0.027019313 0.014796469 -0.06741797 0.517707 0.26511884 -0.09579781 0.08387045
-0.43557686 0.08913235 -0.02560797 0.024694618 0.029489307 0.020460134 -0.01567038 -0.025295394
0.07918571 -0.040803086 0.07985447 0.023804992 0.04814341 -0.27244937 -0.15210216 0.3006124
0.07734646 0.02779397 -0.15256879 0.2884073 0.34882358 0.055050217 -0.053752795 -0.25767136
-0.059310485 0.04315209 0.036079235 -0.116539516 0.008388447 -0.039252892 0.06186085 -0.05166852
-0.17553607 0.16460235 -0.050212976 0.0010335535 -0.24474305 -0.16547757 0.25881368 -0.096521296
-0.13743027 0.040705144 0.25799957 0.09673437 -0.032149132 0.015350202 -0.28516248 0.024136556
-0.020890107 0.027870452 1.1898416e-05 -0.010010143 -0.011962436 -0.05633906 -0.12285841 -0.020565532
0.0026226696 -0.036886543 -0.16037463 -0.23214337 -0.25026733 0.24960345 -0.23134774 -0.2275364
0.28730732 0.23131786 -0.5483157 0.36526808 -0.41100487 0.05514964 -0.37718433 -0.014724414
0.12385951 -0.12464036 -0.0105642285 -0.018220669 -0.275996 0.0100975 -0.037099343 0.003022347
0.056284804 -0.32304984 0.22045192 0.20218042 -0.21940117 0.22343539 0.20898144 -0.22495054
-0.23185876 0.19180536 0.20670116 -0.24938177 0.28790456 -0.20990981 0.033171814 0.045466427
0.038054228 0.03203611 -0.0006891261 0.056575745 0.28082523 0.19765265 -0.0842858 0.063272424
0.2849108 0.542679 0.37953484 -0.58382535 0.09683212 0.09605036 -0.040570047 -0.57314044
-0.2062398 0.075204514 -0.07879096 0.48894978 -0.057631526 -0.057611596 0.032956086 -0.0653661
0.003260966 0.028528897 0.08514456 -0.06276526 -0.06047941 -0.046252955 -0.05782009 0.08929257
-0.1775864 -0.12307116 0.18569554 -0.0657283 -0.06588532 0.047343463 0.18773136 0.08022191
0.015499719 0.0068464414 -0.16952391 -0.011899921 -0.06999934 0.02601392 0.06444967 0.013921733
-0.00509058 -0.004270013 -0.13759674 0.08129324 -0.029242286 -0.07181769 -0.1017292 0.18924895
0.12098732 -0.2141022 0.015447353 0.040863138 0.025337996 -0.1987939 -0.13139544 -0.11706033
0.1286709 0.14423294 0.10928566 0.046326946 -0.019214408 0.11017874 -0.006998673 0.015239387
-0.07499098 0.11313706 0.09919929 0.04330974 0.040780753 -0.00026323355 -0.34245005 -0.23468089
0.3501777 0.055831384 0.056086175 -0.081894785 0.36012712 0.19447273 -0.0053611672 0.019824522
-0.23425218 0.009699087 0.113633305 0.006130322 -0.017139422 0.018829102 0.028061587 0.008232127
0.003676461 -0.023995323 0.13742629 -0.03468236 0.06541563 -0.22774887 -0.18234682 0.21880133
00000000: 51e8 b53d 2e90 d13d 2662 c4bd 30d5 223e
00000010: 2831 0b3e 1e7b 40be 9150 b7bd 679d 823e
00000020: 9e4a 08bd 4aeb 7bbb fe86 da3c bf9b cc3c
00000030: fc02 f2bd 9712 cbbc 7660 f5bc 6202 2e3c
00000040: ca0a afbc a31a d13c 1842 003c 3358 d63b
00000050: d616 1ebe 2cde 11bb 171a 633c 6a35 25be
00000060: 4226 10be 4638 393e 591e a7ba fb53 973c
00000070: 3fd7 1d3d a3e5 2a3e e694 23be 4e24 753d
00000080: cff2 7cbd 547c 7abc 2af0 6bbd a0a5 cb3c
00000090: 46f3 523d 38c1 943d 5839 443c 50bc fbbb
000000a0: 3165 03bc 03cd cbbc 8a88 b23d 1ce8 993d
000000b0: 323e 68ba 5b5f 25bd e936 fabe 0c8b b6be
000000c0: c130 063f 9b57 dd3c e46c 723c 6f12 8abd
000000d0: 7288 043f a8bd 873e a431 c4bd 45c4 ab3d
000000e0: ee03 dfbe 068b b63d cec7 d1bc 5e4c ca3c
000000f0: 8f93 f13c 039c a73c 2b5f 80bc 4938 cfbc
00000100: 1e2c a23d 2321 27bd be8a a33d b002 c33c
00000110: 0632 453d 7c7e 8bbe abc0 1bbe dee9 993e
00000120: d267 9e3d 2eb0 e33c fe3a 1cbe 1faa 933e
00000130: 0199 b23e 567c 613d e42b 5cbd 80ed 83be
00000140: 8def 72bd 3fc0 303d d2c7 133d 45ac eebd
00000150: b26f 093c a4c7 20bd cd61 7d3d 5fa2 53bd
00000160: babf 33be 858d 283e 1fac 4dbd 4d78 873a
00000170: ec9d 7abe f472 29be 3a83 843e f5ac c5bd
00000180: 85ba 0cbe 70ba 263d 8518 843e ab1c c63d
00000190: cfae 03bd 6a7f 7b3c d100 92be 07ba c53c
000001a0: bb21 abbc 9350 e43c 4f9f 4737 9501 24bc
000001b0: 18fe 43bc c9c3 66bd 319d fbbd 0c79 a8bc
000001c0: 18e1 2b3b 5816 17bd 3f39 24be feb6 6dbe
000001d0: 0a23 80be 0c98 7f3e 6ce6 6cbe 4dff 68be
000001e0: f219 933e 97de 6c3e 6b5e 0cbf 6b04 bb3e
000001f0: 3b6f d2be 97e4 613d 4e1e c1be ab3e 71bc
00000200: 0eaa fd3d 7243 ffbd 9615 2dbc 8343 95bc
00000210: 594f 8dbe fc6f 253c 7bf5 17bd 9212 463b
00000220: e58a 663d ca66 a5be 26be 613e 6208 4f3e
00000230: b3aa 60be 3fcc 643e 3bff 553e 6f59 66be
00000240: 626c 6dbe a068 443e 78a9 533e ef5d 7fbe
00000250: 3a68 933e 99f2 56be 2bdf 073d 013b 3a3d
00000260: c0de 1b3d 4c38 033d 78a6 34ba f8bb 673d
00000270: 53c8 8f3e 7565 4a3e 099e acbd f994 813d
00000280: d4df 913e 03ed 0a3f 6452 c23e 9475 15bf
00000290: eb4f c63d 0db6 c43d c72c 26bd 55b9 12bf
000002a0: 8730 53be d304 9a3d 285d a1bd a057 fa3e
000002b0: 090f 6cbd 23fa 6bbd f6fc 063d a9de 85bd
000002c0: eeb5 553b 6fb5 e93c 4560 ae3d 138b 80bd
000002d0: 42b9 77bd bd73 3dbd c2d4 6cbd 06df b63d
000002e0: 36d9 35be bb0c fcbd f926 3e3e 8f9c 86bd
000002f0: e2ee 86bd 38eb 413d a63c 403e 624b a43d
00000300: 89f2 7d3c 1d58 e03b ad97 2dbe e3f7 42bc
00000310: d05b 8fbd 251b d53c 30fe 833d fb17 643c
00000320: e1ce a6bb 77eb 8bbb 29e6 0cbe 127d a63d
00000330: 858d efbc 2715 93bd 6657 d0bd 7aca 413e
00000340: 33c8 f73d 9b3d 5bbe e516 7d3c 1b60 273d
00000350: a191 cf3c a190 4bbe 878c 06be 54bd efbd
00000360: 4ec2 033e cdb1 133e 29d1 df3d 53c1 3d3d
00000370: 8967 9dbc 64a5 e13d 2055 e5bb 9fae 793c
00000380: df94 99bd 67b4 e73d ff28 cb3d 8e65 313d
00000390: b809 273d 9c02 8ab9 9d55 afbe 3050 70be
000003a0: 7e4a b33e 73af 643d 9eba 653d 74b8 a7bd
000003b0: 9562 b83e dc23 473e bbac afbb 0967 a23c
000003c0: cedf 6fbe ebe8 1e3c 94b8 e83d dee0 c83b
000003d0: f967 8cbc 7d3f 9a3c 6ae1 e53c 0be0 063c
000003e0: c8f0 703b d791 c4bc 7ab9 0c3e 170f 0ebd
000003f0: a1f8 853d 0037 69be 20b9 3abe 750d 603e

exp_avg_sq f4 [18, 23]
0.13017961 0.07643451 0.17418781 0.2980484 0.26016158 0.35463583 0.15005305 0.48550636
0.37523755 0.3421515 0.17249581 0.36406514 0.06728323 0.0400272 0.026834307 0.025657507
0.016868958 0.062289387 0.09254991 0.009604077 0.11855375 0.028915694 0.20101914 0.3590239
0.21056654 0.41437188 0.20473397 0.1813535 0.23614238 0.39370972 0.27627122 0.21285072
0.19905373 0.24745187 0.20671663 0.03680095 0.049725898 0.030328732 0.010696845 0.023348952
0.027361184 0.040192697 0.04121293 0.07307514 0.01542873 0.09597362 1.2592939 0.73805815
1.4169322 0.21709017 0.20818709 0.24066453 1.3806481 0.36049956 0.6356588 0.51563746
0.79155225 0.60995704 0.064151235 0.027669957 0.032237053 0.020737952 0.011475418 0.009586508
0.1271768 0.017157655 0.107273385 0.018479671 0.15197101 0.14443915 0.10399327 0.16077058
0.36027074 0.42717648 0.27976844 0.15446347 0.28870654 0.19547918 0.209806 0.27803868
0.19786009 0.013682256 0.06344791 0.09343421 0.018465118 0.007228498 0.02457462 0.055325873
0.12452872 0.03866192 0.029474847 0.080546744 0.40090314 0.2692092 0.43026987 0.38644478
0.35799044 0.4191208 0.4248398 0.4098752 0.44958717 0.451465 0.35688522 0.45305145
0.02745007 0.03797344 0.010786377 0.016014246 0.04089045 0.072199844 0.25467315 0.007830156
0.06445786 0.03057734 0.38527626 0.54658866 0.44555065 0.66693854 0.63090456 0.5293579
0.8794189 0.5996807 2.8332844 0.46047613 0.58195037 0.37992844 0.485873 0.19873872
0.06604426 0.052896507 0.10165995 0.020480085 0.22557002 0.67933637 0.016398944 0.28022295
0.15311934 0.8608419 0.45723954 0.4114952 0.45078382 0.6007489 0.4957526 0.7408221
0.458246 0.9342634 0.6359486 0.74177223 0.40703735 0.6622691 0.035302833 0.065797
0.082529485 0.05238618 0.025283633 0.062117383 0.5323229 0.12645489 0.035803884 0.0672272
0.63519245 0.34869385 0.2324014 0.3826465 0.35972252 0.39939147 0.2988172 0.3748209
0.34105512 0.1188535 0.14905442 0.34008875 0.12498121 0.021647125 0.028453149 0.016825542
0.024383288 0.015127882 0.022990093 0.097962 0.015257446 0.049015306 0.02213428 0.15034907
0.32566682 0.22124343 0.3504679 0.25231305 0.27929845 0.21255168 0.34411627 0.19131249
0.1850143 0.18411203 0.27948043 0.18644068 0.023885673 0.034570526 0.026436148 0.0096033225
0.016052848 0.0149953505 0.04287385 0.03728343 0.0363364 0.021480879 0.073808976 0.22652213
0.15011556 0.2635561 0.41802424 0.47468877 0.3495073 0.24822335 0.3700235 0.41774765
0.39491686 0.38222075 0.4168656 0.028535536 0.02296714 0.068587475 0.027131123 0.021044204
0.06818138 0.10750785 0.056338087 0.058475867 0.024835559 0.20296502 0.20357497 0.14495996
0.21974212 0.24843131 0.2515317 0.24315706 0.21440463 0.25652534 0.15509894 0.17447993
0.20751138 0.15819132 0.020519001 0.013594233 0.00731453 0.025798745 0.045882065 0.017770007
0.102725096 0.0073109483 0.02777183 0.011779798 0.20040078 0.22071296 0.17118953 0.2632779
00000000: ce4d 053e b289 9c3d 4a5e 323e cd99 983e
00000010: e633 853e d492 b53e 82a7 193e 4a94 f83e
00000020: 231f c03e 7b2e af3e bea2 303e bf66 ba3e
00000030: cacb 893d 90f3 233d 9fd3 db3c b12f d23c
00000040: c530 8a3c 2823 7f3d cf8a bd3d 6b5a 1d3c
00000050: 4fcc f23d 9be0 ec3c f6d7 4d3e fbd1 b73e
00000060: c19e 573e 8d28 d43e c8a5 513e bbb4 393e
00000070: 4fcf 713e 5294 c93e 6c73 8d3e 8af5 593e
00000080: bed4 4b3e 0664 7d3e 86ad 533e 98bc 163d
00000090: 62ad 4b3d f673 f83c d241 2f3c 4d46 bf3c
000000a0: 9024 e03c 19a1 243d e4ce 283d 6ba8 953d
000000b0: c9c8 7c3c d18d c43d 8b30 a13f 61f1 3c3f
000000c0: 095e b53f e34c 5e3e ff2e 553e c370 763e
000000d0: 14b9 b03f 6693 b83e 89ba 223f d100 043f
000000e0: 2ba3 4a3f 2526 1c3f b961 833d 1bac e23c
000000f0: 000b 043d a3e2 a93c 6403 3c3c bb10 1d3c
00000100: a33a 023e 368e 8c3c 26b2 db3d ae62 973c
00000110: 4a9e 1b3e dbe7 133e 6cfa d43d 0ba1 243e
00000120: 6875 b83e e0b6 da3e cf3d 8f3e ac2b 1e3e
00000130: 58d1 933e b22b 483e 62d7 563e 165b 8e3e
00000140: d69b 4a3e 8b2b 603c faf0 813d 6f5a bf3d
00000150: 2944 973c 09dd ec3b b750 c93c 629d 623d
00000160: ea08 ff3d f65b 1e3d 3c75 f13c b1f5 a43d
00000170: 2d43 cd3e cad5 893e 554c dc3e 17dc c53e
00000180: 864a b73e 0097 d63e 9a84 d93e 2adb d13e
00000190: 4a30 e63e 6c26 e73e a9b9 b63e 5cf6 e73e
000001a0: f8de e03c 0a8a 1b3d 58b9 303c 4f30 833c
000001b0: bf7c 273d 83dd 933d 8564 823e 0e4a 003c
000001c0: 7c02 843d 547d fa3c ee42 c53e 3ced 0b3f
000001d0: 371f e43e 7cbc 2a3f f682 213f 0084 073f
000001e0: 9921 613f ad84 193f 8854 3540 87c3 eb3e
000001f0: b3fa 143f fb85 c23e 59c4 f83e 2a82 4b3e
00000200: 3742 873d 02aa 583d 1833 d03d dac5 a73c
00000210: d4fb 663e fde8 2d3f 1457 863c 6279 8f3e
00000220: 51cb 1c3e 2260 5c3f 4d1b ea3e 80af d23e
00000230: 23cd e63e aeca 193f 49d3 fd3e 84a6 3d3f
00000240: 389f ea3e e32b 6f3f 87cd 223f c9e4 3d3f
00000250: 3367 d03e 788a 293f b499 103d 94c0 863d
00000260: 3805 a93d e492 563d 9f1f cf3c cc6e 7e3d
00000270: 5046 083f 647d 013e 18a7 123d 6aae 893d
00000280: f99b 223f 0088 b23e a2fa 6d3e 3eea c33e
00000290: 8d2d b83e 0a7d cc3e 91fe 983e 86e8 bf3e
000002a0: c79e ae3e 7769 f33d b9a1 183e 1d20 ae3e
000002b0: 26f6 ff3d 5055 b13c 9416 e93c b8d5 893c
000002c0: 76bf c73c f0da 773c b855 bc3c 4da0 c83d
000002d0: 5efa 793c 46c4 483d f352 b53c 1bf5 193e
000002e0: cdbd a63e a38d 623e 8770 b33e 2d2f 813e
000002f0: 3500 8f3e 26a7 593e 0230 b03e 6ce7 433e
00000300: 6374 3d3e dd87 3c3e 0f18 8f3e 4eea 3e3e
00000310: e3ab c33c d399 0d3d 9f90 d83c 4157 1d3c
00000320: 4381 833c 0faf 753c 7d9c 2f3d 83b6 183d
00000330: 7ad5 143d abf8 af3c 2929 973d 6bf5 673e
00000340: e5b7 193e d3f0 863e 4607 d63e 680a f33e
00000350: 9ff2 b23e 432e 7e3e b873 bd3e 05e3 d53e
00000360: 8b32 ca3e 70b2 c33e 686f d53e 5bc3 e93c
00000370: 9525 bc3c 9777 8c3d 1742 de3c e564 ac3c
00000380: aea2 8b3d 132d dc3d c4c2 663d 6484 6f3d
00000390: f173 cb3c 10d6 4f3e f575 503e 6270 143e
000003a0: 1404 613e c764 7e3e c3c8 803e 2afe 783e
000003b0: e38c 5b3e 4a57 833e 42d2 1e3e deaa 323e
000003c0: dd7d 543e e8fc 213e 7717 a83c 59ba 5e3c
000003d0: baae ef3b e457 d33c d5ee 3b3d 6892 913c
000003e0: 8961 d23d ae90 ef3b c081 e33c 0e00 413c
000003f0: dd35 4d3e 9402 623e 4f4c 2f3e 5ccc 863e

exp_avg f4 [18]
-0.12271292 0.10442958 0.094763875 -0.060113132 -0.19399136 -0.30084196 0.45228666 -0.0553654
-0.12090544 0.1687188 0.16019325 0.116584 0.22299263 0.19871028 -0.27937654 0.32198152
-0.14985864 -0.3050951
00000000: e950 fbbd 2ddf d53d 9013 c23d 3039 76bd
00000010: aca5 46be f507 9abe 1e92 e73e d4c6 62bd
00000020: 459d f7bd 9fc4 2c3e b309 243e 98c3 ee3d
00000030: 2e58 643e b57a 4b3e 710a 8fbe c3da a43e
00000040: 8b74 19be 6d35 9cbe

exp_avg_sq f4 [18]
0.38517645 0.2365676 0.30482152 0.27212805 0.50068194 1.3764029 0.91261035 0.23139781
0.18495476 0.35418016 0.25191095 0.46187338 0.768077 0.33553615 0.58318454 0.9917902
0.14103891 0.9352351
00000000: d935 c53e c73e 723e 9111 9c3e 5e54 8b3e
00000010: b12c 003f f82d b03f d5a0 693f 8cf3 6c3e
00000020: c864 3d3e 1a57 b53e 79fa 803e ab7a ec3e
00000030: b2a0 443f 65cb ab3e 954b 153f f6e5 7d3f
00000040: 816c 103e 916b 6f3f

exp_avg f4 [100, 18]
-0.0012461325 0.0032301054 0.0014307104 -0.0026964853 0.0020062022 0.003692035 0.00244749 0.00081322726
0.0023778267 0.0039776033 2.816738e-05 0.0020897742 -0.002478749 0.0003322808 0.003043712 0.00279648
-0.0007345472 -0.0035300064 -0.0017786009 0.0027187834 0.007614832 0.0018420804 0.0031957652 -0.0023933852
-0.0017777757 -0.003921465 0.0033746902 -8.3341474e-05 0.00092602294 -0.0005508318 0.0014672201 0.0027716788
-0.0018532404 0.00030199488 0.0001860377 0.000274515 7.603832e-05 -5.1024792e-05 0.0004362058 0.00012931312
-4.4722965e-05 -0.00023551208 -0.00014897069 -0.00045322577 7.022206e-05 -0.0006013058 0.00018823982 -0.00015778781
0.00013685985 6.57516e-05 -0.00025548166 -0.00027802412 0.00017281286 0.00028172 -0.00029376431 -0.0014562968
0.0022610463 -0.0016099248 0.001064346 -0.0025731572 -0.0025656573 -0.00012132609 -0.00038625638 0.0012641879
-0.00093485095 -0.00048977864 0.0012339895 -0.001951676 -0.0011825194 0.0020400048 0.00030150157 0.0004258586
0.0011743768 0.0010483237 -0.0029509414 -0.00030867188 -0.0021076235 0.0030004396 0.0030234624 0.0017782871
-0.0011686109 -3.352881e-05 -0.00059813977 0.00063057203 -0.0015926075 -1.5886593e-05 0.0011108412 0.00020525983
0.00010963812 -0.0020057575 0.00039437218 0.0016429009 -0.006902709 -0.0013081557 -0.004304587 0.0047909897
0.0059521133 0.0045906575 -0.0013373549 0.0018250315 -0.00074956287 0.0034222822 -0.0023216764 0.0016410204
0.00039158942 -0.0020212762 -0.00084135245 -0.0025667942 -0.00058743445 -0.0006635638 0.0016182252 -0.00028678187
-0.0018275039 -0.0024869747 -0.0010502781 0.0004479329 -0.0002773015 -0.00037731437 -0.001369111 -0.0001794921
0.0014638071 -0.0013697712 -0.002972052 0.002576799 0.00041799594 -0.0018560016 -0.0115131885 -0.005404822
0.0049584606 -0.0005612102 0.0042949948 -0.006441897 -0.013928386 0.00055700133 -4.5170065e-05 0.003881481
-0.0022877895 0.00053017854 0.0098250285 -0.001536702 0.00075681385 0.0030331807 -0.006903445 0.0047718994
0.00014087356 0.00036963043 0.00017131532 0.00019476467 -0.0006101539 0.00030281272 0.00029704822 0.00045635275
-0.000141773 -0.000102297774 -0.00036950794 -4.7475656e-05 -2.1338055e-05 4.4982935e-05 -0.0002643756 -0.00027773538
0.00024961922 -4.3575394e-05 -0.0015240177 -0.00017232627 -0.00044840598 0.00017501175 7.195008e-05 -3.2722925e-05
-0.00072126434 0.00010806764 0.00017176791 0.00038973696 9.291695e-05 0.000748649 0.00076310453 0.00030127136
5.3933687e-05 -0.0003938701 -0.00093426264 0.00041966353 1.3263408e-05 0.0026785133 -0.002858704 0.0020065473
-0.0061163665 0.0041886326 0.0044351975 0.0032691448 -0.0010381818 -0.002161519 -0.0018838586 0.00088342355
-0.0010847134 0.0013079434 -0.0011178066 -0.0016377297 0.00027554663 -0.003019827 0.001293885 0.002315366
-0.0017918986 0.0003760322 -0.0039378707 0.0035150188 0.003610482 0.0024014178 -0.0016317684 -0.0013049797
-0.0012949299 0.0007160734 -0.001147506 0.00054936414 -0.00015487394 -0.0006908142 0.0010190648 -0.0022475407
0.0005535963 -0.00029553362 -0.0011069252 -0.00066213094 -0.0002660393 0.00025708557 0.00027804426 -0.00013437553
-0.0002806796 -0.00023060535 5.8730664e-05 0.000121243786 0.00027973152 -0.00019615937 0.00041187493 -3.2920412e-05
0.00013216963 -0.00026805964 0.0036382296 0.0017272584 -0.011288031 -0.0014417338 -0.005818476 0.0075397217
0.0076930304 0.0041396627 -0.0031999103 0.00092237967 -0.002047921 0.0017549512 -0.0017702339 0.00051388534
0.0045619695 0.0016983623 -0.0011645177 -0.007130396 -0.00027926752 0.0030617248 -0.0046577505 0.0012345597
00000000: 4555 a3ba 2db0 533b ad86 bb3a 84b7 30bb
00000010: 7d7a 033b 12f6 713b 1266 203b c22e 553a
00000020: 50d5 1b3b 8e56 823b fd48 ec37 98f4 083b
00000030: 8272 22bb f935 ae39 0379 473b 2645 373b
00000040: a18e 40ba ae57 67bb f11f e9ba 9e2d 323b
00000050: d785 f93b f671 f13a 0b70 513b 57da 1cbb
00000060: 4104 e9ba a27f 80bb e829 5d3b 9dc7 aeb8
00000070: 59c0 723a b265 10ba bd4f c03a 0ea5 353b
00000080: 6ee8 f2ba 1155 9e39 1d13 4339 c8ec 8f39
00000090: c376 9f38 7403 56b8 8db2 e439 3a98 0739
000000a0: eb94 3bb8 cbf3 76b9 0435 1cb9 ef9e edb9
000000b0: 2e44 9338 f3a0 1dba 3e62 4539 d873 25b9
000000c0: 0982 0f39 1fe4 8938 2bf2 85b9 c4c3 91b9
000000d0: 1935 3539 d1b3 9339 6104 9ab9 36e1 beba
000000e0: 102e 143b 1d04 d3ba 8781 8b3a 6aa2 28bb
000000f0: 9624 28bb 7370 feb8 7482 cab9 1bb3 a53a
00000100: c910 75ba 7d64 00ba d1bd a13a 61cf ffba
00000110: c4fe 9aba 9ab1 053b db12 9e39 c645 df39
00000120: 8ced 993a e867 893a 9564 41bb 3dd5 a1b9
00000130: 0e20 0abb 06a3 443b 4825 463b 6a15 e93a
00000140: 132c 99ba 49a1 0cb8 7bcc 1cba f94c 253a
00000150: 0abf d0ba 3344 85b7 a599 913a 043b 5739
00000160: 84ed e538 0773 03bb bdc3 ce39 9b56 d73a
00000170: 1f30 e2bb 6c76 abba 7e0d 8dbb bcfd 9c3b
00000180: f209 c33b 3a6d 963b 2f4a afba e535 ef3a
00000190: 507e 44ba 5e48 603b 4427 18bb 8217 d73a
000001a0: 3e4e cd39 6377 04bb 358e 5cba a937 28bb
000001b0: 0ffe 19ba 03f3 2dba a11a d43a 365b 96b9
000001c0: db88 efba 83fc 22bb 7ca9 89ba 89d8 ea39
000001d0: c762 91b9 47d2 c5b9 be73 b3ba 0b36 3cb9
000001e0: 37dd bf3a e589 b3ba c2c6 42bb 83df 283b
000001f0: 7726 db39 1445 f3ba d0a1 3cbc ef1a b1bb
00000200: 957a a23b 2e1e 13ba 07bd 8c3b 8c16 d3bb
00000210: e333 64bc ba03 123a fd74 3db8 7260 7e3b
00000220: bdee 15bb aefb 0a3a 28f9 203c 2a6b c9ba
00000230: eb64 463a 54c8 463b 4b36 e2bb 985d 9c3b
00000240: 75b7 1339 f5ca c139 1ba3 3339 be39 4c39
00000250: bcf2 1fba d6c2 9e39 23bd 9b39 a142 ef39
00000260: e6a8 14b9 b388 d6b8 84ba c1b9 9920 47b8
00000270: 20ff b2b7 0fac 3c38 e49b 8ab9 039d 91b9
00000280: 53df 8239 b9c4 36b8 8cc1 c7ba 7bb2 34b9
00000290: 0818 ebb9 5c83 3739 e8e3 9638 f93f 09b8
000002a0: 3b13 3dba 5fa2 e238 991c 3439 9c55 cc39
000002b0: 68dc c238 fc40 443a 140b 483a f5f3 9d39
000002c0: db36 6238 5a80 ceb9 4ee9 74ba 4906 dc39
000002d0: e785 5e37 ff89 2f3b 1859 3bbb 4780 033b
000002e0: cd6b c8bb cc40 893b 2255 913b 263f 563b
000002f0: 9a13 88ba 45a8 0dbb ceeb f6ba 8d95 673a
00000300: f12c 8eba 4c6f ab3a 5e83 92ba 17a9 d6ba
00000310: 3e77 9039 4ae8 45bb 9497 a93a 65bd 173b
00000320: 24de eaba 3026 c539 4109 81bb 3b5c 663b
00000330: d69d 6c3b 1b61 1d3b 10e1 d5ba da0b abba
00000340: a3ba a9ba dfb6 3b3a e967 96ba 3403 103a
00000350: a865 22b9 c217 35ba 2492 853a 7a4b 13bb
00000360: 381f 113a daf1 9ab9 3f16 91ba db92 2dba
00000370: 317b 8bb9 71c9 8639 78c6 9139 28e7 0cb9
00000380: 2e28 93b9 a7ce 71b9 9255 7638 4344 fe38
00000390: eea8 9239 21b0 4db9 ebf0 d739 0614 0ab8
000003a0: 0497 0a39 5b8a 8cb9 5d6f 6e3b 2d65 e23a
000003b0: 6ff1 38bc 8ff8 bcba eaa8 bebb c50f f73b
000003c0: d115 fc3b 02a6 873b 96b5 51bb dacb 713a
000003d0: 6a36 06bb 6406 e63a 3107 e8ba 43b6 063a
000003e0: 937c 953b 959b de3a bba2 98ba 19a6 e9bb
000003f0: a76a 92b9 38a7 483b 0ba0 98bb f3d0 a13a
